logs/my_logs/version_12/checkpoints/epoch=4999-step=5000.ckpt (torch, 40935 bytes, 33 tensors)

encoder.dense1.weight f4 [45, 28]
0	0x3c74aae9	0.014933326
1	0xbe4a5d8d	-0.1976225
2	0x3e6bc7bf	0.23025416
3	0x3ded2818	0.11579913
4	0x3d8a32b5	0.06747953
5	0x3eb264d1	0.34842542
6	0x3e640768	0.2226845
7	0xbd9d0d25	-0.07668523
8	0x3e97669e	0.29570478
9	0x3cef4dd0	0.029211909
10	0x3e0a6ec5	0.13518818
11	0x3d5513b1	0.052020732
12	0xbb349438	-0.0027554166
13	0xbcf01608	-0.02930738
14	0x3e263fc5	0.16235264
15	0x3dd3d0f2	0.103425875
16	0x3d653d35	0.055966575
17	0x3e0f1188	0.13971531
18	0x3e56f665	0.2099243
19	0xbe286c07	-0.16447459
20	0x3e835667	0.25651857
21	0x3eb0a4eb	0.34500822
22	0xbe1353cd	-0.14387436
23	0xbd69d520	-0.057088017
24	0x3e0bc377	0.13648783
25	0x3e6471e6	0.22309074
26	0x3c7e8a60	0.015535921
27	0x3e73877e	0.23782155
28	0x3e9ccbe2	0.306243
29	0x3e3a6442	0.18202308
30	0x3dca6023	0.09881618
31	0xbe0f36a7	-0.13985692
32	0xbc731ef2	-0.014838921
33	0x3e2017ff	0.15634154
34	0xbdf887d2	-0.12135281
35	0x3ec4895a	0.3838604
36	0xbbc9a7f2	-0.006154054
37	0xbd03ca76	-0.032175504
38	0x3cb15415	0.021646539
39	0xbe085e95	-0.1331733
40	0xbe1c28a4	-0.15249878
41	0xbd273ce4	-0.040829554
42	0x3d87d54b	0.06632479
43	0xba997542	-0.0011707919
44	0x3dfada16	0.12248628
45	0x39986289	0.00029065114
46	0x3cd4381c	0.025905661
47	0x3e42e9a6	0.19034442
48	0x3d52790f	0.05138498
49	0x3ca33552	0.019922886
50	0x3d88dcc5	0.066827334
51	0x3ebe8987	0.372143
52	0x3cce4e74	0.025183894
53	0x3c98263b	0.018572917
54	0xbcd6be53	-0.0262138
55	0x3dd6b6df	0.10484099
56	0x3dcbdde0	0.09954429
57	0x3e930aab	0.28719077
58	0xbbd91a8f	-0.0066254805
59	0x3d52f60a	0.051504172
60	0x3cad8f8b	0.02118661
61	0xbe425bb7	-0.18980299
62	0xbdb52e3d	-0.0884671
63	0x3d616758	0.055030197
64	0xbcb10a67	-0.021611406
65	0x3defcece	0.11709367
66	0x3ddddfc0	0.108336926
67	0xbdf76f66	-0.120817944
68	0x3cd90928	0.026493624
69	0xbdaab934	-0.08336106
70	0xbe0512f1	-0.12995507
71	0x3dd7ba39	0.10533566
72	0x3dbbf7e1	0.091781385
73	0xbcbe134d	-0.023202563
74	0x3dfad79b	0.12248155
75	0xbe6a0073	-0.22851734
76	0xbe18036c	-0.14845055
77	0x3cdff80d	0.02733996
78	0x3e40d152	0.1882985
79	0x3e522ec1	0.20525648
80	0xbc58bf1d	-0.013229159
81	0xbe3f1baf	-0.18662904
82	0xbd83e183	-0.06439497
83	0x3ddb1dfa	0.10699077
84	0xbe69a88f	-0.22818206
85	0x3c98926e	0.01862451
86	0x3dbf06b4	0.093274504
87	0x3dcf9192	0.10135187
88	0x3e456452	0.1927655
89	0x3d05a692	0.032629557
90	0x3e20fc56	0.15721259
91	0x3e828ce7	0.25498125
92	0x3dce8c24	0.100853235
93	0xbe3e9782	-0.18612483
94	0xbdbd2477	-0.09235471
95	0x3e0a2dd4	0.13494045
96	0xbdb2dbd8	-0.08733338
97	0xbe0a2feb	-0.13494842
98	0x3e8f191e	0.2794885
99	0xbdb7d56c	-0.08976254
100	0x3e3630f5	0.17792113
101	0x3d609f71	0.054839555
102	0x3ddf2743	0.108961605
103	0xbde27557	-0.11057537
104	0xbd5694fa	-0.05238817
105	0x3d31d241	0.043413404
106	0xbd673453	-0.056446385
107	0x3e010280	0.1259861
108	0x3da55b57	0.08074062
109	0x3e3a9b21	0.1822324
110	0xbe807167	-0.2508652
111	0x3e834ed0	0.25646067
112	0xbd88114f	-0.06643926
113	0xbd9de2d0	-0.07709277
114	0xbdfe8e19	-0.12429447
115	0xbc615d33	-0.013755131
116	0xbe00e3bb	-0.12586872
117	0xbe01f404	-0.12690741
118	0xbe479ffa	-0.1949462
119	0x3e5483a3	0.2075334
120	0xbc831d29	-0.016005116
121	0xbe167a26	-0.14695033
122	0xbe66c61d	-0.22536512
123	0xbe5d7374	-0.21626073
124	0xbd3cb1b6	-0.046067916
125	0xbdded278	-0.108799875
126	0xbe3fdfa7	-0.1873766
127	0xbe4089f7	-0.1880263
128	0xbd9532e8	-0.072851
129	0xbbbf2963	-0.005833791
130	0xbe3ea59f	-0.18617867
131	0xbe10911f	-0.1411786
132	0xbe22fb28	-0.15916121
133	0xbd897dda	-0.067134574
134	0x3db84dcd	0.08999214
135	0xbca28f8f	-0.019843845
136	0xbdb393b2	-0.08768405
137	0xbd474e20	-0.04865849
138	0xbe037896	-0.12838969
139	0xbdadc450	-0.08484709
140	0xbbede9d8	-0.0072605424
141	0x3c60d18a	0.013721833
142	0x3d459bc4	0.048244253
143	0xbdb71138	-0.08938831
144	0xbd23c7f8	-0.039985627
145	0x3e0088f7	0.12552248
146	0x3d67b9df	0.056573745
147	0x3d8fefc6	0.07028155
148	0x3e089dad	0.13341399
149	0xbcb81c14	-0.022474326
150	0x3df456cf	0.1193062
151	0x3e4d01d1	0.20020224
152	0x3d806b8b	0.06270512
153	0xbda24f65	-0.079252996
154	0x3da88966	0.08229332
155	0x3e4691d6	0.1939157
156	0xbcb6b19e	-0.022301491
157	0x3dcef1e9	0.101047345
158	0x3bfe37ac	0.0077581014
159	0x3e6c996c	0.23105401
160	0xbdcea570	-0.100901484
161	0x3d585c37	0.052822318
162	0xbdb8ab77	-0.09017079
163	0xbd05c2b4	-0.032656386
164	0x3e13c286	0.14429674
165	0x3d6be3f2	0.057590432
166	0x3d3c380e	0.045951895
167	0xbd0b1385	-0.033954162
168	0x3db75841	0.0895238
169	0x3c96df30	0.018416971
170	0x3d2a757c	0.041615948
171	0x3c887ba0	0.016660511
172	0x3d76a60c	0.06021695
173	0x3e09471f	0.13406037
174	0xbe477fb0	-0.19482303
175	0x3dfa2a14	0.12215057
176	0x3e0bd10c	0.13653964
177	0xbe0a7e08	-0.1352464
178	0xbafae592	-0.0019141904
179	0x3e1f5dc9	0.1556312
180	0xbe571b68	-0.21006548
181	0xbc75f02e	-0.015010877
182	0xbdb1476a	-0.08656199
183	0x3d8193ad	0.06326995
184	0xbd96340c	-0.07334146
185	0x3d83593c	0.064135045
186	0x3da47f00	0.08032036
187	0x3df09a48	0.11748177
188	0xbe2b352d	-0.16719504
189	0xbd7a78a5	-0.06115021
190	0x3d292bc1	0.041301493
191	0xbdb7b351	-0.08969749
192	0xbdfe047b	-0.12403198
193	0xbe07dd5b	-0.13268034
194	0xbd966e61	-0.07345272
195	0xbc9a782f	-0.018856136
196	0xbdd5fe0d	-0.10448847
197	0xbd7f3399	-0.062305067
198	0xbcb3143d	-0.021860236
199	0xbd97968f	-0.07401764
200	0x3d667fe5	0.056274313
201	0xbc998154	-0.018738426
202	0xbe8043df	-0.25051782
203	0xbdcc6282	-0.099797264
204	0xbb29fdea	-0.0025938698
205	0xbe79dd59	-0.24400844
206	0xbe7cf7da	-0.24703923
207	0xbd8d354b	-0.068949305
208	0xbe3c2a8c	-0.18375605
209	0xbe4d3ba6	-0.20042285
210	0xbc66345d	-0.01405057
211	0x3d557a7e	0.05211877
212	0xbdb5daf6	-0.08879654
213	0xbe254a16	-0.16141543
214	0x3cd8e7cb	0.026477715
215	0xbd0d575e	-0.034507148
216	0xbdc5a5bb	-0.09650751
217	0xbe573a22	-0.2101827
218	0x3d2ae9cb	0.04172687
219	0xbd2350a5	-0.03987183
220	0xbd4a5bdc	-0.04940401
221	0xbe3cd795	-0.18441613
222	0x3d54fa55	0.051996548
223	0xbc5b8501	-0.01339841
224	0xbdb3a127	-0.08770972
225	0x3cc4e30b	0.024034044
226	0xbe131fc9	-0.14367594
227	0x3d0bc7e2	0.03412617
228	0x3dc58637	0.0964474
229	0x3c3c838f	0.011505975
230	0x3d690200	0.056886673
231	0xbe071338	-0.13190925
232	0x3e2a9e22	0.16661885
233	0x3d084d54	0.03327687
234	0x3cbbca6f	0.022923676
235	0xbe051e9a	-0.12999955
236	0xbd2d9150	-0.04237491
237	0x3d7db775	0.061942536
238	0x3ca76ea4	0.0204385
239	0x3e33d299	0.17560805
240	0xbd5a4753	-0.053290676
241	0x3e329b5e	0.1744208
242	0xbd9635af	-0.07334458
243	0x3e3f214b	0.18665044
244	0x3ca51a34	0.020154096
245	0x3d0cbd0a	0.03435997
246	0x3e126614	0.14296752
247	0xbe696a02	-0.22794345
248	0xbd2e4b4b	-0.042552274
249	0xbdb92f8b	-0.09042271
250	0x3e5b8e5e	0.21441028
251	0xbd00395d	-0.031304706
252	0x3dbf04d0	0.0932709
253	0xbe14e51b	-0.14540522
254	0xbe424005	-0.18969734
255	0x3d8b8ed8	0.06814355

encoder.dense1.bias f4 [45]
0	0x3e8b9463	0.27261648
1	0x3cb949a3	0.02261812
2	0x3eb739c3	0.35786256
3	0x3f1d33dd	0.6140726
4	0xbe5be160	-0.21472692
5	0xbe043b22	-0.12913182
6	0x3e400a5e	0.18753955
7	0x3d91ea3b	0.07124754
8	0xbd6706a3	-0.056402814
9	0x3e2f3c3c	0.17112821
10	0x3e1f997d	0.15585895
11	0xbe92f789	-0.2870448
12	0x3e8504bb	0.25980172
13	0xbe692b65	-0.2277046
14	0xbe13e58d	-0.14443035
15	0x3edd46a4	0.43217957
16	0x3e6d1dc3	0.23155884
17	0x3e05478f	0.13015579
18	0xbe86f1e3	-0.2635642
19	0xbea9b652	-0.33146912
20	0xbdb56f53	-0.08859124
21	0x3da42d38	0.08016437
22	0xbdd788b6	-0.105241224
23	0xbe942678	-0.289356
24	0x3d124845	0.035713453
25	0x3c0f048b	0.0087291105
26	0xbdcf1600	-0.10111618
27	0xbdd17ad8	-0.10228509
28	0x3e862be5	0.26205364
29	0x3cb3f6c3	0.021968251
30	0x3cf362e2	0.029710237
31	0xbbfb9b1c	-0.0076784026
32	0xbcb277d3	-0.021785652
33	0xbeb29d5c	-0.3488568
34	0x3ec22264	0.37916863
35	0x3e90c45d	0.28274813
36	0x3d690317	0.056887712
37	0xbe0a751d	-0.13521238
38	0xbeb8505e	-0.35998815
39	0x3ee3267b	0.44365296
40	0x3ef632b4	0.48085558
41	0xbe4136d8	-0.18868577
42	0xbef68246	-0.48146266
43	0x3e84ed05	0.25962082
44	0xbe5ff402	-0.21870425

encoder.dense3m.weight f4 [3, 45]
0	0x3df34902	0.118791595
1	0x3ccce6fb	0.025012484
2	0x3e3ad93e	0.18246934
3	0x3ec4a308	0.38405633
4	0xbd85f861	-0.06541515
5	0xbe1d42a4	-0.15357453
6	0x3e49043a	0.19630519
7	0xbe3211ed	-0.1738965
8	0xbe15cefd	-0.14629741
9	0xbd6cb564	-0.057790175
10	0xbe43edcb	-0.1913368
11	0xbe5632f6	-0.20917878
12	0x3d9b85ae	0.07593857
13	0xbeb8437a	-0.3598898
14	0xbd2aa9dd	-0.0416659
15	0x3d9fd6d2	0.078046456
16	0x3d18b53a	0.037282206
17	0x3e82c4ef	0.25540873
18	0xbe1c6e88	-0.1527654
19	0xbda5b020	-0.08090234
20	0xbe0c8731	-0.13723446
21	0x3e893dfa	0.26805097
22	0xbdedd0a7	-0.11612063
23	0xbe7806cf	-0.24221347
24	0xbe05c250	-0.13062406
25	0x3e447ea6	0.19188938
26	0xbe2d0547	-0.16896544
27	0x3d2f4336	0.042788707
28	0x3d42499b	0.047433477
29	0xbe8035fd	-0.2504119
30	0xbdf92006	-0.12164311
31	0xbd24fb0b	-0.040278476
32	0x3da3ca32	0.0799755
33	0xbecc593a	-0.39911824
34	0x3eab3374	0.33437693
35	0x3eb99456	0.36245984
36	0xbd6451b1	-0.05574197
37	0xbde7a6e9	-0.113111325
38	0xbe6f077e	-0.23342702
39	0xbc612461	-0.013741584
40	0x3d025645	0.031820554
41	0xbd690e00	-0.056898117
42	0xbe39dab0	-0.18149829
43	0xbc93a5e5	-0.01802344
44	0x3b6e17f8	0.0036330204
45	0x3eb22945	0.3479711
46	0xbe50a43d	-0.20375152
47	0xbd4469ca	-0.04795245
48	0x3dc213fc	0.09476468
49	0xbe4635a9	-0.19356407
50	0xbc1b016e	-0.00946079
51	0xbd320dd6	-0.043470226
52	0x3d8f8825	0.070083894
53	0x3e174174	0.14771062
54	0x3e0508fc	0.12991709
55	0x3e12e471	0.14344956
56	0xbe8f9645	-0.28044334
57	0xbcae2503	-0.021257883
58	0xbedbbbed	-0.42916813
59	0x3d0db627	0.034597542
60	0x3edd47fb	0.4321898
61	0xbd805732	-0.06266631
62	0xbc18586e	-0.009298427
63	0xbd5d1edb	-0.053984504
64	0xbe10b7a4	-0.14132553
65	0x3e1f8543	0.15578179
66	0xbe2ab0a3	-0.16668944
67	0xbde54d68	-0.11196405
68	0xbd3f8f70	-0.046767652
69	0x3cb2017f	0.021729229
70	0xbdd11d82	-0.10210706
71	0x3e1257be	0.14291283
72	0x3c54202d	0.012947124
73	0x3e76da27	0.24106656
74	0xbd939523	-0.0720618
75	0x3e3a5531	0.1819656
76	0xbde59af2	-0.11211194
77	0xbcc2dcef	-0.02378699
78	0xbe37c51c	-0.17946285
79	0x3d56e1f5	0.052461583
80	0x3e2d3f2a	0.16918626
81	0x3bb23f27	0.0054396573
82	0x3b9a1535	0.004702235
83	0x3ce3f66a	0.02782746
84	0x3d8d87a0	0.06910634
85	0x3ec2248a	0.37918502
86	0xbddb852c	-0.1071876
87	0xbed8303e	-0.42224306
88	0x3dd708bb	0.10499712
89	0xbe870489	-0.26370648
90	0xbe676eb3	-0.22600822
91	0x3db41024	0.08792141
92	0x3e8d4168	0.27588964
93	0xbdbb9959	-0.09160108
94	0xbe536cb9	-0.20646943
95	0xbd5f7cad	-0.05456226
96	0x3e0aed00	0.13566971
97	0xbd3f1166	-0.04664745
98	0xbd4a75c9	-0.049428735
99	0x3e9e42af	0.3091025
100	0x3e3e99f3	0.18613414
101	0xbe726cd3	-0.23674326
102	0x3e6a6f85	0.22894104
103	0x3e062ce0	0.13103056
104	0xbdb3bce1	-0.0877626
105	0x3e9fa1f7	0.31178257
106	0x3e80307b	0.25036988
107	0xbcdefd50	-0.027220398
108	0xbe134d92	-0.1438506
109	0xbe846a15	-0.25862184
110	0xbcdb3e72	-0.026763175
111	0xbda35ced	-0.079767086
112	0xbd4b66f0	-0.049658716
113	0xbe8643b7	-0.26223537
114	0x3dce67ee	0.10078417
115	0xbdf8d379	-0.1214971
116	0xbc88db20	-0.01670605
117	0xbe5a71c5	-0.21332462
118	0x3e599f44	0.21252161
119	0x3d3d35c0	0.046193838
120	0xbcacd67f	-0.021098373
121	0xbd621895	-0.055199225
122	0xbded1a4f	-0.115772836
123	0xbe93733b	-0.2879885
124	0x3ea36740	0.3191471
125	0x3dfacc4c	0.12245998
126	0xbe38ebeb	-0.18058746
127	0xbdba14d3	-0.09086003
128	0xbeca00d1	-0.39453748
129	0x3ecf873b	0.4053286
130	0x3db244f6	0.087045595
131	0xbe9c22b5	-0.3049523
132	0xbe8049b8	-0.25056243
133	0x3ec3db27	0.38253137
134	0xbe9ced9c	-0.30650032

encoder.dense3m.bias f4 [3]
0	0x3e029805	0.12753303
1	0x3bea2b94	0.007146308
2	0x3e457985	0.19284637

encoder.dense3s.weight f4 [3, 45]
0	0x3cf89617	0.030345006
1	0xbcad3baa	-0.021146614
2	0x3d221511	0.03957087
3	0xbe02e89d	-0.12784047
4	0x3e34cda2	0.17656568
5	0x3d424052	0.047424622
6	0x3da22e0a	0.079189375
7	0x3daf5310	0.08560765
8	0x3c436e98	0.011928223
9	0x3d89a094	0.06720081
10	0xbd5d2cc5	-0.053997774
11	0x3cc49595	0.023997108
12	0xbe01ee4b	-0.12688558
13	0x3ddc3897	0.10752981
14	0x3dc8ce95	0.098050274
15	0xbd877d82	-0.066157356
16	0x3cbeb2ef	0.023278682
17	0x3ea6e838	0.32599044
18	0x3e06303b	0.13104336
19	0xbd6940ac	-0.05694644
20	0x3deddb17	0.11614054
21	0xbdfdde05	-0.123958625
22	0x3dcf4c69	0.10121996
23	0x3d91b6f1	0.071149714
24	0x3d4c6e6e	0.04991
25	0x3cb458b6	0.022014957
26	0x3e03bab6	0.12864193
27	0xbd346517	-0.04404172
28	0x3cb3bb3a	0.021939863
29	0x3e1fc704	0.15603262
30	0xbe09102f	-0.1338508
31	0xbd2bcd81	-0.04194403
32	0xbdb6e3cb	-0.08930167
33	0x3c2ecdaa	0.010669151
34	0x3da9a254	0.08282915
35	0xbe5a91ee	-0.2134473
36	0x3df8209e	0.12115596
37	0x3e0d651d	0.13808103
38	0x3e02126b	0.12702338
39	0xbb499a0d	-0.0030761987
40	0xbdf3a295	-0.118962444
41	0x3da71742	0.08158733
42	0x3bad4740	0.0052880347
43	0xbd9692c8	-0.07352215
44	0x3dce00a8	0.10058719
45	0xbd91c905	-0.071184196
46	0x3db868e1	0.09004379
47	0x3d7d7202	0.061876304
48	0xbdb50cb9	-0.08840317
49	0xbd0de39e	-0.0346409
50	0x3df009bb	0.11720606
51	0xbde69866	-0.112595364
52	0x3c68e09d	0.014213708
53	0xbd115290	-0.03547913
54	0xb9d94a58	-0.00041444856
55	0xbd3875c8	-0.0450342
56	0x3d74cd18	0.059765905
57	0x3c88c342	0.016694669
58	0xbd3d7ac4	-0.046259657
59	0x3ee429dd	0.4456319
60	0xbcc159d9	-0.023602413
61	0xbd0c00b1	-0.034180347
62	0xbc2c25b0	-0.010507032
63	0x3e3280cb	0.17431943
64	0x3dab6de7	0.083705716
65	0x3bdf4af1	0.0068143536
66	0xba90b1d0	-0.001103932
67	0xbd48315f	-0.04887521
68	0x3d0b954d	0.03407793
69	0xbd4cbe88	-0.049986392
70	0x3e165aca	0.14683071
71	0x3dc742e7	0.097295575
72	0xba32a538	-0.00068147806
73	0xbd9f77bf	-0.07786512
74	0x3ab93a49	0.001413175
75	0x3cd2750f	0.025690584
76	0x3d94bcd2	0.07262577
77	0xbdc5c8fa	-0.09657474
78	0xbcce89ea	-0.025212247
79	0xbcd63cef	-0.026152102
80	0xbcaa2cc0	-0.020773292
81	0xbcf2fc4f	-0.029661326
82	0x3cb4f659	0.022090124
83	0x3d81e55d	0.06342576
84	0x3c17d8e0	0.009268016
85	0xbd2c0839	-0.04200003
86	0x3d84cc41	0.06484271
87	0x3df0d2da	0.11758967
88	0xbddb91d7	-0.10721176
89	0x3d084d79	0.03327701
90	0x3b08021b	0.0020753208
91	0x3dbbf360	0.091772795
92	0xbe05ec79	-0.13078488
93	0xbcd0f11d	-0.025505597
94	0x3e293c96	0.16527018
95	0xbb36d693	-0.0027898892
96	0xbe39fce0	-0.1816287
97	0x3d9337d3	0.07188382
98	0xbb3a18b1	-0.0028396065
99	0xbdab101f	-0.08352684
100	0x3da67719	0.08128185
101	0x3d8ce67d	0.068799
102	0xbd7a47ab	-0.061103504
103	0xbd51c3dc	-0.051212177
104	0x3d2cf774	0.042228177
105	0x3d1089ea	0.035287775
106	0xbdddbc21	-0.10826898
107	0x3d14c30c	0.036318824
108	0xbce6084d	-0.02808013
109	0x3c1dfbec	0.009642582
110	0x3c0be491	0.008538381
111	0xbd0da1e6	-0.034578227
112	0xbc44711e	-0.01198986
113	0x3e8b99c6	0.27265757
114	0xbdcead36	-0.10091631
115	0x3d02dbf2	0.031948037
116	0x3ca5ed70	0.02025482
117	0x3d697b5c	0.05700241
118	0xbd630fa9	-0.055434857
119	0xbd330da9	-0.0437142
120	0xbdb2b55c	-0.08725998
121	0xbd975ad7	-0.07390373
122	0xbd2037d9	-0.03911576
123	0x3d3abbdd	0.045589317
124	0x3cf1e777	0.029529316
125	0xbdc58816	-0.09645097
126	0x3dd3feb9	0.10351319
127	0x3c82e9cf	0.01598063
128	0x3e306e3e	0.17229554
129	0x3e3fe891	0.18741061
130	0xbdcd0bf9	-0.10012049
131	0x3ec04b77	0.37557575
132	0x3dd31848	0.10307366
133	0xbe603f47	-0.21899138
134	0x3b275aaf	0.002553623

encoder.dense3s.bias f4 [3]
0	0xbd11e0f3	-0.03561492
1	0xbc1989cc	-0.009371232
2	0xba36fe08	-0.00069806026

decoder.linear.bias f4 [28]
0	0x3f448305	0.7676242
1	0x3e0ef5bc	0.13960928
2	0xbf02dadd	-0.5111521
3	0x3f7afb85	0.9804004
4	0x3f80f1d1	1.0073797
5	0xbf9138ad	-1.1345421
6	0xbf1cf019	-0.6130386
7	0x3f9a13c7	1.2037286
8	0x3f14d437	0.58136314
9	0xbfb671f5	-1.4253527
10	0xbe2e7343	-0.17036156
11	0x3fb8e39d	1.4444462
12	0xbf0c5586	-0.54818
13	0x3e300251	0.17188384
14	0xbe980d32	-0.29697567
15	0x3e846c5f	0.2586393
16	0xbe2be59d	-0.1678681
17	0x3f1b6346	0.60698354
18	0x3ece5a53	0.40303287
19	0xbd06652e	-0.032811336
20	0xbf0203da	-0.50787127
21	0xbf622a76	-0.8834604
22	0x3e84ea2d	0.25959912
23	0xbf4598d7	-0.7718634
24	0xbdf48648	-0.119396746
25	0xbf7b037d	-0.980522
26	0x3f7cfdc9	0.98824745
27	0xbfbd3012	-1.4780295

decoder.linear.weight_orig f4 [28, 3]
0	0xbf742f7c	-0.95384955
1	0xbf959335	-1.1685549
2	0x3ea3acb6	0.31967705
3	0x3ee21d74	0.44163096
4	0xbfadb05d	-1.3569447
5	0xbd1d4450	-0.038395226
6	0xbf041601	-0.51596075
7	0x3ebbc6f6	0.36675233
8	0xbfba2a6c	-1.4544196
9	0x3eca1cca	0.3947509
10	0xbee7ee34	-0.45298922
11	0xbf64dbf4	-0.8939812
12	0x3ee124cc	0.43973386
13	0x3f0fa678	0.56113386
14	0xbf004d8f	-0.50118345
15	0x3e876a46	0.26448268
16	0xbe0b4790	-0.13601518
17	0xbfa92c39	-1.3216621
18	0xbf86a4b0	-1.0519009
19	0x3f0c4212	0.54788315
20	0xbfc2e994	-1.5227532
21	0xbf069bb8	-0.5258136
22	0xbfa6e866	-1.3039672
23	0x3f03bafa	0.5145718
24	0x3f04d102	0.5188142
25	0xbda812d8	-0.08206719
26	0xbfa525d6	-1.2902172
27	0xbfcc46e6	-1.5959136
28	0x3e07cef8	0.13262546
29	0xbec96a2e	-0.3933882
30	0xbfb3837c	-1.4024501
31	0x3e122b94	0.14274436
32	0xbec1d858	-0.3786037
33	0xbf2503fe	-0.64459217
34	0x3f06b906	0.52626073
35	0xbf9c5b64	-1.221539
36	0xbfef6191	-1.870165
37	0xbde355b4	-0.11100331
38	0xbef75ecc	-0.48314512
39	0xbf959baf	-1.1688136
40	0x3e32a844	0.17447
41	0xbec84d68	-0.39121556
42	0xbf073b2b	-0.5282466
43	0x3f08a5f2	0.5337821
44	0xbfdfc7e8	-1.7482882
45	0xbfd8a0c5	-1.6924063
46	0xbe2a4a1c	-0.16629833
47	0xbfaf9984	-1.3718724
48	0x3ee42b0c	0.44564092
49	0xbfa0e264	-1.2569089
50	0xbfcc92b9	-1.5982276
51	0xbeaf4b07	-0.3423693
52	0xbefd71c6	-0.49500865
53	0xbf981938	-1.1882696
54	0x3f0b2b38	0.5436282
55	0x3e127d0c	0.14305514
56	0xbfad5f0f	-1.3544635
57	0xbfbe4225	-1.4863936
58	0xbf00fa82	-0.50382245
59	0xbf17516b	-0.5910861
60	0xbf9da803	-1.2316898
61	0x3ea794ca	0.32730705
62	0xbfad21b8	-1.3525915
63	0xbf0425e8	-0.5162034
64	0xbe80de23	-0.25169477
65	0xbf9b4821	-1.2131387
66	0x3e03d564	0.12874371
67	0xbf82f6fe	-1.0231626
68	0x3e9dc1a4	0.308118
69	0x3edecd98	0.4351623
70	0xbfcdfb58	-1.6092329
71	0x3f0a9870	0.5413885
72	0xbf827b73	-1.0193924
73	0x3ec735a8	0.38908124
74	0x3df89888	0.12138468
75	0x3e7a843c	0.24464506
76	0x3e66a33c	0.22523206
77	0xbfe71be7	-1.805539
78	0xbfd5c25a	-1.6699936
79	0xbc5c9300	-0.013462782
80	0xbebe28d6	-0.3714053
81	0x3efed29c	0.49770057
82	0xba962800	-0.0011456013
83	0xbf58abf9	-0.8463741

decoder.linear.weight_mask f4 [28, 3]
0	0x3f800000	1.0
1	0x3f800000	1.0
2	0x00000000	0.0
3	0x00000000	0.0
4	0x3f800000	1.0
5	0x00000000	0.0
6	0x3f800000	1.0
7	0x00000000	0.0
8	0x3f800000	1.0
9	0x00000000	0.0
10	0x00000000	0.0
11	0x3f800000	1.0
12	0x00000000	0.0
13	0x00000000	0.0
14	0x3f800000	1.0
15	0x00000000	0.0
16	0x00000000	0.0
17	0x3f800000	1.0
18	0x3f800000	1.0
19	0x00000000	0.0
20	0x3f800000	1.0
21	0x00000000	0.0
22	0x3f800000	1.0
23	0x00000000	0.0
24	0x00000000	0.0
25	0x00000000	0.0
26	0x3f800000	1.0
27	0x3f800000	1.0
28	0x00000000	0.0
29	0x00000000	0.0
30	0x3f800000	1.0
31	0x00000000	0.0
32	0x3f800000	1.0
33	0x3f800000	1.0
34	0x00000000	0.0
35	0x3f800000	1.0
36	0x3f800000	1.0
37	0x00000000	0.0
38	0x00000000	0.0
39	0x3f800000	1.0
40	0x00000000	0.0
41	0x00000000	0.0
42	0x00000000	0.0
43	0x00000000	0.0
44	0x3f800000	1.0
45	0x3f800000	1.0
46	0x00000000	0.0
47	0x3f800000	1.0
48	0x00000000	0.0
49	0x3f800000	1.0
50	0x3f800000	1.0
51	0x00000000	0.0
52	0x00000000	0.0
53	0x3f800000	1.0
54	0x00000000	0.0
55	0x00000000	0.0
56	0x3f800000	1.0
57	0x3f800000	1.0
58	0x00000000	0.0
59	0x3f800000	1.0
60	0x3f800000	1.0
61	0x00000000	0.0
62	0x3f800000	1.0
63	0x00000000	0.0
64	0x00000000	0.0
65	0x3f800000	1.0
66	0x00000000	0.0
67	0x3f800000	1.0
68	0x00000000	0.0
69	0x00000000	0.0
70	0x3f800000	1.0
71	0x00000000	0.0
72	0x3f800000	1.0
73	0x00000000	0.0
74	0x00000000	0.0
75	0x00000000	0.0
76	0x00000000	0.0
77	0x3f800000	1.0
78	0x3f800000	1.0
79	0x00000000	0.0
80	0x00000000	0.0
81	0x00000000	0.0
82	0x00000000	0.0
83	0x3f800000	1.0

exp_avg f4 [45, 28]
0	0x3b2e1e4f	0.0026568358
1	0x3b1f4874	0.002430466
2	0x3a935a24	0.0011242074
3	0x3b4649ae	0.003025632
4	0x3b41f848	0.002959745
5	0x3ab251e5	0.0013604729
6	0x3b103c4b	0.0022008594
7	0x3b2a1b72	0.00259563
8	0x3b014808	0.0019726772
9	0x3abd8da4	0.0014461768
10	0x3aef2dc4	0.0018247892
11	0x3b86e7f5	0.004117007
12	0x3ae5dc9c	0.001753706
13	0x3b2c438e	0.0026285383
14	0x3b3a5a63	0.0028435222
15	0x3b2629a6	0.0025354414
16	0x3b152368	0.00227567
17	0x3b0c25be	0.00213848
18	0x3acf4bc0	0.0015815422
19	0x3b1600d1	0.002288867
20	0x3acee764	0.0015785513
21	0x3ac5bc8f	0.0015086102
22	0x3b0634d7	0.0020478272
23	0x3b1bc939	0.002377106
24	0x3b05d3b8	0.0020420384
25	0x3adda67f	0.0016910582
26	0x3b30a728	0.0026955102
27	0x3aa05f15	0.0012235368
28	0xba969651	-0.001148889
29	0xba5e86f0	-0.0008488735
30	0xb947ebef	-0.00019066011
31	0xba6ea3f8	-0.0009103413
32	0xba8c9e8a	-0.0010728401
33	0xba293384	-0.0006454515
34	0xba3957ec	-0.00070702913
35	0xba735e94	-0.00092838076
36	0xba1ff720	-0.0006102193
37	0xba061d62	-0.0005116073
38	0xba30768e	-0.0006731533
39	0xbac3ef3b	-0.0014948616
40	0xba36b983	-0.00069703924
41	0xbaa86dcd	-0.0012850106
42	0xba89b6ce	-0.001050675
43	0xba89a2d7	-0.00105008
44	0xba29aea8	-0.0006472864
45	0xba457d13	-0.0007533591
46	0xb9c3f29d	-0.0003737406
47	0xba432d18	-0.0007445379
48	0xba27c54e	-0.0006399945
49	0xba12f427	-0.00056058395
50	0xba67dc71	-0.0008844799
51	0xba6ca52e	-0.0009027299
52	0xba66919a	-0.00087955
53	0xb9f8a585	-0.00047425568
54	0xba8beb83	-0.0010675046
55	0xba13343b	-0.0005615388
56	0xbb0e9fbf	-0.0021762697
57	0xba936d24	-0.0011247736
58	0xb9cc2805	-0.0003893973
59	0xba27223c	-0.0006375646
60	0xbac05a3e	-0.0014675332
61	0xba993d1a	-0.0011691183
62	0xb9f573c0	-0.00046816282
63	0xbaafdc24	-0.0013417047
64	0x395be78e	0.00020971728
65	0xbac849b2	-0.0015280752
66	0xbb04117c	-0.0020152023
67	0xbaa478b6	-0.0012548182
68	0xbae16209	-0.0017195354
69	0xbae37ddd	-0.0017356236
70	0xbae4255e	-0.0017406156
71	0xbb33bc35	-0.0027425413
72	0xb96c93ef	-0.00022561823
73	0xb8809220	-6.1307335e-05
74	0xbac07b96	-0.0014685269
75	0xbaa5eaa2	-0.0012658427
76	0xbadff02a	-0.0017085124
77	0xb9aa72a2	-0.00032510335
78	0xbaf7a5cc	-0.0018894016
79	0xbae2d860	-0.0017306916
80	0xba170960	-0.000576159
81	0x3a2db26e	0.00066260144
82	0xbab218f3	-0.0013587758
83	0xb9a64bfc	-0.000317186
84	0x3ac184b3	0.0014764279
85	0x3ae7e42c	0.0017691902
86	0x3a9f263a	0.001214213
87	0x3b1d04bc	0.002395912
88	0x3b1a296d	0.0023523227
89	0x3a2c8e84	0.0006582516
90	0x3af3f160	0.0018611364
91	0x3af717ae	0.0018851662
92	0x3b155271	0.0022784735
93	0x38a3a0f2	7.802424e-05
94	0x3a6f826d	0.00091365614
95	0x3b693b25	0.0035588231
96	0x3a99dbf9	0.0011738531
97	0x3ab901fb	0.001411497
98	0x3adf40f8	0.0017032912
99	0x3a80a52a	0.0009814848
100	0x3b02d144	0.0019961158
101	0x3b0362f8	0.0020048004
102	0x3a7624ef	0.0009389659
103	0x3aa4a76d	0.0012562104
104	0x3921766a	0.00015398269
105	0x3a3f75dd	0.0007303635
106	0x3a062043	0.00051165017
107	0x3a845be6	0.0010098189
108	0x3b0f3ecf	0.0021857505
109	0x3b1c44b0	0.0023844652
110	0x3b06c989	0.0020566902
111	0x3a6d90ea	0.00090624264
112	0xb89240c2	-6.9738846e-05
113	0xb9bb1a58	-0.00035687047
114	0xb9505221	-0.00019867021
115	0xb8652e40	-5.464093e-05
116	0xb9e417b4	-0.0004350521
117	0x38d24f69	0.000100283716
118	0x3809c2f4	3.284491e-05
119	0xb975f3ce	-0.00023455845
120	0xb9a15234	-0.0003076956
121	0x38ee0305	0.00011349287
122	0xb80f1bf8	-3.4119905e-05
123	0xb9a7e19a	-0.00032020808
124	0x3777d1fc	1.4771238e-05
125	0x3961f40a	0.00021548584
126	0x399afb47	0.00029560385
127	0x39b734e5	0.0003494389
128	0xb89dea1f	-7.529952e-05
129	0xb9460178	-0.00018883299
130	0x383a56ef	4.442682e-05
131	0xb94900cb	-0.00019169149
132	0x3932d1fc	0.00017053628
133	0x38130759	3.5054374e-05
134	0x3995242f	0.00028446454
135	0x38412a1e	4.605401e-05
136	0xb9b76320	-0.00034978334
137	0xb9cb7901	-0.00038809332
138	0xb9309d8c	-0.00016843359
139	0x392e5034	0.00016623811
140	0xb78f0ce0	-1.7052924e-05
141	0xb9835239	-0.00025047528
142	0xb9b26385	-0.00034024953
143	0xba011099	-0.0004923433
144	0xb9510b4c	-0.00019936002
145	0xb9971a04	-0.00028820348
146	0xb9d7a949	-0.00041134123
147	0xb9955a73	-0.00028486885
148	0xba8007e5	-0.0009767978
149	0x39c66842	0.0003784318
150	0x398ed88e	0.00027245696
151	0xba605da8	-0.0008558878
152	0xb9374310	-0.00017477223
153	0xb89516b8	-7.109105e-05
154	0xb78b94f6	-1.6639457e-05
155	0x398782e2	0.00025846722
156	0xba214355	-0.0006151696
157	0xba207c74	-0.00061220606
158	0x38a03000	7.638335e-05
159	0xb881e7c8	-6.194372e-05
160	0x39573989	0.00020525431
161	0xb94012ad	-0.00018317504
162	0x38b7ac9c	8.758271e-05
163	0x39cfe101	0.00039649758
164	0xba0e9918	-0.0005439683
165	0xba90267f	-0.0010997801
166	0xb95ddd32	-0.00021158604
167	0xb8f87acb	-0.000118484335
168	0xbaa0095a	-0.0012209818
169	0xba696e1e	-0.00089046534
170	0xba02fd4c	-0.00049968506
171	0xb9fa9af0	-0.00047799153
172	0xba745ea0	-0.00093219616
173	0xb9d8d3be	-0.0004135649
174	0xb959f2f8	-0.00020785246
175	0xba76d78c	-0.0009416274
176	0x391ce359	0.00014962013
177	0xbac0768a	-0.0014683765
178	0xbad8c6b3	-0.0016538709
179	0xba1ca822	-0.00059759815
180	0xba861286	-0.0010228909
181	0xba6d87e2	-0.00090610806
182	0xba44390c	-0.0007485307
183	0xbaf5ceaa	-0.0018753607
184	0xb6ac5bc0	-5.1366806e-06
185	0xb85a58c8	-5.2057934e-05
186	0xba9bd304	-0.0011888449
187	0xbaa84858	-0.0012838943
188	0xbaa0b1fb	-0.0012260074
189	0xb9889ab3	-0.000260552
190	0xbaa13403	-0.0012298826
191	0xbac686d2	-0.0015146381
192	0xb8839cb4	-6.275755e-05
193	0x39c88362	0.0003824486
194	0xba516018	-0.00079870364
195	0x38bf519b	9.12279e-05
196	0xb74fa380	-1.2376229e-05
197	0xb97ec525	-0.0002429677
198	0xb89f54ed	-7.5975295e-05
199	0xb835b3ba	-4.3321146e-05
200	0xb8d80957	-0.00010301422
201	0x380a9e47	3.304917e-05
202	0x38664b3b	5.4906337e-05
203	0xb8f928ba	-0.00011880831
204	0xb9ca045a	-0.00038531685
205	0x39b4de07	0.000344977
206	0x395ecbf8	0.00021247554
207	0xb940cc01	-0.00018386544
208	0x38bc7599	8.986443e-05
209	0x393025fd	0.0001679882
210	0x3980fae5	0.00024600993
211	0x39c92c15	0.0003837055
212	0xb8a99318	-8.085946e-05
213	0xb9159bc4	-0.00014267775
214	0xb8130d89	-3.5060137e-05
215	0x38b62a60	8.686329e-05
216	0x39a32c3f	0.0003112275
217	0x389fbc66	7.616803e-05
218	0x39a81fc6	0.0003206713
219	0xb7c9b7b8	-2.4046618e-05
220	0xb913568f	-0.00014051258
221	0xb9832509	-0.0002501386
222	0xb8e4c412	-0.00010908408
223	0xb75e4a00	-1.3249461e-05
224	0x3a347e28	0.0006885254
225	0x39ebc1ba	0.0004496703
226	0x38bc9d7d	8.993873e-05
227	0x39896fbd	0.00026213928
228	0x39e58101	0.000437744
229	0x3a08ad21	0.00052137865
230	0x389fa21c	7.611906e-05
231	0x3a0f3900	0.0005463511
232	0x39219e13	0.00015413044
233	0x3a1ad46d	0.00059062877
234	0x3a10c386	0.00055222993
235	0x39f53513	0.00046769585
236	0x39d0fc46	0.0003986081
237	0x3a35214c	0.00069095637
238	0x39e57754	0.0004376719
239	0x3a6478ba	0.00087154994
240	0x39191f05	0.00014602773
241	0x3950c116	0.00019908356
242	0x39ba0816	0.0003548271
243	0x3a02fc98	0.0004996746
244	0x3a3a86f2	0.00071154453
245	0x39c958be	0.00038403826
246	0x3a47e3a7	0.00076251704
247	0x3a4de7d5	0.0007854675
248	0x3901c127	0.00012374354
249	0xb8844ac8	-6.3081796e-05
250	0x39a7e34d	0.00032022074
251	0x3936bbeb	0.00017426877
252	0xbb01b039	-0.0019788875
253	0xba899864	-0.0010497686
254	0xba17f187	-0.0005796183
255	0xba7b9226	-0.0009596668

exp_avg_sq f4 [45, 28]
0	0x382f9d3f	4.1869698e-05
1	0x37f39724	2.9038238e-05
2	0x37c4ae58	2.3446206e-05
3	0x384d4243	4.893752e-05
4	0x384bc847	4.8585494e-05
5	0x3760493b	1.3368491e-05
6	0x37c3b80f	2.333152e-05
7	0x3849a77e	4.8078124e-05
8	0x38256daa	3.9441198e-05
9	0x3743af24	1.1663684e-05
10	0x37f1bb73	2.8816727e-05
11	0x38681460	5.5332086e-05
12	0x37c00620	2.2891036e-05
13	0x380365e5	3.132773e-05
14	0x37d50f5f	2.5398736e-05
15	0x38130b4c	3.5058052e-05
16	0x37e8f070	2.7768518e-05
17	0x3829ec2c	4.0512692e-05
18	0x381901fa	3.6479883e-05
19	0x37ffa151	3.0473488e-05
20	0x37d7b978	2.5716363e-05
21	0x37871031	1.6100794e-05
22	0x3801ffda	3.0994277e-05
23	0x378b36a8	1.6595543e-05
24	0x37e84e41	2.7692995e-05
25	0x37940ba2	1.7648392e-05
26	0x38408193	4.5897043e-05
27	0x37041734	7.8732155e-06
28	0x377984fc	1.4872519e-05
29	0x3730ccc2	1.0538091e-05
30	0x371d407d	9.372944e-06
31	0x3796e619	1.7988541e-05
32	0x37946526	1.7690076e-05
33	0x36bed0f6	5.6867675e-06
34	0x371a14fa	9.183999e-06
35	0x37907351	1.7219836e-05
36	0x377fa20d	1.5236915e-05
37	0x3694966f	4.4282565e-06
38	0x3735e6b6	1.0842157e-05
39	0x37b027a7	2.09993e-05
40	0x370ebeb5	8.508262e-06
41	0x373f5062	1.1403203e-05
42	0x37307265	1.0517052e-05
43	0x3767a6d5	1.3807517e-05
44	0x3736ded3	1.0899926e-05
45	0x3782e2fb	1.5602904e-05
46	0x376f1c30	1.4252073e-05
47	0x37442931	1.1692101e-05
48	0x372df155	1.0367793e-05
49	0x36de8ca7	6.6324897e-06
50	0x373d45a3	1.1281491e-05
51	0x36c2bb0d	5.803426e-06
52	0x37299fe7	1.0110415e-05
53	0x36f3520b	7.2515154e-06
54	0x378d0d5e	1.6814734e-05
55	0x365ebade	3.318935e-06
56	0x395e7eaf	0.00021218763
57	0x391f1f12	0.00015174996
58	0x38e0a919	0.00010712649
59	0x397eeb22	0.00024310921
60	0x3983bc61	0.0002512662
61	0x3867da29	5.527787e-05
62	0x38dbb0b5	0.00010475648
63	0x39829880	0.00024909154
64	0x394dd954	0.00019631285
65	0x385b70c9	5.231871e-05
66	0x3910eae2	0.00013820411
67	0x399821ae	0.00029016793
68	0x38e6e6d1	0.000110102475
69	0x39255ab2	0.00015769413
70	0x38fc95e5	0.000120442164
71	0x393b884f	0.00017884489
72	0x390f5630	0.0001366965
73	0x39507a87	0.00019882071
74	0x3938115b	0.00017554073
75	0x39197cef	0.00014637758
76	0x38f0900e	0.00011470924
77	0x3892f222	7.006923e-05
78	0x3926d5fe	0.00015910712
79	0x38b353a8	8.550967e-05
80	0x39070c0b	0.0001287909
81	0x389a9b73	7.372247e-05
82	0x39757534	0.00023408682
83	0x3801975b	3.0896957e-05
84	0x38ded862	0.00010626089
85	0x389f2824	7.5891876e-05
86	0x386f1cdc	5.7008918e-05
87	0x3906e880	0.00012865849
88	0x390b3092	0.00013274167
89	0x38088a35	3.2553642e-05
90	0x385ffbbb	5.3401785e-05
91	0x3906c759	0.00012853499
92	0x38dcb6ff	0.00010524503
93	0x37b8522d	2.1972775e-05
94	0x3888b172	6.518037e-05
95	0x391c6f1a	0.00014918708
96	0x385175dd	4.993925e-05
97	0x38a3fdc8	7.819716e-05
98	0x388ef077	6.815878e-05
99	0x38b850e7	8.788873e-05
100	0x38961af2	7.157576e-05
101	0x38de77fa	0.00010608132
102	0x38bf08a5	9.1092e-05
103	0x38983144	7.257101e-05
104	0x38739f5f	5.808414e-05
105	0x382a8b90	4.0661136e-05
106	0x38b09dab	8.421702e-05
107	0x3835fa66	4.3386965e-05
108	0x388859e3	6.501728e-05
109	0x3839ef80	4.433049e-05
110	0x38f8ed2c	0.00011869738
111	0x3796c57e	1.7973358e-05
112	0x37235351	9.734956e-06
113	0x37100163	8.583392e-06
114	0x3636e003	2.7250505e-06
115	0x373beb84	1.1200904e-05
116	0x374927ac	1.198977e-05
117	0x35e9adcc	1.7410434e-06
118	0x3604ec43	1.9807055e-06
119	0x377d5cd4	1.5101588e-05
120	0x37096155	8.188498e-06
121	0x35b0ae90	1.3163826e-06
122	0x366a825f	3.4944603e-06
123	0x372b7056	1.02185495e-05
124	0x3667a441	3.451729e-06
125	0x36c24a77	5.7903194e-06
126	0x36763bc4	3.6691645e-06
127	0x36870c88	4.0247724e-06
128	0x36aa5147	5.0758567e-06
129	0x3710993f	8.618749e-06
130	0x36ccaac3	6.099553e-06
131	0x367db20d	3.7803577e-06
132	0x36162cc7	2.2377806e-06
133	0x362afd07	2.5479255e-06
134	0x3729d016	1.0121634e-05
135	0x36ae94b0	5.2029136e-06
136	0x369e28e3	4.713527e-06
137	0x361c7a58	2.3317025e-06
138	0x3713f58e	8.819055e-06
139	0x35979c10	1.1295797e-06
140	0x383abc52	4.4521243e-05
141	0x3804968d	3.1611464e-05
142	0x37ca3c0d	2.410824e-05
143	0x3862e0b0	5.4091855e-05
144	0x3866ee60	5.5058277e-05
145	0x375fdbea	1.33430385e-05
146	0x37c11982	2.301927e-05
147	0x385e403e	5.2988755e-05
148	0x3839e7e3	4.43234e-05
149	0x372a76cc	1.0160449e-05
150	0x37f19be7	2.8802036e-05
151	0x3885fa0c	6.388509e-05
152	0x37bc218c	2.2426968e-05
153	0x380c20a1	3.340899e-05
154	0x37ec80ec	2.8193426e-05
155	0x382288ca	3.8751205e-05
156	0x37fb9f46	2.99957e-05
157	0x383d912f	4.5196324e-05
158	0x3822eace	3.884249e-05
159	0x3805118a	3.1726006e-05
160	0x37d3e215	2.5258438e-05
161	0x378ba640	1.6647507e-05
162	0x380e49e3	3.392425e-05
163	0x3791e936	1.7393944e-05
164	0x37e6b725	2.750342e-05
165	0x37974e3b	1.8037032e-05
166	0x3852bb7a	5.0242503e-05
167	0x36ef4714	7.1310296e-06
168	0x38e46876	0.000108913446
169	0x38a1b315	7.710435e-05
170	0x386875b3	5.5422726e-05
171	0x3903eaa1	0.0001258054
172	0x3909672f	0.00013103777
173	0x37fa6c71	2.985282e-05
174	0x38613ba5	5.369973e-05
175	0x3906e772	0.00012865456
176	0x38d67e70	0.00010227866
177	0x37e2cfe4	2.7038106e-05
178	0x38965918	7.1691524e-05
179	0x391ccc5f	0.00014953454
180	0x3870ed00	5.7441182e-05
181	0x38b0d164	8.431336e-05
182	0x38817a51	6.1739825e-05
183	0x38c30c75	9.300645e-05
184	0x388fa316	6.8491485e-05
185	0x38d7eff6	0.00010296695
186	0x38bb1263	8.92028e-05
187	0x38a4b2b4	7.8534154e-05
188	0x38778162	5.9009886e-05
189	0x3818372e	3.6291014e-05
190	0x38aaed76	8.150462e-05
191	0x38350ce8	4.3165783e-05
192	0x388cef8f	6.7203415e-05
193	0x3820ac45	3.830741e-05
194	0x3900f3a1	0.0001229779
195	0x37862a3c	1.5993712e-05
196	0x36a9883e	5.052453e-06
197	0x368a4534	4.120777e-06
198	0x36138f6d	2.1988192e-06
199	0x36d463ea	6.329724e-06
200	0x36ffa571	7.618852e-06
201	0x35b67f88	1.3597173e-06
202	0x35c9cb2a	1.5034796e-06
203	0x36e7b02a	6.9048447e-06
204	0x36aaa417	5.0854974e-06
205	0x35533d84	7.869314e-07
206	0x361bea75	2.3233272e-06
207	0x36eb0ba5	7.0049014e-06
208	0x3604a504	1.9765585e-06
209	0x365d17f0	3.29455e-06
210	0x3646f7eb	2.9648606e-06
211	0x366c1b77	3.5182727e-06
212	0x3645fc91	2.95023e-06
213	0x369c9661	4.6666687e-06
214	0x3696abc2	4.4903436e-06
215	0x3647bd85	2.9763626e-06
216	0x3603bad2	1.9629265e-06
217	0x35bc93e8	1.4050138e-06
218	0x36a8dc47	5.032434e-06
219	0x361b72a5	2.3163532e-06
220	0x36519f16	3.1236027e-06
221	0x35bf3db4	1.4248567e-06
222	0x36c9fe5d	6.0198786e-06
223	0x355e3db7	8.279125e-07
224	0x37e72f28	2.7559305e-05
225	0x37a3e9f3	1.9540055e-05
226	0x3781ec31	1.5487984e-05
227	0x380a5ea8	3.298992e-05
228	0x380e2ccf	3.389717e-05
229	0x3711a700	8.681556e-06
230	0x377eafbb	1.5180495e-05
231	0x3808f75d	3.26553e-05
232	0x37e7df9b	2.764147e-05
233	0x36ebacb9	7.0236533e-06
234	0x379df993	1.8832076e-05
235	0x38240566	3.9105675e-05
236	0x377930b3	1.4852895e-05
237	0x37b2c23d	2.1309703e-05
238	0x37953a56	1.7789349e-05
239	0x37d3bde6	2.5241588e-05
240	0x379fe0e2	1.9058996e-05
241	0x37eba026	2.8088758e-05
242	0x37cbc723	2.4292216e-05
243	0x37b0a619	2.105818e-05
244	0x378d6ea6	1.6860035e-05
245	0x3731eece	1.0605623e-05
246	0x37b4b4da	2.1541888e-05
247	0x3735fbbe	1.0847054e-05
248	0x379361cc	1.7569306e-05
249	0x37396a69	1.1051635e-05
250	0x380634bf	3.1997213e-05
251	0x36a34bcb	4.866602e-06
252	0x39116b30	0.00013868208
253	0x38ca01f5	9.632475e-05
254	0x38947750	7.0794136e-05
255	0x39269c4a	0.00015889216

max_exp_avg_sq f4 [45, 28]
0	0x382f9d3f	4.1869698e-05
1	0x37f39724	2.9038238e-05
2	0x37c4affb	2.3446968e-05
3	0x384d4243	4.893752e-05
4	0x384bc847	4.8585494e-05
5	0x376082b4	1.3381872e-05
6	0x37c3d95d	2.334703e-05
7	0x3849aae7	4.80813e-05
8	0x3825817c	3.9459657e-05
9	0x3743af24	1.1663684e-05
10	0x37f1f5f9	2.8843979e-05
11	0x38681460	5.5332086e-05
12	0x37c00620	2.2891036e-05
13	0x380365e5	3.132773e-05
14	0x37d54170	2.542205e-05
15	0x38131448	3.506642e-05
16	0x38049134	3.1606483e-05
17	0x382a0a21	4.054059e-05
18	0x3819238e	3.6511155e-05
19	0x37ffa151	3.0473488e-05
20	0x37d7ea24	2.5739027e-05
21	0x37871031	1.6100794e-05
22	0x3801ffda	3.0994277e-05
23	0x378b36a8	1.6595543e-05
24	0x37e84e41	2.7692995e-05
25	0x37942cff	1.7663928e-05
26	0x38408193	4.5897043e-05
27	0x370423f8	7.876188e-06
28	0x377a1bf0	1.4907666e-05
29	0x3731d2c5	1.0599096e-05
30	0x371d8516	9.388916e-06
31	0x379707c7	1.8004224e-05
32	0x3794885d	1.7706474e-05
33	0x36c0c27c	5.744687e-06
34	0x371abfdb	9.223785e-06
35	0x379093ad	1.7234905e-05
36	0x377fe2a4	1.5251953e-05
37	0x3696085e	4.4713224e-06
38	0x373610d0	1.085196e-05
39	0x37b05005	2.1018097e-05
40	0x370f5574	8.54336e-06
41	0x373fe51e	1.1437833e-05
42	0x37309e4a	1.0527272e-05
43	0x3767e137	1.382111e-05
44	0x373ada7c	1.1137334e-05
45	0x378301f1	1.5617321e-05
46	0x376f501c	1.4264162e-05
47	0x37448e70	1.1715674e-05
48	0x372e1d4b	1.03780285e-05
49	0x36dea9d7	6.6358875e-06
50	0x373d45a3	1.1281491e-05
51	0x36c2ead0	5.8089863e-06
52	0x3729bd51	1.0117264e-05
53	0x36f3de09	7.2678126e-06
54	0x378d2fc5	1.6830754e-05
55	0x3660d85c	3.3504539e-06
56	0x396226ff	0.00021567567
57	0x3921a95d	0.00015417249
58	0x38e31fa9	0.00010830101
59	0x39816fce	0.00024688098
60	0x3985b010	0.00025498914
61	0x386b31ca	5.6074736e-05
62	0x38dfd8ad	0.00010673828
63	0x3984b85c	0.0002531436
64	0x395114f5	0.000199396
65	0x385f29d9	5.3206317e-05
66	0x391324ec	0.00014032767
67	0x399afca3	0.00029561398
68	0x38ea4a31	0.00011171809
69	0x39278d96	0.00015979106
70	0x39008bea	0.00012259153
71	0x393d8759	0.00018074866
72	0x39123648	0.00013943866
73	0x3953f397	0.00020213272
74	0x393b63d7	0.00017870903
75	0x391bdabe	0.0001486344
76	0x38f44c09	0.00011648989
77	0x3894bcba	7.092343e-05
78	0x392997fa	0.00016173712
79	0x38b5bc40	8.665817e-05
80	0x39092d44	0.00013082201
81	0x389e28ea	7.541648e-05
82	0x3978cc3e	0.00023727209
83	0x38036b64	3.133285e-05
84	0x38df1161	0.00010636706
85	0x389f8bc1	7.607742e-05
86	0x38700188	5.7221885e-05
87	0x39071fd4	0.0001288646
88	0x390b651d	0.0001329374
89	0x3808a76f	3.258086e-05
90	0x386025b0	5.344086e-05
91	0x3907294f	0.00012889992
92	0x38dce87c	0.00010533721
93	0x37b89c2f	2.2007238e-05
94	0x3888d377	6.524374e-05
95	0x391c9ebd	0.00014936454
96	0x3851ac9b	4.9990234e-05
97	0x38a41c4e	7.8254016e-05
98	0x389084a6	6.891163e-05
99	0x38b88e01	8.800254e-05
100	0x38966d0c	7.172869e-05
101	0x38dffc9d	0.000106805215
102	0x38bf5240	9.12291e-05
103	0x38984828	7.261365e-05
104	0x38747738	5.8285164e-05
105	0x382ac1ed	4.0711766e-05
106	0x38b0c4f3	8.4290186e-05
107	0x3836b58c	4.356126e-05
108	0x38887687	6.507063e-05
109	0x383a1c8d	4.4372446e-05
110	0x38f9330c	0.000118827535
111	0x37973aa9	1.8027918e-05
112	0x37a27d90	1.9370375e-05
113	0x3780f517	1.5372918e-05
114	0x371fa620	9.5158175e-06
115	0x37fa4a94	2.983705e-05
116	0x384bbfdc	4.8577655e-05
117	0x3667030a	3.4423451e-06
118	0x37117b4d	8.671382e-06
119	0x381f31ba	3.7954866e-05
120	0x379a70eb	1.8410812e-05
121	0x367d550f	3.7749448e-06
122	0x373f61e6	1.1407281e-05
123	0x380038a4	3.057033e-05
124	0x378d17d8	1.6819613e-05
125	0x37a57023	1.972175e-05
126	0x37131ad3	8.768128e-06
127	0x379ae0b7	1.8462872e-05
128	0x37388853	1.0998995e-05
129	0x37c13ecf	2.303664e-05
130	0x376ac3d2	1.399308e-05
131	0x378ff6bb	1.7161821e-05
132	0x372e5be9	1.0392608e-05
133	0x36bbf928	5.60204e-06
134	0x3786f9a7	1.6090298e-05
135	0x36e69d84	6.8728714e-06
136	0x376e30ff	1.4197313e-05
137	0x36c2e722	5.808558e-06
138	0x37d2a0c0	2.5108806e-05
139	0x35c4e637	1.4670139e-06
140	0x383e16ac	4.5320645e-05
141	0x38067784	3.2059397e-05
142	0x37cd16a6	2.444845e-05
143	0x3865a752	5.4753684e-05
144	0x386a5a26	5.5873905e-05
145	0x376190ff	1.3444805e-05
146	0x37c3ed9d	2.3356459e-05
147	0x386184a8	5.3767726e-05
148	0x383bee9e	4.4806504e-05
149	0x372c18c6	1.0257767e-05
150	0x37f48dc4	2.9153081e-05
151	0x38880e1d	6.487614e-05
152	0x37be9754	2.2720233e-05
153	0x380d5377	3.3694752e-05
154	0x37f183ca	2.8790808e-05
155	0x3824622d	3.919208e-05
156	0x3800065d	3.0523504e-05
157	0x384087a9	4.590271e-05
158	0x3825b159	3.9504233e-05
159	0x38069dbb	3.2094988e-05
160	0x37d7ab58	2.5709785e-05
161	0x378d8078	1.6868333e-05
162	0x38105376	3.4410004e-05
163	0x379433da	1.766712e-05
164	0x37e9b1b0	2.7858507e-05
165	0x37991865	1.825038e-05
166	0x385536d2	5.0834213e-05
167	0x36f26d99	7.224921e-06
168	0x38e8d5c6	0.000111024405
169	0x38a438f9	7.8307414e-05
170	0x386b17f0	5.605066e-05
171	0x3905f2b2	0.0001277428
172	0x390b75d2	0.00013299964
173	0x37fcf961	3.0156867e-05
174	0x38651ce2	5.4624754e-05
175	0x39093480	0.00013084896
176	0x38da13f1	0.000103987644
177	0x37e4e4a6	2.728619e-05
178	0x38983b63	7.2589864e-05
179	0x391f86d8	0.00015213655
180	0x38755dd5	5.849994e-05
181	0x38b2a894	8.5191015e-05
182	0x3883fe76	6.293964e-05
183	0x38c49bbc	9.375016e-05
184	0x3892fcb5	7.008893e-05
185	0x38db7660	0.00010464783
186	0x38be6d05	9.0802125e-05
187	0x38a6893d	7.9410594e-05
188	0x387d0e35	6.0333132e-05
189	0x381a1daa	3.6744088e-05
190	0x38adb54a	8.2830506e-05
191	0x383761eb	4.3721793e-05
192	0x388e881b	6.796439e-05
193	0x38249d78	3.92473e-05
194	0x390286fa	0.00012448049
195	0x3787f2e4	1.6206359e-05
196	0x37c43b45	2.339262e-05
197	0x3757a613	1.2853666e-05
198	0x37a13819	1.9218818e-05
199	0x37f1cff4	2.8826275e-05
200	0x38319aba	4.234419e-05
201	0x36c171cb	5.7650955e-06
202	0x3749b6d7	1.2023104e-05
203	0x37e294f9	2.701067e-05
204	0x37b82639	2.1952308e-05
205	0x36a917ce	5.0393637e-06
206	0x375889f3	1.2906722e-05
207	0x38273657	3.986651e-05
208	0x3733f52c	1.0726315e-05
209	0x3776676c	1.4686822e-05
210	0x3790c05a	1.7255708e-05
211	0x37b8ff90	2.2053515e-05
212	0x379c3fb4	1.8626313e-05
213	0x37b9905c	2.2120941e-05
214	0x37c02491	2.2905211e-05
215	0x37c32bbe	2.326618e-05
216	0x37b02599	2.0998343e-05
217	0x36fb1ee4	7.483979e-06
218	0x379f559d	1.8994144e-05
219	0x36f55685	7.311641e-06
220	0x3789c06f	1.6421282e-05
221	0x3707cd85	8.094478e-06
222	0x37f2fff9	2.8967845e-05
223	0x36273a13	2.4918743e-06
224	0x37ed24fc	2.8269824e-05
225	0x37a79d9c	1.9981344e-05
226	0x37964741	1.7914574e-05
227	0x380d5ceb	3.3703556e-05
228	0x38246cae	3.9201863e-05
229	0x37149d2b	8.858081e-06
230	0x3782e67a	1.5604532e-05
231	0x380c090e	3.3387034e-05
232	0x37ed6938	2.8301598e-05
233	0x36f0a070	7.1712348e-06
234	0x37cb6a1b	2.4248895e-05
235	0x382881bf	4.0175157e-05
236	0x377e8e73	1.5172746e-05
237	0x37b72ea2	2.1837015e-05
238	0x37990677	1.8242032e-05
239	0x37d89f34	2.5823341e-05
240	0x37dd2565	2.6362666e-05
241	0x37f18826	2.8792838e-05
242	0x37d0beb1	2.488433e-05
243	0x37b68387	2.1757338e-05
244	0x37e66df9	2.7469347e-05
245	0x3735c801	1.0835008e-05
246	0x37b8aafe	2.2014134e-05
247	0x3739a1d8	1.10645415e-05
248	0x379b9fae	1.8551797e-05
249	0x373dfac2	1.1323662e-05
250	0x38093ca3	3.2719818e-05
251	0x36a62345	4.9512914e-06
252	0x39134f36	0.00014048521
253	0x38cc85c8	9.752397e-05
254	0x38966014	7.170453e-05
255	0x39290996	0.00016120667

exp_avg f4 [45]
0	0x3b73ca17	0.0037199312
1	0xbab6dfe8	-0.0013952227
2	0xbaa195d8	-0.0012327982
3	0x3b3d3baa	0.0028874674
4	0xb9dd7823	-0.00042241914
5	0xba0140f8	-0.00049306406
6	0xba2f11da	-0.00066783803
7	0xb9df4c4e	-0.00042590726
8	0x3a0151d4	0.0004933153
9	0xbadb0a7e	-0.0016711501
10	0xba7882b4	-0.00094799255
11	0xba5d82bf	-0.00084499636
12	0xba81fe5c	-0.0009917724
13	0xbbac60eb	-0.005260577
14	0xb7b37e40	-2.1397253e-05
15	0x3a95fb4b	0.0011442689
16	0xbae2dd6a	-0.0017308418
17	0x3a93e54e	0.0011283548
18	0xb9774054	-0.0002357972
19	0xb890f5f0	-6.9122645e-05
20	0x399784ea	0.00028899993
21	0x3a6a1bbc	0.00089305243
22	0xba7e6a7e	-0.00097051996
23	0xba24fdf8	-0.0006293948
24	0xbaa1e21a	-0.0012350709
25	0x3a826b07	0.000995011
26	0x39765dd2	0.00023495339
27	0x3acccd2c	0.0015625111
28	0x3954e37c	0.0002030264
29	0xbb2c9b06	-0.0026337518
30	0x3a1cd0c2	0.0005982035
31	0xba1aedc8	-0.0005910066
32	0x3a4fbc8e	0.000792452
33	0xbaa49746	-0.001255729
34	0x39404934	0.00018337817
35	0x3b0ce91d	0.002150125
36	0xb9616f85	-0.00021499216
37	0xb93284f6	-0.00017024935
38	0x3ac04076	0.0014667648
39	0xb9db68ea	-0.00041849102
40	0x3adf32be	0.0017028672
41	0xb8ecea90	-0.000112970476
42	0xbaf172d3	-0.0018421061
43	0xbb161cd4	-0.0022905366
44	0x389bfb88	7.437827e-05

exp_avg_sq f4 [45]
0	0x38abb4c9	8.187589e-05
1	0x37f6b4ca	2.9409672e-05
2	0x39dff1dc	0.00042714074
3	0x396be262	0.0002249568
4	0x37c03330	2.291202e-05
5	0x38c52393	9.400318e-05
6	0x3968b5c3	0.00022192956
7	0x37523140	1.2528442e-05
8	0x386b2019	5.605826e-05
9	0x3991e672	0.0002782825
10	0x38907250	6.8877474e-05
11	0x3a1b76a9	0.00059304625
12	0x3960f195	0.00021452301
13	0x39a6cc82	0.00031814357
14	0x37961f1d	1.7895882e-05
15	0x3a350c02	0.00069063914
16	0x3952c992	0.00020102251
17	0x37124459	8.718192e-06
18	0x372b534b	1.0211787e-05
19	0x37f1e224	2.8834744e-05
20	0x3828e0cd	4.0263683e-05
21	0x38a4df77	7.861753e-05
22	0x38b05f45	8.410079e-05
23	0x3866180e	5.4858676e-05
24	0x37a0bcaf	1.9161349e-05
25	0x3832b87b	4.2610318e-05
26	0x385b8495	5.2337145e-05
27	0x38d8d6e0	0.00010339706
28	0x399479c2	0.00028319476
29	0x382b496d	4.083796e-05
30	0x3825e8b7	3.9555798e-05
31	0x383d9a09	4.5204568e-05
32	0x379554eb	1.7801727e-05
33	0x3a8e673c	0.0010864506
34	0x3745d18c	1.1790904e-05
35	0x3a16e9c4	0.00057568797
36	0x37dde235	2.6450589e-05
37	0x38ba92a7	8.896487e-05
38	0x3a6bc121	0.0008993317
39	0x37096925	8.190317e-06
40	0x3947410b	0.0001900235
41	0x38b0b42a	8.425892e-05
42	0x3a41ab4d	0.00073878915
43	0x3a04bd66	0.0005063623
44	0x39da8b1b	0.00041683842

max_exp_avg_sq f4 [45]
0	0x38abb4c9	8.187589e-05
1	0x37f6e3c5	2.9431549e-05
2	0x39e3ee26	0.00043474248
3	0x396c1de5	0.0002251785
4	0x389e96dd	7.5621276e-05
5	0x38c7fb14	9.5358264e-05
6	0x396c69cf	0.0002254613
7	0x3877ff9a	5.9127437e-05
8	0x38716c24	5.755959e-05
9	0x3993d947	0.0002819991
10	0x3891713d	6.935231e-05
11	0x3a1de204	0.00060227537
12	0x396483af	0.0002179283
13	0x39a6dda0	0.0003182711
14	0x384d34d5	4.8925012e-05
15	0x3a37f1f0	0.00070169475
16	0x39552b41	0.00020329376
17	0x38dbd4c5	0.00010482365
18	0x37ad020b	2.0624158e-05
19	0x384275b1	4.6362813e-05
20	0x385894dd	5.1637053e-05
21	0x38ecc235	0.00011289531
22	0x392be551	0.00016393258
23	0x3869fd50	5.5787445e-05
24	0x3811aff4	3.4734563e-05
25	0x3832ecb8	4.265897e-05
26	0x38edc529	0.000113377646
27	0x3907fc61	0.00012968622
28	0x3996d2f7	0.0002876741
29	0x382b66a6	4.0865176e-05
30	0x38bcab7b	8.996479e-05
31	0x3892e3ea	7.004275e-05
32	0x3795c1a7	1.785236e-05
33	0x3a90d37b	0.0011049354
34	0x385d0e0f	5.27036e-05
35	0x3a19082c	0.00058377045
36	0x385a5ec0	5.2063493e-05
37	0x39912575	0.00027684463
38	0x3a6fb06c	0.00091434154
39	0x379efb58	1.8952109e-05
40	0x394dc09c	0.00019622076
41	0x38b2872f	8.512881e-05
42	0x3a4466be	0.00074921164
43	0x3a06f786	0.0005148578
44	0x39ddfde4	0.00042341568

exp_avg f4 [3, 45]
0	0x3beebaae	0.0072854375
1	0x3a4f4bef	0.00079077383
2	0x39ef98d2	0.00045699492
3	0x3c1090ce	0.008823587
4	0xbb1f34c6	-0.002429293
5	0x3b28c87a	0.002575426
6	0x3a85cb76	0.0010207731
7	0xbabe9b76	-0.001454218
8	0x39cdbe7f	0.00039242578
9	0x3b3a6b42	0.0028445278
10	0x3a830498	0.0009995876
11	0xb920609a	-0.00015294776
12	0xb98ff996	-0.00027461041
13	0x3acb4ca0	0.0015510507
14	0xbb142c14	-0.002260928
15	0x3a97a921	0.001157079
16	0x3aecbc29	0.0018061447
17	0xbb4ae54e	-0.003095943
18	0xbb3486aa	-0.0027546086
19	0xbb378890	-0.0028004982
20	0xba16759a	-0.000573957
21	0x3b72e635	0.0037063484
22	0x3a84867d	0.0010110881
23	0xbb30fb55	-0.0027005274
24	0xba315174	-0.00067641516
25	0x3b3b127f	0.002854496
26	0xbaf85e94	-0.0018949085
27	0x3a092554	0.00052316976
28	0x3b2a0dae	0.0025948095
29	0x3b038234	0.002006662
30	0x3a09c310	0.0005255202
31	0x3a313998	0.00067605963
32	0xb9502a19	-0.00019852108
33	0x3ada80ab	0.0016670426
34	0xbbabe663	-0.00524597
35	0x3af1c4fb	0.0018445546
36	0xba6e87b1	-0.0009099199
37	0xb8804980	-6.117206e-05
38	0x3ba637a3	0.0050725504
39	0xbb6a15b9	-0.0035718514
40	0x3b40a173	0.0029393106
41	0xbb7ed2a2	-0.003888287
42	0x3b189665	0.0023283002
43	0xb911337b	-0.00013847456
44	0x3b47e83b	0.003050341
45	0x3c1cc8ad	0.009569329
46	0x3ba39e47	0.0049932334
47	0x3b31d7ce	0.0027136686
48	0x3c0b1b67	0.00849042
49	0xbb90052b	-0.0043951473
50	0x3b7674b9	0.0037606193
51	0x3aa51686	0.0012595213
52	0xbb890d4c	-0.0041824933
53	0x3aadc7ae	0.0013258362
54	0x3b6e2452	0.0036337567
55	0x3b4b1b5c	0.003099165
56	0x3abd9242	0.0014463144
57	0x3a616fbe	0.000859972
58	0x3bc951ba	0.006143776
59	0xbb8113a7	-0.0039391103
60	0x3b2337ac	0.002490501
61	0x3b58a6ea	0.0033058473
62	0xbb8e4cd1	-0.0043426533
63	0xbb9f9590	-0.004870124
64	0xbb9593d8	-0.0045647435
65	0xb8793434	-5.9414844e-05
66	0x3b6a2720	0.0035728887
67	0x3b3d5332	0.00288887
68	0xbb95f2e4	-0.004576074
69	0xb98fdba4	-0.0002743873
70	0x3b864d8e	0.0040986007
71	0xba832454	-0.0010005333
72	0x3ab8698d	0.0014069543
73	0x3ae5e929	0.0017540801
74	0xbaff422a	-0.0019474674
75	0x3983b547	0.0002512133
76	0x3ab752e9	0.0013986501
77	0xb886e129	-6.431557e-05
78	0x3bccf5ce	0.006254888
79	0xbba3215e	-0.004978343
80	0x3b0c5806	0.002141477
81	0xbb420c70	-0.0029609464
82	0x3a9f188e	0.0012138055
83	0x3bf23a49	0.007392202
84	0xbba22528	-0.004948277
85	0x3b495c66	0.003072524
86	0xbb84a162	-0.0040475586
87	0x3bf3fb7a	0.00744575
88	0x3af50e42	0.0018696266
89	0x3bd1f4b9	0.006407347
90	0xbbe07fbc	-0.0068511646
91	0xbbcca46c	-0.0062451866
92	0xbb9e167c	-0.0048244577
93	0xbb909610	-0.00441242
94	0x3bbed698	0.0058239214
95	0xbb63a440	-0.0034735352
96	0xba38a78c	-0.00070440094
97	0x3b938866	0.004502344
98	0xbab5fd1a	-0.0013884634
99	0xbbc51422	-0.006014363
100	0xbb9c6992	-0.004773327
101	0xbb164db1	-0.0022934491
102	0xbb050ee3	-0.0020303063
103	0xbc1de3e7	-0.009636856
104	0x3b333006	0.0027341857
105	0xbb395d20	-0.0028284267
106	0xbaeb369c	-0.0017945352
107	0x3c0a8e6e	0.008456809
108	0x3bb4028c	0.0054934677
109	0x3ba22b4c	0.004949009
110	0xba677837	-0.0008829864
111	0xba825ef8	-0.0009946516
112	0xbb4dd96f	-0.0031410118
113	0x3bad70f6	0.005293007
114	0xba772ef4	-0.0009429299
115	0xbab8dd81	-0.0014104099
116	0xba1cc3fe	-0.0005980133
117	0x3a9d5f5c	0.0012006569
118	0xbae87df2	-0.001773773
119	0x3b87b8a8	0.004141886
120	0xbae29084	-0.0017285501
121	0xba8bc5d6	-0.0010663818
122	0x3adcafd2	0.0016837067
123	0xbc079542	-0.008275332
124	0x3bc9391d	0.0061408416
125	0xb8b62618	-8.685532e-05
126	0x3b8c70ec	0.0042859223
127	0xba6b9647	-0.00089869316
128	0xbbc99f0a	-0.006152992
129	0x3b9bc344	0.004753502
130	0xbbaecd6d	-0.0053345473
131	0x3b85d9fc	0.0040848237
132	0xbc17189f	-0.009222179
133	0xbb6fb8ae	-0.0036578584
134	0xbb9b5ecf	-0.0047415267
