logs/my_logs/version_9/checkpoints/epoch=99-step=100.ckpt (torch, 40871 bytes, 33 tensors)

encoder.dense1.weight f4 [45, 28]
0.06475838 -0.14622928 0.07364028 0.02794072 0.1711312 0.08554315 -0.13853252 -0.13598937
0.07364079 0.09802275 0.0421864 0.071759135 0.028838474 0.1127786 -0.0029900197 -0.03832211
0.035468854 -0.10447732 0.104441166 0.028464705 0.026990196 -0.06600589 0.105982624 0.13237806
-0.09348269 0.03467561 0.08557658 0.124186754 -0.030350683 -0.071577154 0.13341054 -0.109753005
0.02875921 0.15973864 0.12342239 -0.051234696 -0.06524461 -0.0017214239 -0.07744325 -0.15393615
-0.16484015 -0.0045583895 0.10180986 0.11389047 -0.14009394 0.16562304 -0.019319387 -0.15249795
0.057438437 0.17276937 0.044521272 -0.021069167 -0.1019642 0.13589081 0.12835443 0.039995514
0.021510832 0.102287985 -0.09638616 0.15073842 -0.068277486 0.019044854 -0.06586765 0.021906525
0.10718559 0.14524725 0.24062102 -0.11181223 -0.099392064 -0.10465148 0.17627849 0.1791468
0.23944809 0.11782708 -0.1582793 0.026465746 0.15716358 0.14272548 0.014748777 -0.09926804
-0.009052763 0.17358813 -0.184469 -0.059373103 0.0696429 0.103659496 0.09748596 -0.17860016
-0.26706776 -0.11014438 -0.029907543 0.24337755 -0.1008346 0.11368035 -0.025646241 0.18651293
-0.09177556 0.06337117 0.077832386 0.13348229 0.11785477 -0.0052457093 0.17669097 0.03156737
0.14029548 -0.021793105 0.0072247414 0.053030647 0.043962337 -0.06269891 0.072809905 0.06382825
0.12240663 0.029449722 0.2058665 0.0075159417 -0.03563359 -0.11112005 -0.12627243 0.041248396
0.117958635 0.047590442 -0.05690056 0.07987459 0.030816354 -0.049212057 -0.12263395 -0.011905267
0.08900639 0.21537109 0.026728816 -0.056071453 0.07212028 0.23253986 -0.03840745 -0.22183886
-0.19724382 0.06921963 -0.1060972 -0.0027423762 0.21701826 -0.067837216 -0.060950324 -0.11260975
0.1459011 -0.19130257 -0.10926124 0.17038901 0.101383045 -0.049860083 -0.21951693 -0.059423625
0.031544846 0.1488655 -0.15221703 -0.222738 -0.02163217 -0.024342274 -0.017108649 -0.030250616
-0.03220137 0.026938219 0.017679902 0.1512244 -0.09699981 -0.0014283201 0.030832078 0.00815103
0.12383981 0.17686166 -0.13912074 -0.03475771 0.0403184 -0.009671503 -0.022622654 0.033090547
0.08824251 0.02589774 -0.1408721 -0.093081884 0.20596273 0.015379302 0.09392533 -0.0017859719
0.0022287131 -0.0071419254 0.04710395 0.06231843 0.0011172981 0.039449774 0.07143947 0.2135561
0.09923861 0.055982918 0.16315305 -0.22833128 0.0026969977 0.14755699 -0.056260113 -0.11554847
-0.10953414 -0.02463496 -0.1419593 0.050538953 0.108671926 -0.08767608 -0.102644846 0.08450871
-0.16013564 -0.005144353 -0.13112195 -0.14792188 0.06936575 0.029264875 0.021309642 -0.017344845
0.026613778 0.23365837 -0.14316873 -0.15526754 0.07818444 0.22602203 -0.11022735 0.12176173
-0.094455354 0.067085296 -0.02166288 -0.19594106 -0.16762578 0.01508388 0.21851987 -0.07884096
0.06902563 -0.09403599 -0.1661659 0.045795817 -0.05589987 -0.07303725 -0.06079194 0.2033315
-0.15352544 0.07073455 -0.012418837 0.17118987 0.15794796 -0.089561515 0.01861168 0.07356896
-0.22496057 -0.09674629 0.007056038 0.21940513 -0.10578758 0.08550962 0.0012110074 0.12855035
00000000: 0ba0 843d 21bd 15be b7d0 963d f0e3 e43c
00000010: 043d 2f3e 3f31 af3d 78db 0dbe cc40 0bbe
00000020: fcd0 963d 27c0 c83d a6cb 2c3d 74f6 923d
00000030: aa3e ec3c 77f8 e63d 35f4 43bb a5f7 1cbd
00000040: ca47 113d 35f8 d5bd 40e5 d53d d02e e93c
00000050: 8b1a dd3c 192e 87bd 6b0d d93d 1d8e 073e
00000060: da73 bfbd 0308 0e3d c642 af3d a055 fe3d
00000070: ffa1 f8bc 0b97 92bd c69c 083e 2fc6 e0bd
00000080: 6f98 eb3c 8792 233e e1c4 fc3d 79db 51bd
00000090: f79e 85bd 67a1 e1ba 919a 9ebd 70a1 1dbe
000000a0: dbcb 28be 8b5e 95bb b081 d03d 683f e93d
000000b0: c974 0fbe 1699 293e b143 9ebc 6c28 1cbe
000000c0: 9144 6b3d 74ea 303e f05b 363d 3f99 acbc
000000d0: 9bd2 d0bd f626 0b3e 586f 033e 56d2 233d
000000e0: 7c37 b03c 5d7c d13d 1b66 c5bd 2c5b 1a3e
000000f0: 11d5 8bbd f403 9c3c 9ee5 86bd 5075 b33c
00000100: 1e84 db3d b2bb 143e 5b65 763e cffd e4bd
00000110: 118e cbbd 8453 d6bd 5982 343e 4272 373e
00000120: e131 753e 534f f13d f813 22be b1ce d83c
00000130: 7def 203e a126 123e dba4 713c 0b4d cbbd
00000140: 0a52 14bc 16c1 313e 71e5 3cbe 3631 73bd
00000150: f0a0 8e3d 6e4b d43d b8a6 c73d f6e2 36be
00000160: 1bbd 88be 6093 e1bd aa00 f5bc f737 793e
00000170: 5f82 cebd 3ed1 e83d 1118 d2bc 3ffd 3e3e
00000180: d3f4 bbbd bec8 813d 9666 9f3d 95af 083e
00000190: d75d f13d 33e4 abbb 7aee 343e c94c 013d
000001a0: 9ea9 0f3e 7487 b2bc 86bd ec3b aa36 593d
000001b0: da11 343d 4968 80bd 5c1d 953d 63b8 823d
000001c0: 54b0 fa3d 8b40 f13c abce 523e 4a48 f63b
000001d0: 87f4 11bd e992 e3bd 8f4d 01be 14f4 283d
000001e0: 4c94 f13d 32ee 423d 9010 69bd 4a95 a33d
000001f0: 9472 fc3c 9592 49bd 8227 fbbd 4f0e 43bc
00000200: fb48 b63d 3d8a 5c3e 64f6 da3c 2eab 65bd
00000210: ccb3 933d ee1e 6e3e 2151 1dbd ba29 63be
00000220: 49fa 49be 05c3 8d3d 7d49 d9bd 70b9 33bb
00000230: 093a 5e3e 3dee 8abd 0ca7 79bd f19f e6bd
00000240: 1967 153e d2e4 43be 5bc4 dfbd 757a 2e3e
00000250: eaa1 cf3d 163a 4cbd 0cc9 60be 3066 73bd
00000260: 2b35 013d 3370 183e c8de 1bbe 6e15 64be
00000270: f335 b1bc 7369 c7bc 7027 8cbc 24d0 f7bc
00000280: 95e5 03bd 8aad dc3c 71d5 903c 92da 1a3e
00000290: d6a7 c6bd 7836 bbba 8e93 fc3c e68b 053c
000002a0: ba9f fd3d 391b 353e ab75 0ebe 1a5e 0ebd
000002b0: e824 253d 3975 1ebc 2553 b9bc f489 073d
000002c0: 7db8 b43d 7f27 d43c c740 10be b7a1 bebd
000002d0: e5e7 523e 78f9 7b3c ec5b c03d 4617 eaba
000002e0: 9a0f 123b d006 eabb 12f0 403d 9c41 7f3d
000002f0: 4e72 923a 1696 213d db4e 923d 73ae 5a3e
00000300: 9d3d cb3d 584e 653d 9811 273e adcf 69be
00000310: 1dc0 303b 2e19 173e 0171 66bd ada4 ecbd
00000320: 6f53 e0bd 41cf c9bc c75d 11be ef01 4f3d
00000330: 638f de3d 848f b3bd 7637 d2bd e712 ad3d
00000340: 99fa 23be f691 a8bb d544 06be d578 17be
00000350: a10f 8e3d e4bc ef3c 8f91 ae3c c716 8ebc
00000360: 2305 da3c 2444 6f3e d39a 12be 74fe 1ebe
00000370: 2a1f a03d 5272 673e e0be e1bd 375e f93d
00000380: cf71 c1bd 0464 893d 5a76 b1bc c6a4 48be
00000390: 18a6 2bbe 6122 773c acc3 5f3e 5f77 a1bd
000003a0: 4f5d 8d3d f195 c0bd 6527 2abe 6594 3b3d
000003b0: 43f7 64bd 8e94 95bd f800 79bd 2236 503e
000003c0: c635 1dbe 47dd 903d 6178 4bbc 664c 2f3e
000003d0: 1cbd 213e 076c b7bd 8677 983c 53ab 963d
000003e0: 105c 66be eb22 c6bd 5636 e73b bdab 603e
000003f0: 29a7 d8bd ab1f af3d aaba 9e3a b4a2 033e

encoder.dense1.bias f4 [45]
0.16392298 -0.12673737 -0.15603387 -0.047204565 -0.021783842 0.0030180383 0.097100675 0.14815453
0.02394667 -0.088560924 0.13164736 -0.060928576 -0.16473497 0.050145864 0.11769168 0.11250294
-0.001374099 0.081974395 -0.047082197 0.004022638 0.022482654 -0.022174474 -0.1349644 0.1725251
-0.0038935486 -0.1729636 0.14057475 0.11466033 -0.1882795 -0.06024088 -0.14800672 0.16012445
0.051462833 -0.12186959 -0.10869771 0.009935616 -0.044127766 0.25560072 0.11482628 -0.20161748
0.08155842 -0.20980795 0.008768539 -0.16279627 0.11753516
00000000: 6ddb 273e 71c7 01be 58c7 1fbe 9359 41bd
00000010: 0774 b2bc 48ca 453b b8dc c63d d2b5 173e
00000020: cf2b c43c 6e5f b5bd 91ce 063e 3e90 79bd
00000030: 49b0 28be c065 4d3d 5608 f13d f167 e63d
00000040: 1d1b b4ba 31e2 a73d 43d9 40bd 55d0 833b
00000050: 8b2d b83c 3ea7 b5bc 1c34 0abe 6baa 303e
00000060: e82a 7fbb 5f1d 31be d4f2 0f3e 09d3 ea3d
00000070: 57cc 40be 24bf 76bd 138f 17be aaf7 233e
00000080: b1ca 523d c396 f9bd e89c debd fec8 223c
00000090: 51bf 34bd 19de 823e 0a2a eb3d d074 4ebe
000000a0: 1a08 a73d e5d7 56be eba9 0f3c 11b4 26be
000000b0: 46b6 f03d

encoder.dense3m.weight f4 [3, 45]
-0.06714062 -0.00036378874 0.1529772 -0.005256654 -0.15639432 -0.075624175 -0.06016509 0.13226557
-0.18294957 -0.037309162 -0.08832494 -0.029325414 -0.1414593 0.17346855 -0.06927675 0.019181821
-0.07272614 -0.075100526 0.10397866 -0.20362328 0.09999285 0.0060646227 -0.17259766 0.0036491486
0.15063718 0.118337646 -0.10116797 -0.09849496 -0.2071853 -0.050009403 0.11197796 -0.0017973455
-0.047694854 0.0567118 0.033568792 -0.0129781505 -0.034513645 0.17463347 0.21007198 -0.07647426
-0.07333329 0.026987638 -0.11473702 0.051368535 -0.1757788 -0.20742099 -0.01918867 0.20480919
0.1564607 0.014473566 -0.07450109 0.11270337 -0.017067118 -0.12424097 -0.056623187 0.006328248
0.118063964 -0.052082393 0.11046312 0.0009496264 0.066981055 -0.20989789 0.092147954 0.12555589
0.116736926 0.083166495 -0.031837497 -0.012353034 -0.028556459 -0.21919757 -0.07770746 -0.16558447
0.041254584 -0.09731499 -0.12049159 -0.023582416 0.20715208 0.024585396 0.16083978 0.06432888
-0.057396043 0.1404329 -0.047239225 0.12312579 -0.010975859 -0.03800868 -0.0004595382 0.11680049
0.1556504 -0.081174575 -0.031000089 0.057065777 0.140678 0.10966602 0.12546358 -0.17221321
-0.10936037 0.07158005 0.12635906 0.0896271 -0.19722608 -0.20192857 0.06826093 -0.09202617
-0.08364595 0.041513134 0.06931898 -0.18094008 0.12367095 0.15809481 0.008856091 -0.03387245
0.1551898 -0.02854434 0.071759894 0.00022411905 -0.21024208 0.094864525 0.11135987 0.039776932
-0.057931 -0.16628641 -0.07972353 0.05162786 -0.06659019 -0.024694623 0.15928198 -0.15337783
-0.048830677 0.17441706 -0.15628594 0.14257348 -0.07827561 0.095162526 0.109456934
00000000: 0581 89bd e6ba beb9 0ea6 1c3e 0340 acbb
00000010: d525 20be d9e0 9abd ab6f 76bd a070 073e
00000020: 2257 3bbe 7ed1 18bd b5e3 b4bd da3b f0bc
00000030: b5da 10be bda1 313e f8e0 8dbd 3223 9d3c
00000040: 71f1 94bd 4ece 99bd c4f2 d43d 9f82 50be
00000050: 0dc9 cc3d beb9 c63b 71bd 30be 8e26 6f3b
00000060: a240 1a3e 025b f23d 2731 cfbd bab7 c9bd
00000070: 6228 54be a9d6 4cbd b354 e53d e894 ebba
00000080: ae5b 43bd a24a 683d 6e7f 093d 4fa2 54bc
00000090: 2e5e 0dbd 1ed3 323e 1c1d 573e 899e 9cbd
000000a0: c42f 96bd 2e15 dd3c 3efb eabd d067 523d
000000b0: 5cff 33be 2b66 54be 8f31 9dbc 80b9 513e
000000c0: 3c37 203e 8922 6d3c 0794 98bd 06d1 e63d
000000d0: 57d0 8bbc 0d72 febd b7ed 67bd 315d cf3b
000000e0: 85cb f13d 5954 55bd 7d3a e23d 59f0 783a
000000f0: 5d2d 893d 79ef 56be 11b8 bc3d b991 003e
00000100: c513 ef3d 3253 aa3d 0968 02bd 6164 4abc
00000110: 3cef e9bc 5475 60be 1725 9fbd fa8e 29be
00000120: 91fa 283d 154d c7bd 4bc4 f6bd e92f c1bc
00000130: ad1f 543e 5067 c93c 2fb3 243e dcbe 833d
00000140: 1d18 6bbd a4cd 0f3e eb7d 41bd 6029 fc3d
00000150: 17d4 33bc fdae 1bbd 2cee f0b9 1835 ef3d
00000160: d262 1f3e db3e a6bd e6f3 fdbc cebd 693d
00000170: e50d 103e 9498 e03d 8679 003e a958 30be
00000180: 54f8 dfbd 9098 923d 4564 013e 6a8e b73d
00000190: a2f5 49be 5dc6 4ebe 63cc 8b3d 3778 bcbd
000001a0: 914e abbd ad09 2a3d 1cf7 8d3d 5b48 39be
000001b0: 3247 fd3d 9be3 213e 2319 113c d7bd 0abd
000001c0: 13ea 1e3e d2d5 e9bc daf6 923d 8001 6b39
000001d0: b349 57be 5548 c23d a510 e43d 23ed 223d
000001e0: 0e49 6dbd fc46 2abe 1746 a3bd bc77 533d
000001f0: 7060 88bd 614c cabc d11a 233e 140f 1dbe
00000200: ad02 48bd 639a 323e 6c09 20be c8fe 113e
00000210: f74e a0bd 92e4 c23d f52a e03d

encoder.dense3m.bias f4 [3]
0.15070723 -0.083968855 -0.1282835
00000000: ff52 1a3e ddf7 abbd c05c 03be

encoder.dense3s.weight f4 [3, 45]
0.08281305 -0.03170661 0.07367239 -0.058431905 0.01764302 0.06471301 -0.016320407 0.0852903
0.11549197 0.049231686 0.09037766 -0.052655183 -0.02236197 -0.0131716365 0.052689444 -0.13744766
-0.009672741 0.025529461 0.061554007 -0.11656612 0.14385986 0.02653343 -0.03561551 -0.10170762
0.12182732 0.071143605 -0.06322032 0.12522641 0.04564634 0.1445479 0.06437862 0.05279796
0.096608646 0.034879755 -0.07990547 0.061218206 -0.064862244 -0.11518727 -0.049329363 0.10501676
-0.019049233 -0.066224895 0.027914677 0.0032503675 -0.013817695 0.067986265 0.06399904 0.06074347
0.10774801 0.039335083 0.06962483 -0.0807171 0.003264293 0.054871358 -0.08634257 0.026110364
0.054894097 0.020467155 -0.13527052 -0.085555606 -0.16084836 0.08813029 0.016588157 0.119183935
-0.05822367 0.15654205 0.074788764 0.06378797 0.07080378 0.104744054 0.04615193 0.03715272
-0.0628909 -0.021230578 0.012489198 0.028592391 -0.06889511 0.130774 0.018408008 -0.12188953
0.05282999 -0.091197364 0.08861549 -0.04034494 0.037589017 -0.07357409 -0.011548661 0.11847972
0.06487907 0.066893734 -0.06401195 -0.12643144 -0.0072161574 0.049306 -0.015308467 -0.0803482
-0.0504759 -0.0666635 -0.067183904 0.06571517 -0.09766105 -0.060013235 -0.09350258 -0.098454356
0.06368106 -0.0548446 0.08883791 0.050584428 0.023976808 0.08094496 0.030912308 0.08301809
-0.021118505 -0.14551187 0.014426944 0.13711819 0.15476987 0.011793179 -0.15399046 0.06616258
-0.040627766 -0.030861028 -0.06747618 0.038157675 -0.0796988 0.08282834 0.0650073 -0.049131434
0.06856592 0.06350352 -0.056543387 0.15754895 -0.11140795 0.066482104 -0.08891795
00000000: e399 a93d cade 01bd 8de1 963d 4b56 6fbd
00000010: 1888 903c 4188 843d 60b2 85bc aeac ae3d
00000020: 0e87 ec3d 2aa7 493d ec17 b93d f6ac 57bd
00000030: 7330 b7bc d9cd 57bc e3d0 573d 14bf 0cbe
00000040: 6b7a 1ebc 2923 d13c 0e20 7c3d 38ba eebd
00000050: 0050 133e a35c d93c 92e1 11bd 164c d0bd
00000060: 9a80 f93d bdb3 913d a879 81bd 5a3b 003e
00000070: a8f7 3a3d 5d04 143e f0d8 833d ac42 583d
00000080: c1da c53d 13de 0e3d 7ba5 a3bd f1bf 7a3d
00000090: 7fd6 84bd 4ee7 ebbd 960d 4abd 0713 d73d
000000a0: 230d 9cbc eba0 87bd 52ad e43c 1e04 553b
000000b0: 9d63 62bc 623c 8b3d ee11 833d 25ce 783d
000000c0: fdaa dc3d d31d 213d 7697 8e3d 024f a5bd
000000d0: c0ed 553b cac0 603d 60d4 b0bd 67e5 d53c
000000e0: a2d8 603d bcaa a73c 5b84 0abe c737 afbd
000000f0: 6fb5 24be a77d b43d e3e3 873c b516 f43d
00000100: f17b 6ebd 8f4c 203e da2a 993d 44a3 823d
00000110: 9201 913d 0d84 d63d ce09 3d3d 732d 183d
00000120: f2cc 80bd c0eb adbc 7e9f 4c3c 973a ea3c
00000130: e118 8dbd 9fe9 053e 64cc 963c 38a1 f9bd
00000140: 4264 583d afc5 babd 0a7c b53d bc40 25bd
00000150: f1f6 193d 03ae 96bd 9836 3dbc 7fa5 f23d
00000160: 51df 843d 95ff 883d b218 83bd 3e77 01be
00000170: 8475 ecbb 17f5 493d 5dd0 7abc 998d a4bd
00000180: d1bf 4ebd e086 88bd b797 89bd ad95 863d
00000190: 8402 c8bd 70d0 75bd 487e bfbd 70a2 c9bd
000001a0: 376b 823d bba4 60bd a6f0 b53d 9e31 4f3d
000001b0: 036b c43c 79c6 a53d cf3b fd3c 6305 aa3d
000001c0: b700 adbc 1001 15be fd5e 6c3c b668 0c3e
000001d0: fe7b 1e3e 2e38 413c adaf 1dbe 3f80 873d
000001e0: 4d69 26bd 44d0 fcbc f430 8abd 394b 1c3d
000001f0: 2039 a3bd e8a1 a93d 8c22 853d 0b3e 49bd
00000200: 4a6c 8c3d 220e 823d 0a9a 67bd 8354 213e
00000210: da29 e4bd c527 883d 9d1a b6bd

encoder.dense3s.bias f4 [3]
0.0032529212 0.0326614 0.07955977
00000000: f62e 553b f6c7 053d 3cf0 a23d

decoder.linear.bias f4 [28]
-0.46453586 -0.23959479 -0.47930917 0.278501 -0.075204365 -0.4878898 -0.15951522 0.3596125
0.13722561 -0.5833912 0.13319235 -0.3304672 0.39266723 -0.46388134 -0.25318122 -0.4323005
-0.33976886 0.17091 0.47724444 0.35142645 -0.35656592 0.4019729 0.23104124 0.273461
0.39548844 -0.1256536 0.41137946 -0.37858754
00000000: a5d7 edbe 5658 75be 0368 f5be af97 8e3e
00000010: bf04 9abd b1cc f9be f557 23be 211f b83e
00000020: df84 0c3e 2059 15bf 9363 083e ff32 a9be
00000030: ae0b c93e db81 edbe f8a0 81be 7e56 ddbe
00000040: 2ff6 adbe 0803 2f3e 6259 f43e 2bee b33e
00000050: cf8f b6be 64cf cd3e 1396 6c3e 1503 8c3e
00000060: 767d ca3e 56ab 00be 54a0 d23e 3ad6 c1be

decoder.linear.weight_orig f4 [28, 3]
-0.46613333 -0.26503527 0.24006718 -0.22482163 0.47514167 0.011791229 -0.35904807 -0.39265114
0.42349848 0.22194141 -0.010675132 0.11406859 0.50073445 -0.25608206 -0.45393616 0.062536955
-0.029185593 0.33417177 -0.32183316 -0.23572478 0.022789156 -0.57350296 0.37631264 0.3439241
0.30699956 0.12268537 0.34042364 0.39383236 0.127294 0.31453317 0.43474862 -0.49063617
0.36227497 -0.3262986 0.13917327 0.48756495 -0.395039 0.005128622 0.16991615 -0.21567008
0.10105759 0.026209593 -0.40002567 -0.46258187 0.49470988 0.04215816 -0.044520736 0.44683298
-0.51678896 0.48480007 -0.009032942 0.5330417 0.46226263 0.23275574 0.15906918 0.45611966
-0.004933494 -0.45720422 -0.15582627 -0.16100852 -0.06195549 -0.16046587 0.4421696 0.10497719
-0.39646104 0.16849224 -0.04398948 -0.13060386 0.5705589 0.25460517 -0.09049791 -0.093603104
0.48705086 0.075399935 0.24403584 -0.42766 -0.5400019 0.41127947 -0.25385422 -0.0030595064
0.5191902 0.2100476 -0.12684059 0.43367535
00000000: 07a9 eebe b4b2 87be 2cd4 753e a437 66be
00000010: c545 f33e 0030 413c 26d5 b7be 9209 c9be
00000020: cbd4 d83e 9c44 633e c0e6 2ebc cb9c e93d
00000030: 2230 003f 301d 83be 526a e8be 6013 803d
00000040: a016 efbc 9018 ab3e 51c7 a4be d661 71be
00000050: 53b0 ba3c 17d1 12bf 0dac c03e d216 b03e
00000060: 0c2f 9d3e 7842 fb3d 024c ae3e 65a4 c93e
00000070: 5c59 023e 7e0a a13e 5f97 de3e aa34 fbbe
00000080: 1b7c b93e 9c10 a7be 7083 0e3e 1da2 f93e
00000090: 8d42 cabe 000e a83b 80fe 2d3e 9ed8 5cbe
000000a0: 48f7 ce3d 80b5 d63c 2ad0 ccbe 88d7 ecbe
000000b0: 9d4a fd3e 09ae 2c3d 605b 36bd 4bc7 e43e
000000c0: 484c 04bf b737 f83e e8fe 13bc 6c75 083f
000000d0: b0ad ec3e 8557 6e3e 08e3 223e 8488 e93e
000000e0: 26a9 a1bb ac16 eabe ec90 1fbe 6bdf 24be
000000f0: 0ac5 7dbd 2a51 24be 0e64 e23e 48fe d63d
00000100: f1fc cabe 3b89 2c3e 502e 34bd 05bd 05be
00000110: 2610 123f 9c5b 823e f856 b9bd fcb2 bfbd
00000120: bb5e f93e 486b 9a3d 88e4 793e 40f6 dabe
00000130: 913d 0abf 3993 d23e 2ef9 81be 0082 48bb
00000140: a6e9 043f b816 573e 80e2 01be b20a de3e

decoder.linear.weight_mask f4 [28, 3]
1.0 0.0 0.0 0.0 1.0 0.0 1.0 0.0
1.0 0.0 0.0 1.0 0.0 0.0 1.0 0.0
0.0 1.0 1.0 0.0 1.0 0.0 1.0 0.0
0.0 0.0 1.0 1.0 0.0 0.0 1.0 0.0
1.0 1.0 0.0 1.0 1.0 0.0 0.0 1.0
0.0 0.0 0.0 0.0 1.0 1.0 0.0 1.0
0.0 1.0 1.0 0.0 0.0 1.0 0.0 0.0
1.0 1.0 0.0 1.0 1.0 0.0 1.0 0.0
0.0 1.0 0.0 1.0 0.0 0.0 1.0 0.0
1.0 0.0 0.0 0.0 0.0 1.0 1.0 0.0
0.0 0.0 0.0 1.0
00000000: 0000 803f 0000 0000 0000 0000 0000 0000
00000010: 0000 803f 0000 0000 0000 803f 0000 0000
00000020: 0000 803f 0000 0000 0000 0000 0000 803f
00000030: 0000 0000 0000 0000 0000 803f 0000 0000
00000040: 0000 0000 0000 803f 0000 803f 0000 0000
00000050: 0000 803f 0000 0000 0000 803f 0000 0000
00000060: 0000 0000 0000 0000 0000 803f 0000 803f
00000070: 0000 0000 0000 0000 0000 803f 0000 0000
00000080: 0000 803f 0000 803f 0000 0000 0000 803f
00000090: 0000 803f 0000 0000 0000 0000 0000 803f
000000a0: 0000 0000 0000 0000 0000 0000 0000 0000
000000b0: 0000 803f 0000 803f 0000 0000 0000 803f
000000c0: 0000 0000 0000 803f 0000 803f 0000 0000
000000d0: 0000 0000 0000 803f 0000 0000 0000 0000
000000e0: 0000 803f 0000 803f 0000 0000 0000 803f
000000f0: 0000 803f 0000 0000 0000 803f 0000 0000
00000100: 0000 0000 0000 803f 0000 0000 0000 803f
00000110: 0000 0000 0000 0000 0000 803f 0000 0000
00000120: 0000 803f 0000 0000 0000 0000 0000 0000
00000130: 0000 0000 0000 803f 0000 803f 0000 0000
00000140: 0000 0000 0000 0000 0000 0000 0000 803f

exp_avg f4 [45, 28]
-0.0008590614 0.0063946457 0.00065429293 -9.199942e-05 -0.0014368492 -0.00015890559 -0.0011988559 0.0026007688
0.0052467026 0.00044389837 0.004179372 -0.0034542475 3.393359e-05 0.0007461447 0.0002730535 -0.0015767826
0.008051161 -0.00025124813 -0.0005822556 -0.00020556514 -0.0011232252 -0.0027962013 -0.0039589037 0.0018328807
0.0010464004 -0.001115209 -0.0010426802 0.00157527 -0.000850694 -0.00089733937 -0.0012205141 -0.00049713947
0.0025100198 -0.0032112722 0.0011941484 0.0001918751 -0.0018130457 -1.6176695e-05 -0.0013416167 -0.0007093242
0.00076696783 -0.00083830184 -0.00066836487 -0.0035558257 4.4611166e-05 -0.00042480626 -0.0011436383 0.0010093083
-0.0032684032 -0.0008900457 0.0002628229 -0.0013759956 -0.0024270301 -0.0006524985 -0.00014961549 -0.0019790428
0.0019710646 -0.01109823 -0.00244988 -0.001964325 0.007210889 -0.005752908 0.0008735248 -0.006272524
-0.004078425 -0.0030864277 -0.007388989 0.0010875688 0.0005278421 -0.0001788059 -0.0034838782 0.00067844364
-0.006718841 -0.00049992814 -0.0013247317 0.005762426 -0.003070812 0.0011308431 0.00039968084 -0.0045217695
-0.0056706946 -0.0010250096 0.0006646325 -0.0055597723 -0.0031203646 -0.007315316 -0.0029280744 -0.00015145418
0.0048074434 -0.0027049105 0.00061449653 -0.0022084008 -0.0065759467 0.0017245035 -0.0029509985 -0.0023992797
-0.00093055406 -0.0011554435 -0.002134728 -0.0010830375 -0.007093577 0.00040886828 0.00061796675 -0.00016070533
-0.0035662241 0.0030518847 0.0027600492 -0.0009581121 0.00044658044 -0.0005818653 0.00030646208 -0.0018124414
-0.009182727 -0.003613025 -0.008420785 0.0012797216 0.0069693783 -0.0055107577 -0.0022020976 -0.00045081475
-0.0013341432 0.0033905313 0.0037199177 -0.009412723 -0.0037542633 -0.004215828 -0.0038773902 -0.0061141024
-0.0032594877 0.00079985394 0.0017702021 -0.004253244 -0.010083314 0.0029380089 -0.0027191576 0.0014594395
0.003692497 -0.0036738557 -0.0018366666 -0.00017880238 -0.0018375423 0.0027470982 0.0023266396 -0.001324048
-0.009266205 0.0026346438 -0.0020667026 -0.0028241072 0.0077277427 -0.00051901565 0.002453397 0.0011056921
-0.0017299585 0.0011604792 0.0038977435 0.00083565246 0.0029358226 -0.0016358794 -0.0018286475 -0.003435391
0.0046716095 -0.00067033916 -0.00047184344 0.00060942315 0.00079593057 0.0010078007 -0.0016597192 0.004050449
-0.0026646934 -0.001415538 -0.0008815165 0.00087574375 -0.004969945 0.0021161775 -0.001118432 -0.0024104738
0.00550047 0.0010048322 0.0026879595 0.002956841 -0.0022099752 -0.00011255055 0.004083194 0.0005829079
-0.004104902 -0.00014500026 0.00081108627 -0.0045013335 0.0034216212 0.0035033782 0.0034261392 0.00081785663
0.0033449489 0.0015364427 0.0006322367 0.0039128945 0.0047328672 -0.0016074197 0.0005336152 -0.0020719217
0.0037727505 -0.0034484467 0.00095052295 -0.00092561694 -0.00066051 -0.0032789183 -0.0042373044 0.0021673336
0.0024212745 0.0010975063 -0.0023004678 -0.00019132813 0.0018460985 -0.00082958245 -0.001476313 0.0059575373
-0.0015011678 -0.0029707397 -0.0022324608 -0.0026362827 -0.0054859896 -0.0009844314 0.0008665817 -0.004257306
-0.008540206 -0.00051383575 -0.007510784 -0.00048756454 0.005237834 -0.0054563824 -0.002539255 -0.00024743378
0.0020773183 0.0023853194 0.004861532 -0.00991666 -0.0032519605 -0.0032402757 -0.0038649878 -0.0057066716
0.0009107357 -8.224929e-05 0.000820651 -0.0026416252 -0.009755534 0.00019222645 -0.0055807866 0.001926778
0.0028809644 -0.0043596467 -0.001669672 0.00020531673 -0.0021719635 0.000577806 -0.0040148934 0.000589325
00000000: a232 61ba 2d8a d13b db84 2b3a d0ef c0b8
00000010: a954 bcba e59f 26b9 ee22 9dba a971 2a3b
00000020: 88ec ab3b 08bb e839 1df3 883b a860 62bb
00000030: ea53 0e38 ec98 433a 9f28 8f39 0bac ceba
00000040: 04e9 033c f4b9 83b9 83a2 18ba f98c 57b9
00000050: 2f39 93ba 7940 37bb b1b9 81bb 453d f03a
00000060: 5f27 893a 342c 92ba 8baa 88ba 4a79 ce3a
00000070: 1c01 5fba 6d3b 6bba a8f9 9fba 7752 02ba
00000080: 257f 243b 3574 52bb f984 9c3a 1432 4939
00000090: b8a3 edba 30b3 87b7 30d9 afba f1f1 39ba
000000a0: 570e 493a 7cc1 5bba 3535 2fba db08 69bb
000000b0: e01c 3b38 88b8 deb9 22e6 95ba c44a 843a
000000c0: b532 56bb f551 69ba 7ecb 8939 c05a b4ba
000000d0: cf0e 1fbb 6f0c 2bba 1ae2 1cb9 d4b2 01bb
000000e0: fa2c 013b 5ad5 35bc 2a8e 20bb e8bb 00bb
000000f0: 5249 ec3b e482 bcbb 42fd 643a bf89 cdbb
00000100: 4fa4 85bb aa45 4abb 551f f2bb c18c 8e3a
00000110: e25e 0a3a d87d 3bb9 c751 64bb 95d9 313a
00000120: b929 dcbb 9c0d 03ba 9fa2 adba bcd2 bc3b
00000130: ad3f 49bb cc38 943a 418c d139 5a2b 94bb
00000140: 3cd1 b9bb 9d59 86ba bb3a 2e3a c02e b6bb
00000150: 087f 4cbb 51b5 efbb f0e4 3fbb accf 1eb9
00000160: c287 9d3b de44 31bb 2a16 213a d1ba 10bb
00000170: 0a7b d7bb bc08 e23a 8a65 41bb 3c3d 1dbb
00000180: 6df0 73ba 4072 97ba cbe6 0bbb b5f4 8dba
00000190: 3d71 e8bb 5f5d d639 0cff 213a 0283 28b9
000001a0: 50b7 69bb 2102 483b f1e1 343b d129 7bba
000001b0: 0323 ea39 5288 18ba a5ac a039 718f edba
000001c0: 2673 16bc 80c8 6cbb 55f7 09bc 55bc a73a
000001d0: 625f e43b 9693 b4bb 1151 10bb 555b ecb9
000001e0: 6bde aeba ad33 5e3b ddc9 733b d237 1abc
000001f0: 160a 76bb ee24 8abb d01b 7ebb cf58 c8bb
00000200: 219d 55bb 4aad 513a 2006 e83a cc5e 8bbb
00000210: 7c34 25bc 9c8b 403b e533 32bb aa4a bf3a
00000220: d2fd 713b 12c5 70bb 4ebc f0ba e67c 3bb9
00000230: b0d9 f0ba a908 343b 897a 183b ae8b adba
00000240: 48d1 17bc fda9 2c3b 8471 07bb a814 39bb
00000250: 0139 fd3b 8d0e 08ba 2cc9 203b dfec 903a
00000260: c6bf e2ba 381b 983a 4971 7f3b b00f 5b3a
00000270: ee66 403b 016b d6ba 3aaf efba 4c24 61bb
00000280: 4d14 993b b3b9 2fba c161 f7b9 b2c1 1f3a
00000290: ffa5 503a 2e18 843a ef8a d9ba a1b9 843b
000002a0: 23a2 2ebb 9389 b9ba 9215 67ba 2b92 653a
000002b0: ecda a2bb 91af 0a3b 5a98 92ba 0af9 1dbb
000002c0: 493d b43b 93b4 833a 7a28 303b 8fc7 413b
000002d0: 3bd5 10bb 1e09 ecb8 50cc 853b 49ce 183a
000002e0: 6a82 86bb 360b 18b9 149f 543a ec7f 93bb
000002f0: 473d 603b ef98 653b 1489 603b 6e65 563a
00000300: ee36 5b3b 7662 c93a b0bc 253a bd37 803b
00000310: 2b16 9b3b 0eb0 d2ba 4fe2 0b3a 14c9 07bb
00000320: 4040 773b 56ff 61bb 842c 793a 1aa5 72ba
00000330: 1326 2dba 1fe3 56bb 16d9 8abb d309 0e3b
00000340: 3fae 1e3b 33da 8f3a 72c3 16bb 419f 48b9
00000350: c9f8 f13a 5678 59ba d880 c1ba 7237 c33b
00000360: d5c2 c4ba beb0 42bb 7a4e 12bb 7cc5 2cbb
00000370: d1c3 b3bb 0908 81ba 502b 633a df80 8bbb
00000380: 38ec 0bbc efb2 06ba 061d f6bb ce9f ffb9
00000390: 23a2 ab3b 74cb b2bb a169 26bb 00ba 81b9
000003a0: 9e23 083b 0553 1c3b 7c4d 9f3b 7d79 22bc
000003b0: d81e 55bb ce5a 54bb bc4b 7dbb 08ff babb
000003c0: 70be 6e3a 407d acb8 f520 573a 1e1f 2dbb
000003d0: add5 1fbc 6590 4939 08df b6bb f18b fc3a
000003e0: 90ce 3c3b 5edb 8ebb e5d8 daba 4a4a 5739
000003f0: 8057 0ebb e777 173a 5e8f 83bb ee7c 1a3a

exp_avg_sq f4 [45, 28]
5.050219e-06 2.8679098e-05 1.7340453e-06 4.2779134e-06 4.5474594e-06 8.731549e-07 2.937995e-06 1.1308882e-05
1.5204691e-05 1.0737419e-06 6.659234e-06 6.585849e-06 3.313259e-06 2.9053306e-06 2.064607e-06 3.3068577e-06
2.4741357e-05 3.5577111e-06 3.074061e-06 4.3623336e-06 2.3289506e-06 1.836107e-06 5.195715e-06 9.074773e-06
3.297979e-06 1.2173588e-06 4.0145396e-06 2.066846e-06 4.4421295e-06 3.7716707e-06 2.7578824e-06 5.5854343e-06
6.7878937e-06 2.1215133e-06 2.7724666e-06 6.253871e-06 4.485412e-06 7.9552854e-07 3.1507273e-06 4.8224206e-06
1.8281531e-06 3.1093307e-06 2.1963215e-06 4.300066e-06 2.3125526e-06 4.4356075e-06 4.6024834e-06 2.9170296e-06
2.6283394e-06 1.6713841e-06 4.078525e-06 2.054018e-06 4.629564e-06 1.4892107e-06 4.7762105e-06 7.497918e-07
7.6462475e-06 1.7855864e-05 8.2803035e-06 8.042248e-06 1.5579146e-05 9.4357965e-06 4.9765263e-06 1.0292931e-05
1.2399435e-05 2.8264176e-06 1.2389204e-05 9.501703e-06 3.7088646e-06 5.6401354e-06 1.35060045e-05 7.9469755e-06
2.1163614e-05 6.896165e-06 6.755263e-06 7.585294e-06 9.878083e-06 2.532581e-06 5.585926e-06 3.114115e-06
6.1807336e-06 7.710861e-06 8.472938e-06 7.1273903e-06 8.123713e-07 1.0007582e-05 8.080534e-07 7.6112013e-07
3.3496115e-06 1.5055392e-06 3.5105927e-07 2.7358844e-06 1.3994549e-05 5.545384e-07 1.8584994e-06 1.4682179e-06
7.9811406e-07 1.1870575e-06 2.454065e-06 7.898826e-07 1.1692502e-05 6.7886407e-07 1.6544901e-06 8.7175044e-07
1.6791964e-06 7.3678314e-07 3.4580164e-06 1.493178e-06 5.3200955e-07 8.696988e-07 1.361772e-06 1.8677587e-06
5.3465733e-06 1.4858939e-05 3.765176e-05 2.3821906e-06 1.9276353e-05 2.1740527e-05 2.6844586e-05 1.409953e-05
6.4413903e-06 3.1723512e-06 1.360978e-06 2.3738407e-05 3.3105712e-06 1.6764423e-06 3.058799e-05 2.5130814e-05
3.208169e-06 2.3494704e-06 3.823073e-06 9.25927e-06 4.3065014e-05 6.472243e-06 5.698287e-06 1.0858621e-05
8.994456e-06 2.537371e-05 1.3753094e-06 6.3147804e-06 4.8017646e-06 4.1274207e-06 6.3860666e-06 2.540275e-06
1.7358074e-05 3.7300654e-06 1.0485257e-06 5.3302742e-06 2.062678e-05 2.1441969e-07 2.1271608e-06 2.8164536e-06
1.7847169e-06 8.3248113e-07 1.0504719e-05 2.601447e-06 1.2196168e-05 1.3836147e-06 1.414052e-06 1.514375e-06
6.2164836e-06 6.6880426e-07 3.2929381e-06 1.8340187e-06 7.7402956e-07 5.577819e-06 2.8159218e-06 6.9609696e-06
1.110864e-05 1.3205771e-05 1.5018002e-06 5.0551957e-06 9.071135e-06 2.7229887e-06 1.6253463e-06 1.4530291e-05
9.118369e-06 1.2783717e-06 4.328768e-06 6.751106e-06 3.1761172e-06 3.675623e-06 6.8648465e-06 3.828156e-06
9.274215e-06 3.5426222e-06 4.1719873e-06 5.224929e-06 5.537024e-06 3.7853788e-06 5.093399e-06 4.5959787e-06
5.5097803e-06 2.3184577e-06 4.9873224e-06 3.485747e-06 3.153717e-05 2.6823784e-05 5.1956376e-06 1.1111482e-05
2.3509145e-05 7.848713e-06 3.0986755e-06 3.4540084e-05 1.2393564e-05 2.8229035e-06 7.216378e-06 1.1511164e-05
5.1396387e-06 1.0295764e-05 1.0151188e-05 6.8183895e-06 1.0867123e-05 7.61395e-06 7.2934326e-06 1.0487653e-05
8.239836e-06 5.5917485e-06 1.4665089e-05 1.4598569e-05 7.919544e-06 6.8283275e-06 1.5384267e-05 4.815689e-06
5.2468563e-06 2.2314147e-05 2.0249521e-05 7.7547577e-07 6.9676594e-06 1.06482685e-05 1.6043574e-05 1.3926236e-05
1.2448073e-06 1.1444846e-06 2.1918665e-06 1.5204161e-05 3.4254415e-06 9.3851054e-07 1.1791918e-05 1.4189708e-05
1.8458184e-06 1.3179824e-06 1.3764162e-06 6.187501e-06 2.3586026e-05 3.39839e-06 4.6022838e-06 1.1975095e-05
4.9853134e-06 1.0929591e-05 7.151368e-07 1.3398522e-06 1.0730739e-05 1.8697712e-05 1.464275e-05 9.231439e-06
00000000: 0d75 a936 e593 f037 58bd e835 ff8a 8f36
00000010: 6196 9836 bf62 6a35 5f2a 4536 47bb 3d37
00000020: a717 7f37 7e1d 9035 6272 df36 03fc dc36
00000030: 5b59 5e36 33f9 4236 ae8d 0a36 62eb 5d36
00000040: a98b cf37 03c1 6e36 f74b 4e36 2960 9236
00000050: 114b 1c36 2870 f635 da56 ae36 da3f 1837
00000060: d952 5d36 2164 a335 a2b4 8636 25b4 0a36
00000070: 9a0d 9536 cf1c 7d36 0f14 3936 846a bb36
00000080: 90c3 e336 525f 0e36 9d0e 3a36 58d8 d136
00000090: 6581 9636 4e8c 5535 1571 5336 47d0 a136
000000a0: dd5e f535 e5a9 5036 8464 1336 4949 9036
000000b0: 5a31 1b36 94d5 9436 086f 9a36 30c2 4336
000000c0: 8762 3036 5254 e035 43da 8836 c3d7 0936
000000d0: a757 9b36 e4e0 c735 5643 a036 4d45 4935
000000e0: 6248 0037 2dc9 9537 a2eb 0a37 31ed 0637
000000f0: f6af 8237 704e 1e37 09fc a636 cdaf 2c37
00000100: 2b07 5037 7cad 3d36 3adb 4f37 8169 1f37
00000110: cfe5 7836 6540 bd36 d997 6237 0054 0537
00000120: 8488 b137 9b65 e736 44ab e236 2e85 fe36
00000130: 0bba 2537 69f5 2936 bd6e bb36 17fc 5036
00000140: 1964 cf36 e55d 0137 fe26 0e37 d127 ef36
00000150: bb11 5a35 3de6 2737 02e9 5835 c74f 4c35
00000160: e3c9 6036 ef11 ca35 3879 bc34 239a 3736
00000170: 21ca 6a37 97db 1435 8e71 f935 950f c535
00000180: fb3d 5635 fc52 9f35 84b0 2436 5208 5435
00000190: ea2a 4437 2f3b 3635 d90f de35 3c02 6a35
000001a0: c060 e135 5ac7 4535 4510 6836 3569 c835
000001b0: 6bcf 0e35 3f75 6935 21c6 b635 b3af fa35
000001c0: b766 b336 a84a 7937 45ec 1d38 b9dd 1f36
000001d0: a7b3 a137 6d5f b637 4f30 e137 058d 6c37
000001e0: 1f23 d836 94e4 5436 d9aa b635 d721 c737
000001f0: 2e2b 5e36 1e02 e135 9b4b 0038 03d0 d237
00000200: ec4b 5736 98ab 1d36 f247 8036 4358 1b37
00000210: b5a0 3438 252c d936 ea33 bf36 6c2d 3637
00000220: e5e6 1637 a1d9 d437 4597 b835 8de3 d336
00000230: d81e a136 467e 8a36 e547 d636 9879 2a36
00000240: 2e9c 9137 0952 7a36 12bb 8c35 b5da b236
00000250: ac07 ad37 3c3b 6634 58c0 0e36 4e02 3d36
00000260: 688a ef35 ab77 5f35 6d3d 3037 8594 2e36
00000270: 259e 4c37 a4b4 b935 75ca bd35 8741 cb35
00000280: 3097 d036 e187 3335 3ffc 5c36 6728 f635
00000290: e8c6 4f35 1a29 bb36 2bf9 3c36 4692 e936
000002a0: 3f5f 3a37 5b8e 5d37 7691 c935 cd9f a936
000002b0: 3a30 1837 97bc 3636 7926 da35 20c7 7337
000002c0: 19fb 1837 8494 ab35 d53f 9136 8f87 e236
000002d0: 4725 5536 b9aa 7636 9558 e636 9c73 8036
000002e0: 7398 1b37 c9bd 6d36 19fd 8b36 cc51 af36
000002f0: adca b936 5008 7e36 f7e7 aa36 2837 9a36
00000300: a7e0 b836 cd96 1b36 c658 a736 adec 6936
00000310: c746 0438 a303 e137 3056 ae36 746b 3a37
00000320: 8135 c537 f7ad 0337 d7f2 4f36 22df 1038
00000330: f4ed 4f37 1d71 3d36 3724 f236 1320 4137
00000340: 2975 ac36 f8bb 2c37 054f 2a37 85c9 e436
00000350: f051 3637 557b ff36 1cba f436 20f4 2f37
00000360: d33d 0a37 c1a0 bb36 140a 7637 60ec 7437
00000370: 2fde 0437 e31e e536 760d 8137 7496 a136
00000380: 270e b036 442f bb37 84dd a937 4a2a 5035
00000390: bdcb e936 f7a5 3237 5095 8637 baa4 6937
000003a0: 4113 a735 319c 9935 fb17 1336 6015 7f37
000003b0: a3e0 6536 f4ed 7b35 e7d5 4537 5510 6e37
000003c0: d6bd f735 88e5 b035 4dbd b835 3b9e cf36
000003d0: 9bda c537 e50f 6436 516d 9a36 a4e8 4837
000003e0: 8447 a736 3c5e 3737 d4f7 3f35 f9d4 b335
000003f0: 2c08 3437 08d9 9c37 22aa 7537 bbe0 1a37

max_exp_avg_sq f4 [45, 28]
5.133192e-06 2.868164e-05 1.7887032e-06 4.478512e-06 4.601403e-06 8.903843e-07 2.9658174e-06 1.1418074e-05
1.5204691e-05 1.0869506e-06 6.659234e-06 6.591291e-06 3.4141697e-06 3.0228182e-06 2.1416604e-06 3.327132e-06
2.4741357e-05 3.7265097e-06 3.1978623e-06 4.493893e-06 2.3543867e-06 1.836107e-06 5.195715e-06 9.297494e-06
3.3386405e-06 1.2200043e-06 4.0868567e-06 2.0691355e-06 4.6625682e-06 3.9533006e-06 2.7689205e-06 5.8079413e-06
6.8501613e-06 2.1215133e-06 2.8894e-06 6.607218e-06 4.500532e-06 8.2346565e-07 3.1679845e-06 5.009803e-06
1.8574814e-06 3.2523321e-06 2.2241204e-06 4.301772e-06 2.3894181e-06 4.5745264e-06 4.658499e-06 3.0113679e-06
2.6295231e-06 1.6854965e-06 4.160916e-06 2.0874513e-06 4.633987e-06 1.5004933e-06 5.02621e-06 7.497918e-07
7.734008e-06 1.7855864e-05 8.327034e-06 8.235818e-06 1.5579146e-05 9.4357965e-06 5.088577e-06 1.0292931e-05
1.2421819e-05 2.8264176e-06 1.2389204e-05 9.778562e-06 3.86008e-06 5.8947057e-06 1.3570226e-05 8.119654e-06
2.1168787e-05 7.0893793e-06 6.8553272e-06 7.585294e-06 9.925117e-06 2.5860345e-06 5.6921417e-06 3.114115e-06
6.1807336e-06 7.810279e-06 8.76581e-06 7.1273903e-06 8.123713e-07 1.0007582e-05 8.080534e-07 7.657199e-07
3.3496115e-06 1.5055392e-06 3.5105927e-07 2.7358844e-06 1.3994549e-05 5.545384e-07 1.8584994e-06 1.4682179e-06
7.99515e-07 1.1884694e-06 2.454065e-06 7.8998437e-07 1.1692502e-05 6.8230287e-07 1.6934681e-06 8.913478e-07
1.6791964e-06 7.3678314e-07 3.4605482e-06 1.5278475e-06 5.3565697e-07 8.806509e-07 1.3745815e-06 1.8703178e-06
5.3465733e-06 1.5169982e-05 3.7657454e-05 2.4015292e-06 1.9276353e-05 2.1754884e-05 2.7310198e-05 1.4587846e-05
6.5350405e-06 3.1723512e-06 1.360978e-06 2.3738407e-05 3.3105712e-06 1.6764423e-06 3.0900293e-05 2.5136822e-05
3.208169e-06 2.3941298e-06 3.8819226e-06 9.25927e-06 4.3065014e-05 6.497614e-06 5.7417033e-06 1.11494655e-05
9.000124e-06 2.5621326e-05 1.3753094e-06 6.4413825e-06 4.8323877e-06 4.1274207e-06 6.4221917e-06 2.5574595e-06
1.7358074e-05 3.7300654e-06 1.0485257e-06 5.336043e-06 2.062678e-05 2.1445508e-07 2.1271608e-06 2.8434374e-06
1.7864496e-06 8.3248113e-07 1.0510103e-05 2.63479e-06 1.2266927e-05 1.3836147e-06 1.4148549e-06 1.514375e-06
6.2164836e-06 6.7302807e-07 3.3472818e-06 1.8618083e-06 7.7402956e-07 5.6707167e-06 2.8248858e-06 6.9609696e-06
1.11898935e-05 1.3475001e-05 1.5448493e-06 5.316762e-06 9.071135e-06 2.7251115e-06 1.6935348e-06 1.4732877e-05
9.118369e-06 1.2835951e-06 4.328768e-06 6.758123e-06 3.1767263e-06 3.8601584e-06 6.8648465e-06 3.8955304e-06
9.274215e-06 3.7335624e-06 4.2474626e-06 5.224929e-06 5.537024e-06 3.7853788e-06 5.093399e-06 4.8015877e-06
5.5097803e-06 2.3247785e-06 5.3000545e-06 3.485747e-06 3.177764e-05 2.816467e-05 5.360167e-06 1.1421363e-05
2.3726627e-05 7.853688e-06 3.1837978e-06 3.630384e-05 1.3113743e-05 2.8229035e-06 7.216378e-06 1.2065227e-05
5.142081e-06 1.07031665e-05 1.0219957e-05 7.0104784e-06 1.1315436e-05 7.891289e-06 7.443349e-06 1.0487653e-05
8.344461e-06 5.5952205e-06 1.547857e-05 1.5169304e-05 7.919544e-06 6.9546663e-06 1.6010896e-05 4.815689e-06
5.2468563e-06 2.3056995e-05 2.0251866e-05 7.757458e-07 6.9676594e-06 1.06494035e-05 1.6173213e-05 1.44204905e-05
1.2448073e-06 1.1444846e-06 2.1918665e-06 1.5204161e-05 3.4267423e-06 9.3851054e-07 1.1821316e-05 1.41931605e-05
1.8911543e-06 1.320449e-06 1.3826236e-06 6.2071e-06 2.3586026e-05 3.4645866e-06 4.6022838e-06 1.223586e-05
4.9877162e-06 1.093774e-05 7.16049e-07 1.3542596e-06 1.1328686e-05 1.9332077e-05 1.46685e-05 9.635101e-06
00000000: c93d ac36 5a99 f037 6013 f035 2046 9636
00000010: c065 9a36 be02 6f35 5b08 4736 4190 3f37
00000020: a717 7f37 57e3 9135 6272 df36 c22a dd36
00000030: fd1e 6536 9fdb 4a36 72b9 0f36 b147 5f36
00000040: a98b cf37 f314 7a36 db9a 5636 3fca 9636
00000050: 0e00 1e36 2870 f635 da56 ae36 6ffc 1b37
00000060: 680d 6036 07bf a335 d521 8936 7adb 0a36
00000070: 2873 9c36 98a6 8436 b1d1 3936 d6e1 c236
00000080: 70da e536 525f 0e36 84e7 4136 92b3 dd36
00000090: 4703 9736 210c 5d35 8f99 5436 e119 a836
000000a0: 934e f935 a442 5a36 1942 1536 f157 9036
000000b0: e459 2036 e27e 9936 3450 9c36 e816 4a36
000000c0: dd76 3036 3839 e235 ff9d 8b36 2416 0c36
000000d0: a57d 9b36 8f64 c935 d1a6 a836 4d45 4935
000000e0: 50c1 0137 2dc9 9537 57b4 0b37 922c 0a37
000000f0: f6af 8237 704e 1e37 8bbe aa36 cdaf 2c37
00000100: 4e67 5037 7cad 3d36 3adb 4f37 9b0e 2437
00000110: d685 8136 23cb c536 adab 6337 a639 0837
00000120: a093 b137 4ee1 ed36 d006 e636 2e85 fe36
00000130: 0e84 2637 bc8b 2d36 20ff be36 17fc 5036
00000140: 1964 cf36 e508 0337 de10 1337 d127 ef36
00000150: bb11 5a35 3de6 2737 02e9 5835 df8b 4d35
00000160: e3c9 6036 ef11 ca35 3879 bc34 239a 3736
00000170: 21ca 6a37 97db 1435 8e71 f935 950f c535
00000180: 419e 5635 7f83 9f35 84b0 2436 500f 5435
00000190: ea2a 4437 7f27 3735 1f4b e335 f444 6f35
000001a0: c060 e135 5ac7 4535 c43b 6836 7110 cd35
000001b0: 11ca 0f35 de65 6c35 437e b835 a107 fb35
000001c0: b766 b336 9482 7e37 62f2 1d38 f529 2136
000001d0: a7b3 a137 427e b637 3418 e537 52be 7437
000001e0: 9247 db36 94e4 5436 d9aa b635 d721 c737
000001f0: 2e2b 5e36 1e02 e135 f09a 0138 eadc d237
00000200: ec4b 5736 d6aa 2036 7641 8236 4358 1b37
00000210: b5a0 3438 1406 da36 dba8 c036 970e 3b37
00000220: 3dff 1637 61ed d637 4597 b835 0e23 d836
00000230: e525 a236 467e 8a36 357e d736 d2a0 2b36
00000240: 2e9c 9137 0952 7a36 12bb 8c35 430c b336
00000250: ac07 ad37 f744 6634 58c0 0e36 e2d1 3e36
00000260: f1c5 ef35 ab77 5f35 8c54 3037 59d1 3036
00000270: 0dce 4d37 a4b4 b935 0be6 bd35 8741 cb35
00000280: 3097 d036 23aa 3435 dda1 6036 3fe3 f935
00000290: e8c6 4f35 1647 be36 2b93 3d36 4692 e936
000002a0: 3abc 3b37 b012 6237 9e58 cf35 a366 b236
000002b0: 3a30 1837 0fe1 3636 6a4d e335 3a2d 7737
000002c0: 19fb 1837 fe47 ac35 d53f 9136 d6c3 e236
000002d0: be2f 5536 8286 8136 9558 e636 5ab6 8236
000002e0: 7398 1b37 1d8e 7a36 6d85 8e36 cc51 af36
000002f0: adca b936 5008 7e36 f7e7 aa36 531d a136
00000300: a7e0 b836 6403 1c36 1fd7 b136 adec 6936
00000310: fb48 0538 2b43 ec37 7cdb b336 619e 3f37
00000320: 8b08 c737 55c3 0337 3ba9 5536 f444 1838
00000330: 1903 5c37 1d71 3d36 3724 f236 c16b 4a37
00000340: 248a ac36 c091 3337 6276 2b37 8d3b eb36
00000350: 6dd7 3d37 d464 0437 e2c1 f936 20f4 2f37
00000360: 30ff 0b37 94be bb36 fad7 8137 aa7f 7e37
00000370: 2fde 0437 215c e936 234f 8637 7496 a136
00000380: 270e b036 856a c137 8de2 a937 d83c 5035
00000390: bdcb e936 d7aa 3237 b6ab 8737 89ef 7137
000003a0: 4113 a735 319c 9935 fb17 1336 6015 7f37
000003b0: fcf6 6536 f4ed 7b35 2a54 4637 291f 6e37
000003c0: 91d3 fd35 483a b135 9692 b935 9546 d036
000003d0: 9bda c537 2581 6836 516d 9a36 9e48 4d37
000003e0: 285c a736 3c81 3737 8336 4035 01c4 b535
000003f0: 5610 3e37 522b a237 ba18 7637 72a6 2137

exp_avg f4 [45]
-0.0046862755 0.00072195195 0.010251145 0.011774012 0.013157059 -0.013527133 -0.0050186478 0.00068210915
0.008916266 0.0074908114 -0.012505479 -0.013594289 0.0033362005 -0.014503345 -0.0030271856 -0.00056804525
0.00301674 -0.009455035 0.0081773335 0.020107424 0.0026179883 -0.0009890026 0.01191117 -0.005632381
-0.0031353787 -0.0026656194 -0.017939994 0.013506568 0.008457671 0.0039759493 -0.008134723 -0.008956469
-0.0034352953 0.006072031 -0.0065938686 -0.00042300456 0.015249171 -0.022881417 -0.008549846 0.017515805
-0.013330218 0.008705444 0.00013490667 0.009218851 0.010997136
00000000: 548f 99bb 6041 3d3a 6bf4 273c c9e7 403c
00000010: b590 573c e8a0 5dbc 7873 a4bb 92cf 323a
00000020: 8815 123c 7b75 f53b c8e3 4cbc 95ba 5ebc
00000030: 28a4 5a3b 709f 6dbc bf63 46bb dfe8 14ba
00000040: 80b4 453b 4be9 1abc 39fa 053c 53b8 a43c
00000050: 8e92 2b3b 6ca1 81ba 1127 433c d68f b8bb
00000060: ed7a 4dbb acb1 2ebb e5f6 92bc a74a 5d3c
00000070: 0b92 0a3c ae48 823b 8047 05bc 27be 12bc
00000080: b122 61bb e3f7 c63b 6111 d8bb b6c6 ddb9
00000090: a9d7 793c cf71 bbbc a714 0cbc 4e7d 8f3c
000000a0: fd66 5abc 47a1 0e3c bc75 0d39 aa0a 173c
000000b0: 552d 343c

exp_avg_sq f4 [45]
9.579048e-06 1.1297322e-05 2.4467647e-05 9.139502e-06 3.5422938e-05 2.4059365e-05 1.2941585e-05 3.939618e-05
1.4641396e-05 2.838772e-05 1.239847e-05 2.5493666e-05 1.7864662e-05 3.5764115e-05 6.6360867e-06 6.86951e-05
1.0279647e-05 1.3642494e-05 2.574704e-05 7.915521e-05 4.1528016e-05 9.34985e-06 3.9395218e-05 6.5634595e-05
0.0001134586 3.52541e-05 3.924985e-05 3.574737e-05 2.0047883e-05 3.9602113e-05 2.1763852e-05 1.844546e-05
8.430148e-06 8.1978715e-06 3.0383106e-05 1.4463492e-05 2.0677817e-05 8.514409e-05 9.452949e-06 8.906854e-05
2.3605086e-05 7.747812e-06 8.228056e-06 1.4710582e-05 4.2072676e-05
00000000: b3b5 2037 a189 3d37 df3f cd37 dd55 1937
00000010: 1793 1438 18d3 c937 af1f 5937 533d 2538
00000020: 51a4 7537 2a22 ee37 0603 5037 3bdb d537
00000030: 12dc 9537 6d01 1638 8dab de36 6710 9038
00000040: bf76 2c37 11e2 6437 59fb d737 2100 a638
00000050: 5e2e 2e38 4ddd 1c37 4b3c 2538 4ea5 8938
00000060: 9ff0 ed38 cddd 1338 35a0 2438 72ef 1538
00000070: 802c a837 721a 2638 8491 b637 53bb 9a37
00000080: 366f 0d37 9789 0937 39df fe37 3aa8 7237
00000090: 4675 ad37 638f b238 1b98 1e37 4fca ba38
000000a0: 8903 c637 99fc 0137 3b0b 0a37 78cd 7637
000000b0: 3177 3038

max_exp_avg_sq f4 [45]
9.579048e-06 1.185672e-05 2.4467647e-05 9.139502e-06 3.5422938e-05 2.4059365e-05 1.2941585e-05 4.1339383e-05
1.4641396e-05 2.838772e-05 1.239847e-05 2.5493666e-05 1.8488943e-05 3.5764115e-05 6.6360867e-06 7.238857e-05
1.0300418e-05 1.3642494e-05 2.574704e-05 7.915521e-05 4.3657477e-05 9.834165e-06 3.9395218e-05 6.8111585e-05
0.000120319986 3.6032623e-05 3.924985e-05 3.574737e-05 2.0047883e-05 4.129961e-05 2.1763852e-05 1.844546e-05
8.438461e-06 8.1978715e-06 3.0383106e-05 1.5349386e-05 2.0677817e-05 8.514409e-05 9.452949e-06 8.906854e-05
2.3605086e-05 7.747812e-06 8.622557e-06 1.4710582e-05 4.2072676e-05
00000000: b3b5 2037 3aec 4637 df3f cd37 dd55 1937
00000010: 1793 1438 18d3 c937 af1f 5937 d363 2d38
00000020: 51a4 7537 2a22 ee37 0603 5037 3bdb d537
00000030: b418 9b37 6d01 1638 8dab de36 51cf 9738
00000040: f5cf 2c37 11e2 6437 59fb d737 2100 a638
00000050: dc1c 3738 6bfd 2437 4b3c 2538 21d7 8e38
00000060: 4d54 fc38 bc21 1738 35a0 2438 72ef 1538
00000070: 802c a837 1e39 2d38 8491 b637 53bb 9a37
00000080: ea92 0d37 9789 0937 39df fe37 8ec2 8037
00000090: 4675 ad37 638f b238 1b98 1e37 4fca ba38
000000a0: 8903 c637 99fc 0137 9aa9 1037 78cd 7637
000000b0: 3177 3038

exp_avg f4 [3, 45]
-0.0026173748 0.0033353486 -0.007227446 0.015564542 0.015871301 0.006086449 -0.0002005825 -0.009355257
0.016639573 0.0029709747 -0.0019285555 -0.013194066 0.011216536 -0.012078736 0.007470919 0.0062034456
0.0077554355 0.0028558911 -0.0070505254 0.016877607 0.00028525208 0.002050431 0.026008993 -0.004894813
-0.007118409 0.0015722576 0.014265783 0.0068009123 0.012826213 0.0015024914 -0.009148762 0.0037066864
0.012185376 0.0062577734 0.023586515 0.0023239735 0.010056002 -0.014527868 -0.020574838 0.0025701132
-0.003349129 0.013342904 0.032190096 0.0039473246 0.0032851314 0.012089188 0.009121322 -0.01184268
-0.010926501 -0.0028725888 -0.0006365108 -0.00057705643 0.00092867867 0.003031702 -0.0010921576 -0.003256803
-0.003957022 -0.0028680523 -0.003675171 0.002959052 -0.007850246 0.010641686 -0.014336991 -0.008755646
-0.0007274455 -0.0053915177 0.00086529 -0.015213488 0.009550275 0.008989678 -0.0053184675 0.005503622
0.0030734832 0.0035733595 0.0018514113 0.012939091 -0.009273117 -0.007940216 -0.0075343316 0.00050429243
-0.0043551424 -0.0010715196 0.016413646 0.0028765523 0.00035078623 0.0037371195 -0.0047234404 -0.0069912057
-0.006772726 -0.0024858108 0.006870974 -0.018259823 -0.034021486 -0.031676754 -0.009978694 0.021101577
0.0101944525 0.00072016486 -0.015271803 -0.010109765 0.022305379 0.021776497 -0.035832014 0.0062422655
0.0058005233 -0.005398044 0.0071060825 0.035819646 -0.025689188 -0.0344923 -0.012000199 -0.008598213
-0.01799011 0.014392278 -0.01596655 -0.010769026 0.02850911 0.0055613485 -0.016667953 -0.012439261
-0.0035282336 0.028916406 0.009684303 -0.016391797 -0.012231798 0.0041532204 -0.034953903 0.04291584
0.01884336 -0.02461125 0.021470815 -0.015990557 0.0048180055 -0.013252846 0.0070947604
00000000: 4388 2bbb dd95 5a3b 36d4 ecbb 6c02 7f3c
00000010: 8804 823c d670 c73b 7453 52b9 cb46 19bc
00000020: b74f 883c afb4 423b 96c7 fcba ec2b 58bc
00000030: 90c5 373c e4e5 45bc 9cce f43b 4646 cb3b
00000040: 4f21 fe3b e729 3b3b 1808 e7bb e842 8a3c
00000050: e38d 9539 8660 063b d010 d53c ab64 a0bb
00000060: 8b41 e9bb 3614 ce3a 08bb 693c 30da de3b
00000070: 0925 523c 3fef c43a b0e4 15bc e1eb 723b
00000080: 2ca5 473c 020e cd3b 8238 c13c ce4d 183b
00000090: eec1 243c 4b06 6ebc 908c a8bc 586f 283b
000000a0: 107d 5bbb 329c 5a3c c3d9 033d 8f58 813b
000000b0: 5c4b 573b bb11 463c 9971 153c cd07 42bc
000000c0: 1105 33bc 0b42 3cbb 84db 26ba 9a45 17ba
000000d0: 9272 733a 85af 463b ba26 8fba 1670 55bb
000000e0: e8a9 81bb eff5 3bbb 23db 70bb a8ec 413b
000000f0: 519e 00bc 775a 2e3c b3e5 6abc d773 0fbc
00000100: 0bb2 3eba 54ab b0bb a1d4 623a fe41 79bc
00000110: c278 1c3c 7149 133c 8a46 aebb ba57 b43b
00000120: 7e6c 493b 062f 6a3b 0eab f23a 7bfe 533c
00000130: 46ee 17bc ae17 02bc 8ee2 f6bb 7e32 043a
00000140: 95b5 8ebb 3b72 8cba e975 863c 8a84 3c3b
00000150: bbe9 b739 76ea 743b 17c7 9abb 7c16 e5bb
00000160: beed ddbb fce8 22bb e825 e13b a095 95bc
00000170: 1d5a 0bbd 7cbf 01bd ad7d 23bc 37dd ac3c
00000180: a206 273c 72c9 3c3a 9636 7abc 6ea3 25bc
00000190: c5b9 b63c a064 b23c 97c4 12bd eb8b cc3b
000001a0: 5112 be3b 13e2 b0bb 24da e83b 9fb7 123d
000001b0: 2272 d2bc cc47 0dbd 7c9c 44bc 85df 0cbc
000001c0: ff5f 93bc 97cd 6b3c 48cc 82bc 9270 30bc
000001d0: f08b e93c f93b b63b 3b8b 88bc 0bce 4bbc
000001e0: f039 67bb 19e2 ec3c e9aa 1e3c 1748 86bc
000001f0: e167 48bc bd17 883b d32b 0fbd 85c8 2f3d
00000200: 645d 9a3c 889d c9bc 90e3 af3c a1fe 82bc
00000210: 5ce0 9d3b 7722 59bc 2a7b e83b

exp_avg_sq f4 [3, 45]
0.00010356825 5.865824e-05 4.5170714e-06 8.345437e-05 2.3203675e-05 1.5960435e-05 0.00017495605 1.9233148e-05
6.676401e-05 7.419599e-05 1.21887115e-05 6.367483e-05 4.1210347e-05 1.962001e-05 2.5438669e-05 5.493577e-05
2.1639189e-05 6.3168277e-06 1.8429499e-05 0.00017926452 3.855602e-05 4.804124e-05 6.591873e-05 6.152561e-06
3.4233788e-05 3.879833e-05 4.988596e-05 4.8871036e-05 1.2796422e-05 3.4006935e-05 9.502095e-05 1.5418622e-05
4.7737092e-05 9.829731e-05 0.00020906854 2.858192e-05 1.1592534e-05 3.9863186e-05 2.3657281e-05 2.6030932e-05
1.9811094e-05 6.840401e-05 0.00057528896 4.4264045e-05 1.4292357e-05 2.1236308e-05 2.6923135e-05 4.0991436e-05
2.3378638e-05 6.8011113e-06 1.595347e-05 1.2404563e-05 2.5242027e-05 2.6474158e-06 5.7681145e-06 5.631585e-06
2.6526013e-06 5.4982024e-06 1.25758825e-05 1.673952e-05 0.00010160073 2.9406572e-05 6.211691e-05 4.2632415e-05
9.024939e-06 7.0612477e-06 1.7959168e-05 9.033861e-05 6.356349e-05 2.0566034e-05 6.057436e-06 6.7074716e-06
2.9933368e-05 7.9250485e-06 4.188243e-06 3.986609e-05 2.7221859e-05 5.8314272e-05 8.956696e-06 2.4952578e-05
1.4674723e-05 1.0821924e-06 7.490374e-05 9.881585e-07 2.2116972e-06 8.078816e-06 7.084238e-06 1.6118865e-05
8.277095e-06 3.3044795e-05 1.9486028e-05 0.00038443547 0.0003378865 6.46365e-05 5.8260186e-05 0.0002539854
6.672506e-05 9.632209e-05 6.230717e-05 1.8282542e-05 8.18024e-05 0.000100831494 0.00035913853 0.00011544729
6.265204e-06 3.4332694e-05 1.3946489e-05 0.0008665441 0.00015996252 0.0009783664 0.00011287454 0.00017025559
5.258569e-05 3.4524634e-05 0.000499878 3.03772e-05 0.00018124335 1.7297232e-05 9.27206e-05 1.5067649e-05
4.5981345e-05 0.00029684315 0.0002804118 0.00043917928 0.00026764546 5.8261172e-05 0.00015156403 0.0006695882
7.370296e-05 0.0001673669 5.910603e-05 2.841935e-05 0.0006429803 1.7284096e-05 1.0984873e-05
00000000: c832 d938 ce07 7638 5991 9736 3904 af38
00000010: 83a5 c237 c6e2 8537 6874 3739 df56 a137
00000020: a803 8c38 ab99 9b38 1e7e 4c37 2a89 8538
00000030: 46d9 2c38 a795 a437 2065 d537 d56a 6638
00000040: ce85 b537 23f5 d336 0c99 9a37 f4f8 3b39
00000050: 36b7 2138 e37f 4938 d93d 8a38 1972 ce36
00000060: 4096 0f38 64bb 2238 a43c 5138 e0fa 4c38
00000070: 37b0 5637 aba2 0e38 fc45 c738 3d57 8137
00000080: 5039 4838 f724 ce38 6939 5b39 35c3 ef37
00000090: 8e7d 4237 c532 2738 a073 c637 005d da37
000000a0: 0030 a637 2074 8f38 fdce 163a 28a8 3938
000000b0: 35c9 6f37 a024 b237 fed8 e137 38ee 2b38
000000c0: 3e1d c437 1a35 e436 d1d3 8537 311d 5037
000000d0: d7be d337 42aa 3136 ba8b c136 f2f6 bc36
000000e0: 5803 3236 337d b836 01fd 5237 d86b 8c37
000000f0: 7a12 d538 22ae f637 c344 8238 35d0 3238
00000100: d169 1737 a8ef ec36 05a7 9637 2c74 bd38
00000110: 644d 8538 3985 ac37 fb40 cb36 be10 e136
00000120: 6b19 fb37 d3f5 0437 bc88 8c36 e335 2738
00000130: 7f5a e437 7996 7438 b744 1637 4151 d137
00000140: 7533 7637 d93f 9135 a415 9d38 dea0 8435
00000150: ab6c 1436 408a 0737 24b5 ed36 0037 8737
00000160: dadd 0a37 9499 0a38 ed75 a337 0e8e c939
00000170: 5c26 b139 758d 8738 665c 7438 5829 8539
00000180: beee 8b38 8700 ca38 e8aa 8238 765d 9937
00000190: 548d ab38 7f75 d338 c24a bc39 4b1c f238
000001a0: b139 d236 7300 1038 b7fb 6937 ca28 633a
000001b0: 9dbb 2739 873c 803a 0fb7 ec38 a386 3239
000001c0: 748f 5c38 8bce 1038 3f0a 033a 8ad2 fe37
000001d0: 240c 3e39 8619 9137 fe72 c238 0fcb 7c37
000001e0: 18dc 4038 9da1 9b39 3c04 9339 a541 e639
000001f0: c452 8c39 755d 7438 29ed 1e39 4e87 2f3a
00000200: fa90 9a38 367f 2f39 9ee8 7738 1766 ee37
00000210: ad8d 283a 50fd 9037 ac4b 3837
