logs/my_logs/version_5/checkpoints/epoch=4999-step=5000.ckpt (torch, 32255 bytes, 25 tensors)

encoder.dense1.weight f4 [45, 28]
00000000: e117 3dbd 2a0c bd3d c258 b43c e1cc f53b
00000010: ca0a a5bc 62bd 9f3d 9edc 513d 0e07 143c
00000020: 3f84 c3bd 8842 1d3d 074c a43a 9a13 b93a
00000030: 068c ae3d 408d 143e 5790 eebc b05f fe3d
00000040: 6ad6 183d fe96 a13c 8a86 dbbd 103b 113e
00000050: 6474 043e 1f39 3f3e e190 7c3d 25df a23b
00000060: 534c 4f3d b894 a83d a818 6bbe 39b8 263d
00000070: b352 e9bc efe8 b7bb a864 d13d 79ed ef3d
00000080: cfc6 ff3d 4c33 09be f66b fbbd 0565 193d
00000090: f5ca dcbd fceb b33e c1dd 40bc d7ef 11be
000000a0: e2cf 373e 1702 e8bb 17f4 7dbc 33e9 a03d
000000b0: 5db7 aabd 2b42 173d 9575 733d 71cd e0bd
000000c0: b242 db3d 2fdd 7c3d 875f 1e3e 8fb3 9c3d
000000d0: 1867 463e 8adc bf3d 8593 6b3e 2a04 603d
000000e0: a38b fb3b 2d67 1f3e acdc 893d 0429 bd3d
000000f0: 2f89 fdbd 000b 553d 57ce 55be 6d12 ef3d
00000100: 94b0 73bc a3d3 a9bc 3a82 81bc d7e2 0f3e
00000110: 3622 cfbd 578d a93c 1f65 11be 414b 5abd
00000120: 0326 d13d 9e75 563d 78b7 99bd e2ac 38be
00000130: 98a1 e93d bbb5 9b3d a184 a03c 4ad4 cf3d
00000140: 0deb 92bc 2a7d 073d 27ea aebd 952a 90bc
00000150: a13a 723e 464a b83d 1de7 633e 17fa 603c
00000160: 3a2c d23d 2f0f 96bd f791 02be 2640 ccbd
00000170: d877 283c dfe4 2ebd fc0e 663d 4f22 9c3d
00000180: d207 703e 80e1 263e 9d6c 923d 6d87 3bbe
00000190: 9727 8a3d 59d0 763d 5788 4fbd 2b9d cfbd
000001a0: cf1f f33d 3a59 eb3b 7567 a03d ce60 9dbd
000001b0: 35dc bf3d 8af3 413e ac3b 583e e6a4 e1bd
000001c0: e8e3 72bd 71e5 e63d 8969 61bd 8b0e e53d
000001d0: e161 2f3d 8497 233d f9a2 4b3e 011b e43d
000001e0: 6690 0e3e 3097 a13d 0fc8 363d 0314 b7bd
000001f0: 40c7 ca3c 7ec0 02be c59d a03d 17f0 063e
00000200: eeca 873e c834 333e ccb9 153b 3127 953d
00000210: b23c 3f3c f66e 133e 6624 123e 2571 2cbd
00000220: aec3 773c 04df 923e 5ba1 933d b138 433e
00000230: 66d2 4e3d 211f 85be 482f f4bd 23d9 a1bc
00000240: d347 4fbd 75b5 4a3d 592d 613c d172 16be
00000250: d04d ce3c 1d53 923d a14a 073e 41d8 413e
00000260: 3305 eb3d 64dc ae3d e045 0a3d ae2b a83d
00000270: 5f14 8bbd 7c08 ad3d c006 813d 0bf5 653c
00000280: 6fc8 5dbd 3168 82bc 5404 e93d 7fcb 7bbe
00000290: defa 783e 48c2 d5bc dea7 77bc fba8 4bbc
000002a0: da5f d13d b0bb 023d 0d0b 243e 8383 12bc
000002b0: d709 6cbc c740 3c3c 2244 4b3e b09f 8d3d
000002c0: 2d2b 533e 12e2 783c 2cd6 153e 6581 df3c
000002d0: 5a6e 9dbd 8cf4 aa3c ec30 adbd dd18 91bd
000002e0: a8dd 36be 53d4 0b3c 75bb 413e 5290 6c3d
000002f0: 1015 313d 70ad 753e c842 eb3c 9a0d 043e
00000300: d03e 403c 6161 9f3e c3b9 cbbd 615b d23d
00000310: 408f a63c 0941 8f3b 548a 873b 13b8 043d
00000320: dd22 103d f02d 183d d3eb dcbc 6725 373d
00000330: b2a0 493d d31d bc3c 7afd 1b3d 9ecf bf3d
00000340: 5851 323a e208 823d 8e27 c4bc 16e9 af3d
00000350: 724b a53d a55c 863d d158 09be effd 19be
00000360: d1b7 f9bd 804c 913d a4c2 05be 5ae1 22be
00000370: 4bed 7a3d 5b58 253c 1373 b23d a9e1 503d
00000380: d343 dc3c 730c 7dbd a2b3 e2bd e1b4 22bb
00000390: d58b f8bc b6d1 c33d a015 1c3e 7eff 3a3e
000003a0: e407 18be 8752 5fbe 2434 7bbd 026f 833d
000003b0: da81 173e 278d 4b3d a0e5 f33c 5e4d 40be
000003c0: 672b 1a3e bc70 f33c dd44 abbc 3bcf b5bd
000003d0: 2bbc ab3e fe4b a2bd adc7 22be 97b7 37be
000003e0: b72f cebd 8b07 ac3d b2cf 46be 666c 99bd
000003f0: afed b8bd 1af3 eb3d 0514 4d3c f3e9 94bd
-0.04616535 0.09230836 0.02201498 0.00750123 -0.020146746 0.07799794 0.051235788 0.009034885
-0.09546708 0.038393527 0.0012534865 0.0014120222 0.08522801 0.14507008 -0.029121561 0.12420595
0.037313856 0.019725319 -0.10719021 0.14182687 0.12935024 0.18674134 0.061661605 0.0049704486
0.050609898 0.08231491 -0.22958624 0.040703032 -0.028481817 -0.0056124846 0.10224277 0.11715216
0.124890916 -0.13398474 -0.12276451 0.037449855 -0.107808985 0.3514098 -0.01177162 -0.14251648
0.17950395 -0.0070803273 -0.01550009 0.07856979 -0.08335755 0.036928337 0.059438307 -0.10976685
0.107060805 0.061734375 0.15466128 0.076514356 0.19375265 0.09368236 0.23005493 0.05469147
0.007676558 0.15566702 0.06731543 0.09236339 -0.12379681 0.052012444 -0.20879494 0.11673436
-0.0148736425 -0.020730799 -0.015809167 0.14051376 -0.10113947 0.020697279 -0.14198731 -0.053294424
0.10212328 0.052358262 -0.07505697 -0.180347 0.11407775 0.07603022 0.019594492 0.10147913
-0.017934347 0.03307835 -0.08540755 -0.01759843 0.23655178 0.089985415 0.22256131 0.013731501
0.10262342 -0.07327115 -0.12750994 -0.09973173 0.010282479 -0.042698737 0.056166634 0.07623731
0.23440483 0.16296959 0.071496226 -0.1831338 0.067458324 0.06025729 -0.050667133 -0.10137399
0.118713014 0.0071822675 0.07832233 -0.0768448 0.09368173 0.18940559 0.21116513 -0.1101778
-0.05929938 0.11274231 -0.055032287 0.111844145 0.042817954 0.03993942 0.19886388 0.11137963
0.13922271 0.07890165 0.044624384 -0.08939364 0.024753213 -0.12768742 0.07842592 0.13177525
0.2652201 0.17500603 0.002284634 0.07282866 0.011672186 0.14397797 0.14271697 -0.04210009
0.015122337 0.28685772 0.072085105 0.19064595 0.05049362 -0.26000312 -0.11923081 -0.01975686
-0.050605606 0.049489457 0.013743722 -0.14692236 0.025183588 0.07144759 0.13212062 0.1893015
0.11475601 0.0853813 0.033758044 0.08211456 -0.06790995 0.08448884 0.063001156 0.014035474
-0.054146226 -0.015918823 0.11377779 -0.24589346 0.24314448 -0.026093617 -0.015115706 -0.012430425
0.1022336 0.031917274 0.1601984 -0.008942488 -0.014406643 0.0114900535 0.1985021 0.069152236
0.20621939 0.015190618 0.14632481 0.02728338 -0.076870635 0.020868562 -0.08456597 -0.070848204
-0.17857993 0.008534509 0.18919165 0.057754822 0.043232977 0.23991942 0.028718367 0.12895814
0.011733726 0.31128982 -0.099475406 0.102713354 0.020331979 0.0043717665 0.004136363 0.03240211
0.0351895 0.037153184 -0.026967919 0.044713404 0.049225517 0.02296344 0.03808353 0.09365772
0.00068022823 0.063493505 -0.023944642 0.085893795 0.08071031 0.06560639 -0.13412787 -0.15038274
-0.12193263 0.07094669 -0.13062531 -0.15906277 0.061261456 0.010091866 0.08713355 0.050996456
0.02688781 -0.06177945 -0.110694185 -0.002482705 -0.030340115 0.095614836 0.15242624 0.18261525
-0.1484676 -0.21808825 -0.061329022 0.064176574 0.14795628 0.04969516 0.02977258 -0.18779513
0.15055619 0.029716842 -0.02090686 -0.08877417 0.33541998 -0.079246506 -0.15896483 -0.17941128
-0.10067695 0.08399876 -0.19415167 -0.074913785 -0.090297095 0.11520977 0.01251698 -0.07271185

encoder.dense1.bias f4 [45]
00000000: 8c19 abbe c9b7 bebe d076 ac3e 9ebd 3ebe
00000010: 832c d8bd 4ecb cd3e 485f 2abe c17e 5f3e
00000020: b9d6 c5bb d2da 303d 506f 423e b8e2 02be
00000030: 83a1 e53e 8f65 bdbe e924 513d b440 3abd
00000040: b215 15be c5fe 163e 997f ca3e 6cf0 5e3e
00000050: e3b1 07bd a04a 913e 0305 afbd 0979 bb3e
00000060: 2684 6bbe a314 d13e 91aa 813e 736e ad3e
00000070: 03ef 993e 4461 003d 3d75 ec3d 4133 38bd
00000080: 3b72 433e d15a 24be 1b19 96be f54c 983e
00000090: f90c 2ebe bcbe 863e 42c4 7f3e 51ad e03e
000000a0: 89aa daba bcfc 1dbe 13cd 7b3e d752 f93c
000000b0: 2486 733e
-0.33417928 -0.37249592 0.33684397 -0.1862702 -0.10555365 0.40194172 -0.1663791 0.21825697
-0.00603756 0.043177433 0.18987775 -0.12781799 0.44849786 -0.36991546 0.05106059 -0.045471862
-0.14559057 0.14745624 0.39550474 0.21771401 -0.03312863 0.28377247 -0.08545878 0.3661578
-0.2299963 0.40836057 0.25325444 0.3387333 0.30065164 0.03134276 0.11545799 -0.044970755
0.19086544 -0.16050269 -0.2931603 0.29746214 -0.16997136 0.26317394 0.2497721 0.4388223
-0.0016682904 -0.15428442 0.24589948 0.030435009 0.2378164

encoder.dense3m.weight f4 [3, 45]
00000000: 189e 71be 5676 b8be 729a ce3e ec63 32be
00000010: ed46 d43d a546 813d 41a1 e0bc 93ac 923c
00000020: 97a6 243e ab3b f2bd 1519 a83d 0811 86bc
00000030: f057 5ebc 361c 9dbe 316a 71bc 96a9 f73c
00000040: 176b 4bbe 7595 823e f6e1 f33d 6498 613e
00000050: 841c ac3d 6821 f53d 082e ae3c 3c83 283d
00000060: 6f6f 94be 17e0 af3e 6d5e 963e 06e0 0a3c
00000070: 42f6 493e 1c56 603e c929 df3c 406f 303e
00000080: b7d5 d03d 971a cfbc 6d49 51be 6350 813d
00000090: 641c 0e3d f0a8 4a3e c747 be3d 79aa 5a3e
000000a0: dd60 3fbe 5232 93be 6e50 7c3e dfbe fcbd
000000b0: fac6 bd3d 86ba 5e3d 4b90 613e 98da 99ba
000000c0: a613 04be 73d9 d83d 69c5 fabe ce13 55bd
000000d0: fc89 ebbd 552d cf3c a986 6e3e 910d af3d
000000e0: 5d5b d43e 053d 14bc 5d8c a6ba 5c62 893e
000000f0: 648c 0ebd 02a6 c63e 0572 483d 1449 1dbe
00000100: a261 38be d9f0 49bb f457 e1bd 5a96 36bb
00000110: e6f7 66be 9630 3b3e 21fd f0bc 5d30 5e3a
00000120: 04c0 d2bb 5b09 9d3d 8734 a03d 5c68 9dbe
00000130: abb1 c63d 7ed9 823c c48a 13be db04 9e3e
00000140: 98e4 08bf b544 953e c503 5bbe 1630 19bd
00000150: 4bba 543e ae09 3bbc 21d5 193e 611a b53c
00000160: 629e 4dbd 9e0b 48be 6acb 89be 258c 843d
00000170: 34a8 593e 62fc 2cbe 448c 79be 50e3 8b3e
00000180: 7cb6 70be 9000 e63d 9348 e93b ad66 363e
00000190: 96aa 2d3e 518f d9bc 24a7 b63e ed0c 66be
000001a0: b712 c23d 7b44 0dbd b61f bc3d a585 8cbb
000001b0: b4a9 853e 7a50 5bbd b10f a6bc bc9b f53d
000001c0: 7825 a5bd 9ee3 5c3e b9fa 98be 608c 9a3e
000001d0: 05b6 253c 6cd8 8f3e a636 303e 2d2f 90be
000001e0: b650 f33b 9fe5 71be ed31 ca3c 0b4b 97be
000001f0: 860d 03be ed44 623e f423 62bb fc7e 933e
00000200: 1aae 033e a77b 713e 8883 d03d 47fb 1a3e
00000210: cdb8 7b3e 30bf 733e d58f 583c
-0.23595464 -0.36027783 0.40352207 -0.1742093 0.103650905 0.063123025 -0.027420642 0.017904555
0.16079174 -0.11827787 0.08207909 -0.016365543 -0.013570771 -0.30685586 -0.014734791 0.030232232
-0.1986507 0.25504652 0.11908333 0.22030789 0.084038764 0.11969262 0.021262184 0.04114078
-0.28991267 0.34350654 0.29368916 0.008476263 0.19722846 0.21907848 0.027241604 0.17229939
0.10197013 -0.025281234 -0.20438166 0.06314161 0.034695044 0.19791007 0.09291034 0.21354093
-0.18689294 -0.2874933 0.24640056 -0.12341093 0.092664674 0.0543771 0.220277 -0.001173812
-0.1289812 0.1058835 -0.48978737 -0.05202084 -0.11500928 0.02529017 0.23293556 0.085475095
0.41475955 -0.009047751 -0.0012706626 0.26832855 -0.034801856 0.3879853 0.048936862 -0.15359908
-0.18005994 -0.0030813722 -0.11003104 -0.0027860613 -0.22555503 0.18280253 -0.029417576 0.00084758346
-0.0064315815 0.076678 0.07822519 -0.30743682 0.09701856 0.015972849 -0.14408404 0.3086308
-0.53473806 0.29153982 -0.21388157 -0.037399374 0.2077419 -0.011415882 0.15022708 0.022107305
-0.050199874 -0.19535682 -0.26913005 0.06472043 0.2125557 -0.16893151 -0.24369913 0.27321863
-0.23507112 0.11230576 0.007119247 0.17812605 0.16959605 -0.026557596 0.35674393 -0.22465868
0.09476226 -0.034489136 0.09185736 -0.0042883926 0.26106036 -0.053543545 -0.020271154 0.119925946
-0.08063787 0.21571204 -0.29878786 0.30185223 0.010114198 0.28094804 0.17208347 -0.28160992
0.007425393 -0.2362275 0.02468201 -0.2954944 -0.12798128 0.22096606 -0.0034506293 0.2880782
0.12859383 0.23582326 0.101813376 0.15134917 0.24582215 0.23803401 0.013217886

encoder.dense3m.bias f4 [3]
00000000: 615a ab3c 49f7 78be 6f23 da3d
0.02091712 -0.24313082 0.1065129

encoder.dense3s.weight f4 [3, 45]
00000000: a3e8 fa3d 964c 0e3e a451 88bd 1d42 a53b
00000010: e58e ddbd 96b7 16bd 97b4 e23d 9de9 ad3d
00000020: 7b2f 7cbd f5e0 bc3d 8fce c6bb dcb6 ba3d
00000030: c91c 5b3d ece9 c83d 6080 a83d db5f 553d
00000040: 3141 633d 3087 fb3c 4170 0cbe c5a1 81bd
00000050: c812 68bd 5240 71bb 8b6a 4dbd 018d 643c
00000060: 50f2 5a3b fec5 5cbd 6a9f d53e 13e1 a2bd
00000070: 6ace a13d 1493 833d de80 5d3d 2424 973c
00000080: d1a0 383d 7a72 c33c ed09 be3c 052a 27bd
00000090: 0e7a eb3d 3e53 adbb 0889 cbbd fd75 3ebe
000000a0: f03c b2bd 6f57 00bd 07b4 c8bd 8024 b53d
000000b0: ce37 2abd eafd 1e3e 0ed4 913d 8a1e 103d
000000c0: db1e 213d a03b 15bd a04e 32bd 6ef8 803d
000000d0: 3761 d9bd 7ce8 dfbd 7967 a7bd 33fe 9d3d
000000e0: 9c5c 97bd 4a43 e63c 0c5e 26bc 2210 be3b
000000f0: f1dc c33c 8941 b9bc 389b ccbd 381b e0bd
00000100: 7b0a 483d 33ab 2ebd 6c40 a6bb 98c1 8a3c
00000110: 08c1 dfbc 2896 31bd ac96 cd3c 8d4e 6abc
00000120: f53c 40bd 484b 033d 8b82 823d 4e86 9bbd
00000130: e827 95bd 9347 bebd af83 4fbd c22d 9e3d
00000140: d475 8e3c 2e09 1e3e 16b8 87bd 13ad 14be
00000150: 930f fcbd 65a9 433d 6098 823b 8873 d5bd
00000160: 483a 03bd 1688 4e3c 1593 21bc f9dc e73b
00000170: 48cb ecbd 2a2e b93d 8ffd 9f3d 6685 20bd
00000180: 9b93 af3c a94d a9bc e0eb 2abd 6746 d83c
00000190: d15d 16bd d0e6 b03d e7f8 d63e 32de b93d
000001a0: 8f86 313d fcc1 5bbc 5c2d 7fbd 57a8 bd3c
000001b0: 3714 21be ecdb 18be b650 11bd 65f2 03be
000001c0: ac0a cfbc 8533 25be e369 463d 8c21 80be
000001d0: 40c8 693d 1a1f 29bd 7f25 d73b 115c 96bd
000001e0: 5d3b 483d 1eab 363c 5029 81bd 08d7 09bd
000001f0: ab52 663d a237 d1bb 166d aebd 2d77 92bd
00000200: 1e5c 5fbd 1ec8 003d 2aef 6dbc fa06 1b3d
00000210: 32e8 bd3b 4bf6 c1bd ee99 0a3d
0.12251403 0.13896403 -0.06656197 0.0050432817 -0.108182706 -0.036796175 0.11069601 0.08491824
-0.06156872 0.09222595 -0.006067104 0.09116909 0.05349425 0.09810242 0.082276106 0.052093368
0.055482093 0.03070411 -0.13714696 -0.06329683 -0.056658536 -0.003681202 -0.050150435 0.013949634
0.003340859 -0.053899758 0.41723186 -0.07953086 0.079006985 0.06424537 0.054077975 0.01844985
0.04507524 0.023858298 0.023198092 -0.040811557 0.114978895 -0.0052894643 -0.09938246 -0.18599696
-0.08703029 -0.031333383 -0.097999625 0.088448524 -0.041557126 0.15526548 0.07120524 0.035185374
0.039336067 -0.036433816 -0.043532014 0.06297384 -0.106142454 -0.10933015 -0.08174033 0.077145
-0.07390711 0.028108258 -0.010154258 0.005800263 0.023909064 -0.022614257 -0.09990543 -0.109426916
0.04883812 -0.042643737 -0.0050735977 0.016938016 -0.027313724 -0.04335609 0.02509626 -0.0143009545
-0.046933133 0.032054216 0.06372555 -0.07593976 -0.07283002 -0.092909954 -0.050662693 0.07723571
0.01739017 0.1543319 -0.066269085 -0.14519148 -0.12307658 0.04776897 0.0039854497 -0.104224265
-0.032038003 0.012605688 -0.009861727 0.0070759025 -0.1156221 0.09042008 0.07812034 -0.03918972
0.021432688 -0.020666914 -0.041728854 0.026400758 -0.036710564 0.08637774 0.41986772 0.090755835
0.043341216 -0.013412949 -0.062299117 0.02315156 -0.15730368 -0.14927644 -0.035477363 -0.12885435
-0.025273643 -0.16132934 0.048440825 -0.25025594 0.05707574 -0.041289426 0.006565749 -0.07341779
0.04888474 0.011149196 -0.06306708 -0.033652335 0.056231182 -0.006384806 -0.085169 -0.07151637
-0.05453121 0.031440847 -0.014522353 0.03784845 0.005795502 -0.09470805 0.033838205

encoder.dense3s.bias f4 [3]
00000000: 837a 16be 4865 fabd 2648 29be
-0.14695172 -0.12226349 -0.16531429

decoder.linear.bias f4 [28]
00000000: 62f2 1c3f 3a74 103e 4e70 0cbf affc 743f
00000010: 7069 7e3f 7bd6 9bbf 7241 30bf 416f 9d3f
00000020: 4594 0a3f afef c5bf d8b5 31be 8cf7 be3f
00000030: 6fca 0bbf b455 343e 3890 b2be eca8 6a3e
00000040: 07d7 5fbe 6223 113f c395 ba3e f58e 2abd
00000050: a0f0 0dbf 3ec0 6fbf 3441 843e 82cb 46bf
00000060: f9f8 ebbd abfa 86bf b797 8b3f c51d cfbf
0.61307347 0.14106837 -0.54858863 0.95698065 0.99379635 -1.2174829 -0.6884986 1.2299577
0.5413249 -1.5463771 -0.17354524 1.4919295 -0.54605764 0.17610818 -0.34875655 0.22916001
-0.2185937 0.56694615 0.36442384 -0.04164024 -0.5544529 -0.93652713 0.25830996 -0.7765428
-0.11522097 -1.0545248 1.0905675 -1.618096

decoder.linear.weight_orig f4 [28, 3]
00000000: f817 47bf 5047 933d 80ec 113e 4e13 45be
00000010: a9bd b13f 8005 e2bc d44a 03bf ac87 6b3e
00000020: 9830 bfbf 34ad f53e 38af 033f c314 68bf
00000030: f86f a0bd bc2a 463e f91b 03bf fcbd 043f
00000040: 14e5 dcbd 6549 b2bf 2d01 8abf 266c ad3e
00000050: c6da d2bf 8b8c b5be 51cc ac3f 44d2 d63e
00000060: 685f 32be c63d b7be 663d a7bf 4120 e7bf
00000070: 38c0 5c3e c0a4 623d f3d2 b3bf 82bd c83e
00000080: 8f39 cbbe 8e0c 2abf 4cfb 7b3e 5716 a8bf
00000090: 5539 f5bf 4c48 51be 483b db3d 8132 96bf
000000a0: 6266 8c3e b677 7abe 2820 fa3e b2eb af3e
000000b0: 0a7c e9bf d2d1 dbbf c886 5d3e 5646 b6bf
000000c0: ae5e c33e 8479 a33f 72df d6bf b62f 0e3f
000000d0: d0ba 963d e3db 99bf 3c0d 1c3e c48f a8bd
000000e0: f3bf afbf 5dbf bfbf b030 7c3d 7648 1ebf
000000f0: 9a55 a4bf 5ca1 0cbe 88a4 babf 583d eb3e
00000100: 884e b33e 03a5 a0bf 6664 f4be 5242 813f
00000110: 24ee c23e 6aa6 8ebe 6f84 ca3f 10c5 d03d
00000120: e101 84bf 3e76 a73e eefa 063f f8df 1d3e
00000130: 2e3a 40be 7998 f3bf 23a3 ebbf 5ab3 0d3f
00000140: 02a9 35be 0440 903e ec09 6c3e 1e55 70bf
-0.7777095 0.07191336 0.14250374 -0.19245645 1.3886005 -0.027590513 -0.51286054 0.23000973
-1.4936705 0.47983706 0.5143924 -0.9065668 -0.07833856 0.1935224 -0.5121456 0.51852393
-0.10785881 -1.3928648 -1.0781609 0.33871573 -1.6473014 -0.35458788 1.3499852 0.41957295
-0.17419207 -0.35789317 -1.3065612 -1.8056718 0.215577 0.0553329 -1.4048752 0.39207083
-0.3969235 -0.66425407 0.24607581 -1.3131818 -1.9158121 -0.20437735 0.107046664 -1.1734163
0.27421862 -0.24459729 0.48852658 0.3435951 -1.8240979 -1.7173407 0.21633446 -1.4240215
0.38158172 1.2771459 -1.678694 0.5554155 0.073598504 -1.2020229 0.15239424 -0.08230546
-1.3730453 -1.4980274 0.06156987 -0.61829317 -1.2838624 -0.13733429 -1.4581461 0.4594524
0.35020852 -1.2550358 -0.47732848 1.0098364 0.38072312 -0.2786134 1.5821666 0.10193837
-1.0313073 0.327074 0.5272664 0.15417469 -0.18772194 -1.9030906 -1.840916 0.55351794
-0.17740253 0.2817384 0.2305066 -0.9387988

decoder.linear.weight_mask f4 [28, 3]
00000000: 0000 803f 0000 0000 0000 0000 0000 0000
00000010: 0000 803f 0000 0000 0000 803f 0000 0000
00000020: 0000 803f 0000 0000 0000 0000 0000 803f
00000030: 0000 0000 0000 0000 0000 803f 0000 0000
00000040: 0000 0000 0000 803f 0000 803f 0000 0000
00000050: 0000 803f 0000 0000 0000 803f 0000 0000
00000060: 0000 0000 0000 0000 0000 803f 0000 803f
00000070: 0000 0000 0000 0000 0000 803f 0000 0000
00000080: 0000 803f 0000 803f 0000 0000 0000 803f
00000090: 0000 803f 0000 0000 0000 0000 0000 803f
000000a0: 0000 0000 0000 0000 0000 0000 0000 0000
000000b0: 0000 803f 0000 803f 0000 0000 0000 803f
000000c0: 0000 0000 0000 803f 0000 803f 0000 0000
000000d0: 0000 0000 0000 803f 0000 0000 0000 0000
000000e0: 0000 803f 0000 803f 0000 0000 0000 803f
000000f0: 0000 803f 0000 0000 0000 803f 0000 0000
00000100: 0000 0000 0000 803f 0000 0000 0000 803f
00000110: 0000 0000 0000 0000 0000 803f 0000 0000
00000120: 0000 803f 0000 0000 0000 0000 0000 0000
00000130: 0000 0000 0000 803f 0000 803f 0000 0000
00000140: 0000 0000 0000 0000 0000 0000 0000 803f
1.0 0.0 0.0 0.0 1.0 0.0 1.0 0.0
1.0 0.0 0.0 1.0 0.0 0.0 1.0 0.0
0.0 1.0 1.0 0.0 1.0 0.0 1.0 0.0
0.0 0.0 1.0 1.0 0.0 0.0 1.0 0.0
1.0 1.0 0.0 1.0 1.0 0.0 0.0 1.0
0.0 0.0 0.0 0.0 1.0 1.0 0.0 1.0
0.0 1.0 1.0 0.0 0.0 1.0 0.0 0.0
1.0 1.0 0.0 1.0 1.0 0.0 1.0 0.0
0.0 1.0 0.0 1.0 0.0 0.0 1.0 0.0
1.0 0.0 0.0 0.0 0.0 1.0 1.0 0.0
0.0 0.0 0.0 1.0

exp_avg f4 [45, 28]
00000000: f865 91b9 76c5 1e3b 1628 70ba 3017 2839
00000010: 4480 593a c5ed a7ba 12e8 81ba f82f b93a
00000020: 8dbc 46ba 5a2c 4dba 7958 d83a aee0 c6ba
00000030: 800b ed3a 389e 183a 9822 86ba ed13 c93a
00000040: f44e c4ba 0827 36b9 d093 4cb8 a80d b2b9
00000050: 7d66 e13a 849d 90ba e819 9b38 6af8 5c3a
00000060: ac50 3aba c092 cab9 202c 4a38 0b08 563a
00000070: ace9 cab9 96cc 0a3a 0e71 74ba 2865 0cb9
00000080: e657 beb9 ba81 baba af81 cbba 84cd da39
00000090: 3c08 32ba 41ae 61ba 82c3 ca39 3f52 03bb
000000a0: f888 67b9 e032 0539 6edc 89ba 500a 09ba
000000b0: 770e acba 8836 7bb9 1603 c4ba aaae 9dba
000000c0: 300f 133a 4622 d1ba fe2d cdb9 1048 6239
000000d0: 7c85 52ba 26d7 54ba 8b76 00bb a0d7 75b8
000000e0: 6254 043b 8430 c8ba b545 043b 8235 6e3a
000000f0: 7253 353a d398 143b aaec ff3a 002c 7e38
00000100: 531e b93a db07 bf3a 8635 0aba 5cc4 883b
00000110: 68c0 e4b9 4467 0e3a a83b 1e3b 0029 2239
00000120: a9a2 423b dc8e 413a ba51 de3a 3909 ea3a
00000130: 11c3 98ba ccfc f83a 5514 ce3a 8009 a8b9
00000140: 4dde 053b 7578 673a 41e7 fd3a 5050 00ba
00000150: 402d 9aba b903 763a 7e3c 92ba 7fd0 0aba
00000160: 0cd6 08ba 4c80 a7ba 3e8e 4bba 141f a8b9
00000170: 2704 60ba 5bb5 4aba a403 9239 c213 07bb
00000180: a27c a039 6b9f 00ba f49c b6ba 70f3 3339
00000190: 2da5 d0ba 6ab9 d9b9 4307 0cba b8bb 54ba
000001a0: 18d3 183a 2e7c 29ba 75db 71ba dc3a 1139
000001b0: dbfa acba c4cd a3b9 120e 3fba b853 e939
000001c0: 182f c338 abdd b53a 4721 29ba 06b1 09ba
000001d0: 9c28 6e3a ab1b 7639 c89f 4e39 1cd9 d639
000001e0: a2c6 feb9 ba4f 81b9 7fc1 443a 0665 d6b9
000001f0: 6203 ab3a 0650 9339 0a00 3cb9 e117 723a
00000200: 7ab3 7bba b873 fb39 0a9b 623a 1a10 da39
00000210: 07a1 343a 13ca f2b9 cdd9 aab9 5afa 2639
00000220: 6273 81b9 c095 19b8 e5b1 703a a2e4 9939
00000230: 1c6e 1aba e000 32bb fa42 6a3a 0081 043a
00000240: bb77 d6ba 2832 8e38 e16c 243a 648d d3ba
00000250: e7e4 763a c38a 063a 8da2 e0ba 62e7 d53a
00000260: 7c38 25bb c16e a0ba dc27 d639 3a7d c2ba
00000270: 0cbf e53a eac6 4cba ac7d 9ab9 b44a a1b9
00000280: b6dd 01bb 0dbf 0d3b d0fb 9b39 2a8d ceb9
00000290: 103b 2539 f6e3 4e3a 780f 9cb9 c42a a2b9
000002a0: 1893 0db9 da71 f33a 4452 78b9 c81b 4c39
000002b0: faa9 0a3a 9248 80b9 a06a 3637 a238 343a
000002c0: ee89 8fb9 e852 0a38 ef0e 693a 72f9 74ba
000002d0: 8d62 dc3a 9a80 c539 ba7b d3b9 c674 b43a
000002e0: 9423 30ba 4475 7d39 e658 f439 30d0 a539
000002f0: 5b41 ce3a 7d4b 00ba cc2a c5b9 8aee 6939
00000300: 98e9 46b9 808e a2b6 4c67 163a e2e9 453a
00000310: b078 38b9 a6b5 5cba ff18 463a 5f77 0a3a
00000320: 8cb0 aab9 d65e aa39 38c0 cf39 8833 fab8
00000330: be0e 343a 457a e339 d61e 08ba 83be 3c3a
00000340: 1089 1eba ec46 38b9 129c ea39 1cd9 8cb9
00000350: c745 783a 90a1 c3b8 60c1 d4b8 a05a fd38
00000360: 0cde 74b9 3a3e 2c3a 7057 1a39 46b7 18b9
00000370: aa8e 0d3a 7b70 8739 e036 9937 2cb9 a4b8
00000380: b32d 273a c4c6 e5b8 5f60 9639 c407 ab39
00000390: 9dd7 183a 8003 4f3a d117 1c3a 0bfa 8039
000003a0: 003c 143a 8233 d539 10a7 c7b7 b418 9b3a
000003b0: 0094 1b38 66f9 9539 4ca2 353a 88e7 8b38
000003c0: 1f1b 453a 4f54 0c3a 4642 423a 020c 2d3a
000003d0: d488 b1b9 2009 113a 0ecb e139 407a a137
000003e0: 09a3 303a 5162 d339 48e7 4a3a 14a0 3fb8
000003f0: d436 9eb8 a03d 40ba 3b7c ff38 67f9 f9b8
-0.00027732528 0.0024226583 -0.00091612467 0.00016030367 0.0008297006 -0.001281195 -0.0009911081 0.0014128676
-0.0007581197 -0.00078267383 0.0016505859 -0.0015173161 0.0018085092 0.0005821916 -0.0010233698 0.0015341021
-0.0014977143 -0.00017371413 -4.877505e-05 -0.0003396098 0.0017196682 -0.0011033271 7.3958014e-05 0.00084293506
-0.0007107358 -0.0003863778 4.8201648e-05 0.00081646506 -0.00038702541 0.0005294768 -0.0009324708 -0.00013389124
-0.00036305113 -0.0014229335 -0.001552632 0.0004173332 -0.0006791388 -0.00086090347 0.00038674107 -0.0020038036
-0.00022080902 0.00012702821 -0.0010517964 -0.0005227672 -0.001312687 -0.0002395754 -0.0014954533 -0.0012030203
0.0005609868 -0.0015955649 -0.00039134914 0.00021579885 -0.0008030755 -0.0008119218 -0.0019601907 -5.861337e-05
0.0020191898 -0.0015273248 0.002018315 0.0009086953 0.00069170364 0.0022674098 0.0019525487 6.0599297e-05
0.0014123417 0.0014574485 -0.0005272258 0.0041737985 -0.00043630903 0.0005432258 0.0024144445 0.00015464798
0.0029699004 0.00073836534 0.0016961612 0.0017855532 -0.0011654814 0.0018996238 0.0015722612 -0.00032050535
0.002042669 0.00088299 0.0019371287 -0.000489478 -0.0011762753 0.000938471 -0.0011156944 -0.00052953506
-0.0005219884 -0.0012779324 -0.0007765031 -0.00032066612 -0.00085455406 -0.00077327125 0.00027850003 -0.0020611142
0.00030610437 -0.00049065676 -0.0013932274 0.00017161458 -0.0015918367 -0.0004152761 -0.0005341658 -0.00081151305
0.0005829795 -0.00064653426 -0.0009226122 0.00013850204 -0.0013197319 -0.0003124309 -0.00072881684 0.00044503598
9.3070965e-05 0.0013875266 -0.0006451797 -0.0005252514 0.0009085031 0.00023470695 0.00019705214 0.0004097902
-0.00048594648 -0.00024664198 0.000750564 -0.0004089253 0.0013047273 0.00028097647 -0.00017929092 0.00092351256
-0.0009601634 0.00047960668 0.00086443184 0.00041592197 0.000689045 -0.00046308394 -0.000325872 0.00015924257
-0.00024690764 -3.6617508e-05 0.0009181782 0.0002935278 -0.00058910414 -0.0027161166 0.0008936372 0.0005054623
-0.0016362587 6.78043e-05 0.0006272328 -0.001614016 0.00094182644 0.00051323714 -0.0017138288 0.0016319568
-0.002521067 -0.0012240038 0.00040846958 -0.0014838346 0.001752825 -0.0007811623 -0.00029466802 -0.0003076397
-0.0019815988 0.0021628768 0.0002975152 -0.00039396557 0.00015757629 0.0007892245 -0.00029766164 -0.0003093091
-0.00013501605 0.0018573359 -0.0002368177 0.00019465305 0.00052896107 -0.00024468132 1.0872871e-05 0.0006874894
-0.0002737785 3.2978976e-05 0.000889047 -0.00093450316 0.0016814038 0.00037670584 -0.0004033724 0.0013767711
-0.0006719169 0.00024171645 0.0004660554 0.00031626364 0.001573603 -0.0004894061 -0.00037606654 0.00022309474
-0.00018969772 -4.8445654e-06 0.00057374383 0.0007549805 -0.00017592567 -0.0008419402 0.00075568253 0.000528207
-0.00032556464 0.00032495585 0.0003962533 -0.000119305274 0.0006868652 0.00043387912 -0.0005192583 0.00072000193
-0.00060476456 -0.00017574028 0.0004474824 -0.0002686464 0.0009470847 -9.328418e-05 -0.00010144967 0.0001208086
-0.00023352372 0.0006570552 0.00014719157 -0.00014564124 0.0005399982 0.0002583301 1.8264574e-05 -7.85462e-05
0.0006377354 -0.00010956594 0.00028682032 0.00032621447 0.0005830469 0.0007896945 0.00059544767 0.0002460036
0.00056546926 0.00040664902 -2.3800443e-05 0.0011832924 3.7092716e-05 0.0002860531 0.0006928786 6.6711626e-05
0.0007518995 0.0005353139 0.0007410388 0.00066012156 -0.00033862016 0.0005532671 0.00043066632 1.9249623e-05
0.00067381613 0.00040318308 0.0007740152 -4.5687033e-05 -7.5442396e-05 -0.00073334016 0.00012182487 -0.000119197

exp_avg_sq f4 [45, 28]
00000000: 5302 9139 d0c6 5239 dde9 2039 0057 ad39
00000010: f3ac ae39 710c ac38 b8fc 2639 32c5 ab39
00000020: efa1 8b39 afcb 9538 f7b8 3f39 8dc0 d039
00000030: ae72 1d39 63a1 6739 8bbf 3239 689e 8639
00000040: b9c6 4739 afbe 9139 0472 8239 88ac 6139
00000050: cde0 3639 549a e138 a028 5e39 d0ef ec38
00000060: 72ca 3c39 431b ed38 0a83 9d39 7dae 3538
00000070: 11ed 0c39 b6ef c938 be55 9938 6b17 2d39
00000080: acc1 2f39 bf65 2038 af60 9638 f1a3 2939
00000090: 54bd 0839 6a0c 0638 4f0e b238 41d3 4639
000000a0: f1c7 9038 b9e5 d338 a526 b138 9f36 f338
000000b0: eb2b c138 eae4 0e39 cd07 0039 b745 c938
000000c0: 8749 a638 81dc 4d38 8b63 e338 cf01 6f38
000000d0: 794b b638 9774 6638 b0bc 2439 39b4 b737
000000e0: cfc3 dc39 b1d9 9f39 cced 6039 60a5 013a
000000f0: fbcc 033a 1c73 ec38 f612 5f39 83ed 033a
00000100: 0dd7 d139 acfe d038 605c 8939 baca 193a
00000110: b2db 5c39 0106 a439 cc9f 8039 b6e9 b539
00000120: 2ee4 9039 d318 d639 6093 c039 af62 9939
00000130: f004 7539 15fd 1539 a966 a839 eea9 3b39
00000140: bdb8 8839 2656 2339 2f8d f539 ba22 8238
00000150: e109 0839 4d80 c338 ed2c 8838 d447 1b39
00000160: de76 1f39 c346 0d38 d2a3 8738 d41a 1f39
00000170: c724 fc38 c860 0638 f24c ab38 1546 3939
00000180: b1ef 8b38 0125 cc38 4819 9a38 35d0 dd38
00000190: 09d0 ac38 6961 0039 135f e938 cede bc38
000001a0: b9fe 9438 d311 3538 d32a cb38 1afc 6538
000001b0: 76ed a838 e7e0 4238 51ac 1639 51ad 9d37
000001c0: 36eb b238 997a 7938 7ff0 3338 7445 cb38
000001d0: 942b d038 055a be37 d3af 3838 9f03 cf38
000001e0: 5dfd a638 8854 c037 f282 6638 55b2 ef38
000001f0: bb7c 3b38 680b 8738 1fbe 4238 7ca7 9438
00000200: 4ba0 5f38 6c3f a738 e894 9838 a3c5 7a38
00000210: 6ff3 4438 4c9b e837 bd07 8638 ebb9 1138
00000220: 45a9 6438 805a f537 27a4 c338 ac6c 4d37
00000230: a739 b239 dae8 7439 79d6 3c39 bc1e d439
00000240: 64dc d739 396d c738 24a8 4239 1132 d239
00000250: c843 ae39 f1f8 b638 2f41 6539 fb39 fc39
00000260: a4d1 3839 3a4c 8739 a2b0 5439 0ad8 9939
00000270: c7c4 6839 a3fc af39 7140 a039 6df5 8039
00000280: 3a0b 4f39 9911 f438 0d87 8739 ce97 0739
00000290: b112 6539 9a4d 0639 851a c839 f24c 5438
000002a0: 5bf3 e838 0d2d a838 f5ec 6a38 f666 0739
000002b0: 64a9 0a39 2f4d fb37 20e0 6b38 800f 0b39
000002c0: 7cff de38 6113 e537 c2f2 9138 7978 2039
000002d0: 0dcc 6a38 978f ac38 be80 8638 fa38 c038
000002e0: 8557 9538 c453 e238 d592 cf38 dcfc a138
000002f0: 3466 7e38 a143 2038 23c3 af38 558f 4438
00000300: e5b8 8f38 d395 2738 f22d fc38 f7e6 8937
00000310: 9aa8 3f38 0401 0138 8ebf cf37 6f08 6338
00000320: 3df9 6538 9203 5837 2aa0 d437 30a6 5b38
00000330: fce0 3938 35f0 5037 15c4 fd37 f427 8638
00000340: fd25 cf37 2d39 1638 64c9 e137 680d 2838
00000350: 491f f437 89fb 3938 f737 2c38 9c20 0d38
00000360: b382 e237 770a 8437 6c84 0c38 7c2a 8f37
00000370: 0c82 fb37 7488 9137 98c3 5a38 d1f6 e436
00000380: 619f 7d37 1101 3737 7f8b 0637 e87b 9c37
00000390: 574c 9d37 6899 a636 83ab 1037 a5ed 9f37
000003a0: e78d 6f37 5370 3f36 d258 1637 0bef b637
000003b0: 225f 0037 3849 3e37 3256 2c37 a377 4837
000003c0: 8ba5 3d37 b0d5 8437 f51a 6d37 16ac 2a37
000003d0: a665 2437 4917 c236 b8a8 3a37 70a3 d236
000003e0: 574d 1137 5718 e836 5567 8537 477c 2436
000003f0: e318 ee37 87cb b437 3c5c 8737 b996 0838
0.00027658287 0.00020101224 0.0001534591 0.0003306195 0.00033316723 8.2039165e-05 0.00015925139 0.00032762584
0.00026632796 7.142813e-05 0.00018284084 0.00039816313 0.00015015408 0.00022089998 0.00017046758 0.00025676494
0.00019052149 0.00027798626 0.0002488048 0.00021521945 0.00017440617 0.00010757582 0.00021186704 0.000112980255
0.00018004494 0.000113061185 0.00030043005 4.3316268e-05 0.00013439755 9.6290765e-05 7.311579e-05 0.0001650729
0.00016761449 3.824173e-05 7.170566e-05 0.00016178169 0.00013040501 3.195965e-05 8.4903666e-05 0.0001896145
6.903697e-05 0.00010104053 8.447216e-05 0.00011597317 9.2111375e-05 0.00013627452 0.00012209937 9.597412e-05
7.929192e-05 4.908117e-05 0.00010842745 5.6983725e-05 8.692494e-05 5.4944856e-05 0.0001571055 2.1899223e-05
0.0004210756 0.00030489036 0.00021450891 0.0004945602 0.0005027798 0.00011274798 0.00021274001 0.00050326454
0.00040023812 9.965649e-05 0.000261995 0.00058666954 0.00021062678 0.0003128499 0.0002453312 0.00034697138
0.00027635827 0.00040835756 0.00036730897 0.0002925596 0.0002336686 0.00014304028 0.00032119945 0.00017897013
0.00026077582 0.00015576984 0.00046835231 6.2053514e-05 0.00012973651 9.3222225e-05 6.4933534e-05 0.0001480871
0.00015207703 3.368292e-05 6.4678155e-05 0.00015173416 0.00012023147 3.2038224e-05 8.1682476e-05 0.00017669082
6.6726825e-05 9.7343705e-05 7.348001e-05 0.00010576883 8.240349e-05 0.0001224332 0.00011128015 9.006039e-05
7.104636e-05 4.3170363e-05 9.687771e-05 5.4832642e-05 8.055095e-05 4.646266e-05 0.00014369308 1.8796565e-05
8.531513e-05 5.9480404e-05 4.2900905e-05 9.692731e-05 9.92633e-05 2.2691684e-05 4.4032768e-05 9.871204e-05
7.9626894e-05 2.2927547e-05 5.4958226e-05 0.00011429625 4.470044e-05 6.439426e-05 4.643027e-05 7.088386e-05
5.3316628e-05 7.974994e-05 7.275661e-05 5.978871e-05 4.6956757e-05 2.7728871e-05 6.391059e-05 3.4743844e-05
5.451708e-05 2.9248418e-05 9.3289e-05 1.2244254e-05 0.0003399376 0.00023356397 0.00018008974 0.0004045869
0.000411722 9.509404e-05 0.00018563919 0.00040091624 0.00033238367 8.724805e-05 0.00021863425 0.00048108384
0.00017625705 0.00025806 0.00020283696 0.00029343396 0.0002219855 0.0003356683 0.0003056559 0.0002459692
0.0001974524 0.000116381045 0.00025849827 0.00012931155 0.00021846105 0.00012808145 0.0003816673 5.06164e-05
0.000111079506 8.0192556e-05 5.601063e-05 0.00012912959 0.00013223808 2.9957473e-05 5.62371e-05 0.00013261847
0.000106333726 2.7307951e-05 6.959356e-05 0.00015303669 5.5979985e-05 8.228345e-05 6.413598e-05 9.165886e-05
7.1211754e-05 0.00010792122 9.897879e-05 7.724177e-05 6.0653503e-05 3.8209957e-05 8.380997e-05 4.686353e-05
6.853211e-05 3.9955437e-05 0.000120248544 1.6439224e-05 4.569497e-05 3.0756943e-05 2.4765523e-05 5.4128872e-05
5.4829976e-05 1.2875435e-05 2.5346952e-05 5.2368443e-05 4.431697e-05 1.2453694e-05 3.0251258e-05 6.39706e-05
2.4694013e-05 3.5816036e-05 2.691587e-05 4.0066807e-05 2.9101635e-05 4.4341698e-05 4.1060117e-05 3.364739e-05
2.7002161e-05 1.57405e-05 3.350193e-05 1.7066712e-05 2.998209e-05 1.7348888e-05 5.215741e-05 6.8236627e-06
1.5117083e-05 1.0907898e-05 8.019501e-06 1.8654348e-05 1.8751407e-05 4.9650444e-06 8.623002e-06 1.9064939e-05
1.4278549e-05 2.85266e-06 8.961377e-06 2.1807404e-05 7.651544e-06 1.134193e-05 1.0272068e-05 1.1948784e-05
1.1303821e-05 1.5835132e-05 1.4132577e-05 1.01728565e-05 9.798829e-06 5.7843613e-06 1.1125747e-05 6.2775143e-06
8.660681e-06 6.9169723e-06 1.5902953e-05 2.4510243e-06 2.83834e-05 2.1552447e-05 1.6136204e-05 3.2565298e-05

exp_avg f4 [45]
00000000: d0e5 0939 a781 aeba edc2 403b b214 d5ba
00000010: 0063 5cb9 0059 053a c4ba a8b9 7eb3 b139
00000020: 928b 673a 1aa4 f2b9 3107 893a 2a5d 00ba
00000030: c0e1 2fba 90ac 1e39 9e9a 10b9 cac0 5239
00000040: ac43 bdb9 8dd5 9b3a 48bf df3a a054 f93a
00000050: bcdd 1e3a 9e99 a93a 9c4d 5339 1ce8 b13a
00000060: 815f 03bb e15c 693b 82c2 d0b9 20d3 063a
00000070: 541c 973a ddbf b23a 74bb 7db9 ce80 313a
00000080: f541 8e3a 48e8 43b9 534e b5ba 3028 6739
00000090: 54b9 543a 69a8 cb3a d6ea 733a 5c25 8d3a
000000a0: decf 4fba 6974 c9ba ee3f c03a 80c6 9fb8
000000b0: 40aa 0f39
0.0001315095 -0.0013313786 0.002941306 -0.0016256778 -0.00021017715 0.00050868094 -0.00032182608 0.00033893803
0.0008832748 -0.00046280102 0.0010454414 -0.0004896695 -0.00067093596 0.00015132339 -0.0001379051 0.0002009898
-0.0003609931 0.0011889205 0.0017070556 0.0019022413 0.00060602627 0.0012939458 0.0002015144 0.0013573202
-0.0020045938 0.0035608339 -0.0003981777 0.00051431544 0.0011528828 0.0013637502 -0.00024197792 0.00067712076
0.0010853397 -0.0001868318 -0.0013832547 0.00022044848 0.0008114774 0.0015537861 0.00093047076 0.001076858
-0.0007927398 -0.0015369776 0.001466749 -7.618684e-05 0.00013700966

exp_avg_sq f4 [45]
00000000: 9a57 153a dadd 9439 516b 633a 529b 8839
00000010: ea68 3139 3000 3a3a 8918 6e39 6b4a c538
00000020: f910 0538 a0e9 6438 4125 ea38 6136 1439
00000030: cf41 1d37 8e4b 9e39 cfc1 1e38 3041 8136
00000040: 38ee 1339 49b8 0139 d034 0e3a 74cb f438
00000050: f616 0837 5a35 3739 5ba8 b637 9d2a b239
00000060: d8b9 823a 9e84 863a 05c1 dd36 7a2b 9e39
00000070: b849 9839 271a 1939 4839 a038 bc79 e538
00000080: 6bc0 3238 fffc 9339 1560 ee39 ae87 1e3a
00000090: 00e3 7338 cdb4 063a aff6 1339 af27 e539
000000a0: 54dd 0038 1d32 be38 64a0 023a 0167 b338
000000b0: 7871 8b38
0.00056969526 0.00028394052 0.0008675354 0.00026055664 0.00016919119 0.0007095365 0.00022706589 9.4075534e-05
3.1725478e-05 5.4577016e-05 0.000111649286 0.00014134638 9.3732515e-06 0.000301924 3.7850634e-05 3.8520884e-06
0.00014107756 0.0001237105 0.000542474 0.00011672723 8.111578e-06 0.00017472115 2.1774487e-05 0.00033982555
0.0009973599 0.0010262912 6.6087837e-06 0.000301685 0.00029046624 0.0001460096 7.640064e-05 0.00010942246
4.261771e-05 0.00028226522 0.00045466484 0.00060474395 5.8147125e-05 0.0005138636 0.00014110909 0.0004370785
3.0723706e-05 9.06924e-05 0.00049830065 8.554571e-05 6.649172e-05

exp_avg f4 [3, 45]
00000000: f099 bbb8 40fa 9538 1808 dd39 b8a1 313b
00000010: a316 8f3b 2e85 ba3b 5829 0c3b 397f 263b
00000020: df39 7aba d530 d33a e65a c63a 930f 1d3b
00000030: dcc2 70bb 1f3c d13a 0b61 fa3a 5df2 7f39
00000040: 5ba8 263b eacc bc3a 8300 653b 9a1f c43b
00000050: 7cda 743a 11b2 84ba c070 293b 38e8 6c3b
00000060: 1bc4 c13b b4e1 a8b9 0277 b4bb a22d 913a
00000070: c86b 42ba 9b3d c03b 7fdc dc3a 5259 e439
00000080: c241 203b 1448 e13b 3067 9d39 35ab 6c3b
00000090: 60e8 d938 f8bb cbb9 e0dd 2cb8 3d00 023b
000000a0: 8ea5 fa3a 26df ce3b 9063 3639 9630 c3ba
000000b0: bc36 183b 649e 9c39 8fe3 183a fe20 40b9
000000c0: 806c a53a 86a8 3eba 148f 2a3a 56e1 61ba
000000d0: 002d f6b7 6578 333a 30de c239 fa43 433a
000000e0: ea6a bb3a 80dd a7b8 a551 c0b9 17e4 d239
000000f0: f445 a73a de46 c93a 17b0 bf39 8463 013a
00000100: 9845 9238 f670 19ba fa41 a2b9 d600 56ba
00000110: 2899 143a 7c9d 923a 1add 243a 7842 9fba
00000120: c3a9 513a f73d 5cba bacb feb9 d013 01ba
00000130: 0e8e 71ba 4679 f2b8 ac7b 3e3a 4ea1 ac3a
00000140: 5c9b f939 e01b 82b7 9562 18ba d023 ce38
00000150: 4204 093a 5a35 d639 3ebb 343b fe45 11ba
00000160: 10f9 9b3a f42b 8eb9 d528 bcba 1cba 61bb
00000170: 82a3 8e3a a678 a6ba dcf1 01bb be6f 123b
00000180: 7c89 73ba 00d3 7e3a b295 d3b9 168c b9ba
00000190: def4 e63a 90eb e7b9 0036 36b7 8208 61ba
000001a0: 00ea 4cb7 f104 a9ba 1cf1 b8ba c005 9339
000001b0: f61c 27bb 04bc a33a 7ee1 853a fba8 82ba
000001c0: 52c0 893a 108c 4dba 98a3 f2ba 0a96 673a
000001d0: ee5f 3f3b 1435 2dba 887b 2139 007f d5b8
000001e0: 0063 d6b9 aa02 b23a 5f7a 103b e0f2 05bb
000001f0: f7e4 60bb 7864 87b9 1c47 baba e879 8bb9
00000200: 2495 a8b9 421e 1fbb 38f9 05bb b1ab b1bb
00000210: 93f4 873a f497 7fbb 542b ef3a
-8.945528e-05 7.151486e-05 0.00042158435 0.0027104449 0.004366712 0.005692146 0.0021386947 0.002540542
-0.00095453666 0.0016112576 0.0015133291 0.0023965582 -0.003673724 0.0015963352 0.0019102407 0.00024408982
0.0025429938 0.0014404331 0.0034942932 0.0059852125 0.0009340418 -0.0010123869 0.0025854558 0.0036149155
0.00591327 -0.0003221162 -0.005507351 0.0011076222 -0.00074165734 0.005866719 0.0016850381 0.00043554098
0.0024453257 0.0068750475 0.00030022254 0.003611279 0.000103906495 -0.00038859225 -4.1214633e-05 0.0019836568
0.0019122825 0.0063132225 0.00017393962 -0.0014891799 0.0023225984 0.0002987265 0.0005832249 -0.00018322837
0.0012620836 -0.0007273037 0.00065063057 -0.00086166465 -2.934644e-05 0.0006846248 0.00037168106 0.0007448789
0.0014298831 -8.004438e-05 -0.00036681924 0.00040224261 0.0012761937 0.0015356203 0.00036561556 0.00049357885
6.974785e-05 -0.00058533193 -0.00030948204 -0.0008163577 0.0005668574 0.001118585 0.000628905 -0.0012150547
0.0007998014 -0.00084015675 -0.00048598443 -0.0004923912 -0.0009214588 -0.00011562048 0.00072663534 0.0013170631
0.00047608733 -1.5510188e-05 -0.000581303 9.829516e-05 0.000522677 0.0004085701 0.0027577425 -0.00055417407
0.0011899788 -0.00027117098 -0.0014355431 -0.0034443205 0.0010882469 -0.0012700751 -0.0019827997 0.0022344436
-0.0009290201 0.00097207725 -0.00040356588 -0.0014156129 0.0017620584 -0.0004423526 -1.0860618e-05 -0.00085843366
-1.221383e-05 -0.0012895149 -0.0014109942 0.0002804231 -0.002549944 0.0012491946 0.0010214297 -0.0009968573
0.0010509586 -0.00078410003 -0.001851189 0.0008834308 0.0029201466 -0.00066073355 0.00015400175 -0.00010180287
-0.00040891021 0.0013581116 0.0022045595 -0.0020438954 -0.0034316161 -0.00025824062 -0.0014211866 -0.00026602973
-0.00032154575 -0.002427951 -0.0020442735 -0.0054220785 0.0010372571 -0.0039000483 0.0018247166

exp_avg_sq f4 [3, 45]
00000000: fd45 0538 9c9b 7b39 da92 cc39 9fdd 603a
00000010: 18b4 003b 8ebb 543a 6e60 793a ae9e ae39
00000020: c31e 1738 fdc7 073a 748a 1138 e9a2 d239
00000030: cebf bb3a 1dcf 9438 9150 c239 b1d4 e438
00000040: fadb a83a 2f69 8439 6a26 b23a a3ad c13a
00000050: 4539 a038 1ab5 2838 5036 5738 6f6f f939
00000060: aa76 1e3b 4faa 6d39 5e5b c23a 4b65 ff39
00000070: 7686 2739 c38b 033b c42b d339 7401 6838
00000080: ed4d b638 18de 923b 7a7e 033a 13ff 243a
00000090: 599f 0739 2760 8038 025b f238 c119 1e3b
000000a0: 1212 b239 305f 753b 849b b437 00d0 6338
000000b0: 959f 3539 5d9c 2737 6cb0 9738 cec9 dd38
000000c0: 118f 8039 203d 133a 25db 7839 5356 9139
000000d0: b068 c338 fbcf 2437 3252 1339 3330 1737
000000e0: 6edb f238 e3f1 d039 90fc a437 66c1 ca38
000000f0: a5fe e837 0a54 bb39 709a 8c38 463c c839
00000100: a682 da39 2893 a737 6a35 4537 0339 6f37
00000110: 4f33 0c39 ac02 353a c532 8938 9352 cd39
00000120: 181f 0e39 24bb 3338 ef04 133a 855d f538
00000130: d02e 8637 86d8 c237 7a4e a73a ce73 1739
00000140: 54d6 3839 c29c 0a38 090e 8237 fb01 0738
00000150: c65d 2c3a 5580 cf38 8540 8d3a 99a5 df36
00000160: d03c 7137 fc9d 5f38 cd8b 3938 bc1a dc39
00000170: 0109 2d3a a69c be3a 5a71 5a3b 2af5 b93a
00000180: dbe8 d33a 2c2e 133a 7eec 7738 97e8 693a
00000190: f5e8 5138 caf5 393a 1473 283b 53c5 db38
000001a0: 3473 253a 9ff5 3639 cfc4 153b ac89 da39
000001b0: 7f15 1b3b 5dd3 273b 1150 ef38 7fa0 8738
000001c0: 9a71 a638 c332 593a 40e7 893b 8d6e c039
000001d0: 53a6 233b 3ecb 5b3a 8ef5 8339 669d 5e3b
000001e0: ca2b 313a ba9c b438 912d 0f39 3c59 fd3b
000001f0: d11d 6c3a 30f6 8f3a 58f6 5b39 43bb d238
00000200: 0029 4539 e9da 873b 262e 1d3a 0a66 d93b
00000210: c2f0 fb37 e02c aa38 e826 9a39
3.1774853e-05 0.00023995194 0.00039019325 0.0008577946 0.0019638594 0.0008115106 0.00095129653 0.00033306092
3.6029855e-05 0.0005179642 3.469964e-05 0.000401757 0.001432413 7.095768e-05 0.0003706259 0.00010911504
0.0012882941 0.0002525537 0.001359177 0.0014776479 7.640062e-05 4.0222985e-05 5.1310577e-05 0.00047576005
0.0024179616 0.00022665526 0.0014828255 0.0004871286 0.00015976452 0.0020072318 0.00040277664 5.5314464e-05
8.692951e-05 0.004482042 0.00050161 0.00062941125 0.00012933965 6.1214254e-05 0.00011556411 0.0024124237
0.0003396427 0.003744077 2.153009e-05 5.4314733e-05 0.00017320954 9.990382e-06 7.233102e-05 0.0001057569
0.00024520655 0.00056167133 0.00023732761 0.00027720872 9.317824e-05 9.823586e-06 0.00014049633 9.011524e-06
0.00011580331 0.0003985307 1.9667932e-05 9.668134e-05 2.7775133e-05 0.00035730033 6.7044864e-05 0.0003819188
0.0004167754 1.9976476e-05 1.1754551e-05 1.4258784e-05 0.00013370554 0.0006905 6.5421256e-05 0.0003916217
0.00013553759 4.2851214e-05 0.000560834 0.0001169993 1.5995844e-05 2.3227429e-05 0.0012764477 0.00014443623
0.00017627451 3.3047756e-05 1.5503743e-05 3.2188353e-05 0.00065752526 9.894433e-05 0.0010776675 6.665196e-06
1.4378878e-05 5.3314478e-05 4.4237637e-05 0.0004198159 0.0006600768 0.0014542534 0.0033331723 0.0014187444
0.0016167419 0.0005614485 5.910964e-05 0.0008922903 5.004644e-05 0.00070938154 0.0025703358 0.00010479488
0.0006311417 0.00017448374 0.0022852903 0.00041682774 0.0023663936 0.002560816 0.000114113216 6.467196e-05
7.936657e-05 0.0008285457 0.0042084754 0.0003670346 0.0024970963 0.00083844725 0.0002516922 0.0033968328
0.0006758539 8.6122614e-05 0.00013654518 0.007731585 0.00090071285 0.0010983404 0.00020977238 0.000100484605
0.00018802658 0.004145969 0.00059959514 0.0066344785 3.0033643e-05 8.11459e-05 0.00029402156

exp_avg f4 [3]
00000000: 0ac9 9d3b f8d2 d739 0801 3a3a
0.0048152255 0.0004116518 0.00070954906

exp_avg_sq f4 [3]
00000000: 6263 033b cc2d 123a a155 613b
0.002004825 0.0005576282 0.0034383314

exp_avg f4 [3, 45]
00000000: 66ee d73a 6c7a 103b 0a82 f839 7319 fe3a
00000010: 49db 363b 4ef1 153a 08aa 583a b0ca 123a
00000020: e816 623a cd1d 603a 1a4f 8039 c600 d93a
00000030: 25a3 98ba cab1 dd3a 72a2 c43a 0117 55ba
00000040: 3d1c ef3a adeb a5b9 ea55 0a3b 2376 ce3a
00000050: aa08 74ba 31c9 02b9 76c8 8bb8 406f 1639
00000060: e234 8c3b 9f7f 17ba 9194 2cba 5425 d738
00000070: 7ee6 35ba 5f2d 0a3b f2a9 903a 838c 1539
00000080: 2154 aeb9 c223 953b 439f c83a b671 433a
00000090: 57ab 6838 84d8 b4b9 c216 e2b8 de6a 8939
000000a0: 43f7 e83a 1c98 9a3b a9fa d0b8 e0e3 833a
000000b0: 2b5c 8db9 67df 8239 7c03 51b9 f087 3538
000000c0: 544b 3939 349f a6ba 5828 b4b9 12cd 20ba
000000d0: d2f2 04ba a0e3 1d39 c80e 26b8 8002 ec36
000000e0: 482c 4ab9 3836 823a 1f88 d839 ea1e c1b9
000000f0: 176d 4939 7423 8139 7dd2 8ab9 b09c e039
00000100: e4aa 9cba 541c afb9 8aef 9e39 59a3 e738
00000110: 4677 2b3a 2edb e7b9 adee 6bba 23a5 4a3a
00000120: 187c 8739 5110 303a 9466 aeba bf35 54ba
00000130: 94c4 73ba 06d9 38ba 89c2 caba 2406 a8b9
00000140: 22c7 ecb9 0286 b238 a907 23b8 5efc f639
00000150: 56bd 90b9 ff49 31ba 5040 9739 c86f 70b9
00000160: fa4f 8a39 8656 96ba d367 113a f46d a4ba
00000170: 900b 27bb 4636 2dbb ebda 9abb 7279 7fbb
00000180: 11de 0cbb 1a75 17bb 65ac 273a 5641 f2ba
00000190: 78ce 28ba 1db6 22bb 0276 8f3b 641e 1c3a
000001a0: 69d7 b1ba a2fd cbb9 87d3 66bb ae6d 0dbb
000001b0: 4522 8dbb 766e 96bb f68f e139 207b e7b9
000001c0: 436c 7639 f2fa 27bb f38d 93bb fff9 76bb
000001d0: 5386 833b 3113 2bbb e73a 05bb d256 a5bb
000001e0: ecf4 29bb 608d 97ba 1289 3fba 8962 d6bb
000001f0: f71b 21bb d19c 3fbb 70bc 2dba b813 d939
00000200: 6541 8cba 87f6 d0bb 05c1 b1ba 6a6f b8bb
00000210: eaf5 79ba 14ce c43a 9333 24bb
0.0016474247 0.0022045625 0.00047399133 0.0019386247 0.00279017 0.0005719856 0.0008265083 0.0005599661
0.0008624629 0.00085493625 0.00024472998 0.0016556017 -0.00116453 0.0016913947 0.0015002026 -0.0008128733
0.0018242669 -0.00031646845 0.0021108338 0.001575176 -0.00093091524 -0.00012472716 -6.665375e-05 0.00014346559
0.004278765 -0.000577921 -0.00065834174 0.00010258952 -0.0006938948 0.0021084172 0.0011036976 0.00014262092
-0.00033250547 0.004551382 0.0015306253 0.0007455604 5.5472683e-05 -0.00034493592 -0.00010780759 0.00026210299
0.0017773885 0.00471784 -9.964902e-05 0.0010062419 -0.00026962286 0.0002496198 -0.00019933091 4.3280364e-05
0.00017671037 -0.0012712241 -0.00034362334 -0.00061340735 -0.00050715834 0.00015057484 -3.959125e-05 7.033639e-06
-0.00019280717 0.0009934371 0.0004130015 -0.0003683486 0.00019209493 0.00024631212 -0.00026478237 0.0004284135
-0.0011952785 -0.00033399707 0.0003031458 0.00011045364 0.00065409055 -0.00044223055 -0.0009000104 0.0007730296
0.00025841664 0.00067162985 -0.0013305717 -0.0008095167 -0.0009299007 -0.0007051382 -0.0015469353 -0.00032048032
-0.00045161793 8.512662e-05 -3.8869362e-05 0.00047108805 -0.00027606887 -0.00067630404 0.0002884888 -0.00022929825
0.00026380998 -0.0011469878 0.0005546782 -0.0012544976 -0.002548907 -0.0026430055 -0.004725804 -0.00389823
-0.0021494667 -0.002311057 0.0006396233 -0.0018482606 -0.00064394576 -0.0024827786 0.0043780813 0.0005955456
-0.0013568226 -0.00038908148 -0.0035221295 -0.0021580267 -0.0043070638 -0.0045908047 0.00043022603 -0.0004415149
0.00023500719 -0.0025631753 -0.0045030056 -0.003768563 0.0040138154 -0.0026103968 -0.0020329298 -0.00504575
-0.0025933338 -0.0011562519 -0.0007306497 -0.006542508 -0.0024583319 -0.0029237757 -0.00066275056 0.00041404157
-0.0010700641 -0.0063770446 -0.0013561553 -0.005628516 -0.000953524 0.0015015029 -0.0025055155

exp_avg_sq f4 [3, 45]
00000000: 3727 6b37 433f 7f38 ffff b038 2c71 2939
00000010: 2f67 bc39 a4de 2339 f305 3f39 333a a038
00000020: 717d 6337 cde2 f138 62ef 7e37 bbba a238
00000030: 0519 8439 0ed1 0238 9b33 ac38 4a6b ff37
00000040: ddbd 8039 5f1d 6538 0205 8a39 d5a1 8d39
00000050: bab7 af37 d41b 7037 4b73 6f37 4460 cd38
00000060: 4a29 e739 fca7 7938 9d4b 8139 c420 d338
00000070: 9221 4f38 a6e6 be39 094d b238 dd46 8837
00000080: ec70 bc37 0e8c 503a 3335 ce38 7326 f838
00000090: 8f7c 0338 85a3 6737 be99 0638 0a04 f339
000000a0: a1ad 9f38 cf44 3c3a 45f1 2d37 669b 9d37
000000b0: d30f 3238 0e94 0d37 26bd 1f38 e3f3 6a38
000000c0: 16ff f038 8555 8439 202e e638 9214 0739
000000d0: 4993 4d38 8104 0037 e1ae 9e38 c71a 3437
000000e0: c3da 6738 3e87 3a39 dd86 9f37 a1e0 6038
000000f0: 4ac7 9d37 9dc0 3739 4888 1d38 eac0 3c39
00000100: f40e 4c39 9663 7d37 fb9d 1a37 113a 2c37
00000110: 480e 8d38 9ecf a139 8a1c 2438 7db4 3c39
00000120: 5541 9538 9c84 f837 1fcb 8639 3c4b 7238
00000130: 5d23 2b37 8491 7137 ebe3 143a b100 9038
00000140: bba9 ad38 e761 b437 2626 2037 44bc b637
00000150: 13a2 a839 9fcc 5338 3860 023a 255b d636
00000160: 0da6 4237 3c85 e437 0c67 7a37 e1d0 7538
00000170: 52ba a938 5036 2839 1783 bc39 1cdc 2339
00000180: e6bd 3f39 ac1b a238 ddd2 5d37 702b f738
00000190: b656 7b37 ccd6 a138 17d9 7939 6bc3 0d38
000001a0: 2e6a a838 e522 0238 5d24 7c39 52ed 6138
000001b0: 9463 8939 406f 8a39 7f17 b937 c78f 7437
000001c0: fa22 8137 22fe d838 2be8 dd39 b64f 8038
000001d0: 262d 8339 fe44 d838 4893 4338 dc85 ba39
000001e0: 5d30 b838 197e 8537 1802 bc37 d96e 4b3a
000001f0: 0aad d138 bd6a f738 ac5f 0438 ac5a 5b37
00000200: 3fc1 0738 cfa7 ee39 f1d2 a038 7f0d 373a
00000210: 2ac1 4237 e928 9c37 e8d9 2938
1.4016222e-05 6.0855655e-05 8.440017e-05 0.00016159256 0.00035935032 0.00015627831 0.00018217396 7.640235e-05
1.3559461e-05 0.000115340205 1.5195315e-05 7.759543e-05 0.00025195643 3.1189113e-05 8.2112114e-05 3.044833e-05
0.00024555522 5.462521e-05 0.00026325142 0.0002701419 2.094718e-05 1.4311594e-05 1.4272354e-05 9.7930926e-05
0.00044090516 5.9522674e-05 0.00024661134 0.00010067367 4.938391e-05 0.0003641147 8.50205e-05 1.6245462e-05
2.246393e-05 0.000795544 9.8327546e-05 0.00011832723 3.1348838e-05 1.3806745e-05 3.2091273e-05 0.0004635158
7.614052e-05 0.0007181884 1.03677785e-05 1.8788221e-05 4.2453245e-05 8.438727e-06 3.8084712e-05 5.6017085e-05
0.00011491605 0.0002524072 0.00010975846 0.00012882266 4.901298e-05 7.630443e-06 7.566601e-05 1.0735071e-05
5.527843e-05 0.00017788724 1.9017078e-05 5.3614964e-05 1.880866e-05 0.00017523994 3.755864e-05 0.00018000943
0.00019460527 1.5103162e-05 9.215898e-06 1.02655185e-05 6.726064e-05 0.00030863 3.9127226e-05 0.00017996314
7.117043e-05 2.9625655e-05 0.0002570981 5.7767364e-05 1.0200628e-05 1.43986e-05 0.00056797144 6.866584e-05
8.2808976e-05 2.1503261e-05 9.545625e-06 2.1783759e-05 0.00032164212 5.049689e-05 0.0004973444 6.3883076e-06
1.1601963e-05 2.724176e-05 1.4925154e-05 5.8607086e-05 8.093253e-05 0.00016041961 0.00035955824 0.00015626888
0.00018285922 7.729916e-05 1.3221722e-05 0.00011785969 1.4980955e-05 7.717087e-05 0.00023827363 3.3799017e-05
8.030642e-05 3.1026913e-05 0.00024046139 5.3865202e-05 0.00026204868 0.000264043 2.206466e-05 1.4577009e-05
1.5394286e-05 0.000103470185 0.00042325383 6.118363e-05 0.00025019905 0.000103125334 4.662879e-05 0.00035576418
8.782812e-05 1.5913554e-05 2.2412321e-05 0.0007760353 9.998128e-05 0.00011797759 3.1560354e-05 1.3074528e-05
3.2366483e-05 0.00045519925 7.6686854e-05 0.0006982907 1.1608276e-05 1.86157e-05 4.049568e-05

exp_avg f4 [3]
00000000: f6cc c039 e413 d1b9 1113 d9bb
0.00036773802 -0.00039878406 -0.0066245873

exp_avg_sq f4 [3]
00000000: e2dc d339 22a2 8e39 4f43 d639
0.00040409627 0.0002720515 0.0004086741

exp_avg f4 [28]
00000000: 28eb 84b7 b0c8 4bb7 a0c8 f038 862e 5e39
00000010: 0044 b237 181f df39 5e52 7539 8c39 10b9
00000020: a893 e137 c561 f93a 7c42 9bb9 1d3e 133a
00000030: 5f46 b7b9 5e39 84b9 cfde 1139 f63e eeb8
00000040: 6c93 2d39 c454 0b38 08cb 7838 106c 00b9
00000050: 1ade 4d39 0070 a233 58cc 94b7 fa44 b938
00000060: 1e59 80b9 04cf 1a3a dc96 ec38 d26f 9f3a
-1.584513e-05 -1.2146469e-05 0.00011481461 0.00021188901 2.1250919e-05 0.0004255704 0.00023395705 -0.00013754348
2.6890848e-05 0.001902633 -0.00029613439 0.00056168606 -0.0003495691 -0.00025219744 0.0001391128 -0.00011360452
0.00016553485 3.3219127e-05 5.9316895e-05 -0.00012247288 0.00019633063 7.5640855e-08 -1.773813e-05 8.834335e-05
-0.0002448046 0.00059054815 0.00011281457 0.0012164062

exp_avg_sq f4 [28]
00000000: cc06 1939 c6ba 0237 4074 b337 e2f8 7a39
00000010: 4af7 b438 c12a e639 b5cc 8638 c436 0b39
00000020: 143a 6637 5e1b 763a f2f7 0037 9b3b dd39
00000030: fff9 0d37 a099 8536 e923 9d37 2326 d037
00000040: 4cd1 8038 ef05 0637 8ec9 b136 7e96 5038
00000050: 2a7c c238 b0c9 5537 b3bf 4337 2eff 0637
00000060: eff4 7436 d63f 9639 f1ce 3c39 d364 ac3a
0.00014593749 7.79209e-06 2.1392596e-05 0.00023934574 8.62913e-05 0.00043900873 6.4277476e-05 0.00013276475
1.3722591e-05 0.00093882333 7.687124e-06 0.00042196814 8.462462e-06 3.981593e-06 1.873258e-05 2.4813291e-05
6.1425e-05 7.988404e-06 5.298475e-06 4.973122e-05 9.273768e-05 1.2742748e-05 1.1667539e-05 8.046436e-06
3.6501403e-06 0.0002865779 0.00018006169 0.0013152607
