logs/my_logs/version_0/checkpoints/epoch=756-step=757.ckpt (torch, 41316 bytes, 33 tensors)

encoder.dense1.weight f4 [45, 28]
000000 3b 3e 35 be 78 9f 35 bd fb 57 96 be 6a d9 07 3c
       -0.1769952 -0.044341534 -0.29364 0.008291582
000010 db 72 44 3d 67 f5 2f be 58 b3 91 be b9 fc ac 3d
       0.047961097 -0.17183457 -0.2845714 0.084466405
000020 ed 7f 03 be bd 28 60 be 21 ae b1 be 12 44 1c be
       -0.12841769 -0.2189054 -0.34703162 -0.15260342
000030 a4 8d b9 be c6 79 1b be c7 5f bf bd 06 8e 7a be
       -0.36240876 -0.15183172 -0.0934444 -0.2446824
000040 e1 15 01 be 4c d9 3d bd aa 6a 3f be 6b 61 8c be
       -0.12606002 -0.04634981 -0.18693033 -0.27418074
000050 d0 36 72 be b1 77 d9 bd d0 43 0a 3d d7 b5 14 3d
       -0.23653722 -0.106185324 0.033756077 0.03630623
000060 89 91 2e be fb d2 7b be ac 42 1c be 5f db cc bd
       -0.17047705 -0.24592201 -0.15259808 -0.10002779
000070 39 19 85 3d d2 f8 57 3d 7a ec 48 3e 30 d1 81 3e
       0.064989515 0.052727528 0.19621459 0.2535491
000080 df 2e 86 3d 37 1a 4f 3d 86 85 f8 3c 8b 26 86 3e
       0.06551909 0.05056211 0.030337106 0.2620128
000090 57 b8 02 3e dc 85 3f 3c 3c 8b 0b be 04 52 a5 3c
       0.12765633 0.011689629 -0.13627332 0.02018071
0000a0 e0 6a 63 3d e8 4c 07 bd 94 25 4b 3e 43 f0 9b bd
       0.055521846 -0.033032328 0.19838554 -0.07614186
0000b0 7e 7c c4 3d 46 bb 26 3e bf 23 3a 3e 52 82 cc 3d
       0.095940575 0.16282377 0.18177699 0.09985794
0000c0 15 f5 3c 3e 53 86 09 3c c9 36 af 3d 80 7d 48 38
       0.18452866 0.008393842 0.08555371 4.7800597e-05
0000d0 03 c7 3b 3e e6 a1 b1 3d bf 57 33 bd 5a ef 44 3d
       0.18337636 0.08673458 -0.043784853 0.048079826
0000e0 5a 5d 22 be 87 2e 51 3d 64 16 63 3d 29 fe 89 bd
       -0.15855923 0.051069763 0.055441275 -0.0673793
0000f0 90 51 45 3d 46 62 4f 3e eb 2a 32 bd 3d 43 89 3e
       0.048173487 0.20252332 -0.04349796 0.2680911
000100 e9 60 4d 3e 0c 8d 66 be 1f 1a b7 bd ee 1b 57 3c
       0.200565 -0.22514743 -0.08940529 0.013129218
000110 c6 49 f4 bd b2 ed 5c be 7f 6b 90 3e 5a be 83 3d
       -0.11928134 -0.21575049 0.28207013 0.06432791
000120 a4 0d 8e 3c ed 03 85 3d 33 f0 79 3c 60 58 e8 bd
       0.017340489 0.064948894 0.015255022 -0.11344981
000130 96 00 87 bd 34 40 0a 3e 1f 93 a9 3d 85 41 cb 3d
       -0.06591909 0.13501054 0.08280014 0.09924606
000140 f8 6a 29 3e 63 2d 4e 3d ce 18 8c bd e0 1c 70 bd
       0.16544712 0.050336253 -0.068406686 -0.058621287
000150 78 c5 b8 3d 28 dc 5a be 6d 3b 2a be 16 14 8b 3b
       0.09022039 -0.21373045 -0.16624232 0.004244338
000160 b5 a7 06 be f8 f5 91 bc 75 a1 20 3c 0e 9f 9f bd
       -0.13149913 -0.017817482 0.009804119 -0.07794009
000170 e2 af be 3d e6 c0 b7 3d f9 8b 3b be 59 84 39 3d
       0.09310891 0.08972339 -0.18315114 0.045292232
000180 c4 bf 41 3a c3 47 1c 3e 10 3c 02 3e 43 66 2b be
       0.0007390941 0.1526175 0.12718225 -0.16738228
000190 39 da 12 3e 5e ca 64 bd be 7e 13 3e 13 02 fd bd
       0.14341058 -0.055857055 0.14403817 -0.12353911
0001a0 b6 bb f9 3d 7b a7 ca 3d f2 b1 ff 3d 4b 0c 87 bd
       0.12194006 0.098952256 0.12485112 -0.065941416
0001b0 1e 29 0f be 92 af db 3d ec 01 b9 bd 8c 07 52 3d
       -0.13980529 0.10726847 -0.0903357 0.05127673
0001c0 ed de e8 bc 85 d9 fa 3c 22 6e f5 3d 1f 46 99 bc
       -0.028426612 0.0306213 0.11983897 -0.018710194
0001d0 38 12 c8 3c 5b 25 29 bd f5 62 bc bd 48 63 a3 bc
       0.02442275 -0.04129539 -0.09198562 -0.019944802
0001e0 f6 a7 f1 3d fc 61 af bb c2 f3 01 be 82 dc 02 3e
       0.11799614 -0.005352257 -0.12690642 0.1277943
0001f0 95 f8 18 be aa a5 01 3e a4 96 0a bd de 50 c2 bd
       -0.14938577 0.12660852 -0.03383507 -0.094880804
000200 1c db 0e 3e 68 ed 29 3e de 05 c7 bd d3 71 38 bc
       0.13950771 0.1659447 -0.09717916 -0.011257607
000210 3c 14 ce bd b8 07 d2 bc fd 7a d1 bd be 19 8b bb
       -0.10062453 -0.025638446 -0.10228536 -0.004245012
000220 52 5f 01 bb b3 82 81 3d 8b 7f d2 3d 95 5b 92 3d
       -0.0019740653 0.06323757 0.10278233 0.07146374
000230 e6 0d 42 3e 3e ab eb 3d a7 78 b8 bd fc 07 98 bd
       0.18950614 0.11507271 -0.090073876 -0.07423398
000240 f8 06 5e 3c 71 20 de 3d a9 c2 e2 3d b2 1a 3d bd
       0.013551466 0.108460315 0.11072285 -0.046168037
000250 80 11 24 be 93 4f d0 bd 7e 3e 46 3d 4e ab fa 3d
       -0.160223 -0.101714276 0.04839944 0.12239705
000260 6c cf f9 3d d8 cc 1e 3e dc 8a 30 3e 55 ba 53 3e
       0.12197766 0.15507829 0.1724047 0.20676549
000270 73 ca ae 3c a4 b1 a5 bd e2 d5 a5 bd 88 0a bb bd
       0.02133677 -0.08090523 -0.080974355 -0.09132868
000280 ab f9 62 3d b1 8f 09 3e 56 90 37 3d 0c c7 38 3c
       0.055413883 0.1343372 0.044815384 0.011277925
000290 01 2c 05 3e 5b 23 58 3d e6 7a 32 be 7b 94 6e bd
       0.13005067 0.052768093 -0.17429695 -0.05824707
0002a0 1f c1 63 bd a5 0e 65 bd ca 2f 47 3e 2a c2 95 bd
       -0.055604097 -0.05592217 0.19451824 -0.073124245
0002b0 27 98 32 3d 70 8c 7e bd e5 b5 ba 3d bf a7 ea bb
       0.043602135 -0.06214565 0.09116725 -0.00716111
0002c0 a0 6d 26 be c5 ec 0d 3e 3f 19 56 3e 80 7c 49 3c
       -0.16252756 0.13859852 0.20908068 0.0122977495
0002d0 fb 8d 77 3e 5c 99 4d bd b9 30 75 bc dd 63 b0 bd
       0.24175255 -0.050195083 -0.01496523 -0.086127974
0002e0 81 bf 9c bd 0a c2 e4 bd 50 fe af 3c 97 db 4e 3e
       -0.07653714 -0.111698225 0.02148357 0.20200954
0002f0 63 90 fa 3c 18 d4 43 3b 1b 6b 5f be b5 48 1c bd
       0.030586427 0.0029881056 -0.21818201 -0.038155276
000300 25 23 66 3d f9 d7 4e bd ff 48 54 3d ab b3 ec 3d
       0.05618586 -0.050498936 0.051827427 0.115577064
000310 14 a9 f6 bc 7f a1 5a bd eb 6b d3 bc 76 d8 c3 3d
       -0.03010992 -0.05337667 -0.025808295 0.09562771
000320 6d 82 07 bd 89 01 11 3e 78 34 ba 3c d8 1f ef 3c
       -0.033083368 0.14160742 0.022730097 0.029189989
000330 30 a4 ee bd 25 5f 5a bd d9 dc a7 3d 95 7d 4d 3e
       -0.1165241 -0.053313393 0.0819642 0.20067437
000340 59 75 70 3d 81 f6 36 be c1 40 fb bd 54 26 25 3d
       0.05870566 -0.17867471 -0.1226821 0.040319756
000350 92 58 a6 3d 82 69 62 ba a9 20 30 be 2f f9 e0 3c
       0.08122362 -0.0008636938 -0.17199959 0.02746257
000360 31 b0 d1 bd 3c 4a 0d be 10 a4 33 3d 15 84 4a bd
       -0.10238684 -0.1379785 0.043857634 -0.04944237
000370 86 e0 5b bd 11 80 47 3e 0c 90 32 3e 05 69 a2 3d
       -0.05368092 0.19482447 0.17437762 0.07930187
000380 6c 75 a9 3d c6 b2 9b 3d 9c 3a 93 bd 89 65 5f 3d
       0.082743496 0.07602458 -0.07188913 0.05454019
000390 dc 0c fe bd 0a 20 e4 bd 00 ca c1 3d a4 98 8a bc
       -0.124047965 -0.111389235 0.094623566 -0.016918488
0003a0 b8 04 1a be f8 38 22 3d 8e 9b 48 3e 38 e6 8a 3c
       -0.15040863 0.03960511 0.1959059 0.01695548
0003b0 23 f6 37 bc 5f 0e b6 3d 09 5b 00 3e 85 92 87 3c
       -0.011228117 0.0888946 0.12534727 0.016549358
0003c0 c2 be 33 be 7b 35 ad bd cf 0f 5b 3c 66 f3 a3 3a
       -0.17553237 -0.08457466 0.013370468 0.0012508451
0003d0 c5 6d 87 bb cb 88 9d ba f7 4b 1b be 4b 05 82 be
       -0.0041329586 -0.0012018917 -0.15165697 -0.25394663
0003e0 8c 66 7e 3d 4f d0 d6 3d fc 2e 21 3d 9f 6b e6 bc
       0.062109515 0.104889505 0.03935145 -0.02812749
0003f0 6a d1 94 bd cd 18 f1 3d d2 37 17 3d 54 6d ce bd
       -0.07266505 0.117723085 0.03691847 -0.100794464

encoder.dense1.bias f4 [45]
000000 20 e4 9e 3c f5 40 db be 3e 5c cf 3e 88 2f e6 3d
       0.019395888 -0.42822996 0.40500063 0.112395346
000010 16 cd 35 bd 85 5c a0 be 32 55 16 be 82 60 c1 bd
       -0.04438504 -0.31320587 -0.14680937 -0.094422355
000020 e8 d8 bf 3e 06 cc c9 3d 71 9e 2e 3e ec f8 57 be
       0.37470174 0.098533675 0.17052628 -0.2109105
000030 03 53 61 3e 2c f7 72 3e 52 b0 0f 3e 46 de 00 bf
       0.22004323 0.23727101 0.14032105 -0.5033916
000040 65 1d 0d be c5 f7 63 be fe 25 11 be 8d 23 9f bd
       -0.13780744 -0.22262485 -0.14174649 -0.07770453
000050 ca 0c 08 3f ea 79 45 bd 46 b4 a2 be 6b 63 7e 3e
       0.53144515 -0.04821197 -0.31778163 0.24842612
000060 5e 4c 82 3e f0 66 db be 22 1d 4e be c1 86 af be
       0.2544889 -0.42851973 -0.20128301 -0.34282497
000070 10 f0 a9 3e 35 73 78 3e 29 c6 1f 3d 36 c4 f4 3c
       0.33190966 0.24262698 0.03900734 0.029878717
000080 b8 f9 e8 bd 17 fb 7a be 94 bf 47 be e6 55 6f 3e
       -0.11375755 -0.24509846 -0.19506675 0.23372611
000090 e8 12 20 3f 56 6d 33 3e d1 3a d2 3e 70 5f 05 be
       0.6252885 0.17522177 0.41060498 -0.13024688
0000a0 fa b3 66 3e 17 bb 66 be 7a f6 26 be d4 d9 9d 3d
       0.22529593 -0.22532307 -0.16304961 0.07707563
0000b0 3a 49 37 3d
       0.04474757

encoder.dense3m.weight f4 [3, 45]
000000 35 ba c2 3d e1 f6 b9 bd ef 2c dc 3e 61 3e 97 3d
       0.095081724 -0.090802915 0.43003032 0.07384945
000010 37 38 73 3d a6 5a 2c be 9c 82 04 be bd 02 76 bd
       0.059379783 -0.16831455 -0.12940449 -0.060061205
000020 b5 15 d9 bc c8 cf 89 bc fc b9 b5 bd 90 b4 80 be
       -0.026499609 -0.01682271 -0.08873364 -0.25137758
000030 31 4f 6f 3e 55 07 61 3e 1c 8f 9e bd 29 a1 54 be
       0.23370053 0.21975453 -0.0774214 -0.20764603
000040 00 2b 6c bd de 9c 05 be 19 0f 81 bc e7 02 03 bd
       -0.057658195 -0.13048121 -0.01575427 -0.03198519
000050 08 ab 0f 3e 34 59 f6 bd f6 f6 e4 bd 92 e5 08 3e
       0.14030087 -0.12028733 -0.111799166 0.13368824
000060 94 d5 60 3d a3 64 0a be 0f 58 c5 3d ce 02 bb bd
       0.054891184 -0.13514952 0.096359365 -0.09131394
000070 69 cf 36 be b4 db 40 3e 38 99 66 bd f7 28 e9 3d
       -0.17852558 0.1883381 -0.056298465 0.113847665
000080 03 b4 dc bb 44 13 27 be 8b 2c 0e be f4 5a 2e 3e
       -0.0067353263 -0.16315943 -0.1388418 0.17026883
000090 8d 86 af bb 87 36 56 be 32 a8 9b 3e e7 98 1a be
       -0.005356616 -0.20919238 0.3040176 -0.1509739
0000a0 6e 29 bd 3e 6f 4b db bd 29 8f d1 bd 18 f6 ea 3d
       0.3694567 -0.10707747 -0.10232384 0.1147272
0000b0 da 3e a1 bb b5 1a dd bc 71 ea 62 be c5 c7 b5 3c
       -0.0049208226 -0.026990274 -0.22159745 0.022189984
0000c0 39 e4 96 3d b2 ca 60 3d 09 9c 4e be f6 f5 c0 3d
       0.07367749 0.054880805 -0.2017671 0.09421913
0000d0 03 5c f8 3c 51 83 9c 3e 11 03 ff bd 16 05 24 3e
       0.030317312 0.30568936 -0.12451757 0.16017565
0000e0 8a 31 1e be b4 c9 4e bd 31 4b 21 3e dc b1 5d 3e
       -0.15448585 -0.050485328 0.1575134 0.21649879
0000f0 d0 bd 37 be 10 c2 3b 3d 4b 67 29 3d d8 2e 83 bd
       -0.17943501 0.04583937 0.041358273 -0.06405419
000100 ab 4f cb 3d a2 4e 97 3e 21 82 3a 3e 69 27 c6 be
       0.09927305 0.2955218 0.18213703 -0.38701943
000110 ad ff 97 3e cc 47 ca bc c3 da 6a bc 9a fa a5 bd
       0.29687253 -0.024692439 -0.014334383 -0.08104439
000120 21 54 c8 be 5a e5 8e 3e 20 0e 27 be 06 f7 d2 3d
       -0.39126685 0.27909356 -0.16313982 0.10301022
000130 a7 d0 86 3d 86 c6 b5 3d da 4c 26 bc db a1 bd bc
       0.06582766 0.08875756 -0.010150159 -0.023148468
000140 6f 14 20 bd f5 54 7b 3c 10 bf 1c be 49 8b 82 3e
       -0.039081987 0.01534008 -0.1530726 0.2549689
000150 bd c8 57 3e 76 8b 52 be 5e d5 20 bd d7 72 92 bd
       0.2107267 -0.20561013 -0.039265983 -0.0715081
000160 a8 b2 6f 3d cb 49 3d be c6 8b d3 bd d2 00 ec 3e
       0.05851999 -0.18485181 -0.10329394 0.46094376
000170 b8 b4 c9 bd 15 2a 80 3d c8 a6 dd 3d 14 c0 21 3e
       -0.098489225 0.062580265 0.108228266 0.15795928
000180 65 a3 fc 3b 00 44 0d 3d 00 2a 4b be f5 8a 04 be
       0.007709908 0.034488678 -0.1984024 -0.12943633
000190 37 72 8c bd 30 e4 ec bd c4 a2 59 bc 69 f7 ae 3d
       -0.06857722 -0.11566961 -0.013283435 0.085432835
0001a0 ee fc dd 3d 8b 52 d5 3e 65 22 f5 3d 55 93 b8 3e
       0.10839258 0.41664538 0.11969451 0.36049905
0001b0 b0 d1 2e 3c 8b 78 a4 3d d3 16 82 3d 40 de 23 3d
       0.010670111 0.08030804 0.063520096 0.040006876
0001c0 60 85 a1 3e ab fd a5 bd 77 62 45 be 52 b5 88 3e
       0.3154707 -0.08105024 -0.19275843 0.26700836
0001d0 23 08 bb 3d be 54 9c 3e fe a0 28 be 7e 24 5d be
       0.09132411 0.30533403 -0.16467664 -0.21595952
0001e0 af a0 b0 3d 6b 61 c8 3d 06 c6 2c 3e 12 8a 15 3e
       0.08624398 0.09784206 0.16872415 0.14603451
0001f0 93 44 cc 3c d8 ee 98 bd dc e4 98 be 6f 6d 93 be
       0.024935042 -0.07467431 -0.29862106 -0.2879443
000200 57 f5 4d be 7f 89 1b 3e 29 7d d9 bd 45 1f ee 3d
       -0.20113121 0.1518917 -0.106195755 0.11627058
000210 67 e7 d0 bc e1 c0 72 bc d9 ee b3 bd
       -0.025500966 -0.014816494 -0.08785791

encoder.dense3m.bias f4 [3]
000000 6d cc 1f 3e a7 f0 91 3e 43 c7 30 be
       0.15605326 0.28503916 -0.17263512

encoder.dense3s.weight f4 [3, 45]
000000 55 a0 ad 3e 7c 6f 0b 3e 0c 8b cb bd e1 2e 28 3d
       0.33911386 0.13616747 -0.099386305 0.041060332
000010 1f 29 d1 3c e4 56 5d 3d 7a 9f 26 3e fd 09 36 bd
       0.025532303 0.054037943 0.16271773 -0.04444312
000020 bd b9 67 3c 7d 7a c4 3d 00 17 96 bd 42 4f 93 3d
       0.014143405 0.09593675 -0.07328606 0.071928516
000030 e9 5e 80 3c 82 cf f7 bd 33 34 2b 3d 1c d2 b6 3d
       0.015670257 -0.12100126 0.041797828 0.08926794
000040 ca f6 7d bd 05 c6 87 3c b7 d9 10 bd 11 76 29 3d
       -0.062002935 0.016573915 -0.03536388 0.041372363
000050 a6 c0 29 bd fe 90 7a 3c e5 05 14 bd 52 cb a2 bc
       -0.04144349 0.015293358 -0.036138434 -0.019872341
000060 7c 90 43 bd 80 22 04 3e 4f 51 d6 3e 8c 97 11 3b
       -0.047745213 0.12903786 0.4185891 0.0022215573
000070 43 73 fa 3c e2 b4 bb bd 67 ee 7d 3d 54 bb df bb
       0.03057254 -0.0916536 0.061994936 -0.006827751
000080 0f 27 0e 3e 64 9f c6 3c 5f 13 9c 3c 30 14 26 bd
       0.13882087 0.024245925 0.019052206 -0.040546596
000090 f7 2a c4 ba 9d 70 c8 bc d0 a4 11 be bd ad 5b ba
       -0.0014966418 -0.02446776 -0.14223027 -0.0008380076
0000a0 31 19 be 3c 3c 41 2a 3d fb 2e 9d bc 1f 3f 6c 3e
       0.023205372 0.04156612 -0.019187441 0.23070954
0000b0 49 23 a4 bd e5 b4 5e 3d 81 ce 18 3d f8 4c 9f bd
       -0.080145426 0.054371733 0.037306312 -0.077783525
0000c0 c4 d5 c5 bc 70 c1 6e bd eb fd 51 3c 50 f0 66 bd
       -0.024149783 -0.058289945 0.012816886 -0.056381524
0000d0 6a 47 80 bd 4d 05 56 bd 98 01 c2 bc ce c1 da 3d
       -0.06263621 -0.05225115 -0.0236824 0.106814966
0000e0 c0 48 3b bc b4 fd 8f bc 68 2e e7 bc 7d 50 a0 bd
       -0.011430919 -0.01757703 -0.02822037 -0.07827852
0000f0 81 33 83 3d d8 7f 99 3c 76 92 cf 3d 79 ff 94 3d
       0.06406308 0.018737718 0.10135357 0.0727529
000100 d3 09 7d bd f7 78 ad bc 3a a8 ac bd d9 38 15 3d
       -0.061776947 -0.021175845 -0.08430524 0.036431167
000110 53 90 c0 bd 69 d9 90 3d 06 28 79 3c 9c 25 e5 3c
       -0.09402528 0.07072718 0.015207296 0.027972035
000120 5e 4e 64 3d 67 db 38 bd a4 3f 3d 3d 7c b0 a2 3d
       0.0557388 -0.045131113 0.04620327 0.07943818
000130 23 53 50 3d 67 87 ea 3d a4 6a a9 3d 10 0d b3 bd
       0.050860535 0.11451607 0.08272293 -0.08742726
000140 ce 2b 01 be e6 8f 41 bb 69 32 31 bd 42 92 92 bd
       -0.12614366 -0.0029535233 -0.043260965 -0.07156803
000150 a1 99 76 bd 60 bd 1c bd 26 07 a4 3c 0a 2f 48 3d
       -0.060205106 -0.03826654 0.02002294 0.048872985
000160 d2 b8 93 bd 11 31 45 bd 9e 75 8d 3e ab 0d b0 3b
       -0.07212986 -0.048142496 0.27628797 0.005372723
000170 96 ba df bd c5 f9 c9 bd 89 c5 82 bd 2b e6 48 bd
       -0.1092426 -0.09862093 -0.06385333 -0.04904763
000180 21 c3 48 bd 91 68 53 bc a3 b8 de bd 05 ab 14 be
       -0.049014214 -0.012903349 -0.108750604 -0.14518364
000190 2f db bc 3c 1c d0 87 3c e8 83 a7 3c 8e ff 19 bc
       0.023053734 0.016578726 0.02044864 -0.009399308
0001a0 ec a7 1c bb a6 7f 9c 3d 63 04 d6 bd 4d 92 37 3e
       -0.00239038 0.076415345 -0.104500555 0.17926903
0001b0 b7 71 87 bd f7 02 af bd ef 30 cb 3b 90 c5 0d bd
       -0.06613486 -0.085454874 0.0062009017 -0.03461224
0001c0 f3 bc 24 3e a2 8c e2 bd 29 46 78 bd 61 47 a4 3d
       0.16087703 -0.1106198 -0.060613785 0.08021427
0001d0 93 3e 80 3b 74 f7 bf 3d 8a 33 bd bc b5 2b 21 be
       0.0039137094 0.0937337 -0.023095865 -0.15739329
0001e0 e9 25 59 bd 7a fe 59 bd 14 5d 8e 3d 1a 90 8b 3d
       -0.05301467 -0.053221203 0.06951347 0.068145946
0001f0 94 5a 70 3d 8b cd 08 be 60 35 8b 3e f7 7d d3 bc
       0.058680132 -0.13359658 0.2718916 -0.0258169
000200 ff 1c 2a be 9e 61 79 3d 61 da 16 bd 14 1b 6d bd
       -0.16612624 0.06088411 -0.036829356 -0.05788715
000210 42 47 cb 3c b3 24 55 bd 02 99 6c 3a
       0.024814252 -0.052036952 0.00090254855

encoder.dense3s.bias f4 [3]
000000 4b aa 8b bd a9 2a 2b be d4 59 bb bd
       -0.0681959 -0.16715492 -0.09147993

decoder.linear.bias f4 [28]
000000 bf 49 33 3f 61 4e 01 3e fa d2 16 bf 34 2d 70 3f
       0.700344 0.12627555 -0.58915675 0.93818974
000010 27 b4 7b 3f 72 b8 9b bf 50 4a 36 bf 55 15 9a 3f
       0.98321766 -1.2165663 -0.7120714 1.203776
000020 1f e4 02 3f 17 8b c8 bf 46 cb 65 be 4c a1 9d 3f
       0.51129335 -1.5667447 -0.22440824 1.2314849
000030 c4 cd 16 bf 9f 57 0f 3e ea ec c0 be fd 63 19 3e
       -0.58907723 0.13998269 -0.3768075 0.14979549
000040 a6 f6 85 be 74 4e 0a 3f ed bd ad 3e 84 3e c9 bd
       -0.2616474 0.5402596 0.33933964 -0.09826377
000050 7d 32 1c bf 5c 37 75 bf 87 4e 7f 3e 45 f2 4a bf
       -0.6101454 -0.95787597 0.249323 -0.79275924
000060 b3 e4 18 be 80 ed 88 bf 07 5a 6e 3f 8b 07 c0 bf
       -0.14930992 -1.0697479 0.9310612 -1.5002302

decoder.linear.weight_orig f4 [28, 3]
000000 28 91 6f bf 03 3c 92 bf 3e bb 9c 3e ea a4 0a be
       -0.93580866 -1.1424564 0.30611604 -0.13539472
000010 60 52 ad bf 50 d5 f9 bd 29 0a 03 bf 44 47 ae be
       -1.3540764 -0.12198889 -0.5118738 -0.34038746
000020 f1 e4 b8 3f 00 1c 89 3d 78 c6 8f 3e d8 d3 62 3f
       1.4444867 0.06694794 0.28081107 0.886045
000030 e8 a0 99 3d 6e f3 09 3f 90 49 ff 3e f0 5a 45 3d
       0.075013936 0.5388707 0.4986081 0.048182428
000040 58 99 9b 3e 9c 8a a6 3f 6a 9c 80 bf a4 c3 a9 3e
       0.3039043 1.301105 -1.0047734 0.33157074
000050 c6 a6 ba 3f 26 80 da be 86 94 a9 bf 6b 85 c6 be
       1.4582145 -0.42675894 -1.3248451 -0.38773665
000060 46 05 86 3e b0 d4 df be e7 96 9c 3f 10 f8 d9 bf
       0.26175898 -0.43716955 1.2233552 -1.7028828
000070 fc ab f4 3e 0b 17 05 bf 09 82 b0 bf 18 7d 77 3e
       0.47787464 -0.51988286 -1.3789684 0.24168813
000080 40 9b c1 3e 78 9b 1a bf e8 e0 df 3e 47 bb 8c 3f
       0.3781376 -0.60393476 0.43726277 1.0994653
000090 0c 97 e6 bf 80 aa c4 3b 80 bd 0a 3e 81 47 94 bf
       -1.8014846 0.0060017705 0.13548851 -1.1584321
0000a0 80 2f 07 3e 40 5d 7e 3e b8 aa fa 3e 7e 03 fe be
       0.13201714 0.2484026 0.48958373 -0.4961204
0000b0 b3 3f e1 3f 8e 20 d2 bf de ae d0 be c9 6c ab 3f
       1.7597564 -1.6416185 -0.40758413 1.3392574
0000c0 58 6b 0a be f4 0e a6 bf 86 3c d6 3f c8 d0 c2 3e
       -0.13517511 -1.2973313 1.673722 0.38049912
0000d0 d2 7a 05 be fa 3f 95 3f 20 62 e5 3e 48 ff d8 3e
       -0.13035133 1.1660149 0.44801426 0.42382264
0000e0 ae 67 aa 3f b4 71 ba bf a8 62 06 be 12 8c 16 3f
       1.331289 -1.456595 -0.13123572 0.5880748
0000f0 fe 10 9e bf 08 64 11 3f 39 63 b0 3f 1e ba d7 3e
       -1.2348936 0.5679326 1.378028 0.42134184
000100 50 36 48 bd 3b 5c 9c 3f 16 d2 7f be 3f bc 82 bf
       -0.04887992 1.2215647 -0.24982485 -1.0213698
000110 4c 08 10 3f 9a 54 0d 3f c7 0c cb bf b4 6d f3 3e
       0.5626266 0.55207217 -1.5863274 0.47544634
000120 5a c0 81 bf cc db 3a be 94 8d 51 3e 48 cc cc 3e
       -1.0136826 -0.18247908 0.20464164 0.39999604
000130 58 d8 4b 3e 23 df e6 3f 0f 92 d4 bf 08 71 9e 3d
       0.19906747 1.8036846 -1.6607074 0.07736403
000140 dd 94 02 bf a0 7e fc 3e 96 fa e1 be c4 3e 56 3f
       -0.510084 0.49315357 -0.44136494 0.8368952

decoder.linear.weight_mask f4 [28, 3]
000000 00 00 80 3f 00 00 80 3f 00 00 00 00 00 00 00 00
       1.0 1.0 0.0 0.0
000010 00 00 80 3f 00 00 00 00 00 00 80 3f 00 00 00 00
       1.0 0.0 1.0 0.0
000020 00 00 80 3f 00 00 00 00 00 00 00 00 00 00 80 3f
       1.0 0.0 0.0 1.0
000030 00 00 00 00 00 00 00 00 00 00 80 3f 00 00 00 00
       0.0 0.0 1.0 0.0
000040 00 00 00 00 00 00 80 3f 00 00 80 3f 00 00 00 00
       0.0 1.0 1.0 0.0
000050 00 00 80 3f 00 00 00 00 00 00 80 3f 00 00 00 00
       1.0 0.0 1.0 0.0
000060 00 00 00 00 00 00 00 00 00 00 80 3f 00 00 80 3f
       0.0 0.0 1.0 1.0
000070 00 00 00 00 00 00 00 00 00 00 80 3f 00 00 00 00
       0.0 0.0 1.0 0.0
000080 00 00 80 3f 00 00 80 3f 00 00 00 00 00 00 80 3f
       1.0 1.0 0.0 1.0
000090 00 00 80 3f 00 00 00 00 00 00 00 00 00 00 80 3f
       1.0 0.0 0.0 1.0
0000a0 00 00 00 00 00 00 00 00 00 00 00 00 00 00 00 00
       0.0 0.0 0.0 0.0
0000b0 00 00 80 3f 00 00 80 3f 00 00 00 00 00 00 80 3f
       1.0 1.0 0.0 1.0
0000c0 00 00 00 00 00 00 80 3f 00 00 80 3f 00 00 00 00
       0.0 1.0 1.0 0.0
0000d0 00 00 00 00 00 00 80 3f 00 00 00 00 00 00 00 00
       0.0 1.0 0.0 0.0
0000e0 00 00 80 3f 00 00 80 3f 00 00 00 00 00 00 80 3f
       1.0 1.0 0.0 1.0
0000f0 00 00 80 3f 00 00 00 00 00 00 80 3f 00 00 00 00
       1.0 0.0 1.0 0.0
000100 00 00 00 00 00 00 80 3f 00 00 00 00 00 00 80 3f
       0.0 1.0 0.0 1.0
000110 00 00 00 00 00 00 00 00 00 00 80 3f 00 00 00 00
       0.0 0.0 1.0 0.0
000120 00 00 80 3f 00 00 00 00 00 00 00 00 00 00 00 00
       1.0 0.0 0.0 0.0
000130 00 00 00 00 00 00 80 3f 00 00 80 3f 00 00 00 00
       0.0 1.0 1.0 0.0
000140 00 00 00 00 00 00 00 00 00 00 00 00 00 00 80 3f
       0.0 0.0 0.0 1.0

exp_avg f4 [45, 28]
000000 37 77 26 b9 34 e4 e4 38 31 a2 0b b9 cf c5 54 38
       -0.00015875405 0.00010914393 -0.00013316494 5.0728962e-05
000010 da 73 41 3a 8d 44 2f 39 60 77 d2 38 20 45 10 3a
       0.0007379629 0.00016714838 0.00010035816 0.00055034645
000020 4e 59 19 3a 34 01 fa 37 fc aa 0b 39 ed bd 0d 3a
       0.0005849794 2.9802883e-05 0.0001331977 0.00054070243
000030 c8 26 35 39 83 8f 9e b8 ae fe a8 39 82 68 1d 3a
       0.00017275952 -7.560758e-05 0.00032233208 0.00060046476
000040 fb ee 46 39 e8 83 c6 b9 57 c9 70 b9 27 d4 17 39
       0.00018971779 -0.0003786378 -0.00022963189 0.00014479515
000050 0a c8 17 39 c4 f1 9d b8 d8 79 90 39 bf 3d 14 39
       0.00014475003 -7.531376e-05 0.000275566 0.00014137382
000060 f4 9b 2b b9 b0 71 bb 37 be 47 39 3a 0c 5a 83 39
       -0.00016365928 2.2345077e-05 0.00070678804 0.00025053357
000070 93 4b 7f 3b c4 dd f9 3a ba 72 82 3b a1 68 bf 3b
       0.0038954958 0.0019063284 0.0039809616 0.00584133
000080 cc 29 b0 3b 43 f0 1e 3b 42 53 23 3b 90 ef 67 3b
       0.0053760763 0.0024252094 0.0024921452 0.0035390593
000090 78 ae 00 3b cf 41 12 3b 68 e8 ae 3b 2c a9 a4 3b
       0.0019635241 0.0022317057 0.0053377636 0.0050250497
0000a0 e4 00 6b 3b e4 e7 4a 3b c0 8c 19 3b 6b 47 93 3b
       0.0035858685 0.0030960971 0.002342984 0.0044945977
0000b0 b7 1c 7f 3b 7c e3 a9 3b c5 31 80 3b 22 8b 6d 3b
       0.0038927027 0.005184589 0.003912183 0.003624626
0000c0 40 c2 86 3b 6e b5 67 3a 9e 50 77 3b 1e 47 15 3b
       0.004112512 0.0008838986 0.003773726 0.0022777985
0000d0 34 f9 6c 3b 06 3a 07 3b 1e b0 d8 3b da a1 36 3b
       0.0036159279 0.002063395 0.0066127917 0.0027867467
0000e0 80 db 53 bb ff 4c 18 bb b4 29 95 bb aa a6 a6 bb
       -0.0032326877 -0.0023239253 -0.0045520905 -0.005085786
0000f0 fc e9 9d bb de 57 0f bb 04 eb 5f bb f1 e9 3a bb
       -0.004819153 -0.0021872441 -0.003416718 -0.0028520788
000100 1a 3b 42 bb 10 5e a2 ba df 6c 8d bb ae 03 98 bb
       -0.0029637278 -0.0012387652 -0.004315957 -0.0046391105
000110 31 69 34 bb a1 f7 71 bb f8 3e 13 bb 07 39 73 bb
       -0.002752852 -0.003692128 -0.0022467952 -0.0037112848
000120 98 71 5b bb d5 f9 8f bb 6a f1 92 bb a0 00 47 bb
       -0.0033484455 -0.004393796 -0.004484345 -0.0030365363
000130 22 a9 52 bb 30 77 45 ba 3c e7 5d bb 83 db 1a bb
       -0.0032144268 -0.0007532714 -0.003385975 -0.0023629374
000140 66 39 79 bb 91 dc d9 ba 1e 6c b8 bb fe d3 42 bb
       -0.0038028597 -0.001662152 -0.005628123 -0.0029728408
000150 be 01 91 b9 bf 37 48 b9 ec 43 aa b9 86 4b 0b ba
       -0.00027657853 -0.00019094253 -0.00032475532 -0.0005313683
000160 30 d9 50 b9 ec 90 5a b9 8a 92 cb b9 54 48 90 b9
       -0.00019917334 -0.00020844088 -0.00038828357 -0.0002751971
000170 1b fa 18 ba a8 4b 44 38 30 1f ce 36 a2 f5 92 b9
       -0.00058356085 4.6800502e-05 6.142909e-06 -0.000280303
000180 7c d2 9e b8 48 4a 06 b9 95 d1 78 b9 57 bd a6 b9
       -7.573233e-05 -0.00012806908 -0.00023729198 -0.00031803056
000190 62 71 e2 b9 be a3 71 b9 0f d7 d1 b9 10 d9 88 37
       -0.00043190556 -0.0002304455 -0.00040023818 1.6313541e-05
0001a0 9c 93 62 b9 f6 9e 63 39 b5 08 4e b8 3c 93 9e b8
       -0.00021608028 0.00021707625 -4.9122336e-05 -7.561452e-05
0001b0 12 a3 35 b9 8a 31 40 b9 28 9f 93 b8 57 d9 14 b9
       -0.00017322254 -0.00018329002 -7.0391514e-05 -0.00014195345
0001c0 8b a6 e0 38 df e7 5d 37 a0 b2 ae b7 00 8f de 35
       0.000107121734 1.3226613e-05 -2.0825595e-05 1.6581907e-06
0001d0 80 a2 7f 39 17 b0 b3 b8 96 88 9a b9 85 cf 05 39
       0.00024379231 -8.5681844e-05 -0.00029474933 0.00012761175
0001e0 e3 02 d3 b9 c6 c7 a8 39 af 2a b2 39 68 d0 86 38
       -0.00040247207 0.000321923 0.00033982607 6.4284366e-05
0001f0 a0 20 7b 39 27 d1 57 39 68 52 9e b8 f5 ee c1 38
       0.00023949379 0.00020581913 -7.5493765e-05 9.2474664e-05
000200 a2 cd 49 b8 c2 07 a2 39 30 12 df b7 a8 ed be 39
       -4.8113645e-05 0.00030904828 -2.659214e-05 0.00036416692
000210 7d 62 56 39 f7 02 3e 39 f3 0a 8e 39 1c 74 3c 39
       0.0002044532 0.00018120917 0.00027092508 0.00017972331
000220 9b 34 9b 39 c0 2a 25 b7 d5 e9 1e 3a c0 00 38 38
       0.00029603098 -9.84472e-06 0.00060620654 4.3869717e-05
000230 d2 6d 18 3b f0 83 05 3a 7c ac 11 3b 8c c6 3a 3b
       0.0023258817 0.00050932076 0.0022228053 0.002849969
000240 98 80 3e 3b b9 1e b3 3a 8b 66 d0 3a fc f5 c3 3a
       0.0029068347 0.0013665772 0.0015899701 0.0014950628
000250 32 10 a8 3a 2e 9d 6b 3a be f5 2b 3b 48 56 3b 3b
       0.0012822209 0.000898796 0.0026239003 0.0028585363
000260 65 45 fa 3a d7 a3 fc 3a 9b 78 a6 3a de e2 1c 3b
       0.0019094168 0.0019274902 0.0012700738 0.0023938934
000270 34 4f e7 3a 4a d1 30 3b 3c 35 08 3b 80 81 0d 3b
       0.0017647506 0.0026980215 0.0020783683 0.002159208
000280 44 1c fa 3a e1 30 da 39 6a 2e fa 3a 5e ff a9 3a
       0.001908191 0.00041616618 0.0019087319 0.0012969782
000290 18 63 e5 3a f0 17 5b 3a c0 4e 78 3b 10 ac c9 3a
       0.0017500846 0.0008357754 0.0037888736 0.0015386362
0002a0 10 43 35 3a 0d 5c 0f 3a 35 aa 5a 3a f1 e5 56 3a
       0.0006914595 0.0005468734 0.0008341403 0.0008197716
0002b0 f4 69 ba 3a b4 ab da 38 e1 d2 1b 3a 1d 4c 18 3a
       0.001422225 0.00010427032 0.0005944204 0.00058096816
0002c0 9e 2e 2d 3a 38 23 30 39 c7 98 a2 3a 15 d2 8d 3a
       0.0006606373 0.00016797788 0.001240515 0.0010820056
0002d0 bc 90 3a 3a dc 8a 98 3a 7e 57 e2 39 58 ba 55 3a
       0.0007116904 0.0011638063 0.00043171266 0.00081530726
0002e0 4b 34 7f 39 f0 f8 5e 3a b6 d4 80 3a fc a4 60 3a
       0.00024338176 0.00085057225 0.0009829018 0.00085695065
0002f0 ee 31 08 3a 00 87 96 39 6f 88 9a 3a 1c 22 06 3a
       0.00051954284 0.00028710812 0.0011789928 0.0005116777
000300 2e 43 a0 3a d0 e5 b8 37 c2 46 cb 3a d2 e1 4f 3a
       0.0012227052 2.2041524e-05 0.0015508758 0.0007930073
000310 b0 a0 b1 39 c5 56 32 39 0f 9f ed 39 09 26 ee 39
       0.00033879792 0.00017007727 0.0004532267 0.00045423236
000320 56 db 8e 39 aa 64 64 39 0a 50 83 39 4a 14 4f 39
       0.0002724777 0.00021781275 0.000250459 0.00019748617
000330 b8 b2 7e 38 9b 8b 95 39 b0 0a d0 39 ec ba a8 39
       6.0724764e-05 0.0002852351 0.00039680814 0.00032182725
000340 bc a4 85 39 a4 81 fe 39 ae 3a b3 38 34 8f b8 39
       0.00025490473 0.00048543245 8.546315e-05 0.0003520191
000350 ec f2 96 39 cd 23 24 3a 12 95 ef 39 cb a8 07 3a
       0.0002879122 0.0006261438 0.00045696698 0.00051749934
000360 2c 05 f0 39 9c 9a 92 38 d7 29 98 39 f2 65 cc 39
       0.0004578022 6.990621e-05 0.00029022872 0.00038985867
000370 be 88 ee 39 b8 45 07 39 e6 90 45 3a e5 c3 87 39
       0.00045496778 0.00012900576 0.0007536545 0.0002589516
000380 dc ad f9 ba fb 68 51 ba 78 f2 bb ba fe c4 44 bb
       -0.0019049007 -0.00079883606 -0.0014339229 -0.0030024643
000390 64 60 0f bb 0d e0 a2 ba 59 b3 89 ba 83 82 dd ba
       -0.0021877522 -0.0012426391 -0.001050572 -0.0016899857
0003a0 0f eb a3 ba 3c dd 72 ba 31 ae eb ba b4 05 19 bb
       -0.0012505966 -0.0009264534 -0.001798099 -0.0023349347
0003b0 ea 46 b8 ba 18 24 48 ba 4c a1 a1 ba 00 06 15 bb
       -0.001405922 -0.0007634773 -0.0012331395 -0.0022739172
0003c0 a4 41 0e bb a1 bf 10 bb db 82 be ba 70 50 8e ba
       -0.0021706605 -0.0022086876 -0.0014534848 -0.0010857712
0003d0 e4 7a f8 ba e0 51 5d b8 df 70 b3 ba be a1 55 ba
       -0.0018957523 -5.2766758e-05 -0.0013690254 -0.00081494066
0003e0 7a 8a 7c ba 56 a9 a8 ba f2 80 14 bb 72 ed 77 ba
       -0.0009633672 -0.0012867849 -0.0022659865 -0.00094576844
0003f0 62 d3 f7 b9 39 b5 98 ba 7c 5c 24 ba 9a 65 ae ba
       -0.00047269004 -0.0011650688 -0.0006269885 -0.0013305426

exp_avg_sq f4 [45, 28]
000000 03 25 4c 37 f7 8d 09 37 e2 73 e5 36 a7 01 7a 37
       1.2167965e-05 8.19889e-06 6.8382224e-06 1.4901546e-05
000010 80 17 92 37 9e e2 53 36 e5 5c d6 36 ff c1 90 37
       1.74155e-05 3.1573359e-06 6.3885113e-06 1.7256474e-05
000020 62 05 3d 37 01 c4 6e 36 7a f9 0e 37 d7 0a 9b 37
       1.1266531e-05 3.5578853e-06 8.521945e-06 1.8482488e-05
000030 20 7a c2 36 38 b3 41 37 42 ce 03 37 6e d9 51 37
       5.7958678e-06 1.1545424e-05 7.856232e-06 1.2507995e-05
000040 12 e9 ff 36 43 b7 4e 37 ff bd 26 37 8f 27 25 37
       7.626725e-06 1.2321226e-05 9.938608e-06 9.843977e-06
000050 f3 8a 07 37 f8 20 5b 36 31 c3 2a 37 74 a8 9f 36
       8.078979e-06 3.2652733e-06 1.0178236e-05 4.75818e-06
000060 23 4f ea 36 dc e4 aa 36 25 ab 88 37 8e e5 b3 35
       6.982956e-06 5.0930375e-06 1.6292159e-05 1.3403348e-06
000070 78 93 68 3a e2 f6 1b 3a e5 0b f7 39 da 38 8b 3a
       0.0008872072 0.0005949569 0.00047120373 0.0010621801
000080 71 19 8f 3a 14 23 6c 39 cd a1 f2 39 96 45 8a 3a
       0.0010917616 0.00022519781 0.00046278388 0.0010549303
000090 1b 24 64 3a a6 ba 48 39 90 ac 14 3a c9 c0 a6 3a
       0.000870289 0.00019143018 0.0005671466 0.0012722249
0000a0 bd 2f e2 39 64 7a 29 3a 1b 89 08 3a 2a fd 4a 3a
       0.00043141647 0.0006465076 0.00052084186 0.0007743413
0000b0 1f 47 19 3a e0 92 65 3a 21 95 4d 3a b3 48 28 3a
       0.00058470847 0.0008757543 0.00078423513 0.00064195244
0000c0 5b 9a 01 3a eb 9b 98 39 35 47 30 3a bf 96 a6 39
       0.000494396 0.00029107867 0.0006724478 0.00031774302
0000d0 d2 48 0a 3a 58 57 a9 39 13 77 7f 3a ed 2b e5 38
       0.00052751333 0.00032299268 0.00097452215 0.00010927753
0000e0 1f 52 fd 39 bc 54 ad 39 66 51 84 39 68 32 18 3a
       0.00048317105 0.00033060263 0.00025237649 0.0005805851
0000f0 4c 67 1c 3a 63 69 06 39 42 1b 80 39 9b 76 19 3a
       0.000596632 0.00012818495 0.0002443437 0.00058541604
000100 5e 43 f8 39 ee 39 c6 38 0c d1 9d 39 3c 11 34 3a
       0.0004735244 9.452166e-05 0.00030101126 0.0006869023
000110 43 d2 69 39 04 5d b8 39 3e 30 97 39 5b dc d8 39
       0.0002229894 0.00035164517 0.00028836908 0.00041362908
000120 fa e8 a6 39 57 33 fb 39 ec f0 de 39 b9 b5 b0 39
       0.00031835568 0.00047912702 0.0004252264 0.0003370473
000130 06 8e 87 39 69 eb 28 39 ac 00 c6 39 d6 a6 39 39
       0.00025855022 0.00016109426 0.00037766004 0.00017705126
000140 ee 3c 98 39 cc 4e 39 39 b2 86 0b 3a 33 f5 83 38
       0.00029037095 0.00017672329 0.00053225004 6.292239e-05
000150 64 05 09 37 82 b5 a0 36 ee 7f c3 36 1a b5 27 37
       8.167091e-06 4.789502e-06 5.826346e-06 9.996142e-06
000160 ca c3 30 37 f8 7f 32 36 60 41 a4 36 0d 16 13 37
       1.0536003e-05 2.6598555e-06 4.8951915e-06 8.767017e-06
000170 75 5e 0c 37 0f 64 ec 35 6b 3e 97 36 42 cd 3c 37
       8.366643e-06 1.7612491e-06 4.507417e-06 1.12534635e-05
000180 27 f9 62 36 68 f6 bd 36 2e 05 04 37 de 7c ef 36
       3.382165e-06 5.6613244e-06 7.869019e-06 7.1372915e-06
000190 e4 5c e5 36 65 1f 17 37 9f d0 07 37 7a 27 af 36
       6.8355457e-06 9.007611e-06 8.0952e-06 5.220002e-06
0001a0 fe da ae 36 2a 9e 84 36 25 03 c0 36 02 2d 3a 36
       5.211098e-06 3.9523193e-06 5.722412e-06 2.7742358e-06
0001b0 12 13 84 36 fa 88 b7 36 54 c4 fe 36 49 a0 d0 35
       3.9361266e-06 5.469771e-06 7.5926455e-06 1.5543857e-06
0001c0 5f a7 1f 38 82 b0 db 37 8c f5 c0 37 f3 72 41 38
       3.806443e-05 2.6189027e-05 2.3002525e-05 4.612184e-05
0001d0 e4 ba 48 38 a4 91 35 37 ee 1f b5 37 91 bd 42 38
       4.785777e-05 1.082235e-05 2.159175e-05 4.6429752e-05
0001e0 b4 30 2a 38 0a 6f 14 37 db 11 d4 37 dd 46 72 38
       4.0576517e-05 8.847341e-06 2.5280684e-05 5.7763293e-05
0001f0 fc 3d 9b 37 eb 3e 01 38 6b 51 c9 37 4d 7e 17 38
       1.8506304e-05 3.0814594e-05 2.399898e-05 3.6118832e-05
000200 4c c9 e8 37 66 bf 2b 38 a8 d8 11 38 b1 83 fc 37
       2.7750291e-05 4.094783e-05 3.477247e-05 3.0102065e-05
000210 08 24 c5 37 42 71 5b 37 cf 0b e9 37 a0 b5 68 37
       2.3501008e-05 1.3079787e-05 2.7781263e-05 1.3870565e-05
000220 fa b1 bc 37 fa 3b 8b 37 74 a6 3a 38 24 8b b4 36
       2.2494223e-05 1.659802e-05 4.4500877e-05 5.380616e-06
000230 91 45 a3 39 8f b0 56 39 97 25 2b 39 bc b0 ba 39
       0.00031141614 0.00020474404 0.00016321834 0.00035608362
000240 03 04 c1 39 93 03 ab 38 c8 a9 2e 39 de c8 b9 39
       0.00036814818 8.154581e-05 0.00016657182 0.00035435607
000250 c5 4d 98 39 cb 16 86 38 8b 63 51 39 9f be e6 39
       0.00029049642 6.3938634e-05 0.00019968876 0.00044011042
000260 d8 04 1f 39 cd 01 70 39 61 b2 42 39 cd d1 91 39
       0.00015165226 0.00022888854 0.00018567733 0.0002781287
000270 cc d4 55 39 dd 6f 9a 39 10 96 8a 39 2e d0 68 39
       0.00020392536 0.00029456514 0.00026433216 0.00022202797
000280 1c 1c 38 39 48 f3 db 38 c8 85 6f 39 e2 1d e2 38
       0.00017558079 0.000104880484 0.00022842654 0.00010782086
000290 8c 9c 41 39 3e a4 f1 38 27 a7 ad 39 27 0a 20 38
       0.00018464233 0.00011522368 0.0003312167 3.8156428e-05
0002a0 4f c8 0f 38 69 22 b6 37 8c d9 99 37 96 d1 21 38
       3.428041e-05 2.1712114e-05 1.8340324e-05 3.8580583e-05
0002b0 69 78 26 38 34 1f 12 37 ac 02 94 37 ad eb 22 38
       3.9689625e-05 8.709543e-06 1.7644219e-05 3.88433e-05
0002c0 d3 34 04 38 67 57 01 37 5e 08 c3 37 24 15 42 38
       3.152045e-05 7.709349e-06 2.3249708e-05 4.6272893e-05
0002d0 42 ca 8c 37 eb 58 ce 37 ce f7 a5 37 11 6c f1 37
       1.6783484e-05 2.459852e-05 1.9784926e-05 2.8779761e-05
0002e0 6b 0d b4 37 f4 5b 04 38 1d d4 ef 37 50 03 d5 37
       2.146392e-05 3.155689e-05 2.8589793e-05 2.5393121e-05
0002f0 f6 fc 9b 37 dc ed 38 37 94 94 c2 37 a6 61 42 37
       1.8595234e-05 1.1022636e-05 2.319579e-05 1.1586037e-05
000300 fc 29 af 37 c2 83 50 37 d3 6f 1d 38 4a 07 9f 36
       2.0881176e-05 1.2428443e-05 3.753586e-05 4.739418e-06
000310 7c ac f3 37 14 7c 90 37 cb 4c 78 37 4a 1a fc 37
       2.9048177e-05 1.7223916e-05 1.4799832e-05 3.0052983e-05
000320 75 31 fa 37 49 fe e9 36 29 ab 71 37 4d 90 00 38
       2.9825353e-05 6.973544e-06 1.4404571e-05 3.065197e-05
000330 fd c6 c9 37 a5 6e d5 36 6f 09 9b 37 02 c9 19 38
       2.4053728e-05 6.3607754e-06 1.8481833e-05 3.6665246e-05
000340 ef 42 5c 37 a4 d7 9f 37 ad 63 81 37 46 c2 c6 37
       1.3128606e-05 1.9054693e-05 1.5424414e-05 2.3693905e-05
000350 11 ca 93 37 60 61 cf 37 24 6f b9 37 ba 5a a2 37
       1.761786e-05 2.4721667e-05 2.2105472e-05 1.9354153e-05
000360 af fb 7b 37 df 12 0c 37 59 b8 ad 37 01 f0 19 37
       1.50193655e-05 8.349044e-06 2.070905e-05 9.175391e-06
000370 49 af 85 37 a8 6f 2d 37 8d 0e f6 37 b7 3b 6a 36
       1.5936459e-05 1.03376005e-05 2.9332261e-05 3.4903476e-06
000380 08 e0 4a 39 9d 6a 04 39 db e5 d2 38 48 b3 6e 39
       0.0001934768 0.00012628218 0.00010056394 0.00022764236
000390 cf 67 74 39 c4 47 46 38 75 f5 d7 38 f3 4f 69 39
       0.00023308325 4.7273716e-05 0.00010297719 0.00022250395
0003a0 33 f3 3e 39 d1 94 3c 38 8f 06 06 39 6a e6 90 39
       0.00018210411 4.496129e-05 0.00012781679 0.00027637492
0003b0 c3 a9 cb 38 86 09 19 39 11 39 e8 38 f5 fe 31 39
       9.711415e-05 0.00014594765 0.000110732515 0.00016975014
0003c0 6d 6f f6 38 c8 5d 43 39 8b 86 2f 39 6c ff 14 39
       0.00011750949 0.00018631585 0.00016739422 0.00014209532
0003d0 24 6f e3 38 de 50 81 38 e7 3b 12 39 c8 59 84 38
       0.00010844905 6.166262e-05 0.0001394596 6.3109735e-05
0003e0 ad 8a f8 38 c4 e4 91 38 b8 48 63 39 ed cd c1 37
       0.00011851392 6.95675e-05 0.00021675497 2.3103285e-05
0003f0 dd dd 3e 38 66 c0 fa 37 96 2c b8 37 30 af 4d 38
       4.5506156e-05 2.9891915e-05 2.1955271e-05 4.9038965e-05

max_exp_avg_sq f4 [45, 28]
000000 0c ba ab 37 dc 70 4f 37 17 f2 53 37 56 9a d1 37
       2.0471423e-05 1.2364439e-05 1.2632946e-05 2.498661e-05
000010 93 28 f5 37 3e 2b be 36 25 5a 43 37 8e 3f ea 37
       2.922517e-05 5.6674753e-06 1.1643894e-05 2.7924569e-05
000020 8f 41 a3 37 57 e9 cd 36 0d 63 81 37 3d 22 07 38
       1.9461642e-05 6.1366404e-06 1.5424122e-05 3.2218395e-05
000030 3e 45 2b 37 a4 72 a9 37 0e 92 69 37 a3 ef bf 37
       1.0208516e-05 2.0199754e-05 1.3921888e-05 2.2880564e-05
000040 1b 87 5c 37 5a 4c b1 37 d4 58 91 37 03 35 95 37
       1.31444785e-05 2.1135598e-05 1.732671e-05 1.778687e-05
000050 52 42 78 37 50 ab b9 36 d2 9a 86 37 63 8a e9 36
       1.4797393e-05 5.533373e-06 1.6046139e-05 6.9600515e-06
000060 b8 00 42 37 ed 7d 1d 37 5e 41 e6 37 e8 56 13 36
       1.1563468e-05 9.387249e-06 2.7448576e-05 2.1955293e-06
000070 8a d2 6d 3a 6c f7 1e 3a d8 59 fb 39 3a bb 8d 3a
       0.0009072205 0.00060640904 0.0004794139 0.0010813244
000080 45 f4 91 3a 88 15 71 39 00 5c f8 39 5b 37 8d 3a
       0.001113542 0.00022991572 0.0004737079 0.0010773944
000090 08 36 69 3a 3b 15 4b 39 e7 8b 16 3a 5c a3 aa 3a
       0.0008896296 0.00019367498 0.0005742893 0.0013018656
0000a0 4f 97 e5 39 4b 87 2c 3a 59 38 0b 3a 6a a9 4e 3a
       0.00043791017 0.00065814395 0.00053108257 0.0007883521
0000b0 bd 9d 1c 3a 4c 45 6a 3a f3 68 51 3a 75 0f 2b 3a
       0.00059744326 0.00089367176 0.0007988356 0.00065254356
0000c0 0f 16 04 3a 4a 99 9b 39 da 5c 33 3a 9e 85 a9 39
       0.00050386874 0.00029678113 0.0006842144 0.00032333744
0000d0 d0 fd 0c 3a b4 b3 ac 39 ad 41 82 3a 39 65 e9 38
       0.0005378397 0.00032940286 0.0009937786 0.0001112916
0000e0 cb bc 00 3a cc c9 af 39 06 dc 84 39 82 c7 19 3a
       0.0004910945 0.00033528951 0.00025340932 0.0005866216
0000f0 78 0c 1e 3a 5b 0d 08 39 f3 f3 81 39 20 c2 1b 3a
       0.00060290797 0.00012974946 0.00024786554 0.00059417076
000100 0e d8 fb 39 f1 ff c6 38 72 0f 9f 39 95 dd 36 3a
       0.00048035424 9.4890485e-05 0.0003033835 0.00069757673
000110 ce ba 6a 39 e5 9e b9 39 b2 11 99 39 cd 6e da 39
       0.00022385569 0.00035404335 0.00029195618 0.00041662753
000120 cb 66 a9 39 ab 4a fe 39 f5 3d e1 39 ac 39 b2 39
       0.0003231078 0.00048502287 0.00042961506 0.00033993775
000130 ca f8 88 39 d5 94 2a 39 c6 b7 c7 39 b1 ac 3b 39
       0.00026125304 0.00016267908 0.0003809316 0.00017898042
000140 cd 70 99 39 29 bd 3b 39 fc ef 0c 3a e2 8b 84 38
       0.00029266477 0.00017904177 0.00053763366 6.320306e-05
000150 13 67 09 37 b9 1a a1 36 1f 37 c6 36 3e 0b 28 37
       8.189835e-06 4.801285e-06 5.907277e-06 1.0016198e-05
000160 16 fb 30 37 bc 03 33 36 15 f5 a4 36 79 6a 13 37
       1.0548878e-05 2.6675252e-06 4.916112e-06 8.786673e-06
000170 19 b2 0c 37 5b 9d ec 35 52 ce 97 36 e7 6f 3d 37
       8.386117e-06 1.7629167e-06 4.5241695e-06 1.1291332e-05
000180 61 3e 63 36 fb 26 be 36 27 3a 07 37 3f 0a f0 36
       3.3861945e-06 5.666979e-06 8.060167e-06 7.15375e-06
000190 e1 1e e6 36 b7 8b 17 37 fa 2a 08 37 d0 c5 af 36
       6.858129e-06 9.032831e-06 8.116238e-06 5.238435e-06
0001a0 39 51 af 36 d6 11 87 36 81 c3 c0 36 f3 ca 3a 36
       5.224862e-06 4.02539e-06 5.7448055e-06 2.7834292e-06
0001b0 78 6f 84 36 0b 29 be 36 f2 28 ff 36 16 54 d1 35
       3.946883e-06 5.6672193e-06 7.604359e-06 1.5596186e-06
0001c0 2a 60 2f 38 22 21 f1 37 18 27 d2 37 0e 24 53 38
       4.181281e-05 2.8744867e-05 2.5052155e-05 5.03399e-05
0001d0 b9 16 5d 38 58 78 45 37 12 27 c6 37 b9 30 56 38
       5.2711668e-05 1.1770135e-05 2.3621633e-05 5.1066952e-05
0001e0 75 b9 3a 38 16 f9 22 37 5d bb e8 37 a7 2d 85 38
       4.4518576e-05 9.713947e-06 2.7743803e-05 6.3504376e-05
0001f0 f8 12 aa 37 15 8d 0e 38 96 35 da 37 c5 7f 26 38
       2.0274412e-05 3.398683e-05 2.6012578e-05 3.969648e-05
000200 7e ae fc 37 5e 10 3c 38 49 65 1f 38 99 d1 0a 38
       3.0121995e-05 4.4837936e-05 3.8002883e-05 3.3096967e-05
000210 df 8e d8 37 2d 10 6e 37 31 86 fd 37 49 f3 7c 37
       2.5815736e-05 1.4189672e-05 3.0222438e-05 1.5077015e-05
000220 1c f8 ce 37 26 14 98 37 d5 7c 4e 38 7f e3 c0 36
       2.4672649e-05 1.8129194e-05 4.9230486e-05 5.74853e-06
000230 0e 03 a8 39 0c 29 5c 39 ae 16 2f 39 52 5a bf 39
       0.00032045733 0.00020996126 0.0001669775 0.00036497653
000240 dc 06 c6 39 3e a4 af 38 e5 dd 33 39 d8 24 bf 39
       0.00037770614 8.375243e-05 0.00017153432 0.0003645781
000250 16 b6 9c 39 b3 58 88 38 e6 a6 55 39 85 7a ed 39
       0.00029890303 6.501507e-05 0.00020375437 0.00045295447
000260 26 35 22 39 aa a9 75 39 9c c1 47 39 11 62 95 39
       0.00015469323 0.00023428226 0.00019050244 0.0002849256
000270 28 0b 5c 39 c5 c9 9e 39 75 6a 8e 39 a6 5e 6e 39
       0.00020984991 0.00030286438 0.00027163667 0.00022732708
000280 ac ba 3c 39 a6 46 e1 38 43 50 75 39 b3 82 e7 38
       0.00017998618 0.00010741995 0.0002339492 0.00011039283
000290 1e 58 46 39 c7 4c f8 38 a8 64 b2 39 bf 24 24 38
       0.00018915578 0.000118398624 0.000340258 3.913487e-05
0002a0 c0 7b 13 38 e2 da b9 37 2a 61 9c 37 1a db 25 38
       3.5162782e-05 2.2155644e-05 1.8641895e-05 3.954312e-05
0002b0 16 2b 2a 38 83 f9 14 37 c4 89 97 37 26 0b 27 38
       4.0571285e-05 8.879581e-06 1.8064755e-05 3.9826286e-05
0002c0 01 17 08 38 6a 9e 03 37 3d 9a c6 37 f4 14 47 38
       3.244635e-05 7.845092e-06 2.3675262e-05 4.746481e-05
0002d0 cc a1 8e 37 76 24 d3 37 b5 04 aa 37 c5 77 f6 37
       1.7003062e-05 2.5170139e-05 2.0267771e-05 2.9381257e-05
0002e0 54 a5 b9 37 c2 da 07 38 46 64 f6 37 a9 d5 d8 37
       2.2130705e-05 3.2390242e-05 2.9372179e-05 2.58487e-05
0002f0 b6 9a 9f 37 9e 24 3c 37 d2 1f c6 37 79 a8 47 37
       1.902632e-05 1.1214199e-05 2.3618257e-05 1.190055e-05
000300 54 55 b2 37 15 a8 55 37 37 0d 21 38 f9 8a a2 36
       2.1258988e-05 1.2734924e-05 3.83977e-05 4.844155e-06
000310 75 ce fc 37 33 4d 95 37 0b cb 80 37 f2 27 02 38
       3.013688e-05 1.7798133e-05 1.5353338e-05 3.1031617e-05
000320 b5 ae 01 38 23 96 f2 36 e8 77 7a 37 b1 3f 05 38
       3.0918705e-05 7.2296402e-06 1.4929079e-05 3.176899e-05
000330 78 d6 d0 37 cf ed db 36 46 bb 9f 37 7e e3 1e 38
       2.4895402e-05 6.554393e-06 1.9041483e-05 3.7882004e-05
000340 16 07 63 37 c5 15 a5 37 95 f5 85 37 e9 33 cd 37
       1.3531904e-05 1.967967e-05 1.5969194e-05 2.4462077e-05
000350 51 58 99 37 54 c3 d6 37 a1 a7 bf 37 cd a5 a7 37
       1.8280147e-05 2.5601745e-05 2.2847033e-05 1.9985158e-05
000360 4b 72 82 37 18 b9 10 37 56 d0 b3 37 c5 2a 1f 37
       1.555043e-05 8.626164e-06 2.1435477e-05 9.487097e-06
000370 a0 9f 89 37 29 f3 32 37 bf a0 fd 37 96 34 70 36
       1.6406004e-05 1.0666242e-05 3.0234803e-05 3.5793396e-06
000380 5b cf 4f 39 a5 4b 07 39 02 42 d6 38 ec e3 72 39
       0.00019818304 0.00012902783 0.0001021661 0.00023163826
000390 3d f8 78 39 83 d0 49 38 a9 83 dd 38 32 90 6e 39
       0.00023743599 4.8116326e-05 0.00010562625 0.00022751166
0003a0 9c 24 43 39 39 0e 3f 38 ae 59 08 39 c3 79 94 39
       0.00018610287 4.5551194e-05 0.00013003379 0.0002831948
0003b0 d1 25 cf 38 12 bc 1b 39 fb 50 ec 38 b4 3a 35 39
       9.877573e-05 0.00014852014 0.00011268441 0.00017283374
0003c0 01 36 fc 38 60 81 47 39 3e ce 32 39 8a 87 17 39
       0.000120263554 0.00019026315 0.00017052234 0.00014450974
0003d0 bf a4 e7 38 82 ca 83 38 7d 4c 15 39 74 ad 86 38
       0.00011045625 6.284287e-05 0.00014238241 6.421926e-05
0003e0 16 4f fe 38 b7 bf 94 38 4f 20 68 39 2c bf c5 37
       0.00012126395 7.0928996e-05 0.0002213728 2.3573251e-05
0003f0 78 43 42 38 04 95 fe 37 f4 cf ba 37 48 22 51 38
       4.631604e-05 3.034855e-05 2.2269764e-05 4.986141e-05

exp_avg f4 [45]
000000 46 92 02 39 0a 15 b5 3b 02 1a ac bb d6 0a b4 b9
       0.00012452257 0.0055261897 -0.005252124 -0.0003434035
000010 32 4e af 39 0a d3 39 3b 3a 05 b7 3a 96 ef ee 39
       0.0003343686 0.002835455 0.001396335 0.00045573403
000020 68 6b 2f bb 44 48 b4 ba cb da aa b9 0a 43 69 3a
       -0.00267669 -0.0013754447 -0.0003258794 0.0008898234
000030 89 34 be ba 7e 6b b7 ba 76 2c b5 3a 3f da b9 3b
       -0.0014511506 -0.0013993827 0.0013822454 0.005671769
000040 a1 7a a2 3a 59 a1 b3 3b c0 0e 0d 39 26 e0 35 3a
       0.0012396165 0.0054818806 0.00013452303 0.0006938003
000050 ee bc 73 ba 06 7d 6a 3a fd 86 9a 3b a3 e0 3d bb
       -0.0009297867 0.00089450215 0.004715799 -0.0028973005
000060 c6 96 24 bb 17 7b 83 3b af c4 d7 38 99 e9 86 3b
       -0.0025114282 0.004012476 0.00010288634 0.0041172025
000070 04 c5 58 ba 1c 58 7b bb 45 af b3 3a 98 3b 59 b8
       -0.0008269104 -0.0038352078 0.0013708851 -5.1792333e-05
000080 30 3a 65 3a 7e 4f 9e 3a 25 1c a3 3a 71 13 2f bb
       0.00087443274 0.0012078134 0.0012444301 -0.002671447
000090 df 68 8a ba 51 57 c4 ba 72 68 b8 bb 49 c2 24 3b
       -0.0010559818 -0.0014979636 -0.005627685 0.0025140217
0000a0 0a 4f 82 bb 36 be ed 3a 20 b1 55 3a 74 06 b9 b9
       -0.0039767073 0.0018138352 0.0008151699 -0.00035290758
0000b0 c9 92 71 ba
       -0.0009215293

exp_avg_sq f4 [45]
000000 f5 1e f3 37 d4 01 f9 3a 01 de 8a 3a be f2 86 37
       2.8982273e-05 0.0018997737 0.0010594727 1.608708e-05
000010 bf ce aa 38 45 3c 28 3a d4 84 93 38 d0 c3 60 38
       8.144741e-05 0.0006417672 7.0342474e-05 5.3588126e-05
000020 23 3d d7 39 43 c3 bb 38 e6 85 74 37 81 d8 14 39
       0.00041053546 8.953225e-05 1.4574709e-05 0.00014195034
000030 48 48 1f 39 49 92 1f 39 18 95 a3 38 4c 01 09 3b
       0.00015190348 0.00015217917 7.8002166e-05 0.0020905314
000040 28 fe 03 39 f0 3b 20 3a 91 b2 04 38 a5 b4 1e 38
       0.00012587814 0.0006112447 3.1637555e-05 3.7838374e-05
000050 ca 74 f1 38 37 0b b7 38 33 58 c6 3a d5 65 ef 39
       0.00011513529 8.728209e-05 0.0015132487 0.00045661503
000060 10 bb a6 39 ba f0 6a 3a d4 03 a5 38 8f 6e ac 3a
       0.0003180136 0.00089622627 7.868526e-05 0.0013155508
000070 ba ad df 38 17 d8 19 3a 07 80 1a 39 59 d3 33 38
       0.00010665828 0.0005868687 0.00014734278 4.287376e-05
000080 1f f7 50 38 6c 7c 21 39 63 e6 fa 38 e0 fc 9a 39
       4.9821214e-05 0.00015400507 0.00011963842 0.00029561576
000090 4c 88 00 37 26 c6 03 39 d9 5c b5 3a e4 a8 b1 39
       7.661129e-06 0.0001256695 0.0013836875 0.00033885904
0000a0 50 31 35 3a 18 57 5a 39 3c 87 8e 38 2b 70 07 38
       0.000691195 0.00020822545 6.796277e-05 3.2290973e-05
0000b0 0e f5 84 38
       6.3398955e-05

max_exp_avg_sq f4 [45]
000000 ba 79 45 38 7c 63 fe 3a 59 ab 8c 3a 45 2b 87 37
       4.7081827e-05 0.0019408311 0.0010732218 1.6113403e-05
000010 ca f9 bb 38 bf fc 2c 3a b7 3f 97 38 f7 8e 68 38
       8.963382e-05 0.00065989414 7.212109e-05 5.5446257e-05
000020 fa ea db 39 5e f6 be 38 55 73 7e 37 81 d8 14 39
       0.00041946006 9.1057955e-05 1.5166433e-05 0.00014195034
000030 2f 89 22 39 c4 1c 21 39 6a 68 a4 38 16 d1 0b 3b
       0.00015500629 0.00015364873 7.839578e-05 0.0021334342
000040 f9 1c 07 39 d0 bb 21 3a e3 30 3a 38 99 9b 21 38
       0.00012885396 0.0006169649 4.4391385e-05 3.8530303e-05
000050 05 d2 f1 38 d2 d8 bb 38 70 86 cb 3a 0d 5d f5 39
       0.00011530895 8.957241e-05 0.0015527736 0.0004679937
000060 53 30 aa 39 55 1e 71 3a f2 fb b8 38 39 97 b0 3a
       0.0003246093 0.000919794 8.820732e-05 0.0013472802
000070 a4 ea e1 38 79 45 1c 3a 51 a6 23 39 02 1e 53 38
       0.00010772541 0.000596128 0.00015606849 5.0334267e-05
000080 9f 4b 6c 38 ec 75 27 39 90 82 01 39 40 dc 9e 39
       5.6337212e-05 0.0001597029 0.00012351037 0.00030300207
000090 18 72 02 37 ee e3 03 39 ba d6 b8 3a b8 7e b5 39
       7.775168e-06 0.00012578044 0.001410208 0.00034617423
0000a0 a9 ca 37 3a 1c c6 5f 39 98 21 99 38 9e b1 17 38
       0.0007011095 0.00021340739 7.301866e-05 3.6166624e-05
0000b0 a0 59 89 38
       6.549363e-05
