logs/my_logs/version_0/checkpoints/epoch=742-step=743.ckpt (torch, 41316 bytes, 33 tensors)

encoder.dense1.weight f4 [45, 28]
00000000: b7f7 42be 83c5 813d 1a80 2a3d 50d8 9cbd
00000010: 3f63 9ebd a411 f7bd d2f1 2fbd 2fe1 a13d
00000020: fbba 2e3e 5e76 d9bd 16a9 ae3c 1028 133e
00000030: e24e bf3c 5176 27bd c8ab a3bd b908 f73d
00000040: 178b 0dbe d384 54bd 2728 193e 5c7f 15bd
00000050: 6469 253d 58a0 033d 0e09 413d 0164 2cbe
00000060: 3f0a 0fbd 0257 26bc 8ea6 9c3d 28c7 843d
00000070: e5fd 5dbd 4600 e13d db80 50bd c1a3 02bd
00000080: 016c a6bd cdc0 b2bd 495e 293e 8936 1abe
00000090: b283 cabd 6501 813d 7f44 773e f398 b7bd
000000a0: 1cc9 913d 3bff 403e 6b3c 8fbd ae68 953d
000000b0: b3f7 1dbd 00ae 68be 39c5 93bd 9c7a ad3d
000000c0: 45e8 d93b 4fd6 9cbc cbe1 ae3d 9f44 87bd
000000d0: 4739 1f3e 5283 4d3d 9e30 f1bd b5cd a83d
000000e0: fdae ea3d 5b4c 66bb 070a 17bc 7f74 78bd
000000f0: ccd1 40bd bf10 1abe 47a0 28bd dc7f e43d
00000100: 7dec a73d 4c83 1a3d e99a e23d 48b7 573e
00000110: 4c1f 023c f45e e8bd acdf 2ebe ed10 913d
00000120: 1109 333e 78dd 7cba 9477 39b9 e4ff 053d
00000130: b2e6 813e c8f9 f43c 893a 113d b4d8 513e
00000140: daba abbd 9aff 993c ee53 aa3d 8375 bb3d
00000150: 1e96 5b3e 09d4 ce3d f284 f63d 9c07 20be
00000160: 9650 c4bd a2fa 50bd ab7c 76bd 3089 593e
00000170: 0429 3b3d 6e98 a93e c7f4 37bc 0b4e d03b
00000180: de60 813e b7f7 bc3c 898b f9bc 0f2e cd3d
00000190: a5fc 13be 8a46 cabc 0dd8 ba3d a845 4c3e
000001a0: fe44 153d 98a1 25bd a703 103e a53c 4e3e
000001b0: 28db 4d3e 337b 22bc 0fee a53e 8471 1bbe
000001c0: 845a aa3c cc3e f03c e4b5 2fbe eb6f 1abe
000001d0: c9b8 1fbd d0bd abbd be0f a93b 4ded 08bd
000001e0: 9e84 36be 6dcf 2a3d dc9f 8cbd e881 fe3c
000001f0: eff6 25bc aeb5 143e 163b f23d eb2c 45be
00000200: c126 303e 057b 973d aa86 063d 9840 adbd
00000210: e222 2ebe fe03 0a3d 0786 69bd 39bd 3f3e
00000220: 276a 7fbd aae9 a63d 198b 95bc 6a56 c4bc
00000230: f3a7 993d 9924 b13d a1f7 e2bd 5088 c8bd
00000240: 8204 1c3e 7529 dd3d 9aab 393c cd26 d4bd
00000250: 96be ae3d 5ee5 393e a52c f9bd 7dbb 8c3d
00000260: ec45 193e 37ce f03d 3b87 86bd 034e 923e
00000270: 197b a3bd 311b 193e 86da a9bc 7bd5 613e
00000280: 80f7 7b3b c560 863d b358 ba3b e972 e9bc
00000290: 64c3 073e 5803 783e 37a2 1f3e ce5f ec3d
000002a0: 3208 053e 7627 b03d dcef 063d a481 6b3d
000002b0: feb6 883c 8d1a 44bb 83b1 c33d 4881 0d3e
000002c0: edb6 f6bc 851e 293c 3f18 783e f1e1 49bd
000002d0: 53ab 483d cc7f 3c3e ae00 87ba 1d0a 563e
000002e0: fd32 b0bb 8198 023e a90f 993d 8520 0a3e
000002f0: 1f02 d2bc 69a2 c3bd 1a31 0e3e 68fd 8cbc
00000300: aff3 9c3d 91a4 793b 2b02 333d 38f4 243d
00000310: 0557 89bd 3a75 473d fa23 78be c0fe 99bc
00000320: b743 4a3d 9507 84be b11d 88be 338c 89bd
00000330: ab4b cdbd c5a6 59be 6045 f4bd f320 6cbd
00000340: 39ad d7bd 05bb 643d d51d a7bd e9c1 cd3c
00000350: 8f7e 863c 028a 133d 40c1 6abc 63c3 20be
00000360: 36a2 86bd b2c7 f7bd 1676 e43d 2132 043d
00000370: 66e7 28bd b338 06be 26f4 5b3d 49de 2fbe
00000380: 8f5d 2b3d 1f4c b5bb 9b75 eabe 79df 83be
00000390: 8f59 20be 6e8f e1be ee9d f9be f0eb eabb
000003a0: 5d56 e9be bb3d a73b 3e28 f9bd d0d0 b6be
000003b0: 6c30 11bc 1d8a c73c 3428 23bf 937d cbbe
000003c0: 06d0 03bf 3596 c1be 875c f8be c6e1 2dbe
000003d0: d83e b9be 625c d1be e772 823b 5318 3fbd
000003e0: 00c6 5d3d 54c3 03bf 8136 c53c 0e52 8ebe
000003f0: 981f f83d 4d24 703d c323 a4bd b0de a7bd
-0.19039808 0.063365005 0.041626073 -0.07658446 -0.077337734 -0.120639116 -0.042955227 0.079042785
0.17063515 -0.1061828 0.02132086 0.14370751 0.023353044 -0.04088432 -0.07991749 0.120622106
-0.1382259 -0.051884484 0.14956723 -0.036498412 0.04038371 0.032135338 0.047127776 -0.16835023
-0.03492188 -0.01015258 0.07648955 0.064832985 -0.05419721 0.1098638 -0.050904136 -0.03189445
-0.08126069 -0.0872818 0.16539873 -0.15059866 -0.098884 0.06299094 0.24147223 -0.089647196
0.07118437 0.18847363 -0.06993946 0.07295357 -0.038566303 -0.22722626 -0.072153516 0.084706515
0.006650003 -0.019145159 0.0853916 -0.06604885 0.15549193 0.050174065 -0.11776851 0.082423605
0.114591576 -0.0035140726 -0.009218699 -0.060657974 -0.047075078 -0.1504545 -0.041168477 0.111572
0.081994034 0.03772287 0.11064703 0.2106601 0.007942032 -0.11346236 -0.17077512 0.070833065
0.17483927 -0.00096460385 -0.00017687521 0.03271474 0.2537132 0.029904261 0.035456214 0.20492822
-0.083852485 0.018798638 0.083167896 0.09153273 0.21443984 0.10099036 0.12037076 -0.15627903
-0.09585683 -0.051020272 -0.060177486 0.21243739 0.045693412 0.33124107 -0.011227793 0.0063569597
0.25269216 0.023067338 -0.030462043 0.100185506 -0.14451845 -0.024691839 0.0912324 0.19948447
0.03644275 -0.04043731 0.14063893 0.20140322 0.20103133 -0.009917068 0.32408187 -0.15180022
0.020795114 0.029326819 -0.1715923 -0.15081756 -0.038994584 -0.08385813 0.0051593473 -0.033429433
-0.17824027 0.041701723 -0.06866428 0.031067804 -0.010129674 0.1452243 0.11827676 -0.19255416
0.17202283 0.07396511 0.03284327 -0.08459586 -0.17005494 0.033695213 -0.057012584 0.18724526
-0.062357094 0.08150037 -0.018254803 -0.023966987 0.07502737 0.086495586 -0.11082388 -0.097916245
0.15236095 0.10798923 0.011332417 -0.10358963 0.08532445 0.18153903 -0.121667184 0.06871698
0.1496808 0.11758082 -0.06568762 0.28575143 -0.079824634 0.14951779 -0.020734083 0.22054093
0.0038447082 0.06561426 0.0056868433 -0.028497176 0.1325813 0.24220026 0.15589224 0.11541711
0.12991408 0.086012766 0.03294359 0.05749668 0.01668882 -0.0029923052 0.09555342 0.13818848
-0.030116523 0.010322218 0.24227999 -0.04928774 0.048991513 0.18408126 -0.0010299885 0.20902295
-0.005377172 0.12753488 0.0747369 0.13488968 -0.025635777 -0.09552462 0.13885918 -0.017210677
0.076636665 0.0038092474 0.04370324 0.040271968 -0.06706051 0.04869578 -0.24232474 -0.018798232
0.049380984 -0.25787035 -0.26585153 -0.06716194 -0.10024198 -0.21255024 -0.11927295 -0.05764861
-0.105310865 0.05584242 -0.08159987 0.025116878 0.01641777 0.036020286 -0.014328301 -0.15699534
-0.06573908 -0.12098636 0.111553356 0.03227437 -0.041236304 -0.13107567 0.053699635 -0.17174639
0.04183727 -0.005532756 -0.4579285 -0.25756434 -0.15659164 -0.4405474 -0.48753303 -0.007169239
-0.45573702 0.0051037944 -0.12165879 -0.35706186 -0.008861642 0.02435785 -0.6373322 -0.39744243
-0.51489294 -0.3780991 -0.48508093 -0.16980657 -0.36180758 -0.40890795 0.0039809826 -0.046654057
0.054143906 -0.5146992 0.024073841 -0.27796978 0.12115401 0.05862837 -0.080146335 -0.08196771

encoder.dense1.bias f4 [45]
00000000: 578e 383d 63ac f1bc 5333 c2be 805e 03be
00000010: 5ce7 e43e 9209 30be 0066 ebbe 6f92 c7be
00000020: fe68 dc3e 689c 6a3e fe96 923e 8126 13bd
00000030: 0b87 873b 074a 6ebe 2c64 bdbd 6023 dabe
00000040: 4b6e 353e 655c 2bbe 34f2 9ebe cf77 713e
00000050: cd15 583e 04fd 553d 5ac5 773e f220 d6be
00000060: 5c66 2ebe 007b 843e 3155 943e ab7e d23c
00000070: 0ae4 463d 9625 63be 5db0 bdbd 8c39 223e
00000080: e178 f33c f5fc d4be 447d 5abd 177e 95be
00000090: a750 84be c65e d5be 6fc6 91bd fc85 18be
000000a0: 0400 ff3d d999 a33e b80b 50be 1518 00bd
000000b0: c505 cbbe
0.04505762 -0.029501146 -0.37929782 -0.12829018 0.44707763 -0.17191151 -0.45976257 -0.38978907
0.43048853 0.22911227 0.28630823 -0.035925392 0.0041359714 -0.23270427 -0.09247622 -0.42605114
0.17717855 -0.16734464 -0.3104416 0.2358086 0.21102066 0.052243248 0.24196377 -0.4182201
-0.17031235 0.25875092 0.28971246 0.025695166 0.04855732 -0.22182307 -0.09262154 0.15842265
0.029720725 -0.4159924 -0.05334212 -0.2919776 -0.25842783 -0.4167387 -0.07117926 -0.14894861
0.12451175 0.31953314 -0.2031697 -0.031272966 -0.3965284

encoder.dense3m.weight f4 [3, 45]
00000000: 5d93 a7bc e713 153e 9878 7a3e 423b 8d3e
00000010: 47ab 54be de6a 1e3e c473 c43e 3865 2b3e
00000020: fa9b 63bc 5e3b dbbd 55a2 3ebd 1cdb c8bc
00000030: 9aed 45bc b4b6 97bd c235 213d 7cbd 613e
00000040: b7c4 67bc 76bd 203e 4f3e ba3d 294d 61be
00000050: aa7c 7fbe 74e9 663e 6e12 6bbe c567 6e3d
00000060: d312 853e fe44 0ebe 539c cdbd 57de 833b
00000070: 059d 083e 36d0 b43d 43ea 043e ac22 433d
00000080: 281f 363e e728 843e dbb7 023e cb3c 783e
00000090: 388b 723e 8fa8 0d3e 853c cbbd f86b 983d
000000a0: af98 9c3d 7b41 62be 1e41 0a3a 1135 223e
000000b0: ed21 2ebe 870c 54be c2ed 363c 5536 783e
000000c0: 05ed ed3d c9a2 f03a 3e85 22bd 0971 4e3e
000000d0: 5e56 a33e fe9f c8bd 601d d33d 729b 80be
000000e0: 95c2 f2bc bbd1 2ebd 5d99 073d 33aa 4e3e
000000f0: 3e34 0abe ebbd adbe 7924 ff3c df17 883e
00000100: 4042 66be 1af4 9f3e 16be 13be d962 1cbd
00000110: b4ea 803e c227 503e 6ba7 04be acf0 453e
00000120: 6dd1 9b3c dfe8 16be 350a ca3b a72a d03e
00000130: 6585 c8be 1f44 94be b07c 003e 869f c63c
00000140: 7e1f fd3d 9b8c 223e 567d f93d 4008 843e
00000150: 46ea 7d3c 27d7 62be a9a6 81bb 8282 ba3d
00000160: cbec 483e 172a fb3d 5e06 babd 213c fb3d
00000170: c8eb 1ebe 4e6d 4a3e e421 813e c109 09be
00000180: fb88 20be b6d5 14be e3bf cb3e f92b a93d
00000190: 9a97 993d 0350 f9bc 4162 e2bc 9b49 b7be
000001a0: fbc6 953b 448b f0bd 74f5 3f3d c4db 90bd
000001b0: 2c4d b7be f7cd b73d fb2a ba3b 8688 043e
000001c0: 3534 0ebb fd63 4ebe 36a2 303e 1a40 083d
000001d0: e046 403e aa65 2d3e 58c8 053c 7971 72be
000001e0: 52f1 fc3d 335b f1bd 853c 503d fa09 84be
000001f0: b0c8 94bc 1b6c 9dbe 9686 053e 2b4f 6cbe
00000200: 791e afbc bbe7 1bbd ca90 653d 2a6a 373e
00000210: 4930 bbbd 50f2 363e f45d 9abe
-0.02045601 0.14558373 0.24460065 0.27584273 -0.20768462 0.15470454 0.38369572 0.1673783
-0.013892168 -0.10704683 -0.04654153 -0.024518542 -0.012080574 -0.07407895 0.039357908 0.22044939
-0.014146022 0.15697274 0.09093916 -0.2200209 -0.249499 0.22549993 -0.22956249 0.05820443
0.25990924 -0.13893506 -0.10039582 0.0040243077 0.13341148 0.088287756 0.12979989 0.047640488
0.17785323 0.25812456 0.12765448 0.2424194 0.2368592 0.13833831 -0.099236526 0.074424684
0.076463096 -0.22095291 0.00052739854 0.15840556 -0.17005129 -0.20707904 0.011165084 0.24239476
0.116174735 0.0018359061 -0.03967785 0.20160307 0.3190183 -0.09796141 0.10308337 -0.25118595
-0.0296338 -0.042680483 0.033105243 0.20182113 -0.13496491 -0.33933958 0.031145321 0.26580712
-0.2248621 0.31240922 -0.14427981 -0.038180206 0.25179064 0.20327666 -0.1295449 0.1933009
0.01902076 -0.14737271 0.0061657676 0.4065754 -0.39164272 -0.28958222 0.12547565 0.024245989
0.12359522 0.15873949 0.12182109 0.25787544 0.01549775 -0.22152387 -0.003956635 0.09106924
0.1962158 0.122638874 -0.09083246 0.12267328 -0.15519631 0.19768259 0.2522117 -0.13382627
-0.15677254 -0.14534649 0.39794835 0.0826034 0.07499619 -0.03043366 -0.027634742 -0.35798344
0.0045708395 -0.11745313 0.04686494 -0.07073167 -0.35801065 0.089748316 0.005681393 0.12942705
-0.0021698598 -0.2015533 0.17249379 0.033264257 0.18777037 0.16933313 0.008165441 -0.23676099
0.12350716 -0.11784973 0.050838966 -0.25788862 -0.018162102 -0.3074654 0.13039622 -0.23077075
-0.021376835 -0.038062792 0.056046285 0.17911592 -0.09140069 0.17865872 -0.30149806

encoder.dense3m.bias f4 [3]
00000000: e289 2abe 7882 8dbe f70f d23e
-0.1665416 -0.27638602 0.41027805

encoder.dense3s.weight f4 [3, 45]
00000000: e747 81bc d60a 92bd 6331 8c3d 2eb2 c03c
00000010: 0bee 81bd 5dd2 2fba 7683 203e ed2c ee3d
00000020: 90ee 223d 2428 95bb 936b 7cbd 6fe1 70bd
00000030: b9e1 d0bd e5ef be3d 988f 30bd e460 833c
00000040: 042d 95bd cfad 84bd 8e5d 533d a687 02bd
00000050: e58a 35be e298 3dbd 2433 bb3e e8a1 143d
00000060: b31a 9f3d 1d25 f8bd 1092 efbc 351a a1bc
00000070: c5f0 9cbd d9b0 c8bd d90f 76bd 1ca7 b8bd
00000080: c36c e73d ee39 d3bb ac7c ce3d d879 f93d
00000090: be7f d33d 4ae8 7f3d 39bf 153e 683f 093e
000000a0: c60a 51bd afc9 04be 585e 183d 7694 b5bb
000000b0: 8019 bc3d b57e a43b ae11 53bd 2a37 8a3d
000000c0: ef5c 27bc 1dda bfbb 2b9d f7bc af50 3b3e
000000d0: 795f b73c a97e a83c c3a9 63bd c9cc 97bd
000000e0: 2523 08bd d3ac a9bc 5893 6cbc 0cfb 603c
000000f0: 8325 be3c 8de5 e6bd f89a e9bc 9ed2 35bd
00000100: 250f 85bd 3b6b 02be 7e29 9ebd a984 eeba
00000110: 41a1 c83d 2157 68bd c5a2 2fbd 2cd3 75bd
00000120: f223 013d ffbd 81bd a170 973c 77cd 79bd
00000130: 3695 00be 01f0 2c3d 23ec 77bd f688 983c
00000140: 1f81 3e3d ed0c 82bc ca47 c43d ca63 1e3b
00000150: ce78 29bd 341f 7039 0901 09be b7c4 ee3d
00000160: 87d7 0dbd afcc a33d 838a eebd 0ae8 52bd
00000170: c3fd 8d3d 14f3 a23b e058 e1bc daf2 bdbc
00000180: 02fc 193e fcfe 3d3e 278c b83e ae6f f9bd
00000190: 6efd 11bc 7a41 1d3d 922c 893d 512a 7c3d
000001a0: 81af 443d b832 503d dbe2 4a3d e382 4b3e
000001b0: 9e4d 80bd 0933 1bbd b74f 313d dc81 d3bd
000001c0: dd85 513d 8484 9e3d f4e5 28bd c66d d1bd
000001d0: 5f6d 62bd 4981 353d 0b0b eebc 6a7a 44bd
000001e0: 2f89 f5ba ed43 f93d de3a 0d3d ba95 073e
000001f0: 9183 b2bd 7262 f73c 6706 5a3d 284a 1b3e
00000200: fee3 033c 7148 fd3d d77f a3bd 8c53 c2bd
00000210: df99 793d 678e 54bd 9a65 943d
-0.015781356 -0.07130973 0.06845357 0.023522463 -0.06344231 -0.0006707067 0.15675148 0.11629663
0.039778292 -0.0045519043 -0.06162603 -0.05880874 -0.10199303 0.093231 -0.04310569 0.016037412
-0.07283977 -0.06478464 0.051602893 -0.031867646 -0.17728765 -0.04628838 0.36562455 0.03628722
0.07768764 -0.12116454 -0.029244453 -0.019665817 -0.07663111 -0.09799356 -0.060073707 -0.090162486
0.113000415 -0.0064461147 0.10082373 0.12181443 0.10327099 0.062477387 0.14623727 0.13403094
-0.051035665 -0.12967561 0.03719935 -0.0055413796 0.09184551 0.0050199875 -0.051530533 0.06748803
-0.010215028 -0.0058548586 -0.03022631 0.18292497 0.022384392 0.020568209 -0.05558182 -0.074121065
-0.03323664 -0.020712292 -0.014439426 0.013731729 0.023211246 -0.11274252 -0.028516278 -0.044390313
-0.06497029 -0.12736218 -0.07722758 -0.0018197495 0.09796382 -0.056723718 -0.04287984 -0.060015842
0.03152842 -0.06335067 0.018486323 -0.060986962 -0.1255692 0.042221073 -0.060527932 0.018619996
0.04650986 -0.015875304 0.09584005 0.0024168366 -0.041374974 0.00022899808 -0.13379301 0.11658614
-0.03462937 0.07998025 -0.11647513 -0.05149082 0.06933167 0.004972825 -0.0275082 -0.02318709
0.1503754 0.185543 0.36044428 -0.12179504 -0.00891052 0.03839252 0.06697954 0.061563794
0.048018936 0.05082962 0.049532752 0.19874148 -0.06264804 -0.037890468 0.043288913 -0.10327503
0.051153053 0.07740119 -0.041234925 -0.10226016 -0.055280086 0.04431275 -0.029058 -0.047968306
-0.00187329 0.12171159 0.03447997 0.1324071 -0.087165006 0.03019831 0.053228762 0.15165007
0.008049963 0.12367333 -0.07983368 -0.094885916 0.06093776 -0.051893618 0.072459415

encoder.dense3s.bias f4 [3]
00000000: 2436 14bd 336d dfbd a8ac f6bd
-0.036184445 -0.109095 -0.1204465

decoder.linear.bias f4 [28]
00000000: 632d 423f 1b5f 063e 165e 04bf 9c37 773f
00000010: 7428 803f cf28 98bf b0bf 2abf 4823 973f
00000020: 33e4 0e3f f745 c2bf c56a 30be 8520 b03f
00000030: 2bbc fabe a91e 2f3e ced3 a4be 7b78 733e
00000040: dde8 4fbe b772 143f 439e c33e ac00 24bd
00000050: 2524 06bf c19d 64bf af43 813e f8a5 4bbf
00000060: f5a2 f6bd 97a6 81bf 5b7b 883f 097e b1bf
0.75850505 0.13122217 -0.51706064 0.9656923 1.0012345 -1.1887454 -0.6669874 1.1807642
0.55816954 -1.5177602 -0.1722823 1.3759924 -0.48971686 0.1710154 -0.32192844 0.23776428
-0.20303674 0.5798754 0.38206682 -0.040039703 -0.523989 -0.89303213 0.2524695 -0.79550123
-0.120428 -1.0128964 1.0662645 -1.3866588

decoder.linear.weight_orig f4 [28, 3]
00000000: 467d 703f 621c 943f 5c50 6d3e 6c16 ff3e
00000010: 89a5 ac3f 3256 10bf 8d61 fc3e e626 bebe
00000020: 6458 b2bf 88a6 513e 30e8 d13e a918 63bf
00000030: e0d5 a1bc 6f70 06bf 3738 00bf 646a 453e
00000040: 366a 0b3f e703 adbf 94f7 863f 0c72 4bbe
00000050: 26db cbbf ccdf 9f3e 3abf a53f 5838 693e
00000060: 3755 11bf db04 99be 2002 a4bf 6c5c d73f
00000070: c08e 84bc 209f dfbc b156 ae3f 4021 0bbc
00000080: f704 c0be 6fec 1b3f 806e 7b3c 1b5c 95bf
00000090: bacb c93f 9412 f13e 86f0 7cbe 7397 933f
000000a0: fc2e bf3e 3d6b 9fbe dc07 ec3e 6d06 b5be
000000b0: f5a3 e2bf 43b8 d13f f03d e93e b2a4 acbf
000000c0: cc51 cabd 7cec a33f 32f2 d2bf b0db a1be
000000d0: 8fc8 83be 673b 94bf 6cd1 c23e c891 bc3d
000000e0: dbb7 abbf 3374 bb3f e8a1 023e b037 17bf
000000f0: e74e 9a3f 4eeb a63e ee08 aabf 4dd5 f8be
00000100: 001e 923e 5963 9abf ce92 e8be b7c9 813f
00000110: a0cc 583e c814 9dbe f68e cd3f ec3f 09bf
00000120: 1b6e 813f 423c 2dbe 279d 0abf 6e6c 08bf
00000130: 48c4 f63e 506c e7bf 342a e23f 5fc8 9fbe
00000140: d0aa 69bd af55 08bf 94cf 083f a994 43bf
0.9394115 1.1571162 0.23175186 0.49821794 1.3488017 -0.56381524 0.49293175 -0.37139052
-1.3933225 0.20473683 0.40997458 -0.88709503 -0.019755304 -0.5251531 -0.5008578 0.19278866
0.5445894 -1.3516816 1.0544305 -0.19867724 -1.5926254 0.3122543 1.2948983 0.227754
-0.5677065 -0.29886517 -1.2813148 1.682508 -0.01618135 -0.027297556 1.3620206 -0.008491814
-0.37503788 0.60907644 0.0153461695 -1.1668733 1.5765297 0.47084486 -0.24701127 1.1530594
0.37340534 -0.31136504 0.46099746 -0.35356465 -1.7706286 1.6384357 0.45555067 -1.3487761
-0.09878883 1.2806544 -1.6480162 -0.3161292 -0.25738952 -1.1580628 0.380504 0.09207493
-1.3415483 1.4644836 0.12757075 -0.5906935 1.2055329 0.32601398 -1.3283975 -0.48600236
0.28538513 -1.2061568 -0.45424503 1.0139683 0.21171808 -0.30679917 1.6059253 -0.5361316
1.0111727 -0.16917518 -0.54146045 -0.5329045 0.48196626 -1.8079929 1.7669129 -0.3120756
-0.057047665 -0.5325574 0.5344174 -0.7639871

decoder.linear.weight_mask f4 [28, 3]
00000000: 0000 803f 0000 803f 0000 0000 0000 0000
00000010: 0000 803f 0000 0000 0000 803f 0000 0000
00000020: 0000 803f 0000 0000 0000 0000 0000 803f
00000030: 0000 0000 0000 0000 0000 803f 0000 0000
00000040: 0000 0000 0000 803f 0000 803f 0000 0000
00000050: 0000 803f 0000 0000 0000 803f 0000 0000
00000060: 0000 0000 0000 0000 0000 803f 0000 803f
00000070: 0000 0000 0000 0000 0000 803f 0000 0000
00000080: 0000 803f 0000 803f 0000 0000 0000 803f
00000090: 0000 803f 0000 0000 0000 0000 0000 803f
000000a0: 0000 0000 0000 0000 0000 0000 0000 0000
000000b0: 0000 803f 0000 803f 0000 0000 0000 803f
000000c0: 0000 0000 0000 803f 0000 803f 0000 0000
000000d0: 0000 0000 0000 803f 0000 0000 0000 0000
000000e0: 0000 803f 0000 803f 0000 0000 0000 803f
000000f0: 0000 803f 0000 0000 0000 803f 0000 0000
00000100: 0000 0000 0000 803f 0000 0000 0000 803f
00000110: 0000 0000 0000 0000 0000 803f 0000 0000
00000120: 0000 803f 0000 0000 0000 0000 0000 0000
00000130: 0000 0000 0000 803f 0000 803f 0000 0000
00000140: 0000 0000 0000 0000 0000 0000 0000 803f
1.0 1.0 0.0 0.0 1.0 0.0 1.0 0.0
1.0 0.0 0.0 1.0 0.0 0.0 1.0 0.0
0.0 1.0 1.0 0.0 1.0 0.0 1.0 0.0
0.0 0.0 1.0 1.0 0.0 0.0 1.0 0.0
1.0 1.0 0.0 1.0 1.0 0.0 0.0 1.0
0.0 0.0 0.0 0.0 1.0 1.0 0.0 1.0
0.0 1.0 1.0 0.0 0.0 1.0 0.0 0.0
1.0 1.0 0.0 1.0 1.0 0.0 1.0 0.0
0.0 1.0 0.0 1.0 0.0 0.0 1.0 0.0
1.0 0.0 0.0 0.0 0.0 1.0 1.0 0.0
0.0 0.0 0.0 1.0

exp_avg f4 [45, 28]
00000000: dcc0 ce39 8313 2e3a e84a 6d3a dea9 3139
00000010: 16df 263a 8389 173a 7629 703a 306c 2237
00000020: b132 af3a 0e15 e139 c4bc 843a 284a ee39
00000030: c31d 2c3a 2d00 003a 3cbf c539 a6df 273a
00000040: 0034 313a 3cf2 5939 63ee 113a faae fb39
00000050: d787 9039 d144 9c39 fa11 9139 7a54 3039
00000060: ee1b f239 edee 273a feef 6c3a a6c1 2d39
00000070: a8de e9b8 60fb 4738 d7fa 8bb9 6210 61ba
00000080: 2045 cc37 b0a9 47b8 74b2 34ba 40f4 4539
00000090: b076 e5b7 8481 97b8 d6b9 09b9 e4f2 f4b9
000000a0: e94f abb9 b0c8 25ba 26df 15b9 3a38 4339
000000b0: 123b ab39 a8e6 20b9 68d0 2f38 9cec bcb9
000000c0: c696 0cba 0451 1239 5e3a 52ba 5cfd ee38
000000d0: 9c9e 69b9 d6a2 1b39 5451 0db9 afaf 3639
000000e0: 8044 0538 f06c 33bb ae2c 09bb 025b 47bb
000000f0: 8cd5 ddba d3d6 a5ba 9856 2fba 5829 30bb
00000100: 6422 65bb ebc1 64ba 884a c4ba 08cd ebba
00000110: 59ee 2fbb 88a5 7aba 62f1 beba 2476 5aba
00000120: b25c baba fcaa 88ba f6c0 a8ba 6621 0cbb
00000130: c4d9 9eba e42b 5cba 94e4 2cba f4cb 2aba
00000140: 98b1 46ba 5a83 80ba 83ed 15bb 5c58 ddb9
00000150: 2fce 2ab9 8754 38ba eb45 ddb9 12e4 d4ba
00000160: 44ed b3b9 fa7b 9eb9 956f 50ba 660b 3a39
00000170: 94a0 74ba ac3a 60b9 df23 1dba ea89 2eba
00000180: 30b2 5eba 4bc2 8eba b861 f1b9 93f0 0d3a
00000190: 5ea8 e739 f99b d1b9 7cb0 1cb9 a2ed a6b9
000001a0: 633c 87b9 aea5 6039 ec34 bfba 0880 16b8
000001b0: 68dd 90b9 40bd eab6 9e39 4aba c1aa f938
000001c0: 4024 f638 e445 183b e806 c83a 4aa3 3e3b
000001d0: 5c60 c73a 986f 3b3a e00b e3b9 d44c 633b
000001e0: f0c6 333b 7079 e539 84d8 713a 995b 0b3b
000001f0: a6c8 0d3b 0863 793a 94f1 ca3a 30f9 163a
00000200: 7417 7c3a 287f b83a 0089 873a 3e1c 043b
00000210: ecc0 8c3a 948b 633a d0fa 273a 0875 353a
00000220: 4cfe 393a f431 193a c606 df3a 7c67 8f39
00000230: 908c 4339 d97e 7cba 321a 37ba 8c6c f0ba
00000240: 2e23 09ba 6893 95b9 3896 9339 3bc2 e1ba
00000250: 371f 97ba e007 35b9 40f4 d4b8 b56d 94ba
00000260: 85bb 97ba 7c4c 0fba fad9 44ba 4076 d8b7
00000270: 1032 8eb9 f43e 21ba d8fe adb9 2c55 8dba
00000280: 5410 27ba 921e bdb9 88ac 9fb9 201a 06b9
00000290: 046b 94b9 0068 a4b6 5218 45ba 70f9 f5b8
000002a0: 7047 e7b9 3826 84bb 70ea 16bb 506f 85bb
000002b0: 44fb 14bb d6b8 9cba c035 22b9 8427 85bb
000002c0: 1aa0 8dbb 489a a0ba 22ce f0ba a09d 0ebb
000002d0: c52f 52bb 0a4f a2ba cae7 dcba 503c 45ba
000002e0: 52a1 dcba e082 a0ba 5cb5 d6ba 786c 25bb
000002f0: 98c8 90ba 70fc 56ba 86d1 dbba f077 91ba
00000300: f89d 38ba a85f 96ba 86b7 3bbb f813 19ba
00000310: 14a0 ab39 4093 80ba cea6 01ba c415 0cba
00000320: 60f0 aab9 e05f 6cb9 dab6 a239 4ebc 94ba
00000330: fd0f cfba 04d3 a7b8 9097 f0b9 6480 3eba
00000340: f49a 17ba c071 b037 6492 00ba b0fa c238
00000350: c0bd eab9 c04c 32b9 34aa bbb9 9c90 aab9
00000360: fc3f 7439 30ae 99b8 a82a 4939 e29c 9cb9
00000370: a0c3 8fb9 a8ed a3b8 a869 2cba c87f 12b8
00000380: 58c4 2c38 b33e 1c3a 8f7a d039 78ee 6e3a
00000390: 66d4 c439 0019 8539 d0c6 8039 d768 283a
000003a0: b2e8 9339 d161 6cb9 c0c3 ebb7 f7ed 2a3a
000003b0: 9090 69b7 f050 e7b8 2156 b739 735f 1639
000003c0: 2af6 d739 9c4e be39 c6c0 5b39 c30a 9739
000003d0: 31d8 ec39 87f9 a139 2e3f 6eb9 f478 b139
000003e0: 40fe 7938 ab73 6039 aa1c 5839 09e8 5f39
000003f0: 1405 8f39 10be 883a b067 113a 8056 483a
0.00039435073 0.0006640481 0.00090519944 0.00016943316 0.000636564 0.0005780684 0.00091614516 9.681142e-06
0.0013366548 0.0004293103 0.0010127057 0.00045450148 0.0006565714 0.00048828387 0.0003771725 0.00064038706
0.0006759763 0.00020784972 0.00055668334 0.00048004818 0.0002756703 0.0002980591 0.0002766995 0.00016816138
0.00046178646 0.0006406147 0.0009038447 0.00016570705 -0.00011151779 4.767941e-05 -0.00026699036 -0.000858551
2.4350884e-05 -4.760333e-05 -0.00068930467 0.00018878374 -2.7354195e-05 -7.224365e-05 -0.00013134567 -0.00046720274
-0.000326752 -0.0006324155 -0.00014292877 0.00018617595 0.00032659672 -0.00015344715 4.1917345e-05 -0.00036034442
-0.0005363043 0.00013953826 -0.00080195616 0.00011395916 -0.00022279698 0.00014842613 -0.00013477105 0.0001742232
3.1773467e-05 -0.0027378164 -0.0020931172 -0.0030419235 -0.0016924604 -0.0012652524 -0.00066886237 -0.0026880112
-0.0034963125 -0.0008726406 -0.0014975825 -0.0017990181 -0.0026844947 -0.0009561409 -0.0014567787 -0.00083336444
-0.0014218299 -0.0010426934 -0.001287489 -0.0021382212 -0.0012119343 -0.0008398874 -0.000659534 -0.0006515377
-0.0007579564 -0.0009804771 -0.0022877164 -0.00042218238 -0.00016289273 -0.00070316385 -0.00042204498 -0.0016242287
-0.00034318317 -0.00030228478 -0.00079511973 0.00017742589 -0.00093317893 -0.00021384162 -0.000599442 -0.0006658124
-0.000849518 -0.0010891644 -0.00046039908 0.00054145715 0.00044185197 -0.00039979795 -0.00014943065 -0.00031839038
-0.00025794198 0.00021424025 -0.0014587916 -3.5882025e-05 -0.0002763078 -6.995775e-06 -0.0007714274 0.000119050506
0.00011736946 0.0023235017 0.0015260847 0.0029089027 0.0015211212 0.00071501127 -0.00043305662 0.0034683244
0.0027431808 0.00043768762 0.0009225684 0.0021264313 0.0021634488 0.0009513353 0.0015483373 0.0005759178
0.0009616532 0.0014075981 0.0010340512 0.0020158435 0.0010738648 0.00086801616 0.00064079184 0.0006922041
0.0007095083 0.00058439304 0.0017015568 0.00027352187 0.00018649013 -0.0009631939 -0.00069847994 -0.0018342896
-0.00052313774 -0.0002852932 0.00028149947 -0.0017224023 -0.0011529688 -0.00017264439 -0.00010154443 -0.0011324199
-0.0011576271 -0.0005466414 -0.00075092877 -2.5804271e-05 -0.0002712165 -0.00061510433 -0.00033187005 -0.001078283
-0.00063729775 -0.00036071666 -0.0003045539 -0.00012788968 -0.00028308493 -4.899688e-06 -0.00075185776 -0.00011728972
-0.00044112979 -0.0040328763 -0.002302792 -0.0040721074 -0.0022732774 -0.0011956941 -0.00015469547 -0.0040635485
-0.004322064 -0.0012253011 -0.0018371979 -0.0021761432 -0.003207193 -0.0012383175 -0.0016853746 -0.0007523941
-0.0016832745 -0.0012246035 -0.0016380954 -0.0025241654 -0.001104611 -0.0008201068 -0.0016770817 -0.0011098366
-0.0007042582 -0.00114726 -0.0028643324 -0.00058394624 0.0003273493 -0.0009809509 -0.00049458153 -0.00053438195
-0.0003260402 -0.0002254243 0.00031035283 -0.0011347623 -0.0015797612 -8.002485e-05 -0.0004588929 -0.00072670565
-0.00057832827 2.1033804e-05 -0.00049046264 9.297335e-05 -0.00044773333 -0.00017003994 -0.0003579423 -0.0003253267
0.0002329349 -7.3280535e-05 0.00019184744 -0.00029871525 -0.00027420837 -7.8167126e-05 -0.00065770233 -3.4928118e-05
4.1190855e-05 0.00059602706 0.00039764165 0.0009114514 0.00037542282 0.00025386363 0.0002456219 0.0006424314
0.00028211396 -0.00022543153 -2.8105336e-05 0.0006520445 -1.3921541e-05 -0.00011030014 0.0003496865 0.00014340672
0.00041191402 0.00036298193 0.00020957281 0.00028808982 0.00045174503 0.00030894225 -0.00022720985 0.00033850188
5.9603015e-05 0.00021405394 0.00020610043 0.00021353377 0.0002727887 0.001043262 0.00055467617 0.0007642284

exp_avg_sq f4 [45, 28]
00000000: cd56 6a38 1531 2b38 81b3 0138 d08d 8b38
00000010: 4e90 9238 3ed3 8c37 5bb2 0038 36be 9238
00000020: 05be 6d38 48a1 4b37 ded8 1638 960c ac38
00000030: dc9a e737 03be 2638 2498 1438 d469 5038
00000040: 125d 2138 fbc7 6938 828c 5938 e6d7 2938
00000050: 238c 0938 5332 a637 2419 3a38 935a ae37
00000060: d90f 1038 0cd6 bf37 aa5a 8738 4bc0 0a37
00000070: 8028 8737 0b8b 3f37 210d 0137 4801 8c37
00000080: ffc3 9337 f316 7236 f92c 1837 6ed1 8f37
00000090: 6227 5837 514d 9036 74b6 4d37 fb89 ae37
000000a0: fcdf 1d37 ac8d 6737 7834 0437 b504 7037
000000b0: 97d9 1737 e45a 5237 b7e2 4237 96ac 4c37
000000c0: 4caa 1537 4c60 9736 3845 4237 c8b8 bb36
000000d0: f3d3 3f37 793b ae36 8adf 9937 1ef6 0636
000000e0: 7cd9 f939 a0d2 a539 39a8 7e39 1f64 0d3a
000000f0: 87f5 103a 406d f138 4469 7739 ef82 133a
00000100: 9bd4 e939 6f91 d438 ad94 9b39 eaf2 2f3a
00000110: 3679 6b39 62f7 b039 584b 8c39 476c d639
00000120: 1bc0 a639 0c9c ef39 ef5f d739 0808 ae39
00000130: 50d2 8d39 7881 1c39 2456 b439 1bbb 3339
00000140: 3ef7 8c39 1de5 3739 0839 093a 2cdc 7d38
00000150: 2eb9 8b38 235a 3638 8a73 1438 a080 9b38
00000160: 197f a138 f5b2 9937 da89 1138 ae21 a138
00000170: 74ce 7738 f34e 7137 a06d 3138 28f0 b938
00000180: 3473 0838 95d8 4738 52d6 1f38 47b3 6a38
00000190: 47ff 3438 6f07 8238 a49e 6a38 dd87 4338
000001a0: 6c6d 1d38 1bcf b837 7aa9 4a38 285d c637
000001b0: 2601 2438 a04a cf37 92e4 9838 ce3c 0f37
000001c0: e618 c739 d2bd 8a39 21c1 4139 7ff9 e339
000001d0: 70e4 ed39 adf1 c238 ea2f 3f39 4b47 f239
000001e0: f612 ba39 0c13 a838 e6f1 6d39 50e6 0c3a
000001f0: a934 3839 76b7 9339 922d 6e39 0b00 a439
00000200: efba 8839 d712 c539 a5f4 af39 c940 8539
00000210: 2b98 4e39 cdb6 f938 647b 9439 d7a4 1b39
00000220: a642 6039 9038 1439 866d d839 ab3e 4538
00000230: 70b1 0d39 08ab c138 8b73 9938 1e6e 2639
00000240: 0968 2b39 986d 1738 7fea 9338 5173 2a39
00000250: 82d3 0939 981f fb37 f2bc b538 50b2 4d39
00000260: 7a74 8a38 7b56 d338 cace ac38 fb58 fc38
00000270: d075 c238 e2b9 0e39 e777 0039 e640 cb38
00000280: 2015 a238 130b 3a38 cce5 d238 e0d8 5238
00000290: 7d5f a638 450f 5d38 995a 1e39 2eb3 9737
000002a0: 5362 3f3a 466f ff39 a24c c439 2893 5f3a
000002b0: d3b6 653a 2709 4139 6616 be39 dfa3 643a
000002c0: f762 343a 7190 1d39 27d7 eb39 6002 863a
000002d0: 18e5 b239 12b0 0d3a 186c dd39 8389 243a
000002e0: a762 f939 355e 3d3a 6abd 283a 366e 053a
000002f0: 24e2 d139 d6ef 6d39 7e49 0c3a 4683 8539
00000300: 08f5 de39 0cec 8d39 365d 543a 9bcb c038
00000310: 7c6f 5938 aa04 2d38 970e 8f37 8a0e 7438
00000320: d869 8838 6a8f 1037 acef 7f37 23e0 8a38
00000330: cbe3 2c38 be28 ff36 738d c737 f5f0 8638
00000340: 6028 a937 f6e3 1838 86dc bf37 e150 0f38
00000350: e3d0 0438 4dbc 4838 b153 2538 67a0 df37
00000360: 0499 ae37 cec4 5237 177c 4638 857a b837
00000370: b64c dd37 8b3b 6637 337a 6b38 798a 9e36
00000380: 47e9 6037 eb7d 0f37 0a95 8736 6752 5637
00000390: e5cb 5e37 80cb ea35 d015 9236 5f0e 7f37
000003a0: dcce f236 5664 5436 5e7c de36 28bd 7437
000003b0: 583c e636 d4e7 2637 1575 7c36 5885 f636
000003c0: 0866 ad36 f9c8 3d37 3050 e136 47c2 f536
000003d0: d768 cc36 891d 3036 024a 1f37 3fec 9e36
000003e0: db26 1637 99df 1d36 20b2 7437 f6b8 bd35
000003f0: 7232 5e38 7239 1538 c1b5 cd37 0321 6f38
5.5870787e-05 4.081529e-05 3.0923173e-05 6.654451e-05 6.988701e-05 1.6787668e-05 3.0683685e-05 6.997252e-05
5.6682173e-05 1.2137294e-05 3.596476e-05 8.2039434e-05 2.7609458e-05 3.9754446e-05 3.542764e-05 4.9689625e-05
3.847207e-05 5.5737775e-05 5.186769e-05 4.049381e-05 3.2793858e-05 1.9812176e-05 4.436927e-05 2.0784593e-05
3.4347035e-05 2.2868648e-05 6.454189e-05 8.270213e-06 1.6112113e-05 1.1416861e-05 7.692056e-06 1.6689897e-05
1.7615033e-05 3.6074168e-06 9.070377e-06 1.7144452e-05 1.2883773e-05 4.3005352e-06 1.2261433e-05 2.0806669e-05
9.41008e-06 1.38016585e-05 7.880029e-06 1.4306211e-05 9.050963e-06 1.25381375e-05 1.1616087e-05 1.2199531e-05
8.920742e-06 4.511361e-06 1.1579417e-05 5.5945457e-06 1.1433835e-05 5.1925276e-06 1.8343115e-05 2.0110815e-06
0.0004765502 0.0003162818 0.00024285995 0.00053936424 0.00055297505 0.00011512125 0.0002359497 0.00056271156
0.00044599627 0.00010136037 0.00029674676 0.0006711917 0.00022456501 0.0003375365 0.00026759016 0.00040897934
0.00031805117 0.00045701896 0.00041079472 0.0003319385 0.0002705031 0.0001492555 0.00034396455 0.00017140472
0.0002688709 0.00017537591 0.00052346336 6.052495e-05 6.662529e-05 4.3476128e-05 3.5393554e-05 7.414934e-05
7.700752e-05 1.8322355e-05 3.469908e-05 7.6833516e-05 5.9081663e-05 1.4383101e-05 4.2302185e-05 8.86622e-05
3.2532218e-05 4.7647005e-05 3.8108155e-05 5.5956913e-05 4.315309e-05 6.200268e-05 5.5937693e-05 4.6618155e-05
3.7533624e-05 2.203095e-05 4.831839e-05 2.3646819e-05 3.9101717e-05 2.4711073e-05 7.290499e-05 8.537621e-06
0.0003797479 0.00026462838 0.0001847786 0.00043482703 0.00045374362 9.2956565e-05 0.00018233029 0.00046210954
0.00035490812 8.014412e-05 0.00022692195 0.00053748954 0.00017567225 0.00028174714 0.00022714425 0.0003128055
0.00026079218 0.00037588805 0.00033560875 0.00025416006 0.00019702378 0.000119072945 0.00028320693 0.0001484336
0.00021387133 0.00014135451 0.00041280332 4.7026824e-05 0.00013512908 9.234814e-05 7.31713e-05 0.00015872016
0.00016346587 3.6103273e-05 7.0531845e-05 0.00016255422 0.00013144131 2.9936244e-05 8.6659464e-05 0.0001961675
6.602048e-05 0.00010077372 8.2401166e-05 0.0001203287 9.272585e-05 0.00013611422 0.00012251698 9.6918826e-05
7.728697e-05 4.435617e-05 0.00010056383 5.0269882e-05 7.933283e-05 5.2704727e-05 0.00015101804 1.808404e-05
0.0007300723 0.00048720295 0.0003744113 0.0008528703 0.00087628997 0.00018409324 0.00036256312 0.00087219285
0.0006881202 0.00015026495 0.00044982994 0.0010224096 0.00034121494 0.00054049597 0.0004223294 0.00062765944
0.00047566483 0.0007223816 0.00064369163 0.000508997 0.00040032074 0.00022691427 0.00053515274 0.00025465543
0.00042525702 0.00027069484 0.0008101048 9.193198e-05 5.184066e-05 4.1250758e-05 1.7053722e-05 5.8187674e-05
6.5047e-05 8.61646e-06 1.5254987e-05 6.6221015e-05 4.1220144e-05 7.604335e-06 2.3788516e-05 6.4345e-05
2.0165171e-05 3.645193e-05 2.2871664e-05 3.416918e-05 3.1665793e-05 4.7859085e-05 3.941701e-05 2.6658365e-05
2.081367e-05 1.2562798e-05 4.7322446e-05 2.1991562e-05 2.6380974e-05 1.3722932e-05 5.6142173e-05 4.7248873e-06
1.34057545e-05 8.552782e-06 4.040664e-06 1.277458e-05 1.3279704e-05 1.7493585e-06 4.3536784e-06 1.520253e-05
7.2362436e-06 3.1648865e-06 6.630594e-06 1.4587575e-05 6.861559e-06 9.948348e-06 3.7619077e-06 7.3468946e-06
5.16768e-06 1.13120705e-05 6.7148576e-06 7.324186e-06 6.0918787e-06 2.6243235e-06 9.49437e-06 4.7362696e-06
8.9497435e-06 2.3524974e-06 1.4585006e-05 1.4135428e-06 5.2975905e-05 3.557787e-05 2.452254e-05 5.7012785e-05

max_exp_avg_sq f4 [45, 28]
00000000: 2d6f 8438 f5e7 4538 4a65 0738 d0b9 9a38
00000010: 6d30 a738 17fa 9c37 80bd 0838 7b6c a838
00000020: bc5f 8438 a0e7 4f37 d790 2038 55cd c238
00000030: 2a26 fa37 f942 3638 1420 2538 d63c 6338
00000040: 0b3a 3238 a3c2 8038 0fe4 6e38 e79a 3938
00000050: 8e7f 0f38 d737 aa37 23f0 5538 ab4e ce37
00000060: adb2 2038 52be cb37 dd4a 9938 f032 1337
00000070: 8028 8737 0b8b 3f37 210d 0137 0e10 8c37
00000080: ffc3 9337 865b 7236 a22e 1837 6ed1 8f37
00000090: e033 5837 514d 9036 aae2 4d37 fb89 ae37
000000a0: fcdf 1d37 f597 6737 3e72 0437 5537 7037
000000b0: 2917 1837 e45a 5237 b7e2 4237 96ac 4c37
000000c0: 4caa 1537 fba3 9736 b249 4237 c8b8 bb36
000000d0: 01e0 3f37 246a ae36 8adf 9937 5f94 0736
000000e0: 7cd9 f939 a0d2 a539 39a8 7e39 1f64 0d3a
000000f0: 87f5 103a 406d f138 4469 7739 ef82 133a
00000100: 9bd4 e939 6f91 d438 ad94 9b39 eaf2 2f3a
00000110: 3679 6b39 62f7 b039 584b 8c39 476c d639
00000120: 1bc0 a639 0c9c ef39 ef5f d739 0808 ae39
00000130: 50d2 8d39 7881 1c39 2456 b439 1bbb 3339
00000140: 3ef7 8c39 1de5 3739 0839 093a 2cdc 7d38
00000150: 0a3d 8c38 70ae 3638 9d10 1538 abea 9b38
00000160: fc29 a238 6062 9a37 220d 1238 c2ad a138
00000170: f3de 7838 3043 7237 d005 3238 80ae ba38
00000180: 2ecc 0838 62b3 4838 fc84 2038 efb7 6b38
00000190: 62c1 3538 d693 8238 9c9d 6b38 7f53 4438
000001a0: bd03 1e38 1377 b937 c041 4b38 f708 c737
000001b0: 9e66 2438 043e d037 b674 9938 66e1 0f37
000001c0: e618 c739 d2bd 8a39 21c1 4139 7ff9 e339
000001d0: 70e4 ed39 adf1 c238 ea2f 3f39 4b47 f239
000001e0: f612 ba39 0c13 a838 e6f1 6d39 50e6 0c3a
000001f0: a934 3839 76b7 9339 922d 6e39 0b00 a439
00000200: efba 8839 d712 c539 a5f4 af39 c940 8539
00000210: 2b98 4e39 cdb6 f938 647b 9439 d7a4 1b39
00000220: a642 6039 9038 1439 866d d839 ab3e 4538
00000230: 70b1 0d39 08ab c138 8b73 9938 1e6e 2639
00000240: 0968 2b39 986d 1738 7fea 9338 5173 2a39
00000250: 82d3 0939 981f fb37 f2bc b538 50b2 4d39
00000260: 7a74 8a38 7b56 d338 cace ac38 fb58 fc38
00000270: d075 c238 e2b9 0e39 e777 0039 e640 cb38
00000280: 2015 a238 130b 3a38 cce5 d238 e0d8 5238
00000290: 7d5f a638 450f 5d38 995a 1e39 2eb3 9737
000002a0: 5362 3f3a 466f ff39 a24c c439 2893 5f3a
000002b0: d3b6 653a 2709 4139 6616 be39 dfa3 643a
000002c0: f762 343a 7190 1d39 27d7 eb39 6002 863a
000002d0: 18e5 b239 12b0 0d3a 186c dd39 8389 243a
000002e0: a762 f939 355e 3d3a 6abd 283a 366e 053a
000002f0: 24e2 d139 d6ef 6d39 7e49 0c3a 4683 8539
00000300: 08f5 de39 0cec 8d39 365d 543a 9bcb c038
00000310: 7c6f 5938 aa04 2d38 970e 8f37 8a0e 7438
00000320: d869 8838 6a8f 1037 acef 7f37 23e0 8a38
00000330: cbe3 2c38 be28 ff36 738d c737 f5f0 8638
00000340: 6028 a937 f6e3 1838 86dc bf37 e150 0f38
00000350: e3d0 0438 4dbc 4838 b153 2538 67a0 df37
00000360: 0499 ae37 cec4 5237 177c 4638 857a b837
00000370: b64c dd37 8b3b 6637 337a 6b38 798a 9e36
00000380: 47e9 6037 eb7d 0f37 f588 aa36 9ec2 6637
00000390: c9ec 5e37 9948 1736 9587 bf36 5f0e 7f37
000003a0: 402e 0e37 eb70 5636 b60a f336 a56f 8637
000003b0: cafa ea36 59f1 2637 4059 9c36 7ecc 1237
000003c0: 6c03 d236 370b 6137 04aa 0537 5062 0837
000003d0: 42d9 0437 9015 5c36 5253 1f37 3fec 9e36
000003e0: 493e 1937 9c41 4f36 20b2 7437 d8f2 f535
000003f0: 7232 5e38 7239 1538 c1b5 cd37 0321 6f38
6.3149586e-05 4.7184487e-05 3.228084e-05 7.3779025e-05 7.9722005e-05 1.8713106e-05 3.2601412e-05 8.03107e-05
6.3120824e-05 1.2392091e-05 3.8281865e-05 9.288887e-05 2.9820094e-05 4.3454555e-05 3.936894e-05 5.4177675e-05
4.2492564e-05 6.1397695e-05 5.6956018e-05 4.42517e-05 3.421265e-05 2.0291582e-05 5.1006802e-05 2.4593746e-05
3.8313377e-05 2.428811e-05 7.309553e-05 8.773743e-06 1.6112113e-05 1.1416861e-05 7.692056e-06 1.6696777e-05
1.7615033e-05 3.6114084e-06 9.070764e-06 1.7144452e-05 1.2886681e-05 4.3005352e-06 1.22717265e-05 2.0806669e-05
9.41008e-06 1.3804053e-05 7.894412e-06 1.4317998e-05 9.065298e-06 1.25381375e-05 1.1616087e-05 1.2199531e-05
8.920742e-06 4.5192405e-06 1.158046e-05 5.5945457e-06 1.1436642e-05 5.1979605e-06 1.8343115e-05 2.020293e-06
0.0004765502 0.0003162818 0.00024285995 0.00053936424 0.00055297505 0.00011512125 0.0002359497 0.00056271156
0.00044599627 0.00010136037 0.00029674676 0.0006711917 0.00022456501 0.0003375365 0.00026759016 0.00040897934
0.00031805117 0.00045701896 0.00041079472 0.0003319385 0.0002705031 0.0001492555 0.00034396455 0.00017140472
0.0002688709 0.00017537591 0.00052346336 6.052495e-05 6.6870896e-05 4.355464e-05 3.553984e-05 7.434686e-05
7.732582e-05 1.840404e-05 3.4821343e-05 7.709443e-05 5.9335445e-05 1.4439967e-05 4.244392e-05 8.901674e-05
3.2615084e-05 4.785078e-05 3.8270824e-05 5.6199668e-05 4.3333865e-05 6.22642e-05 5.617515e-05 4.6807803e-05
3.7673617e-05 2.2109167e-05 4.8460206e-05 2.3726823e-05 3.9196217e-05 2.482441e-05 7.3173476e-05 8.575944e-06
0.0003797479 0.00026462838 0.0001847786 0.00043482703 0.00045374362 9.2956565e-05 0.00018233029 0.00046210954
0.00035490812 8.014412e-05 0.00022692195 0.00053748954 0.00017567225 0.00028174714 0.00022714425 0.0003128055
0.00026079218 0.00037588805 0.00033560875 0.00025416006 0.00019702378 0.000119072945 0.00028320693 0.0001484336
0.00021387133 0.00014135451 0.00041280332 4.7026824e-05 0.00013512908 9.234814e-05 7.31713e-05 0.00015872016
0.00016346587 3.6103273e-05 7.0531845e-05 0.00016255422 0.00013144131 2.9936244e-05 8.6659464e-05 0.0001961675
6.602048e-05 0.00010077372 8.2401166e-05 0.0001203287 9.272585e-05 0.00013611422 0.00012251698 9.6918826e-05
7.728697e-05 4.435617e-05 0.00010056383 5.0269882e-05 7.933283e-05 5.2704727e-05 0.00015101804 1.808404e-05
0.0007300723 0.00048720295 0.0003744113 0.0008528703 0.00087628997 0.00018409324 0.00036256312 0.00087219285
0.0006881202 0.00015026495 0.00044982994 0.0010224096 0.00034121494 0.00054049597 0.0004223294 0.00062765944
0.00047566483 0.0007223816 0.00064369163 0.000508997 0.00040032074 0.00022691427 0.00053515274 0.00025465543
0.00042525702 0.00027069484 0.0008101048 9.193198e-05 5.184066e-05 4.1250758e-05 1.7053722e-05 5.8187674e-05
6.5047e-05 8.61646e-06 1.5254987e-05 6.6221015e-05 4.1220144e-05 7.604335e-06 2.3788516e-05 6.4345e-05
2.0165171e-05 3.645193e-05 2.2871664e-05 3.416918e-05 3.1665793e-05 4.7859085e-05 3.941701e-05 2.6658365e-05
2.081367e-05 1.2562798e-05 4.7322446e-05 2.1991562e-05 2.6380974e-05 1.3722932e-05 5.6142173e-05 4.7248873e-06
1.34057545e-05 8.552782e-06 5.0823387e-06 1.3754381e-05 1.3287362e-05 2.254301e-06 5.7080274e-06 1.520253e-05
8.474628e-06 3.1954212e-06 7.2432113e-06 1.6026033e-05 7.002939e-06 9.950564e-06 4.6595524e-06 8.74989e-06
6.258886e-06 1.3413656e-05 7.967003e-06 8.129122e-06 7.918397e-06 3.2795106e-06 9.496538e-06 4.7362696e-06
9.1340125e-06 3.0883593e-06 1.4585006e-05 1.8324599e-06 5.2975905e-05 3.557787e-05 2.452254e-05 5.7012785e-05

exp_avg f4 [45]
00000000: 72db 9a39 f075 9cb9 2e28 1ebb 2b7a 5bba
00000010: adec 2b3b 76c4 afba 8251 6dbb aa0c 15ba
00000020: e0a9 2db8 d013 7d3a fef3 873a dab8 bb38
00000030: 05ef e338 003f ecba 2882 3bb9 406e 1ab8
00000040: b4f8 413a e80e 29ba c075 31bb c87c fb3a
00000050: ad31 a73a 08d6 6bb9 f18e 17ba 6657 eaba
00000060: 983f 2dba 44ce be3a ac52 c73a 16e5 8539
00000070: 7098 a7b9 dc48 17ba 240f 0fba 4118 37ba
00000080: e2d7 26ba 4e57 9fba 9278 75ba 8208 15bb
00000090: e254 5fba f089 18ba 8c48 00b9 480d 30ba
000000a0: dc86 c739 155b 213b 5044 9ab9 40de 2e37
000000b0: d0fa 6fb9
0.00029536668 -0.0002984251 -0.0024132836 -0.00083723915 0.00262336 -0.001340999 -0.0036211913 -0.0005685786
-4.1404623e-05 0.00096541364 0.0010372398 8.951286e-05 0.00010868724 -0.0018024147 -0.00017882197 -3.681914e-05
0.00073994254 -0.00064490596 -0.002707824 0.0019186968 0.0012755893 -0.0002249108 -0.0005781493 -0.001787883
-0.00066089025 0.0014557322 0.0015207133 0.0002553842 -0.00031966297 -0.000577105 -0.0005457273 -0.000698451
-0.00063645665 -0.0012156756 -0.00093639747 -0.0022740667 -0.00085194234 -0.0005818894 -0.00012234057 -0.0006715846
0.00038056716 0.002462094 -0.00029424066 1.0422955e-05 -0.00022886251

exp_avg_sq f4 [45]
00000000: 23dd 0239 0e33 0838 885b 813a 0c92 0c39
00000010: 6ce6 553a 78bf 9739 46d2 cc3a 7e5c fb38
00000020: 7193 e137 d09e e438 5362 6939 2376 8537
00000030: f26d 4737 58c2 0a3a bbaf d638 e21b 0039
00000040: c80f 7039 fb68 2138 ffa6 a03a 3002 343a
00000050: c139 2539 c9f7 8738 6e46 fe36 4f90 1c3a
00000060: 4907 3439 384e 9939 4e00 9539 03e5 ff37
00000070: 779b 5638 09d1 b239 4b26 6a39 1e67 fe38
00000080: ef83 8638 0682 a539 c3bc 2238 7666 c73a
00000090: 6fea 3739 1e7b 0f39 b987 0438 aee8 2538
000000a0: e23c f738 c6d5 3f3a 62c4 0639 cc25 b538
000000b0: 1b37 8039
0.00012480146 3.2472475e-05 0.0009869197 0.00013405847 0.0008159641 0.0002894362 0.0015626631 0.00011985841
2.6890748e-05 0.00010901468 0.0002225724 1.5909847e-05 1.1886923e-05 0.00052932417 0.000102370475 0.00012217418
0.00022894063 3.8483162e-05 0.00122568 0.0006866781 0.00015757141 6.483455e-05 7.577989e-06 0.00059724314
0.00017168852 0.00029240712 0.00028419722 3.050501e-05 5.1166364e-05 0.0003410655 0.00022330244 0.00012130871
6.4141925e-05 0.00031568127 3.8799608e-05 0.0015213031 0.00017539573 0.00013683407 3.1597654e-05 3.9555765e-05
0.00011789218 0.00073179265 0.00012852394 8.637793e-05 0.0002445512

max_exp_avg_sq f4 [45]
00000000: 3e48 1639 0e33 0838 885b 813a 5f26 0d39
00000010: 6ce6 553a 78bf 9739 46d2 cc3a 7e5c fb38
00000020: 7193 e137 d09e e438 5362 6939 78b9 d837
00000030: 7020 4837 58c2 0a3a a9bd d638 e21b 0039
00000040: c80f 7039 fb68 2138 ffa6 a03a 3002 343a
00000050: c139 2539 2950 8838 8195 fe36 4f90 1c3a
00000060: 48c9 3439 384e 9939 4e00 9539 03e5 ff37
00000070: d330 5738 09d1 b239 ab07 6b39 8bdb fe38
00000080: fe42 8838 0682 a539 c3bc 2238 7666 c73a
00000090: 6154 3839 1e7b 0f39 ca8b 0d38 e232 5a38
000000a0: e23c f738 c6d5 3f3a 62c4 0639 f252 b538
000000b0: 1b37 8039
0.00014332027 3.2472475e-05 0.0009869197 0.00013461102 0.0008159641 0.0002894362 0.0015626631 0.00011985841
2.6890748e-05 0.00010901468 0.0002225724 2.5835572e-05 1.1928481e-05 0.00052932417 0.00010239642 0.00012217418
0.00022894063 3.8483162e-05 0.00122568 0.0006866781 0.00015757141 6.499916e-05 7.5871944e-06 0.00059724314
0.00017241121 0.00029240712 0.00028419722 3.050501e-05 5.1305466e-05 0.0003410655 0.00022414203 0.00012152557
6.4974636e-05 0.00031568127 3.8799608e-05 0.0015213031 0.00017579041 0.00013683407 3.374721e-05 5.202264e-05
0.00011789218 0.00073179265 0.00012852394 8.646202e-05 0.0002445512

exp_avg f4 [3, 45]
00000000: 4537 ebba 5ae5 eb39 c003 b23a 98fb 8dbb
00000010: 1385 6aba f424 b7ba d0c6 7cba 86fc 603b
00000020: f3ba a73b da48 0aba 82e1 d1ba 53cd e93a
00000030: 9043 083b a206 6bbb 0c61 a53a d9eb 303b
00000040: ca4a 76bb 025f 103b 983f 8dbb 3db2 273a
00000050: 787b 9dbb c0f8 26bb a572 033c ceb7 323a
00000060: c821 c23a 0b8e 35ba 3348 20bb 5a2a 1d3b
00000070: 92f8 2ebb 5faf 093b 18b1 6abb 9618 2abb
00000080: a978 67ba bab8 7a3b 2064 243b 4c10 533a
00000090: 1145 ee3a 03f6 873b 47a9 363b 7337 423b
000000a0: 8e50 79ba 9aeb fbba 002e d9b6 4820 30ba
000000b0: 7234 3c3b 049c 7cba e0f0 4237 c62a 28ba
000000c0: 93b5 1fbb 1a48 443a c53f ceba 86d4 83ba
000000d0: 4299 153b f45f 113b 3820 bb38 3048 15ba
000000e0: 2cc0 dbb8 d271 58ba f5ce 7bbb ffa9 513a
000000f0: 508f 49b9 7ca5 19bb 4537 ed3a 282a 8fbb
00000100: 40d4 66b7 8fcf 32bb 9d16 02ba d4bb 9c3a
00000110: 5674 c6ba d42f 113a 317b bb3a f748 9839
00000120: dc90 433a caf5 7cba 8fa9 c8b9 9c4e 3bba
00000130: 2c8a f3b9 c083 33ba da6f 6f3a 26cf e73a
00000140: 38e7 f238 a004 5a39 99be f93a 3685 c83a
00000150: 5c4d 823a 2243 a6ba 8f13 cab9 b53c 66ba
00000160: 9457 ffb9 d0b3 d7b8 f1fb 023b b9b4 1abb
00000170: 8062 6e39 c6be 823b 32d3 5a3a 1885 aa3a
00000180: 7079 03ba d0c1 15bb aacb 03bc e9d5 a23a
00000190: 2844 8b3a b060 4b3a 9c25 ce39 fa40 ad3b
000001a0: ba54 9aba 84bd d4ba 5f76 7e3b 20e3 23ba
000001b0: 3888 823b 2a1d 0a3b 76a6 bf3b e0dc c23a
000001c0: 4cf8 7abb 2405 c33a 06a9 abba 1836 4339
000001d0: b078 2e3b e8f4 25bb 7e46 123b 26dc 07bb
000001e0: 4285 293b 5c29 8c3a ce96 03ba aac1 3bbb
000001f0: 2aaa 10bb fa29 a0ba 7ac1 40bb 6cde 4bbb
00000200: f83b bfba aafc 19bb a61d c93a 76e7 fc3a
00000210: bc10 e739 3af4 fa3a bdee 82ba
-0.0017945549 0.00044993573 0.001358144 -0.004332971 -0.0008946221 -0.0013972805 -0.00096426625 0.0034330203
0.0051187216 -0.0005275138 -0.0016012641 0.0017837681 0.0020792224 -0.0035862108 0.0012617423 0.0026996045
-0.00375812 0.0022029285 -0.0043105595 0.0006397104 -0.0048059784 -0.0025477856 0.008022939 0.000681755
0.0014811093 -0.0006925768 -0.0024457097 0.0023981542 -0.0026698452 0.002100907 -0.0035811123 -0.0025954596
-0.00088299304 0.0038257078 0.0025084093 0.00080514397 0.0018178542 0.0041492 0.0027871893 0.00296351
-0.00095106 -0.0019219995 -6.472459e-06 -0.00067186775 0.0028717783 -0.0009636285 1.1619384e-05 -0.0006415065
-0.0024369701 0.00074875506 -0.0015735558 -0.0010057844 0.0022826944 0.0022182437 8.922856e-05 -0.00056946557
-0.000104785286 -0.00082567066 -0.0038422917 0.00079980487 -0.00019222242 -0.0023444584 0.0018098137 -0.004369039
-1.3758487e-05 -0.002728436 -0.0004962476 0.0011957833 -0.0015140872 0.0005538438 0.0014303682 0.00029046062
0.00074602454 -0.00096496625 -0.00038273304 -0.00071451976 -0.00046451518 -0.00068479404 0.00091337936 0.0017685636
0.00011582527 0.00020791823 0.0019053995 0.0015298489 0.0009941268 -0.0012684802 -0.00038543015 -0.000878285
-0.0004870264 -0.000102854916 0.0019986595 -0.0023606254 0.00022734143 0.003990027 0.00083475106 0.0013009636
-0.0005015349 -0.0022851117 -0.008044163 0.0012423369 0.001062517 0.0007758243 0.00039319403 0.005287287
-0.0011774518 -0.0016230796 0.003882788 -0.0006251801 0.0039835237 0.0021074512 0.005848701 0.0014866851
-0.003829497 0.0014878851 -0.0013096638 0.000186168 0.0026622228 -0.0025322977 0.0022319849 -0.0020730584
0.0025866781 0.0010693478 -0.0005019725 -0.0028649368 -0.0022074082 -0.0012219541 -0.0029412196 -0.0031107916
-0.0014590016 -0.0023496547 0.0015343919 0.0019295055 0.00044072221 0.0019146272 -0.0009989362

exp_avg_sq f4 [3, 45]
00000000: de9c 2238 017b cc38 305d 5539 0419 233b
00000010: cbc9 f738 ccae 1b3b 5e2b 7b3a f71a a33a
00000020: b47e f43a ab05 d238 0429 4339 608e 4338
00000030: ff4e 013a 18a7 1e3b 59f6 6538 7503 9e39
00000040: b02e 243a 827c 583a da46 c63b cbb1 1439
00000050: 24d8 0e3b 387e 1b3a f2bb fb3a cf95 bb39
00000060: 4ec0 c237 a5ec 2639 0417 c038 dce4 493a
00000070: 3222 0d3a a5d7 ae38 f74b 9b3a 5936 813a
00000080: 6345 e437 7845 513a 6d28 bb39 f9fb c438
00000090: 7be3 1d38 5797 863a 22e8 323a 133a 9a3a
000000a0: c085 8037 eea4 8b38 4a33 6b38 7938 be39
000000b0: 5c95 7938 0fcb 6637 d130 1c38 a6a7 9238
000000c0: 900d 603a 1111 1238 680a 653a ad1a ae39
000000d0: 07d8 dc39 e86f 163a 07f8 2338 7c7d 8238
000000e0: 8bb9 8337 339c 5339 1018 553a 2323 bb37
000000f0: 260c f538 c767 6639 1614 8d39 0d8a 0a3b
00000100: 41ad 5238 0813 3b3a 8ca4 5f39 53b0 233a
00000110: aece 1139 1ab5 1637 c766 7e38 04db 0138
00000120: 218d 8039 37b7 6639 7520 0d38 c8af cc39
00000130: 62b5 b539 5001 4937 784c 9739 3fcc f338
00000140: babb 2338 4516 1837 9471 b339 4298 5839
00000150: 531f d439 85fa a336 839c d537 52b0 9837
00000160: f26b fb38 e1a7 9b37 ceb0 6038 1fc1 0139
00000170: 6978 9a39 adf3 6e3b 816e 2c39 5b38 573b
00000180: 44fc b33a 7c20 e63a 9386 333b ac05 0b39
00000190: 3bfc 7d39 6b7f 5238 082b 273a 8227 5f3b
000001a0: 1a42 9238 db6a ca39 5a0b 603a d850 993a
000001b0: c845 093c e50b 4939 e2a4 4a3b cd8c 5c3a
000001c0: 1e2f 2d3b 2534 013a 6f0f 0438 8729 5d39
000001d0: c3da 0039 6a7d 913a 1dba 3f3a 8219 d338
000001e0: b6c3 e13a 4165 ae3a 7124 1738 b4d4 8e3a
000001f0: 7202 0c3a b0f7 0139 8650 1138 ac2f bd3a
00000200: 78b6 803a b7a3 d63a 1de7 8537 00de c538
00000210: 9ada a038 1184 0a3a 64c7 ae38
3.8769904e-05 9.750389e-05 0.00020347978 0.0024886737 0.00011815465 0.002375531 0.00095813524 0.0012443949
0.0018653483 0.00010014636 0.00018611929 4.662422e-05 0.0004932731 0.0024208482 5.4827284e-05 0.00030138684
0.00062630605 0.0008258299 0.0060509266 0.00014180613 0.002179631 0.0005931589 0.0019205792 0.00035779036
2.3216151e-05 0.0001591915 9.1595604e-05 0.0007701644 0.00053838186 8.3371335e-05 0.0011848201 0.0009858116
2.7212029e-05 0.0007983069 0.0003569754 9.392942e-05 3.7643575e-05 0.0010268491 0.00068247516 0.0011766575
1.5321071e-05 6.658757e-05 5.6076133e-05 0.000362817 5.9505328e-05 1.3756347e-05 3.7238762e-05 6.9930495e-05
0.0008546943 3.4825007e-05 0.00087372074 0.0003320774 0.00042122623 0.0005738721 3.9093222e-05 6.222256e-05
1.5702817e-05 0.00020180717 0.0008128891 2.2308499e-05 0.00011684773 0.0002197317 0.0002690858 0.0021139414
5.0229257e-05 0.000713632 0.00021328236 0.0006244231 0.00013905272 8.982863e-06 6.0654038e-05 3.095997e-05
0.00024519212 0.00022002762 3.3647248e-05 0.0003904088 0.0003465815 1.1980839e-05 0.00028857938 0.00011625187
3.9037062e-05 9.065091e-06 0.00034226163 0.00020656086 0.0004045913 4.886943e-06 2.546446e-05 1.8201918e-05
0.00011988719 1.8555615e-05 5.3570424e-05 0.00012374342 0.00029462882 0.003646116 0.00016444364 0.0032839987
0.0013731797 0.0017557289 0.0027393445 0.00013258186 0.00024221923 5.018657e-05 0.00063769566 0.0034050648
6.974135e-05 0.00038608056 0.00085466134 0.0011697067 0.008378454 0.00019173285 0.0030921032 0.0008413315
0.002642579 0.00049287296 3.1485626e-05 0.00021091673 0.00012288526 0.0011099998 0.0007313805 0.00010066015
0.0017224464 0.0013305322 3.6035144e-05 0.0010897131 0.00053409406 0.0001239467 3.4645687e-05 0.0014433763
0.0009820005 0.0016375695 1.5962456e-05 9.435043e-05 7.670112e-05 0.00052839617 8.334106e-05
