logs/my_logs/version_0/checkpoints/epoch=92-step=93.ckpt (torch, 32255 bytes, 25 tensors)

encoder.dense1.weight f4 [45, 28]
000000 90 08 b3 bd 23 77 f5 bd f2 1f bf 3d a1 87 33 be
       -0.087418675 -0.11985614 0.09332265 -0.17532207
000010 69 cc 41 be a7 47 d8 3d 5d d2 1b 3e 3e e8 48 be
       -0.18925633 0.105605416 0.15216966 -0.19619843
000020 de 3b 0b be 14 a3 53 bd 21 b0 ba bd 80 cc b8 3c
       -0.13597056 -0.051669195 -0.09115625 0.02255845
000030 3e 90 3e bd d1 88 22 3e 91 29 00 be 2c bd db bd
       -0.04652428 0.15872504 -0.12515856 -0.10729441
000040 31 57 13 3d 5b a7 40 bc 05 63 07 be 69 3c bc bd
       0.035971824 -0.011758651 -0.13221367 -0.0919121
000050 d9 41 8b 3d e6 62 a6 3d d7 e2 05 bd a7 a8 cf 3d
       0.06799669 0.08124332 -0.032687034 0.1013959
000060 12 00 62 bd 5f 21 1c 3e f3 fb c1 3d 9c 42 81 bd
       -0.05517585 0.15247105 0.094718836 -0.06311533
000070 5a e5 c8 3d 16 71 e3 bd c8 4c 26 be 17 99 8c bd
       0.0980937 -0.11105554 -0.16240227 -0.06865137
000080 44 96 18 bd 65 c3 0c 3e b1 f9 71 3e f8 1d 17 be
       -0.03725268 0.13746412 0.23630406 -0.14757526
000090 f2 b6 3e be 7e f7 f2 3d b0 dc 5d bc 18 52 4e bd
       -0.18624476 0.11863612 -0.0135413855 -0.05037126
0000a0 94 32 de bc ee 19 43 3e 1d 15 02 be e0 6a 6c 3e
       -0.027123727 0.1905286 -0.12703367 0.23087645
0000b0 7f 3c 3b be f4 62 47 bc aa 7b 25 be e0 28 19 3e
       -0.18284796 -0.012169588 -0.16160455 0.14956999
0000c0 63 91 ed 3d e8 05 b9 3a 0b a0 c8 3c 47 c9 a3 3d
       0.11599996 0.001411614 0.024490377 0.07997375
0000d0 21 17 63 3b 87 68 33 be 1e e9 b9 3d a5 9a 32 be
       0.0034651237 -0.17520343 0.09077667 -0.17441805
0000e0 81 db b6 bd 3d ae d9 bd 4e c2 ff bc c7 82 d9 bc
       -0.08928586 -0.106289364 -0.031220581 -0.026551617
0000f0 18 01 d9 3c e0 12 06 3e 73 5f 4f 3c ae c5 cd 3c
       0.02648978 0.13093138 0.012657034 0.025118675
000100 fd 83 13 bd 9d 4f f2 3d a9 2c da bd 88 c8 ad 3d
       -0.036014546 0.11831591 -0.106530495 0.08485514
000110 dd 84 cb 3d f3 32 6a bd 98 cb 25 3d 0a b4 a6 ba
       0.09937451 -0.057177495 0.040477365 -0.0012718451
000120 9e 39 af 3d f7 32 02 3e fc ae 2b 3d 87 53 31 bd
       0.085559115 0.12714754 0.041914925 -0.04329255
000130 0e 78 9d 3d de 9b bd bd f6 cd 28 3c 21 99 60 3a
       0.07688914 -0.09258245 0.010303011 0.000856774
000140 67 ef 99 bd 66 b4 8d bd 40 a5 fe bd 24 98 0d 3e
       -0.075163655 -0.06919174 -0.12433863 0.13827568
000150 d6 6a 8f bd 0c 3f 08 3d 06 36 d2 bd e1 71 de 3c
       -0.07002799 0.03326325 -0.102642104 0.027153911
000160 ec 97 7f bb 50 b2 28 bc 22 c9 d5 bc c1 98 bb 3c
       -0.0039000465 -0.010296419 -0.026096884 0.022899987
000170 7b 7e 0f 3c 8c 6c 14 3e e1 3b da bd 3e ed b2 bc
       0.008758183 0.14494532 -0.10655952 -0.021841642
000180 b2 20 cf 3d 09 3f be bd 74 cc 9c bd 1d de a9 bd
       0.10113658 -0.09289367 -0.07656184 -0.08294318
000190 8f 93 d3 bd e9 4e f4 bc 41 15 12 be 05 e3 76 bd
       -0.10330879 -0.029822784 -0.1426592 -0.060275096
0001a0 b9 1a 96 bd f3 50 4a be fa 98 f7 bd 76 07 24 3e
       -0.07329316 -0.19757442 -0.12089725 0.16018471
0001b0 ad 02 f6 3d ec 84 07 39 01 6a fa 3d 6b 4d 31 3e
       0.12012229 0.0001292412 0.1222725 0.17314689
0001c0 10 c9 10 3e b7 d6 b8 bd 0d 14 3c 3e 9a 20 fd bd
       0.141392 -0.090253286 0.18367024 -0.12359734
0001d0 ca 43 07 bd 5a 95 05 be bb 9a 05 be ea ca 4d bd
       -0.033023633 -0.13045254 -0.13047306 -0.050242342
0001e0 67 0a 3a 3e c8 b4 88 bd 9a 72 6b 3d 6b 66 36 3d
       0.1816803 -0.06675106 0.05748234 0.044531267
0001f0 8a 6c f2 bd d8 dd 45 be c1 37 d5 3c 4b 2f 3c 3d
       -0.118371084 -0.19322908 0.026027562 0.04594354
000200 b0 cd 30 3e 14 fe 0e bb b9 5f c0 bd 2b 93 5a be
       0.17265964 -0.0021818923 -0.09393258 -0.21345203
000210 3b fd 6b 3d f2 0f ef bc 94 10 54 3e 42 9d 26 be
       0.057614546 -0.029182408 0.20709449 -0.16270927
000220 b1 c1 ac 3d 83 85 1d 3e 39 8f f8 3d 3a 56 43 3e
       0.08435381 0.15382962 0.121366926 0.19075862
000230 64 3d 45 bc f3 cc 35 bc 24 8c 66 bd c1 0a d8 bd
       -0.012038562 -0.011096227 -0.056285992 -0.10548926
000240 e3 84 f1 bc 38 59 a4 bd 6d 91 4e bd c0 0a 58 bc
       -0.02948231 -0.080248296 -0.050431658 -0.013186157
000250 c0 67 17 3d e1 b7 a4 3d 26 a6 05 be 4a e5 74 bd
       0.036964178 0.080428846 -0.13051662 -0.05978898
000260 47 b2 dd 3d e8 88 f6 bd 32 ba 88 3d 62 a6 5e bd
       0.10825019 -0.120378315 0.06676139 -0.054357894
000270 81 e5 23 3e 78 dc 92 bd 67 4e 6a 3d 07 3a 31 be
       0.16005518 -0.07170957 0.057203677 -0.17307292
000280 36 90 a4 3d b7 44 78 bd ba e9 7b bd 54 d6 9d bd
       0.080353186 -0.060612407 -0.061502196 -0.077068955
000290 44 b3 d1 3d 24 e0 ee 3d 40 de 0b 3e eb 43 fb 3d
       0.1023927 0.11663845 0.13659 0.12268814
0002a0 b4 a2 48 3e 42 8b fb 3d 01 59 05 3d ed b3 a8 bd
       0.19593316 0.12282421 0.032555584 -0.08237443
0002b0 0c a1 12 bd f7 66 ec 3d e6 ad b8 3d 88 b1 fe 3d
       -0.035798118 0.115430765 0.090175435 0.12436205
0002c0 21 4b 75 bc d3 7f 26 3e d5 71 4a 3d 62 36 39 3e
       -0.014971525 0.16259699 0.049424965 0.18087152
0002d0 84 76 21 be 70 f5 63 3c 17 f9 b9 bd e1 59 32 be
       -0.15767866 0.013913497 -0.09080713 -0.17417099
0002e0 15 0d 5c bd c7 76 f1 3d 7d 01 41 3e e0 bc 59 bd
       -0.053723413 0.11790233 0.18848224 -0.05315864
0002f0 58 60 70 3d 4a 84 ea 3d b7 e6 8d bc d1 e7 a4 bd
       0.05868563 0.114510134 -0.017321927 -0.08052028
000300 3a 4d 2c 3e db 1c 64 3d fa 7c 89 bd 8c 59 11 be
       0.16826335 0.05569158 -0.067132905 -0.14194316
000310 55 24 df 3d d4 b6 18 3d 79 3c 7a bd eb 90 77 bd
       0.10895602 0.037283733 -0.061092827 -0.06044094
000320 40 08 3a 3e 6f ff cb bd 99 2c dc bd a7 0c 26 be
       0.1816721 -0.099608295 -0.10750694 -0.16215764
000330 f3 0a 96 3d 4d 99 91 bd 6a f1 e2 bd 4b ff 27 3e
       0.07326307 -0.07109318 -0.11081202 0.1640598
000340 a8 b6 08 be 3c 4e b6 3d 7b 68 fa bd 48 be 42 be
       -0.13350928 0.08901641 -0.12226959 -0.19017899
000350 2c 83 bb 3d d3 d7 11 3d 54 40 f9 bc cc 4e 88 bc
       0.091558784 0.035606217 -0.030426182 -0.016639136
000360 a2 31 82 bd c6 70 d0 3c d4 bf e6 bd cb c6 9b 3c
       -0.06357123 0.0254444 -0.11267057 0.01901569
000370 31 a3 18 3c 76 d8 cc bc 80 3b ea 3d 72 78 a2 3d
       0.009316252 -0.02500556 0.1143713 0.07933129
000380 59 f7 25 be 88 8f 0d be ad f1 3c bc ef 14 8f 3d
       -0.16207637 -0.13824284 -0.011532229 0.06986415
000390 57 bc 1f 3e d6 44 e0 3d 5e 4d 0d bd 5f e3 5b 3d
       0.1559919 0.109506294 -0.03449761 0.053683635
0003a0 41 69 b6 bd c3 b6 d8 bb 35 c1 10 be 4b ae 2e 3e
       -0.08906794 -0.006613584 -0.14136203 0.17058675
0003b0 be 80 99 3d a0 71 c0 bd e8 ef 41 3e 7c 51 5f 3d
       0.07495259 -0.09396672 0.18939173 0.05452107
0003c0 c6 2e 2c be b4 ee d4 3d 24 a6 1c 3e 3e a8 9e bd
       -0.16814718 0.103970915 0.15297753 -0.077469334
0003d0 13 09 2d 3e 91 2f 25 be af bc af 3d a0 bb ae 3c
       0.16897993 -0.16131426 0.085809104 0.021329701
0003e0 cf 13 13 3e 29 05 1d 3d a2 82 d3 bc 3f c3 2f be
       0.14363025 0.038335 -0.025819127 -0.17164324
0003f0 0e 71 29 be 94 e6 b5 bd 6b c7 66 bd 29 9a 02 be
       -0.16547033 -0.0888187 -0.056342524 -0.1275412

encoder.dense1.bias f4 [45]
000000 88 d6 40 be 51 70 8d bd 81 4d 08 3e f9 72 d6 3d
       -0.18831837 -0.06906188 0.13310815 0.10471148
000010 b5 1e c0 bd da 58 2e 3e a5 94 13 3e 18 3c 09 be
       -0.09380857 0.17026082 0.14412172 -0.1340183
000020 96 97 cb bd 6e fd ae 3d de 1d b8 bc ef 3d 09 bd
       -0.09941022 0.085444316 -0.02247518 -0.03350633
000030 95 33 1f 3e 7b 69 eb bb d6 36 1f be 18 af 39 3e
       0.1554702 -0.007184205 -0.15548262 0.18133199
000040 38 d7 95 3d e5 81 40 3e c6 a0 64 bc 08 70 5c 3d
       0.0731644 0.18799551 -0.013954347 0.05381778
000050 46 d8 92 3c e0 d1 80 3d 08 a3 e0 bb 89 e3 3c be
       0.017925393 0.062900305 -0.0068553723 -0.18446173
000060 b8 b0 6c 3b ec 1b a4 b9 cf 9b 7f 3d 67 3d 0c be
       0.0036116075 -0.0003130132 0.06240445 -0.13695298
000070 ed e3 01 be 2d 8b e0 bd d1 3c 0e be 30 51 2d bc
       -0.12684603 -0.10964046 -0.13890387 -0.010578439
000080 f2 9f f0 bc aa 41 79 bd 47 52 ec bd 1c 14 f9 3d
       -0.029373143 -0.060853638 -0.11539131 0.12162039
000090 e8 4a a1 bd 55 59 81 3e f2 ad b8 bd b9 b2 08 3e
       -0.07875615 0.25263467 -0.090175524 0.13349427
0000a0 45 9f a2 3d cc 2a cd bd aa f6 74 bd de ba 6b bd
       0.079405345 -0.100179285 -0.05980555 -0.057551257
0000b0 a2 00 f2 3c
       0.029541317

encoder.dense3m.weight f4 [3, 45]
000000 94 81 4c 3c e6 6e cf 3d f9 2f 76 3d 09 b5 01 3d
       0.012482066 0.10128574 0.060104344 0.03166679
000010 a1 4e 3b be c2 e4 a7 bd 5b e9 a4 3d 27 a5 a3 3d
       -0.18291713 -0.08197929 0.080523215 0.07990485
000020 8d 49 b1 bd 86 c6 21 bb 44 31 0d bd a7 bd 54 3d
       -0.08656607 -0.002468498 -0.03447081 0.05193868
000030 44 26 9b bd dd 07 e3 3d e6 f8 40 bc 82 92 03 3d
       -0.07575658 0.11085484 -0.011778092 0.032122143
000040 a0 b3 c8 3d de 3a d5 bd e2 58 1c 3d 83 e7 59 be
       0.09799886 -0.10411619 0.038170703 -0.21279721
000050 e9 99 40 bd 01 15 aa 3b a0 20 df bd 15 68 29 3e
       -0.04702178 0.005190492 -0.108948946 0.1654361
000060 e2 c8 0b be 50 b2 27 bd 3b 74 02 be 7f 33 b8 bd
       -0.1365085 -0.040941536 -0.12739651 -0.08994197
000070 8e 82 1e 3e e6 d1 32 be 12 ee a8 bd 7b 23 d3 3d
       0.1547949 -0.17462882 -0.08248533 0.10309502
000080 c8 a3 ab bd 4f 76 c1 3b 69 71 22 3d a7 0b 53 bd
       -0.08380848 0.005903996 0.039658938 -0.051524784
000090 d7 60 0d 3c 72 06 0d be 6f 84 fb bd 85 17 77 bc
       0.008629045 -0.1377199 -0.12281119 -0.015081291
0000a0 52 15 e8 3d 6a 4e 45 3e f8 6a 13 be 32 3b d3 3d
       0.113321915 0.19268194 -0.14396274 0.10314025
0000b0 6a 26 a2 3d 97 43 da bb 4d 8c ca 3d 1e 6c ac bd
       0.07917483 -0.0066608894 0.098900415 -0.08419059
0000c0 0d e7 4d be e3 99 14 3e ee 40 1e 3d 38 f4 33 bd
       -0.2010767 0.14511828 0.03863614 -0.043934077
0000d0 57 1f 8e 3d ad f4 09 bd 1d b7 5e 3e fa 24 6e bb
       0.06939571 -0.033680607 0.2174954 -0.0036337958
0000e0 a2 54 52 3e e4 60 85 3d e7 6e 2c be d2 36 58 3c
       0.20540097 0.06512621 -0.16839181 0.013196664
0000f0 1c 8c 73 bd 54 6e c0 bd 7e 8b 37 bd 66 a3 18 be
       -0.05945979 -0.093960434 -0.044810764 -0.14906082
000100 40 a0 f2 bd 7f 88 85 3c 85 fb aa bb 1b 8b c9 bd
       -0.118469715 0.016300438 -0.0052179717 -0.098409854
000110 45 1e 3d 3e 60 0d 17 bd 83 a9 4f 3e 20 75 52 bd
       0.18468578 -0.03687799 0.20279507 -0.05138123
000120 61 be d7 bc 21 62 e8 3d 84 cc 70 3c b1 a8 38 bd
       -0.026335897 0.113468416 0.014697198 -0.04508275
000130 77 c1 80 bd d7 13 36 be f5 66 85 bd b7 cd 81 bc
       -0.062869005 -0.17781006 -0.06513778 -0.015845163
000140 9b 83 85 3d f2 27 a2 bd c2 06 c1 bd 83 af 3b 3e
       0.065192424 -0.07917775 -0.09425117 0.18328671
000150 af a6 cd 3d 14 18 c6 bd fe 48 36 3e 80 3c 08 bc
       0.10041558 -0.09672561 0.17801282 -0.008315206
000160 c5 a7 f7 3d c0 0b 92 3d 82 f6 f6 3b eb 75 3f 3e
       0.120925464 0.071311474 0.0075367102 0.18697326
000170 83 7e 36 3d 6f d2 0d 3e 7a e6 d5 bd 68 fd bd bc
       0.044554245 0.13849805 -0.104443505 -0.023192123
000180 86 ee 2b be f5 3c 1a be 20 13 f4 3d f1 5e 48 be
       -0.16790208 -0.15062316 0.1191771 -0.19567467
000190 62 2d 11 3d dc 58 24 be 7a eb 3c 3e dd 0d bd bd
       0.03544367 -0.16049522 0.18449202 -0.0923116
0001a0 8f c0 d8 b9 2e 2c e1 bb 58 d8 d4 3d 08 ae 1d be
       -0.00041342198 -0.0068717217 0.10392827 -0.15398419
0001b0 a9 12 01 3d 70 ae 31 3d 9a 8c 45 bd 27 47 4b bd
       0.031511936 0.043379247 -0.04822979 -0.049628403
0001c0 ef ef ac 3d bb 8b 1e bd c9 bb 0e bb 7c 43 db bd
       0.08444201 -0.038707476 -0.002177941 -0.10706231
0001d0 01 1c 63 3e 40 cd 36 bd 28 44 45 be 4f 42 9f 3d
       0.22178651 -0.044629335 -0.19264281 0.07776319
0001e0 27 e4 a5 bd 4b 47 84 3d 57 d7 1a bd 7d 27 8a 3d
       -0.08100157 0.064589106 -0.03780302 0.06745813
0001f0 12 b7 56 3e e0 ee 13 be 11 58 cc 3d e1 ff 53 3e
       0.20968273 -0.14446592 0.09977735 0.20703079
000200 8e ae f8 bd 20 5d 0b 3d 20 47 e3 bd ab 52 f2 bb
       -0.12142669 0.034024358 -0.110975504 -0.0073951087
000210 5f 0f bb bd 49 68 23 bd 93 46 67 bd
       -0.09133791 -0.039894376 -0.05646379

encoder.dense3m.bias f4 [3]
000000 eb e3 41 3d 35 f5 0e bd 69 39 c3 3d
       0.0473365 -0.034901816 0.095324345

encoder.dense3s.weight f4 [3, 45]
000000 20 23 e2 bc 8c 3d 45 bd e4 f9 14 3c 33 e3 d7 bd
       -0.02760464 -0.0481544 0.009092782 -0.10541382
000010 74 d6 32 3d 60 36 c2 3d 95 4f d3 bd ff 61 c8 bd
       0.04366155 0.094830275 -0.103179134 -0.09784316
000020 af 6d 32 bb 5d 13 7c 3d ff ab a5 3d ee e8 1c bd
       -0.002722602 0.061541904 0.08089446 -0.038308077
000030 37 8b 9c bd bc 88 a6 3d ec 20 01 bd 2f 96 99 3d
       -0.076437406 0.08131549 -0.031525537 0.07499348
000040 ad f9 ed 3d fa 9e 98 3d 54 83 3d bd e0 53 94 bc
       0.116198875 0.074521974 -0.046267822 -0.018106401
000050 09 9c 29 3d eb 44 b3 3d 20 04 0c 3d 09 57 28 3d
       0.041408572 0.087533794 0.03418362 0.04109863
000060 8e 14 f8 3c a9 ae 41 bd 59 8c 0c 3d 34 ae 8a bd
       0.030283239 -0.04728571 0.034313533 -0.06771508
000070 49 a5 df 3d 30 64 74 bd a5 02 f2 bc c6 8a de bc
       0.109201975 -0.05966586 -0.029542277 -0.027165782
000080 47 ba c8 bc c0 32 cc bd 1a 99 c0 bc af fc 1e bd
       -0.024502886 -0.09970617 -0.023510505 -0.038815197
000090 89 e6 6b 3d 5f 9a 42 3c 1e 75 8b bd d5 f3 63 3d
       0.057592902 0.011877625 -0.06809448 0.05565246
0000a0 70 00 98 bd b6 3c 8a bd b7 ec 40 3d 1b 2c cb 3c
       -0.074219584 -0.06749861 0.04710075 0.024801305
0000b0 a5 8d 96 3d 62 16 09 3e 40 1b b0 3d 67 75 15 be
       0.07351235 0.13387445 0.085989475 -0.14595567
0000c0 f4 0a b8 bd 20 f4 c6 3d f1 d2 91 3d 0f 09 51 bd
       -0.08986464 0.09714532 0.07120312 -0.05103403
0000d0 ab 28 da bd c8 af 3f bc 45 44 aa 3d 49 20 6c 3d
       -0.10652288 -0.011699624 0.08313803 0.057647977
0000e0 ab 15 6a 3a 11 1c df bc 77 ca af 3d 35 59 96 3c
       0.00089296204 -0.027235063 0.08583539 0.018353084
0000f0 83 a3 07 be e9 cc dd bd 23 11 04 3d 28 79 c5 3d
       -0.13245969 -0.10830099 0.032242905 0.09642249
000100 7e ec af bd 52 6e 34 bd 86 90 ed 3c d7 22 c8 bc
       -0.08590029 -0.044050522 0.028999578 -0.024430675
000110 9d 89 02 bd e5 5e 12 3e c3 0b d3 bd 7d 2e 02 bd
       -0.03186952 0.14294012 -0.10304978 -0.031782616
000120 42 45 ac 3d e5 43 ad 3d ec 94 c2 bc b7 5f 85 3d
       0.084116474 0.084602155 -0.023752652 0.06512397
000130 cd f5 96 bd d8 6a 8a bd 7c 90 a2 3d ca a7 9e bd
       -0.073711015 -0.0675866 0.079377145 -0.07746847
000140 8b ea 8f 3d 01 53 07 3e f9 a9 b7 3d e9 ba ef 3c
       0.070271574 0.13215257 0.089679666 0.02926393
000150 de 9f f6 3c 1d ad 67 bc af f0 f4 3d ae ef 06 be
       0.030105527 -0.0141403945 0.11959969 -0.13177368
000160 1e b8 c4 3d f6 df c8 3d f3 10 84 3d b6 9a 9b bd
       0.0960543 0.09808342 0.06448545 -0.07597868
000170 46 fb 66 3d c3 cb 9a bd 2c e8 e6 bc 1e 61 a3 3c
       0.056391977 -0.07558396 -0.02818688 0.01994377
000180 20 5c c2 bd 23 d3 2c 3d 66 b3 19 be 19 80 97 bd
       -0.09490228 0.042193543 -0.15009841 -0.073974796
000190 c6 60 bd bd 54 26 e4 bd f5 45 15 3d 05 0e 55 3d
       -0.09246974 -0.11140123 0.03644367 0.052015323
0001a0 c6 02 3c bd e6 80 40 3c ba 9f 0a be ec 0e b3 bd
       -0.045901082 0.011749482 -0.13537493 -0.087430805
0001b0 be 38 8f bd 29 c0 b7 3d 84 5a e7 bd be 9d 07 be
       -0.069932446 0.089721985 -0.11296561 -0.13243768
0001c0 e3 ce c8 bc c2 48 c3 3d 2a ae b2 3c 25 fc ea 3d
       -0.024512714 0.09535362 0.021811564 0.11473874
0001d0 24 34 b9 3b 3d 0c a9 3c da 63 9a bd 7d ae 8c bd
       0.0056519676 0.020635718 -0.075385764 -0.068692185
0001e0 12 08 1f bd 1f 22 f0 3d 41 0a e7 3d 77 1b bb 3d
       -0.038826056 0.11725258 0.11281253 0.09136098
0001f0 92 f6 e1 3d eb 34 a2 3d 9e 83 21 bd ae f6 f0 bd
       0.11033358 0.079202496 -0.03943216 -0.117658004
000200 6d dd 02 bd 60 76 0b be e5 83 80 bc bf 0a e8 3d
       -0.03194945 -0.13619375 -0.015687892 0.11330175
000210 64 b2 c4 3d 41 3c 08 be 63 5d 65 bd
       0.09604338 -0.13304235 -0.055997264

encoder.dense3s.bias f4 [3]
000000 86 2f d0 bd 40 c2 f6 3d b5 07 72 3d
       -0.101653144 0.12048769 0.05908938

decoder.linear.bias f4 [28]
000000 bd 80 0c 3f 64 2a 69 3e 94 7c c9 be 2d 28 df 3e
       0.5488394 0.22770077 -0.39352858 0.4358534
000010 26 9f 04 3e 88 5c 65 3d 94 11 5f bd 2e 42 1e 3f
       0.12951335 0.055996448 -0.054460123 0.6181973
000020 76 99 b3 bc f1 41 f5 3e 0a 27 ea be 3a 42 d6 3e
       -0.021923762 0.47901872 -0.4573291 0.41847402
000030 45 a8 8f bd f4 32 41 bd 43 58 c5 3a 37 16 d4 3d
       -0.07014517 -0.047167733 0.0015056211 0.103558
000040 ce 87 ea 3d cf 94 49 3e f6 23 3c ba 97 2b a6 3e
       0.11451684 0.19685672 -0.00071769895 0.3245513
000050 bc c2 4e be 46 32 96 3d ce ed 24 3c 8c 6b 83 3d
       -0.20191473 0.07333808 0.010066463 0.06416997
000060 9f ca 01 bd 06 d3 ec be 22 af be be 5e 1e 88 3e
       -0.031687375 -0.46254748 -0.3724299 0.26585668

decoder.linear.weight_orig f4 [28, 3]
000000 45 2e 08 3e 1f 4f a2 be f8 61 04 bf 60 c4 70 3d
       0.132989 -0.3170099 -0.5171199 0.058781028
000010 40 d6 8a 3e 84 52 12 bf 66 cb 75 be a4 47 86 3e
       0.27116585 -0.5715716 -0.24003372 0.26226532
000020 d1 7c 61 bd 48 d5 e8 3e 84 d6 09 bf 0c 11 df 3d
       -0.055050675 0.4547522 -0.5384295 0.10891923
000030 e8 a0 0e 3f 70 fc 12 3d 21 f4 d1 3c db f3 89 be
       0.55714273 0.035885274 0.025629105 -0.2694386
000040 5c 06 57 3e 9f 63 35 3e 5c ec c5 3d 8a 0e 04 3f
       0.2099852 0.17713784 0.096642226 0.51584685
000050 8a 00 90 3d ec 77 42 be 33 3a 8b be b8 c8 31 be
       0.07031353 -0.18991059 -0.2719284 -0.17361724
000060 e2 1e 0e 3f 88 fa b0 3e 9a ed c9 be 41 ba 99 3e
       0.55515873 0.3456614 -0.39439088 0.30024913
000070 de 86 00 3f fe 1d a4 3e 33 ba 01 3e 66 c6 3b be
       0.5020579 0.32054132 0.12668686 -0.18337402
000080 e8 dc 22 3e df 98 c4 3e 96 84 d0 3e 98 fb a9 3e
       0.15904582 0.3839788 0.40726155 0.33199763
000090 3c 27 f2 3d a2 f9 01 3f 4c bd 8a 3e 07 5c 23 3e
       0.118238896 0.50771534 0.27097547 0.15953074
0000a0 dc aa 7c 3e 3e 92 56 be 66 11 09 3f 84 20 9a 3e
       0.24674553 -0.20954224 0.5354217 0.30102932
0000b0 21 12 7f 3e 23 9e a5 3d e4 6d 8a 3e 7e 46 fd 3e
       0.2490926 0.08086803 0.27036965 0.49467844
0000c0 70 6f 79 3d f2 c2 d9 3e e4 d4 e5 be e0 25 e0 3d
       0.06089729 0.42531544 -0.44888985 0.10944724
0000d0 0c b7 0e 3f 90 ec 34 bd c2 5c 01 be c8 40 ca be
       0.5574806 -0.044170916 -0.1263304 -0.3950255
0000e0 84 2f e6 be 3b 30 d4 3e e2 b7 d0 be c4 0d a1 3e
       -0.44958127 0.41443047 -0.4076529 0.31455815
0000f0 fb 9e 9c be 68 d9 9f be 3f 57 46 be 28 27 01 3f
       -0.30590042 -0.31220555 -0.19369219 0.5045037
000100 26 8e 0b 3f 0e 86 9c be 68 74 87 be 2d dc e9 3e
       0.54513776 -0.30571026 -0.26455998 0.45675793
000110 b0 12 7b 3d cc 18 da bd 7b e9 eb bd 22 4e ca 3e
       0.06129712 -0.10649261 -0.11519142 0.39512736
000120 21 d7 4d 3e ec 75 8a be 98 18 d8 3d 04 c5 fe bd
       0.20101596 -0.27043092 0.10551566 -0.124399215
000130 7c 24 fe bd fe dd d5 bd 24 48 59 be 4c 01 b9 be
       -0.124093026 -0.10442732 -0.21218926 -0.36133802
000140 0a 60 d3 3e 3a 43 ce be e2 b7 07 bf 22 db 13 be
       0.4128421 -0.40285665 -0.5301496 -0.14439061

decoder.linear.weight_mask f4 [28, 3]
000000 00 00 80 3f 00 00 00 00 00 00 00 00 00 00 00 00
       1.0 0.0 0.0 0.0
000010 00 00 80 3f 00 00 00 00 00 00 80 3f 00 00 00 00
       1.0 0.0 1.0 0.0
000020 00 00 80 3f 00 00 00 00 00 00 00 00 00 00 80 3f
       1.0 0.0 0.0 1.0
000030 00 00 00 00 00 00 00 00 00 00 80 3f 00 00 00 00
       0.0 0.0 1.0 0.0
000040 00 00 00 00 00 00 80 3f 00 00 80 3f 00 00 00 00
       0.0 1.0 1.0 0.0
000050 00 00 80 3f 00 00 00 00 00 00 80 3f 00 00 00 00
       1.0 0.0 1.0 0.0
000060 00 00 00 00 00 00 00 00 00 00 80 3f 00 00 80 3f
       0.0 0.0 1.0 1.0
000070 00 00 00 00 00 00 00 00 00 00 80 3f 00 00 00 00
       0.0 0.0 1.0 0.0
000080 00 00 80 3f 00 00 80 3f 00 00 00 00 00 00 80 3f
       1.0 1.0 0.0 1.0
000090 00 00 80 3f 00 00 00 00 00 00 00 00 00 00 80 3f
       1.0 0.0 0.0 1.0
0000a0 00 00 00 00 00 00 00 00 00 00 00 00 00 00 00 00
       0.0 0.0 0.0 0.0
0000b0 00 00 80 3f 00 00 80 3f 00 00 00 00 00 00 80 3f
       1.0 1.0 0.0 1.0
0000c0 00 00 00 00 00 00 80 3f 00 00 80 3f 00 00 00 00
       0.0 1.0 1.0 0.0
0000d0 00 00 00 00 00 00 80 3f 00 00 00 00 00 00 00 00
       0.0 1.0 0.0 0.0
0000e0 00 00 80 3f 00 00 80 3f 00 00 00 00 00 00 80 3f
       1.0 1.0 0.0 1.0
0000f0 00 00 80 3f 00 00 00 00 00 00 80 3f 00 00 00 00
       1.0 0.0 1.0 0.0
000100 00 00 00 00 00 00 80 3f 00 00 00 00 00 00 80 3f
       0.0 1.0 0.0 1.0
000110 00 00 00 00 00 00 00 00 00 00 80 3f 00 00 00 00
       0.0 0.0 1.0 0.0
000120 00 00 80 3f 00 00 00 00 00 00 00 00 00 00 00 00
       1.0 0.0 0.0 0.0
000130 00 00 00 00 00 00 80 3f 00 00 80 3f 00 00 00 00
       0.0 1.0 1.0 0.0
000140 00 00 00 00 00 00 00 00 00 00 00 00 00 00 80 3f
       0.0 0.0 0.0 1.0

exp_avg f4 [45, 28]
000000 8a e6 c2 3a 07 ff a0 3a b0 f8 5c 3a 91 a7 4f ba
       0.0014869731 0.0012283035 0.00084293913 -0.00079213927
000010 f6 a8 08 b8 64 da 35 b9 10 9d ae 3a 1d bc 9d 3a
       -3.2582284e-05 -0.00017342862 0.0013321955 0.0012034212
000020 56 e0 92 39 4a 4e 53 ba 2a 4f f6 39 c5 df 6d 39
       0.00028014433 -0.0008060677 0.00046979758 0.00022685442
000030 04 47 54 b9 48 f5 05 3a 16 ef 63 3a 78 85 31 3a
       -0.00020244351 0.0005110097 0.00086949894 0.00067719026
000040 27 62 e3 3a 94 cf ba 3a 00 d1 85 b8 ff 10 08 ba
       0.0017347977 0.0014252537 -6.3808635e-05 -0.0005190521
000050 da fa 40 b9 0b 74 ba b8 27 bd 9c 3a d9 30 55 3a
       -0.00018403996 -8.890786e-05 0.0011958227 0.0008132584
000060 be 4a de 39 bc ce 90 39 5b 1e 9a 3a 0f 0d 8f 39
       0.00042398827 0.0002761985 0.0011758314 0.00027284815
000070 bc b2 15 bb f8 bb 81 bb a8 07 a3 b9 f9 59 8b bb
       -0.002284213 -0.003959175 -0.00031095487 -0.004252669
000080 4a 09 22 bb 00 aa 80 ba 90 84 1d bb 0c 94 58 b9
       -0.0024724775 -0.0009816289 -0.0024035312 -0.00020654517
000090 a4 97 45 3b 93 e9 35 bb 4b 1a 74 ba 1a e9 21 bc
       0.00301502 -0.002775763 -0.0009311779 -0.009882236
0000a0 28 91 33 bb f7 2a b7 39 0c f3 50 bb 55 cc e7 bb
       -0.0027399752 0.0003493649 -0.0031883148 -0.007073919
0000b0 bc c9 9c 39 ca 59 9b 39 9d 38 67 3b a4 5f 35 bc
       0.00029904942 0.00029630802 0.0035281547 -0.011070166
0000c0 ae 76 5f 3b be 1a 1c 3b 3d 5c 8c bb c5 89 58 38
       0.0034097838 0.002381965 -0.0042834566 5.162672e-05
0000d0 4b 2f 6f bb 58 70 8b 39 18 49 8f 3b 83 16 e3 39
       -0.0036496695 0.0002659585 0.004372727 0.00043313587
0000e0 71 d8 52 bb a7 6c 70 3a 01 bf ae b9 4e 53 76 b9
       -0.0032172466 0.0009171464 -0.00033330175 -0.00023491422
0000f0 8e 96 73 3b a9 5f 21 3a b5 40 34 3a 1b 9d ed ba
       0.0037168595 0.0006155917 0.0006876097 -0.0018128486
000100 c7 57 45 3a c0 3c 51 3a 3b 39 93 ba c5 8f 49 bb
       0.00075280335 0.000798177 -0.0011232266 -0.003075586
000110 9f ff a2 3a a0 6e 8e ba 23 20 ab ba d4 e4 bc ba
       0.00124358 -0.0010866709 -0.0013055842 -0.0014411458
000120 0c 7b ae b9 36 36 3a 3a eb 9a 65 3b 2f 84 02 bb
       -0.00033279543 0.0007103415 0.0035034965 -0.0019915213
000130 42 19 c1 3a e5 45 db 39 43 dc af 3a ad 34 3e ba
       0.0014732259 0.0004182301 0.0013417084 -0.0007255774
000140 74 e7 e3 ba 7d 02 ce ba 9a cc 24 ba 6c 13 9b b8
       -0.0017387704 -0.0015717294 -0.00062865915 -7.3945936e-05
000150 4c bf 98 bb 78 e2 07 3b 63 6b 85 bb 19 01 19 39
       -0.0046614762 0.002073435 -0.0040716394 0.00014591626
000160 79 ea c6 39 14 f4 68 3a 10 ab 70 b7 c2 73 7a bb
       0.000379402 0.0008886468 -1.4344943e-05 -0.003821597
000170 a2 a3 f8 3a 5a 18 c9 3a f9 92 3e bb e8 b2 9c bb
       0.0018969665 0.001534234 -0.0029079302 -0.0047820695
000180 12 76 1b 3b e0 b4 33 3a 41 45 43 bb 7f fd b2 bb
       0.0023721498 0.00068552606 -0.0029795917 -0.005462348
000190 88 2b a7 3b 92 48 fd b9 32 c2 d3 3b 63 10 a0 bb
       0.005101625 -0.0004830999 0.006462359 -0.004884766
0001a0 c2 9f a9 3a ab 03 bb 38 9b de c7 3b f5 35 9d ba
       0.0012941288 8.917538e-05 0.0060995347 -0.001199423
0001b0 e2 a7 74 ba 95 39 a8 ba 9c 38 1b b9 b0 17 a0 b9
       -0.0009332878 -0.0012834544 -0.0001480304 -0.00030535227
0001c0 4a 68 91 3b a9 3a 38 bb b1 05 3c 3a 34 36 b7 3a
       0.004437481 -0.0028111136 0.0007172479 0.0013977946
0001d0 cc 4e 84 bb 74 91 dd ba a1 f0 5c ba 44 4e fd 3a
       -0.0040377136 -0.001690431 -0.00084281905 0.0019325693
0001e0 56 d6 13 ba ba 1e ae 3a 7f aa 1e 3b 3e ac 01 3c
       -0.00056395435 0.0013284304 0.002421051 0.007914601
0001f0 00 18 f5 b8 4a 3f 9b 3a e3 0b 04 3b 2a e8 83 3b
       -0.00011686981 0.0011844423 0.0020148687 0.004025479
000200 84 0b 0a bb 47 24 e0 ba 46 bf b3 bb d1 8f 1c 3c
       -0.0021063993 -0.0017100655 -0.005485448 0.009555773
000210 08 e8 4f bb 22 fa 24 ba 62 32 99 bb 63 44 18 3a
       -0.0031723995 -0.0006293376 -0.0046751956 0.000580853
000220 5d f4 5e 3b 6e 78 37 3b fa a9 34 bb e1 ec 2a b9
       0.0034020164 0.0027995366 -0.0027567134 -0.00016300708
000230 9b 6f fb 3a e0 87 99 ba 32 14 c1 39 50 ff 77 ba
       0.0019183041 -0.0011713468 0.00036826875 -0.0009460347
000240 95 75 85 ba cd 99 a2 ba 5a 21 80 39 ec 48 a5 39
       -0.0010182137 -0.0012405455 0.0002443891 0.00031525583
000250 55 01 6c 39 27 ba fa 39 b1 26 3e 3a 5b 7b 00 3b
       0.0002250721 0.0004782241 0.000725369 0.0019604776
000260 46 bf 2c 3a 2e 1f d6 38 16 8f 0b 3a 54 63 e5 3a
       0.0006589781 0.00010210123 0.00053237507 0.0017500916
000270 d4 c6 68 3a 2b f4 3a ba b8 06 1d bb eb 9f 73 3b
       0.00088797254 -0.0007131721 -0.0023960304 0.0037174176
000280 23 29 2b ba ac 77 ca b9 bb d9 0c bb 5e 9f 82 b9
       -0.0006529262 -0.00038617605 -0.0021492082 -0.0002491427
000290 c8 b7 fb 39 d4 a4 71 3a 74 40 08 bb de f9 86 b9
       0.00048011378 0.0009217982 -0.002079037 -0.00025744637
0002a0 f1 92 85 b8 7a 0c 67 3b 10 2b 47 ba c2 8d 87 3b
       -6.369304e-05 0.003525524 -0.00075976644 0.004136772
0002b0 1a c3 09 ba a9 0c 48 3b 83 34 91 ba ab cd 0b ba
       -0.00052552077 0.0030525124 -0.0011078272 -0.0005333076
0002c0 bb 3f d9 bb 65 aa 86 ba 89 f4 6c ba 57 dc 6e 3b
       -0.0066299117 -0.001027417 -0.0009039124 0.003644725
0002d0 02 ad e2 ba 22 5d 70 b9 5d c0 b3 3a 7c 48 44 3b
       -0.0017293992 -0.00022922878 0.0013713945 0.002995043
0002e0 57 3a 82 bb e8 d7 03 bb 90 19 8d bb 34 8a df b8
       -0.00397424 -0.0020117704 -0.004306026 -0.00010659211
0002f0 78 62 ec ba 23 55 1b bb 9b b8 c1 3b 86 28 ca b8
       -0.0018034717 -0.0023701868 0.0059118993 -9.639659e-05
000300 c3 84 f8 3a 1c 4f 0b bb b2 22 e4 3a df 8e 19 ba
       0.0018960465 -0.002125687 0.001740536 -0.0005857776
000310 2d 18 a1 39 ea cc 85 b8 6e 2f 00 3b b9 8d c7 3a
       0.00030726325 -6.3801024e-05 0.001955952 0.0015224732
000320 1a 79 2d 3a 3e b5 59 3a a4 ba 4d ba 54 80 90 3a
       0.0006617472 0.00083049 -0.0007847941 0.0011024573
000330 f5 53 87 bb 86 c6 bc ba 98 b2 22 3a 45 7e 31 3b
       -0.0041298815 -0.0014402426 0.0006206422 0.002708332
000340 8b 64 50 bb dd 68 e3 ba ed 86 c6 3a bd eb 30 3b
       -0.003179821 -0.0017349977 0.0015146412 0.002699598
000350 03 b3 f7 bb e8 4e 7b b7 e4 82 6d bb d9 52 54 3a
       -0.0075591817 -1.4979138e-05 -0.0036241347 0.00080995035
000360 27 a9 0a bb 9b 95 68 ba cc 81 df ba c9 6e 45 3a
       -0.0021157952 -0.00088723906 -0.0017052232 0.0007531462
000370 31 36 20 3a eb fe 89 ba 92 7d 99 3a bc 0a 72 39
       0.0006111591 -0.0010528242 0.0011710397 0.00023082917
000380 18 14 bf ba b2 e0 7e ba b6 07 6c bb e7 0e e4 3a
       -0.0014578132 -0.0009722813 -0.0036015338 0.0017399461
000390 4a 7c ec ba 81 6b 5f 39 0a b9 c0 ba f6 15 e3 ba
       -0.0018042412 0.00021306986 -0.0014703583 -0.001732527
0003a0 55 e4 96 3b 72 a8 60 3b d2 ef 35 ba 8f b3 20 ba
       0.004604856 0.0034280089 -0.0006940338 -0.0006130272
0003b0 91 49 6a 3b 63 b2 51 3b d6 e2 26 bb 74 15 87 bb
       0.0035749415 0.0031997196 -0.0025464795 -0.0041224305
0003c0 10 c2 a7 3b 03 2d ca ba 7e d4 a1 3b 6f 5c d6 39
       0.0051195696 -0.0015424791 0.004938661 0.0004088613
0003d0 37 7a 15 3b 05 27 e0 3a 92 d7 be 3a b4 ae 80 ba
       0.0022808441 0.0017101472 0.0014560095 -0.0009817691
0003e0 8f b6 4c 3a 88 0b e5 3a 8f ee 04 ba b4 c1 02 b9
       0.0007809186 0.001747475 -0.00050709484 -0.00012469926
0003f0 f3 ca 1b 3b 6c 00 4c bb 72 d3 06 3b d5 e4 9b 38
       0.002377209 -0.003112818 0.0020572809 7.433599e-05

exp_avg_sq f4 [45, 28]
000000 fb e8 ed 37 ec 1e ab 37 8b e0 3e 37 dd 8f ad 37
       2.8361092e-05 2.0399188e-05 1.1377163e-05 2.0690199e-05
000010 fa 5f bd 37 fb f3 b4 36 d1 27 46 37 19 f7 e7 37
       2.2575248e-05 5.392821e-06 1.181099e-05 2.765241e-05
000020 22 72 9f 37 7f ff 6d 36 51 d4 55 37 79 5e 00 38
       1.9007424e-05 3.546447e-06 1.2745223e-05 3.0605563e-05
000030 47 7e 1c 37 56 bc 98 37 cf 22 42 37 2b 23 8c 37
       9.327726e-06 1.8207513e-05 1.1571406e-05 1.6705677e-05
000040 ea 86 aa 37 bc f4 ae 37 4e f8 7c 37 fa f5 5c 37
       2.0328403e-05 2.085638e-05 1.5078183e-05 1.3170293e-05
000050 28 5d 26 37 db bf eb 36 4f d1 bf 37 04 65 31 37
       9.916061e-06 7.0258807e-06 2.2866441e-05 1.0573542e-05
000060 16 24 51 37 b3 12 12 37 12 d7 d2 37 d3 c3 27 36
       1.2465773e-05 8.706632e-06 2.51341e-05 2.4998924e-06
000070 5c 44 c9 35 7d 3e a6 35 9a bf be 35 bb 29 2d 36
       1.4995562e-06 1.238615e-06 1.4211867e-06 2.58033e-06
000080 2a a4 0e 36 98 e8 37 35 99 e1 e5 36 4d 3f c7 35
       2.1255205e-06 6.851128e-07 6.850995e-06 1.4845078e-06
000090 34 63 45 36 a7 ed ca 36 12 3f bf 36 c4 c9 93 37
       2.9413031e-06 6.0477355e-06 5.699586e-06 1.761772e-05
0000a0 ce 73 be 36 bf c1 0f 36 1d 1d 19 36 6e 87 8f 37
       5.6759227e-06 2.1421436e-06 2.2815723e-06 1.7109993e-05
0000b0 9d 51 f7 35 94 8a f1 35 d7 8a 4e 36 14 9b f7 37
       1.8426687e-06 1.7996231e-06 3.0777207e-06 2.9516908e-05
0000c0 5a 61 01 36 a3 d9 d9 35 92 06 b6 35 6c 6d ea 35
       1.9279164e-06 1.62311e-06 1.3561969e-06 1.7466205e-06
0000d0 ec 4e ba 36 e2 8a cd 34 80 a4 20 36 57 bf 8d 34
       5.5524197e-06 3.8285276e-07 2.393761e-06 2.6402515e-07
0000e0 74 d5 a3 37 0e 0a bd 36 6b 37 df 35 5f 85 56 36
       1.9530511e-05 5.6338095e-06 1.6630923e-06 3.1966117e-06
0000f0 74 08 c4 36 84 ba 78 35 c2 b7 4b 36 ac 8f 8b 37
       5.8422393e-06 9.2658615e-07 3.0356318e-06 1.6636994e-05
000100 22 ae b3 36 be 0d 8a 35 59 49 92 36 9a ee 1e 37
       5.3548874e-06 1.0285801e-06 4.359678e-06 9.473088e-06
000110 18 2c 20 36 1c 00 ec 36 2c 31 97 35 a6 2a 70 36
       2.3867524e-06 7.033361e-06 1.1264688e-06 3.5787612e-06
000120 35 e3 a7 36 bc 71 53 36 3d be 4e 37 99 dc 86 36
       5.003438e-06 3.1507652e-06 1.232285e-05 4.019192e-06
000130 c9 8b c5 36 99 30 44 36 f3 41 b5 36 59 fb 93 36
       5.8873306e-06 2.9234563e-06 5.401898e-06 4.410202e-06
000140 2d 6b 14 37 ee b7 84 35 64 b0 04 37 46 7e 12 35
       8.846441e-06 9.888297e-07 7.908882e-06 5.457299e-07
000150 9f 91 88 38 5c 3d 0f 38 8b 05 9b 37 22 62 5e 38
       6.5121094e-05 3.4151002e-05 1.8480021e-05 5.3020318e-05
000160 5a 9e 80 38 db e8 04 37 dd 35 ae 37 26 a5 9b 38
       6.133011e-05 7.922029e-06 2.0767498e-05 7.421737e-05
000170 1f 40 14 38 bb 8f 7a 37 33 93 23 38 03 3a af 38
       3.5345667e-05 1.4934626e-05 3.899932e-05 8.355456e-05
000180 5b eb 0b 38 7a 29 38 38 af 36 b6 37 b5 7d 6c 38
       3.3359374e-05 4.3907647e-05 2.1721555e-05 5.638386e-05
000190 81 eb 06 38 62 71 27 38 4b 85 11 38 d3 c2 60 38
       3.216742e-05 3.99215e-05 3.4694833e-05 5.3587206e-05
0001a0 df 33 a1 37 ab 6b 0d 37 cd 7a 1a 38 86 9e a0 37
       1.921685e-05 8.429323e-06 3.683083e-05 1.9147305e-05
0001b0 c5 a7 35 38 55 08 2d 37 12 ec 8d 38 da 07 95 36
       4.331001e-05 1.03135435e-05 6.7673755e-05 4.44146e-06
0001c0 a3 e6 e8 37 7a 2e 46 37 4b ec 38 36 04 ea 10 37
       2.7763954e-05 1.1812541e-05 2.7555677e-06 8.637555e-06
0001d0 94 78 2d 37 d3 52 e3 35 c4 34 2a 36 0a 4a c5 37
       1.0339678e-05 1.6936923e-06 2.5362688e-06 2.3518707e-05
0001e0 f2 e1 e2 36 78 5c 31 36 a0 7f 1d 37 05 03 bc 37
       6.7616284e-06 2.642888e-06 9.387644e-06 2.2412753e-05
0001f0 37 37 89 36 df a5 5e 37 06 9a 69 36 3b 3c 15 37
       4.089346e-06 1.3270851e-05 3.480936e-06 8.895116e-06
000200 3d e6 08 37 d7 f6 d7 36 64 fe 17 37 fd de 93 37
       8.159838e-06 6.4362353e-06 9.059531e-06 1.7627603e-05
000210 36 f8 aa 36 bd 98 0c 36 48 0c 5e 37 de 07 ee 36
       5.0952904e-06 2.095053e-06 1.3235091e-05 7.0938686e-06
000220 05 dc 6b 37 5f bf 2a 36 c2 30 71 37 2d 7b 74 35
       1.4058319e-05 2.5443367e-06 1.4376072e-05 9.107633e-07
000230 c1 a7 24 38 9a d2 d6 37 e6 9b 6b 37 2c ab 09 38
       3.925688e-05 2.5608857e-05 1.40433895e-05 3.282276e-05
000240 0e 11 24 38 03 85 d1 36 0c d2 5b 37 2e f5 3e 38
       3.911653e-05 6.24417e-06 1.3102323e-05 4.552787e-05
000250 39 fe 04 38 c2 e6 a9 36 6b a2 8d 37 9e 61 25 38
       3.1708016e-05 5.0634562e-06 1.6884142e-05 3.942998e-05
000260 1b cc 78 37 6a 0e c8 37 38 80 86 37 41 1a b7 37
       1.4829474e-05 2.384857e-05 1.6033751e-05 2.1827525e-05
000270 8e 1f cc 37 a8 76 f0 37 99 db d7 37 8f b9 98 37
       2.4333389e-05 2.8665483e-05 2.5732255e-05 1.820622e-05
000280 71 2e 79 37 5c 5c 24 37 bb 2e d2 37 ba f2 72 37
       1.48523695e-05 9.796666e-06 2.5055711e-05 1.4480838e-05
000290 67 a5 8a 37 72 aa 2e 37 15 fe 10 38 f8 14 6a 36
       1.6527903e-05 1.0410893e-05 3.4568908e-05 3.4880923e-06
0002a0 92 72 05 38 67 e8 ab 37 2a 3d 9a 37 2e 0e 11 38
       3.1816373e-05 2.049301e-05 1.8386712e-05 3.45839e-05
0002b0 4d 5b 32 38 64 42 15 37 23 c7 b3 37 8e e4 12 38
       4.2523538e-05 8.89655e-06 2.1431193e-05 3.502197e-05
0002c0 f9 25 4d 38 3a 2e 00 37 d6 a9 a4 37 9f ce 3f 38
       4.8911174e-05 7.6401575e-06 1.962941e-05 4.573038e-05
0002d0 d0 9b a3 37 31 65 c4 37 21 a5 a1 37 38 6c f7 37
       1.950367e-05 2.3412142e-05 1.926959e-05 2.9495088e-05
0002e0 ab 67 06 38 1b 93 12 38 4c d8 2e 38 a9 05 dd 37
       3.2044638e-05 3.4946115e-05 4.1686275e-05 2.6347889e-05
0002f0 28 c5 aa 37 6e fb 83 37 37 4b b1 37 d1 7e 3c 37
       2.0357387e-05 1.5733498e-05 2.1135069e-05 1.12352e-05
000300 0a db 93 37 c4 47 64 37 77 f3 02 38 31 8a 8d 36
       1.7625764e-05 1.3606568e-05 3.122116e-05 4.218215e-06
000310 72 1f ec 36 c0 87 0f 37 e2 20 e5 35 c4 f6 8f 36
       7.037009e-06 8.555071e-06 1.70714e-06 4.2904594e-06
000320 f1 17 a0 36 f3 9b 75 35 ee b2 a8 35 e3 ac c6 36
       4.7711587e-06 9.149655e-07 1.2569051e-06 5.9209865e-06
000330 a5 ce 05 37 76 c9 18 35 f8 30 17 36 a4 f3 bf 36
       7.975531e-06 5.6917577e-07 2.2529257e-06 5.720607e-06
000340 36 8f 31 36 cd 38 8f 36 cb 92 0c 36 0d e4 7f 36
       2.6458415e-06 4.2683446e-06 2.094707e-06 3.8130704e-06
000350 ae ef d1 37 8b 9c 54 36 18 4f be 36 0d 9c f7 35
       2.5026351e-05 3.1681582e-06 5.671649e-06 1.8448351e-06
000360 99 ef 38 36 6d 28 08 36 d4 13 7a 37 6a 18 47 36
       2.75576e-06 2.028911e-06 1.4905778e-05 2.9667522e-06
000370 38 58 1c 36 c3 a4 d1 35 a4 a0 a0 36 10 c8 03 35
       2.3297162e-06 1.5619665e-06 4.7870726e-06 4.909243e-07
000380 ef 9b 04 39 d8 14 aa 38 64 63 98 38 42 91 13 39
       0.00012646591 8.110114e-05 7.266438e-05 0.00014073125
000390 7d cf 2e 39 86 2a 00 38 fc 15 93 38 12 b0 22 39
       0.00016671229 3.055718e-05 7.013601e-05 0.00015515115
0003a0 a9 2a f1 38 df 5b c2 37 0b b3 a5 38 49 f7 40 39
       0.000114997216 2.3169383e-05 7.9011625e-05 0.00018402668
0003b0 f6 a4 79 38 49 5d a8 38 48 d6 ab 38 68 f2 ed 38
       5.9519858e-05 8.02824e-05 8.1938284e-05 0.00011346192
0003c0 80 7b a5 38 9f 15 0e 39 84 b3 e3 38 5f e7 af 38
       7.890817e-05 0.0001355023 0.00010857641 8.3877465e-05
0003d0 a3 62 86 38 b2 c2 1b 38 62 c2 b3 38 73 16 30 38
       6.4079904e-05 3.7136204e-05 8.571592e-05 4.1982577e-05
0003e0 ad c7 a1 38 5c 6f 3e 38 14 53 0e 39 f6 5b 71 37
       7.714271e-05 4.540324e-05 0.00013573124 1.4386131e-05
0003f0 c3 a3 9c 36 42 00 40 36 06 1c 1c 35 4b 0b 43 36
       4.6682267e-06 2.861038e-06 5.815531e-07 2.9063838e-06

exp_avg f4 [45]
000000 0d 05 2f 3b 5e 85 89 3b 42 19 2b 3a 07 07 42 bb
       0.0026705891 0.004196807 0.0006526896 -0.002960624
000010 b0 34 af bb e6 26 08 bb ff fd aa 39 a4 bc 08 3b
       -0.005346857 -0.0020775138 0.0003261417 0.0020864392
000020 b9 a7 b2 bb 47 d3 58 39 ed a3 08 bb f7 c3 26 3b
       -0.005452123 0.00020678072 -0.002084966 0.0025446394
000030 a0 c0 ec ba af 5e 20 3b 6b af 5c ba 60 71 b4 ba
       -0.0018062778 0.0024470498 -0.00084184733 -0.0013766699
000040 50 33 17 b8 06 ea 00 bc d3 55 a7 ba 76 24 32 bc
       -3.6048994e-05 -0.007868296 -0.0012766666 -0.010872951
000050 2b 83 67 bb be 42 cd ba fc 5d dd bb 67 80 0f 3c
       -0.0035325985 -0.001566015 -0.0067555886 0.008758641
000060 49 46 a6 bb 35 a6 48 39 9f 1f c3 bb 50 98 78 bb
       -0.0050742966 0.00019135403 -0.0059546973 -0.0037932582
000070 3e db 9f 3b f8 c1 0a bc c5 78 95 bb 68 35 54 3b
       0.0048784306 -0.008469097 -0.004561516 0.0032380465
000080 91 b9 ce bb 1c b3 bd 3a ba 55 27 3a 8e 21 88 b9
       -0.0063087423 0.0014472934 0.00063833187 -0.00025964942
000090 02 5e 97 39 ad ed dd bb 2a 76 81 bb 8c 73 a4 39
       0.00028871006 -0.006772718 -0.003950854 0.00031366607
0000a0 9b 87 13 3b 2a 32 48 3c 8e d8 19 bc cb 56 83 3b
       0.0022511247 0.012218991 -0.00939001 0.0040081493
0000b0 e7 fb ad 3b
       0.00530957

exp_avg_sq f4 [45]
000000 aa 64 56 38 1f a6 80 36 be 8f 1e 37 95 44 fd 38
       5.1115327e-05 3.8340363e-06 9.4510015e-06 0.000120767545
000010 7c 56 cd 37 ae 8f a2 38 9e bb 8f 38 e4 26 26 37
       2.4478177e-05 7.7515244e-05 6.853718e-05 9.903426e-06
000020 54 67 98 39 9f bf 0b 37 b7 37 d4 36 02 10 ed 37
       0.00029068685 8.329661e-06 6.3245784e-06 2.8260056e-05
000030 1c 33 7a 36 0c 21 2b 39 84 fd 19 38 f4 6f 80 38
       3.7282653e-06 0.00016320142 3.6714147e-05 6.1243685e-05
000040 c3 aa eb 38 e9 89 09 38 c3 f2 32 36 9c 83 34 37
       0.0001123748 3.2791784e-05 2.6665373e-06 1.0759479e-05
000050 88 2f 0d 39 09 16 b1 38 b8 fa 2b 38 75 c0 9a 38
       0.00013464515 8.444122e-05 4.1003077e-05 7.37914e-05
000060 38 e7 14 38 9b 99 7c 37 6e 9c 99 37 1b e4 ae 36
       3.550129e-05 1.50561345e-05 1.8311865e-05 5.212159e-06
000070 0f c3 89 37 de 3f ca 38 d3 a9 4f 36 e8 08 2b 36
       1.6422504e-05 9.644007e-05 3.0944254e-06 2.548617e-06
000080 72 6c 2d 37 ef 95 0f 39 6b 27 25 36 af b4 50 39
       1.0336853e-05 0.00013693397 2.460986e-06 0.00019903736
000090 89 8d 49 38 99 1e 4e 36 af 37 1d 37 01 c2 4c 38
       4.805395e-05 3.0714202e-06 9.370894e-06 4.881807e-05
0000a0 5b ad 33 36 1c 5a 0b 3a 75 6d 92 37 c4 a5 dd 36
       2.6773985e-06 0.00053158565 1.7455526e-05 6.605611e-06
0000b0 70 d6 f7 38
       0.0001181782

exp_avg f4 [3, 45]
000000 d6 8c 9f bb 59 be c4 bb ae 1c a4 3b cf cf c1 3b
       -0.004869084 -0.0060041365 0.0050083017 0.0059146653
000010 a8 d1 de 3b 62 cc 84 3c a3 28 56 3a 12 37 89 bb
       0.0067998953 0.016210739 0.00081695075 -0.004187473
000020 92 66 e1 ba 3e 9e 70 3c 9e 3e 9a bb ad b7 cb 3b
       -0.0017196706 0.014686165 -0.0047071716 0.006216964
000030 7c f0 25 3b fc a4 5c bc ba d1 fe bb ce 8e 1a bc
       0.0025320342 -0.01346707 -0.007776466 -0.009433461
000040 fb a3 5b 3b f0 6f 9e 3c d6 a1 2e bb fc b8 2b 3c
       0.0033514488 0.019340485 -0.0026646755 0.010481115
000050 ec 8f 2f bb 22 f2 1f bc 6e 99 18 bb 01 54 49 bc
       -0.0026788665 -0.009762319 -0.002328481 -0.0122880945
000060 5f 2b fb 3b 49 07 b5 bb 32 3a fa bb 54 68 2e ba
       0.0076650823 -0.00552455 -0.007636332 -0.00066531193
000070 e8 4e c9 bb 6b 9c fe 3b 0a 5e 17 3c 16 6d 38 bc
       -0.0061434396 0.0077701113 0.009238729 -0.011256477
000080 8c 14 24 3b f6 65 ff 39 fe 8e 2d bb 04 a0 40 3c
       0.002503666 0.00048713357 -0.0026482935 0.011756901
000090 da f9 b9 bb cc 3a b8 3b ca 6e 5e 3b 6c 25 72 3c
       -0.0056755366 0.0056222435 0.0033940547 0.01477943
0000a0 2c 51 02 bc db c8 af bc 6c 9d 87 3c 63 1b 24 bc
       -0.007953923 -0.02145808 0.016554557 -0.010016295
0000b0 e3 cf 6e 3c 57 95 07 bb 9d 2d 2c bb 00 75 bb bb
       0.014575931 -0.0020688379 -0.0026272305 -0.0057207346
0000c0 9c 53 89 3b c8 5f e7 3a 7a bd 64 3a c4 66 ca 3b
       0.004190875 0.0017652446 0.0008725744 0.0061768014
0000d0 8f bd a6 3a 51 ed 7d bb 36 3c f9 bb 25 39 99 bb
       0.0012721288 -0.0038746188 -0.0076060547 -0.0046760016
0000e0 6f bc 95 bb c5 f0 53 ba c3 51 41 3b b0 ae 87 bc
       -0.004569582 -0.00080848887 0.0029498197 -0.01656279
0000f0 c3 2b 22 ba a2 f2 f5 3b 0c c7 ce 38 cf c6 16 3c
       -0.00061863306 0.0075057307 9.859921e-05 0.009202673
000100 b0 3d 94 3b a2 a1 2f 3c 8c b9 e1 bb 1c a4 16 ba
       0.0045239553 0.010719689 -0.006888574 -0.00057465
000110 49 5a 58 bb 2f 6f e2 3a cd 10 01 bc 9c 04 db 3b
       -0.0033012799 0.0017275567 -0.007877541 0.006683899
000120 5d c7 08 3c 98 52 e0 bb 3a 40 88 bb cf e4 29 3c
       0.008348313 -0.0068457834 -0.004158047 0.010369494
000130 29 8c e4 3a ef 60 8b 3b 0d b3 c5 bb 2d cf f5 ba
       0.001743679 0.0042534987 -0.0060333074 -0.001875376
000140 4c 5a d5 3b 10 f2 9a bb 9a b2 8e 3c c3 4e 3d bc
       0.0065110084 -0.004728563 0.017419148 -0.011554423
000150 96 42 a0 bb 2c 5a d6 ba ce 75 f6 bb 80 54 e9 3b
       -0.00489075 -0.0016353778 -0.0075213676 0.007120669
000160 fd 77 0d bc ee 42 dd 3a 8f c5 21 3b 97 41 84 bc
       -0.0086345645 0.0016880909 0.0024684404 -0.016144557
000170 cd 45 b6 3b e8 48 55 ba e2 f0 bf 3b 7b 16 a1 3c
       0.00556252 -0.0008136169 0.005857573 0.01966404
000180 8c a0 9e 3b f1 f2 a3 3b 41 e1 07 bc 18 27 8d 3c
       0.004840916 0.005003326 -0.008293451 0.017230555
000190 70 4e 11 bc f9 16 1a 3c 86 bb 2f bc ca 2b ac bb
       -0.008868799 0.009404891 -0.010725861 -0.0052542435
0001a0 dc d7 66 3a cf d7 aa 3a 93 7c 10 bb 2d de 5a 3c
       0.0008805969 0.0013034287 -0.0022046908 0.013358635
0001b0 bf 10 a7 b9 01 b9 0a 3c 55 11 f0 bb a4 d4 99 3b
       -0.000318652 0.00846696 -0.007326285 0.004694538
0001c0 0f 4f 05 bc 29 ea 8e bc 13 e5 94 3b 9f cf c3 3b
       -0.008136525 -0.01744564 0.0045439093 0.005975678
0001d0 1c 19 0d bd 9b f5 af 3b 3a fc 36 3c e9 ed be 3b
       -0.034447774 0.0053698546 0.011168534 0.005826701
0001e0 1b b9 71 3c 53 54 0d 39 41 39 41 3c e6 fb 3c ba
       0.014753605 0.00013478221 0.011793436 -0.00072091667
0001f0 ee a6 89 bc 88 62 35 3b 16 19 94 bb bf 28 49 bc
       -0.016803231 0.0027677137 -0.004519592 -0.012277781
000200 64 8e 0f 3c 03 6a e7 3b e7 18 94 3b 16 e6 f4 bc
       0.008761976 0.007062198 0.00451957 -0.02989487
000210 9a e9 ab 3a 4b 93 c6 ba 46 b7 52 bb
       0.0013115883 -0.0015150098 -0.0032152697

exp_avg_sq f4 [3, 45]
000000 b9 a6 a9 38 65 b5 ba 38 a6 d5 b1 38 1f ac a5 37
       8.0896025e-05 8.9029585e-05 8.479813e-05 1.9749683e-05
000010 aa 12 4e 37 27 5c a1 38 58 d4 b5 38 e0 0b d3 37
       1.2282902e-05 7.694243e-05 8.670305e-05 2.515869e-05
000020 f8 a6 56 37 c1 bb d3 37 1f 8f 8e 37 24 35 0a 38
       1.2794269e-05 2.524059e-05 1.6994365e-05 3.2951255e-05
000030 f5 d1 05 36 38 35 1d 38 21 c7 40 37 48 43 0a 38
       1.9940755e-06 3.748128e-05 1.1490455e-05 3.2964424e-05
000040 94 10 8f 38 58 18 39 38 89 ca 2d 38 ca c9 d9 36
       6.821859e-05 4.413011e-05 4.143504e-05 6.4905953e-06
000050 f0 94 37 36 03 ed 61 38 3f 0a 24 38 9e 96 e1 37
       2.7355818e-06 5.3864915e-05 3.911019e-05 2.6892227e-05
000060 42 a2 ed 37 96 80 5a 38 e6 95 9b 38 99 0e 9e 38
       2.8328159e-05 5.2095005e-05 7.418897e-05 7.536746e-05
000070 ab 3f 52 36 b9 bb b9 37 89 65 06 38 a9 0b 43 39
       3.1329498e-06 2.2141134e-05 3.204265e-05 0.00018600993
000080 d9 bb 48 36 db 67 70 37 0b 1d 10 38 fc 9a 98 38
       2.9911664e-06 1.43292955e-05 3.4359324e-05 7.276793e-05
000090 eb d2 07 37 1e 2f 2d 36 0b d7 76 37 bf ba 1f 39
       8.095735e-06 2.5806435e-06 1.4712811e-05 0.0001523299
0000a0 56 f4 85 38 a1 f2 b6 38 57 4d b8 38 51 41 45 38
       6.387445e-05 8.7236294e-05 8.7882094e-05 4.702929e-05
0000b0 5b 5e 00 39 86 d1 cc 37 aa a7 79 36 09 d4 c8 37
       0.00012242181 2.4416262e-05 3.7201485e-06 2.3940594e-05
0000c0 fa f9 79 37 d3 ce 79 36 25 91 33 35 66 09 ae 37
       1.4899759e-05 3.722428e-06 6.689391e-07 2.0746793e-05
0000d0 02 09 49 37 e8 9c 07 36 9c 0d ac 36 a1 2b 5e 37
       1.1982631e-05 2.02079e-06 5.127584e-06 1.3242389e-05
0000e0 99 4b 10 36 98 0d c8 35 2e 9a 89 36 b3 db 28 39
       2.1501676e-06 1.4905117e-06 4.100867e-06 0.00016103573
0000f0 4e 48 8f 36 ae b5 1d 37 f4 e0 63 36 9e 3e 1a 37
       4.2701495e-06 9.40023e-06 3.3956576e-06 9.1936945e-06
000100 c8 70 29 36 4c 4e cc 37 72 1e 96 37 a5 52 29 37
       2.524861e-06 2.4355155e-05 1.789557e-05 1.0092427e-05
000110 de a6 d2 35 e5 72 d6 36 d5 f4 9f 37 90 cb 31 38
       1.5694784e-06 6.3910725e-06 1.9068286e-05 4.238967e-05
000120 cc 50 bd 37 30 7a 95 37 b2 9b 04 37 a3 ce 86 37
       2.256818e-05 1.7819082e-05 7.904064e-06 1.6070268e-05
000130 cc 15 1c 37 04 4d 08 36 94 5c 06 38 ab 8e ae 36
       9.3034e-06 2.0310408e-06 3.203431e-05 5.202213e-06
000140 23 ca 84 38 68 a7 c3 37 a5 76 bc 38 1c d9 b4 37
       6.3319014e-05 2.3323766e-05 8.986638e-05 2.1558772e-05
000150 95 fd a7 37 b9 ed 98 37 8d 06 40 37 74 fb 86 37
       2.0026035e-05 1.823051e-05 1.1445617e-05 1.6091137e-05
000160 90 14 81 37 3d 58 5e 38 f4 24 0c 37 94 6c ee 38
       1.5387574e-05 5.3011103e-05 8.353254e-06 0.000113689486
000170 35 4a a0 38 47 55 1d 36 8b 29 12 37 53 3d ef 38
       7.643217e-05 2.344446e-06 8.711951e-06 0.000114078306
000180 53 33 ab 37 94 78 b0 36 32 69 ce 37 b5 12 2e 38
       2.0408688e-05 5.259246e-06 2.4606099e-05 4.1502255e-05
000190 cf ee 7d 36 af 06 52 38 e7 38 a4 37 c6 67 8d 38
       3.7838943e-06 5.0074126e-05 1.957682e-05 6.742733e-05
0001a0 db c0 90 38 9e cb 82 37 d2 42 28 37 a3 1f e2 37
       6.902377e-05 1.5592024e-05 1.0029138e-05 2.6956031e-05
0001b0 bd 76 09 37 0c 1c 96 38 18 fc 65 37 6d 52 a4 37
       8.193482e-06 7.1577815e-05 1.3708159e-05 1.9588706e-05
0001c0 20 15 ff 37 a4 56 57 39 72 74 36 37 78 a0 32 38
       3.0408206e-05 0.00020536274 1.0875157e-05 4.2587955e-05
0001d0 28 70 61 39 18 f5 28 37 16 1c 16 38 8d 92 07 38
       0.00021499454 1.0070646e-05 3.5788944e-05 3.2322994e-05
0001e0 22 58 f5 37 8e f3 8f 37 02 4e 9a 38 7a 6d 89 36
       2.9247316e-05 1.7160342e-05 7.357822e-05 4.095663e-06
0001f0 36 76 0f 38 0f 93 81 38 1c e7 48 37 96 27 90 37
       3.420395e-05 6.178591e-05 1.1974738e-05 1.7184571e-05
000200 f3 a4 ab 38 3d c1 00 39 3d c8 35 37 92 4a a9 39
       8.1846396e-05 0.00012279018 1.0835062e-05 0.0003228975
000210 be 53 9a 37 a4 6c 1e 38 5e eb dd 35
       1.8397226e-05 3.7771315e-05 1.6534284e-06

exp_avg f4 [3]
000000 9a 1f 3f 3d 47 eb 88 3c 8c c7 d8 3b
       0.046660997 0.016713751 0.0066155847

exp_avg_sq f4 [3]
000000 b1 7d 69 3a d4 98 22 39 d9 dc 90 38
       0.0008906974 0.00015506457 6.907591e-05

exp_avg f4 [3, 45]
000000 f9 c8 95 38 46 0a 26 3b 76 17 1a 3b f0 c3 10 bb
       7.142308e-05 0.0025335713 0.002351252 -0.0022089444
000010 46 cd 2e ba bc 2d a6 3a 44 f1 ca bb b0 64 8d ba
       -0.00066681614 0.0012678425 -0.006193312 -0.0010787454
000020 a6 25 d9 ba 61 16 27 3b 0d 73 d5 39 9a 67 04 3b
       -0.0016567006 0.0025495517 0.00040712245 0.0020203353
000030 f1 0b 65 39 de b8 11 3b 43 c2 ca ba 51 b9 e9 39
       0.0002184359 0.0022235434 -0.0015469271 0.00044579295
000040 ea 38 97 3a 21 85 10 3b fe 87 a5 3a 4e 85 ab 39
       0.0011537347 0.0022052007 0.001262903 0.0003271498
000050 16 29 2f 3a 4f 00 87 3a 7b e2 a6 3a b1 1f 35 3b
       0.00066818425 0.0010299775 0.0012732291 0.0027637298
000060 da aa 3d 3b 5a 4a 0f ba 77 59 66 bb 69 7d 2c bb
       0.0028940947 -0.00054660963 -0.003514854 -0.0026319867
000070 52 6c 2e 3a 62 c1 20 3a 48 96 b6 39 12 7a 52 3a
       0.0006653714 0.0006132332 0.00034825713 0.0008029054
000080 12 8a d7 38 12 78 3e 3b ba ca bd 3a da 78 51 bb
       0.000102777165 0.0029063267 0.0014479973 -0.0031962902
000090 e7 9d a1 3a f8 43 98 ba d7 9f 28 bb e5 da 7d 3a
       0.0012330384 -0.0011616936 -0.0025730038 0.0009683802
0000a0 68 13 d0 ba 2d 77 61 bb 12 4b db 3a 60 08 db ba
       -0.0015874924 -0.003440331 0.0016730747 -0.001671087
0000b0 60 62 dd b7 7c 14 b7 39 14 a6 0d bb b9 0b 8d ba
       -2.6391062e-05 0.00034919742 -0.0021613883 -0.001076094
0000c0 d2 f6 52 ba 0e 91 2d 3c 3e 68 da 3b 28 93 c2 3a
       -0.00080476434 0.010593666 0.0066652587 0.0014844881
0000d0 02 d2 55 ba 9d 29 1b bc 93 13 92 3b 0c 30 00 3b
       -0.0008156599 -0.009470371 0.0044579 0.0019559888
0000e0 f5 4a 71 3b b4 7b 1d 3c 1d d9 d3 ba 19 bf 93 3a
       0.003681836 0.009612013 -0.0016162727 0.0011272162
0000f0 38 a2 24 bc e7 19 77 3b 7e 4c 73 3b 36 79 f9 ba
       -0.010048442 0.0037704648 0.003712445 -0.0019033316
000100 77 ad dd ba 81 16 8e bb 87 b0 20 bb ba b8 35 3a
       -0.0016912658 -0.004336179 -0.002451928 0.00069321285
000110 b9 c8 c1 bb f5 4b c2 3a 96 83 5d 3b c7 d6 2e bb
       -0.0059138206 0.0014823662 0.0033800355 -0.002667831
000120 2f 70 69 bb a4 2c ef 3a 12 1e 10 3b 97 19 e0 bb
       -0.0035619845 0.0018247557 0.002199058 -0.006838988
000130 ae b6 ac bb b1 48 51 bb 41 00 2c bb 67 e2 89 bb
       -0.0052708006 -0.0031934197 -0.0026245269 -0.0042078975
000140 fd f8 79 ba c7 7a 14 bb 65 ae b1 bb de 6d 93 3b
       -0.00095356983 -0.0022656189 -0.005422401 0.004499181
000150 65 a0 d2 3b 6f d7 bf bb 9e 3b d9 3b bc b0 62 bb
       0.006427812 -0.005854539 0.0066294214 -0.0034590205
000160 ba bb 6d bb 4c 0f 72 b9 7e 01 93 bb 18 e1 13 ba
       -0.0036275224 -0.00023084617 -0.004486262 -0.00056411466
000170 18 05 aa 3a 1f 03 84 b9 8b 8d b5 ba db b3 6a bb
       0.0012971489 -0.00025179327 -0.0013851387 -0.0035812769
000180 0e ff cb 3a 10 7f 08 bb ff 50 0a bb 1f e4 de bb
       0.0015563683 -0.0020827688 -0.0021105406 -0.0068020965
000190 b7 72 8b 3b 65 d6 e2 bb 3e 70 55 3a f4 de 9b 3b
       0.0042556184 -0.0069225305 0.00081420306 0.0047568027
0001a0 9f 76 f3 39 e9 c7 a1 3b 02 4a ed b9 bb 61 e7 bb
       0.0004643695 0.004937161 -0.00045259303 -0.007061211
0001b0 9d c1 1b ba 6c 1d 8d 3b bf 06 5b 3b 7b 72 1a ba
       -0.00059416314 0.004306486 0.003342077 -0.00058916927
0001c0 de df 1a 3b 4b b0 56 3b 2c 69 cb 3a 04 fc 8c 3a
       0.002363197 0.0032758887 0.0015519015 0.0010756259
0001d0 c1 60 b7 3b c4 8e 95 ba 3a b9 c1 3a 4c 76 fa ba
       0.0055962508 -0.0011410345 0.0014779933 -0.0019108742
0001e0 b8 9c 61 3b ae 0c 1f bb 9e 9e 55 3b 8b 33 41 3a
       0.0034425687 -0.0024269032 0.0032595764 0.0007370046
0001f0 e1 4b af 3b 49 1b 59 3b 8e 19 96 3b be 0d dd 3b
       0.0053496216 0.0033127835 0.004580683 0.006746023
000200 b7 e3 2b bc b8 c1 1f bc f6 fe 90 bb 47 fb 3a 3c
       -0.010491303 -0.009750776 -0.004424925 0.011412448
000210 81 be 9e ba fd 7f 27 bb f3 aa 7c 3b
       -0.0012111218 -0.0025558465 0.0038554042
