logs/my_logs/version_0/checkpoints/epoch=884-step=885.ckpt (torch, 41316 bytes, 33 tensors)

encoder.dense1.weight f4 [45, 28]
0.017196022 -0.2155427 -0.022394126 0.1707976 0.039527025 0.13991562 0.059733197 -0.104633115
0.17982885 -0.06214863 -0.04986114 0.11865789 -0.08888317 0.09364049 0.1930636 -0.03836259
-0.22670208 0.10505924 0.13950427 0.026089905 0.15326256 -0.08302991 0.019059684 -0.22010407
0.1516265 -0.14588845 0.13008672 0.0028467532 0.056084894 0.05260989 0.16594663 -0.013102225
0.040960725 0.0048245857 0.14813024 0.12529778 -0.07997344 -0.017521534 -0.021583801 -0.044112254
-0.006381883 -0.09212215 -0.021077152 -0.009441935 0.124762796 0.06905105 0.17419021 -0.017054245
-0.06609418 0.2495565 0.17827559 0.24835245 -0.030138012 0.33664173 0.06906534 0.14614251
-0.11313253 0.08454786 0.0053580045 0.17984243 -0.02357253 0.024128165 0.12193719 -0.18684343
0.07717764 -0.02725975 -0.017335836 -0.037083607 0.014089074 0.13418257 -0.09756045 -0.07651431
-0.04740846 -0.12548205 0.14533223 -0.02736681 0.0015268337 -0.03176141 -0.10752545 -0.24428093
0.070394166 0.17056131 0.07262733 0.020959668 0.19568801 0.008011823 0.2116244 -0.10724839
0.042420443 0.05102699 0.0036928304 -0.09047725 -0.18117127 0.09832367 0.087122895 0.12574218
0.16005059 0.08716731 -0.23118702 -0.12383647 -0.021863755 0.07650083 -0.0136098815 0.10190357
-0.12683384 -0.16781512 0.11675905 0.057614177 -0.07486772 0.040300943 -0.00053564465 0.084992096
0.021998605 0.24991898 -0.024257494 -0.13431041 -0.0039186473 -0.19831346 -0.026046064 0.09332658
0.0809513 0.12289781 0.13301377 -0.14440322 0.040654626 -0.02156512 -0.07616775 0.08728903
0.27129358 -0.14999259 -0.06671098 0.097725324 -0.034206774 0.03614624 0.15840223 0.22952299
-0.051459182 -0.19742076 -0.0818161 0.0444943 -0.25965637 -0.18230037 0.13266435 0.015710741
0.1673511 0.18679863 0.16993068 -0.22198002 0.048561335 0.041523356 0.13789289 0.036741998
0.01776602 0.012100674 0.18209824 0.17270945 0.06050863 0.23492348 0.08193559 -0.046453852
0.035630863 0.14858319 -0.07723272 -0.084182926 0.08257284 0.04859802 0.052373238 -0.02867234
0.008356809 0.034218896 -0.018549066 0.06613496 -0.047708236 0.06758762 -0.13157102 0.10882059
0.07663442 -0.0037840945 0.14667466 0.048409462 -0.10388683 -0.049508147 0.20144221 -0.19626717
0.22588493 0.00012523221 0.2114595 -0.1016176 -0.002530713 -0.095576756 -0.09782649 0.20230073
-0.11515525 0.08340774 -0.26211184 -0.035664555 0.12731554 0.17814632 -0.18694575 -0.043012053
-0.16145723 0.12971522 0.0040335036 0.19880258 -0.08861873 0.052065715 -0.17987901 0.027770532
0.16208097 -0.040152375 0.046409804 -0.04079132 0.0004309544 -0.054033756 -0.14554143 -0.12531605
0.04262081 0.11379372 -0.079124 0.1839143 0.076468684 -0.05091357 0.14892614 -0.068978295
-0.14012621 -0.10758479 -0.1800482 0.10524105 -0.058694977 -0.12221441 -0.3687282 -0.038535103
0.02158772 -0.3727107 -0.16400415 0.18527794 -0.16795537 0.012356028 -0.0008503904 -0.14399819
-0.24869525 -0.010519921 0.08085845 -0.085742496 -0.2637465 -0.16422944 -0.07090821 -0.21740179
-0.12639304 -0.19161598 -0.011879005 -0.27683648 -0.12595868 -0.044057608 0.21817523 0.03710881
00000000: acde 8c3c 3ab7 5cbe e373 b7bc 91e5 2e3e
00000010: 17e7 213d 0a46 0f3e ccaa 743d e349 d6bd
00000020: 0e25 383e 908f 7ebd 323b 4cbd e802 f33d
00000030: 6108 b6bd 96c6 bf3d 77b2 453e 1722 1dbd
00000040: 9724 68be 4c29 d73d 35da 0e3e 7fba d53c
00000050: dcf0 1c3e 960b aabd 0e23 9c3c f662 61be
00000060: fa43 1b3e c863 15be 7435 053e 9890 3a3b
00000070: 46b9 653d 787d 573d eaed 293e b7aa 56bc
00000080: 6fc6 273d 8f17 9e3b 74af 173e 104e 003e
00000090: 1dc9 a3bd 5289 8fbc 83d0 b0bc 0daf 34bd
000000a0: 1d1f d1bb 8aaa bcbd fea9 acbc 59b2 1abc
000000b0: a383 ff3d a36a 8d3d eb5e 323e 58b5 8bbc
000000c0: 635c 87bd bd8b 7f3e e08d 363e 1b50 7e3e
000000d0: fee3 f6bc 4e5c ac3e 2172 8d3d 62a6 153e
000000e0: 07b2 e7bd 6e27 ad3d 3392 af3b 9d28 383e
000000f0: 2e1b c1bc 6ea8 c53c 35ba f93d e253 3fbe
00000100: 4f0f 9e3d d74f dfbc e203 8ebc fbe4 17bd
00000110: dcd5 663c 2867 093e c6cd c7bd 89b3 9cbd
00000120: 602f 42bd 5e7e 00be f9d1 143e 5c30 e0bc
00000130: 0a20 c83a 4118 02bd 4e36 dcbd c824 7abe
00000140: d12a 903d a0a7 2e3e a3bd 943d 9cb3 ab3c
00000150: 7062 483e 0544 033c 11b4 583e 0ba5 dbbd
00000160: 0fc1 2d3d ad01 513d 6a03 723b 234c b9bd
00000170: f684 39be ec5d c93d 7d6d b23d 8fc2 003e
00000180: 4de4 233e c684 b23d 4abc 6cbe fa9d fdbd
00000190: 9e1b b3bc 78ac 9c3d fbfb 5ebc d2b2 d03d
000001a0: bbe0 01be bad7 2bbe 5e1f ef3d d8fc 6b3d
000001b0: 3f54 99bd 9a12 253d 816a 0cba 5610 ae3d
000001c0: 6b36 b43c c3ea 7f3e a7b7 c6bc ab88 09be
000001d0: ff67 80bb af12 4bbe 8e5e d5bc 0222 bf3d
000001e0: ccc9 a53d d9b1 fb3d c334 083e 70de 13be
000001f0: 7785 263d 56a9 b0bc d6fd 9bbd 97c4 b23d
00000200: fee6 8a3e a897 19be c49f 88bd 3724 c83d
00000210: 671c 0cbd 140e 143d 3234 223e 1308 6b3e
00000220: ddc6 52bd ab28 4abe 338f a7bd a83f 363d
00000230: aef1 84be f3ac 3abe 2ad9 073e d0b3 803c
00000240: 165e 2b3e 2448 3f3e 4f02 2e3e bb4e 63be
00000250: 40e8 463d 6514 2a3d cb33 0d3e c77e 163d
00000260: 0b8a 913c e841 463c f677 3a3e bfda 303e
00000270: e6d7 773d c88f 703e d9cd a73d 6546 3ebd
00000280: abf1 113d 3126 183e 302c 9ebd 1968 acbd
00000290: f31b a93d b80e 473d 5285 563d 41e2 eabc
000002a0: ffea 083c 1d29 0c3d 36f4 97bc c471 873d
000002b0: b669 43bd 616b 8a3d 8eba 06be 54dd de3d
000002c0: 82f2 9c3d 92fe 77bb e231 163e 0049 463d
000002d0: 9ec2 d4bd 0ec9 4abd de46 4e3e 43fa 48be
000002e0: 614e 673e c450 0339 d788 583e e31c d0bd
000002f0: 52da 25bb bfbd c3bd 4159 c8bd ec27 4f3e
00000300: 84d6 ebbd add1 aa3d 8633 86be ff14 12bd
00000310: 015f 023e fd6b 363e b56e 3fbe 682d 30bd
00000320: 0b55 25be 11d4 043e 7b2b 843b e792 4b3e
00000330: bd7d b5bd dc42 553d 3432 38be 077f e33c
00000340: 8ef8 253e d176 24bd 3518 3e3d cd14 27bd
00000350: b8f1 e139 8052 5dbd d008 15be da52 00be
00000360: 2993 2e3d af0c e93d c40b a2bd 0854 3c3e
00000370: 9d9b 9c3d bf8a 50bd 1880 183e 7e44 8dbd
00000380: 3f7d 0fbe 6a55 dcbd 8e5e 38be 9f88 d73d
00000390: 256a 70bd 8c4b fabd f1c9 bcbe fcd6 1dbd
000003a0: bbd8 b03c f0d3 bebe b4f0 27be 80b9 3d3e
000003b0: 7efc 2bbe f070 4a3c bcec 5eba 4374 13be
000003c0: f8a9 7ebe bf5b 2cbc 1d99 a53d c399 afbd
000003d0: c809 87be c32b 28be 5338 91bd 939e 5ebe
000003e0: 2d6d 01be fb36 44be 28a0 42bc 83bd 8dbe
000003f0: 50fb 00be c075 34bd 5469 5f3e 68ff 173d

encoder.dense1.bias f4 [45]
0.17194352 -0.3043469 0.20996965 -0.12932873 -0.19073449 0.26529804 0.18310155 0.047132704
-0.09469187 -0.04742272 0.15203455 -0.23564553 -0.3352771 0.16339035 -0.3062228 0.12148234
0.1113707 0.3268257 -0.3575345 -0.3857428 0.73345953 0.1740985 0.35221764 0.18124303
0.45467895 -0.32475585 -0.07952423 -0.15475923 0.20882297 0.48231646 -0.21753484 -0.32412475
0.15709893 -0.10011457 -0.2290528 0.24941365 -0.12359206 0.32387373 0.25961164 0.10305606
0.26144508 -0.2053942 -0.053550072 0.41011083 0.26868322
00000000: f611 303e 5bd3 9bbe 4902 573e c06e 04be
00000010: e74f 43be 25d5 873e f97e 3b3e 390e 413d
00000020: d0ed c1bd 533e 42bd f2ae 1b3e 104d 71be
00000030: 71a9 abbe cd4f 273e 3cc9 9cbe bccb f83d
00000040: 5216 e43d b355 a73e c30e b7be 1580 c5be
00000050: 01c4 3b3f e146 323e df55 b43e c697 393e
00000060: aecb e83e 6646 a6be 99dd a2bd 3479 1ebe
00000070: b0d5 553e 2ff2 f63e 74c1 5ebe aef3 a5be
00000080: 8bde 203e de08 cdbd d18c 6abe 4b66 7f3e
00000090: d51d fdbd c7d2 a53e d1eb 843e 0e0f d33d
000000a0: 21dc 853e db52 52be 5257 5bbd 0cfa d13e
000000b0: d990 893e

encoder.dense3m.weight f4 [3, 45]
-0.039729133 0.031305708 0.009908558 -0.12908219 -0.07684774 0.034580626 0.24484202 -0.04721486
-0.07467508 -0.08861328 -0.07812512 -0.21196997 -0.18625349 0.15066129 -0.029708084 -0.011106985
0.25293756 0.19133484 -0.20336947 -0.30389228 0.07338545 0.21182375 0.1239959 -0.10220961
0.18551138 0.016068973 -0.120194554 -0.15877162 0.032961696 0.39268184 -0.17885768 -0.09597938
0.14585763 0.10891074 -0.091620676 -0.062423784 0.038259756 0.15974924 0.28464648 -0.08212355
0.048473883 -0.09031516 -0.10461127 -0.071733564 -0.21197698 0.24051276 -0.3741345 0.34681138
-0.09048504 -0.2452913 0.4518106 -0.07244044 -0.16129053 -0.034415726 0.11336486 0.12959449
0.028714737 -0.14808802 -0.12636733 -0.10473176 0.033485617 -0.038603492 0.17511185 -0.1353953
-0.28086472 0.014981364 0.0151897315 0.10678441 0.029022874 0.21689083 -0.08461436 0.14717288
-0.115980305 -0.013456845 0.1095341 -0.23134544 0.059049178 -0.15901738 0.014863998 -0.13507769
0.106076196 0.03535374 0.1841153 -0.12408976 -0.0049365284 0.11366688 -0.13838445 0.038594667
0.20680605 0.12403408 0.04094165 0.34489834 0.08265002 -0.077863455 -0.17399612 0.18225689
0.13881293 -0.13991804 0.12711087 0.056874122 -0.055176124 0.08761282 0.26997092 0.018444138
0.18336838 -0.04841787 -0.013943407 -0.11250535 0.19098023 0.19275434 -0.29309908 0.11903378
-0.065853566 -0.09755668 -0.33871904 0.23208483 0.02315957 -0.022718834 -0.064710334 -0.20285109
-0.119185254 0.3028654 -0.055368237 0.11418895 0.06090965 -0.2093287 0.15048158 0.107362375
-0.060818493 -0.054119788 -0.18822102 0.055429906 0.03579886 -0.21192437 -0.19328989
00000000: 04bb 22bd 6a3a 003d 8157 223c 1f2e 04be
00000010: 5962 9dbd 6aa4 0d3d deb7 7a3e 5e64 41bd
00000020: 40ef 98bd e17a b5bd 1000 a0bd a80e 59be
00000030: 3cb9 3ebe f446 1a3e 5e5e f3bc 12fa 35bc
00000040: 0881 813e 48ed 433e 1640 50be c597 9bbe
00000050: 1c4b 963d 53e8 583e 90f1 fd3d 4653 d1bd
00000060: b2f6 3d3e 14a3 833c 9028 f6bd 0795 22be
00000070: d802 073d 980d c93e 7826 37be d690 c4bd
00000080: b45b 153e 980c df3d 9fa3 bbbd 15b0 7fbd
00000090: 43b6 1c3d 4e95 233e 2fbd 913e 6430 a8bd
000000a0: 8d8c 463d 28f7 b8bd 6f3e d6bd 0ce9 92bd
000000b0: 7e10 59be fa48 763e 8f8e bfbe 4391 b13e
000000c0: 3850 b9bd a42d 7bbe b853 e73e a75b 94bd
000000d0: 5829 25be 81f7 0cbd d62b e83d 6bb4 043e
000000e0: 2b3b eb3c 63a4 17be 7066 01be 9b7d d6bd
000000f0: 3728 093d b21e 1ebd 8550 333e 11a5 0abe
00000100: 80cd 8fbe 6574 753c 5ade 783c c9b1 da3d
00000110: 61c1 ed3c a118 5e3e 4b4a adbd 7db4 163e
00000120: 1587 edbd 197a 5cbc 6a53 e03d d2e5 6cbe
00000130: 8ddd 713d 74d5 22be 2088 733c ce51 0abe
00000140: 7a3e d93d 15cf 103d b988 3c3e c622 febd
00000150: 9ac2 a1bb 2eca e83d a7b4 0dbe 7115 1e3d
00000160: f7c4 533e 9405 fe3d 6eb2 273d 8496 b03e
00000170: 6a44 a93d e076 9fbd 0a2c 32be 8da1 3a3e
00000180: fa24 0e3e ad46 0fbe 5a29 023e d7f4 683d
00000190: 5c00 62bd 5a6e b33d a139 8a3e 2918 973c
000001a0: ecc4 3b3e d151 46bd e372 64bc 3469 e6bd
000001b0: 5290 433e 6561 453e 1511 96be fcc7 f33d
000001c0: 3cde 86bd cccb c7bd 956c adbe a5a7 6d3e
000001d0: 23b9 bd3c d91c babc da86 84bd 32b8 4fbe
000001e0: 6617 f4bd 2c11 9b3e cec9 62bd e5db e93d
000001f0: 667c 793d 435a 56be d817 1a3e cee0 db3d
00000200: d01c 79bd b6ac 5dbd 03bd 40be 780a 633d
00000210: d3a1 123d b402 59be c9ed 45be

encoder.dense3m.bias f4 [3]
0.33152685 0.15686074 -0.50299233
00000000: e3bd a93e 1aa0 203e 1bc4 00bf

encoder.dense3s.weight f4 [3, 45]
-0.010449856 0.0576693 -0.047197036 0.06234842 -0.0006836924 -0.06694803 -0.025822822 -0.07696759
0.20387533 -0.030216882 -0.09201136 0.05822565 0.02510741 -0.11721958 0.04078995 0.025118992
0.37365973 0.09367175 0.061807524 0.051830012 0.03423779 -0.024346096 -0.043140274 0.02153649
-0.19568086 0.052944552 0.079768784 0.06539708 -0.06362006 -0.028901076 0.030509071 -0.020385126
-0.05007814 -2.1439744e-05 0.0849721 -0.004015486 0.21467361 0.0043359697 -0.032954864 0.031411126
0.016265051 0.08426047 0.08103455 0.0014321073 -0.01601177 -0.062662914 0.03903377 -0.01726126
0.014558093 0.1633491 -0.034332257 -0.0034702811 0.05893414 0.122584745 0.0467901 0.15241045
0.060606424 0.08288434 -0.07180279 -0.019837381 0.062613055 -0.03801192 0.042108357 0.12767835
-0.036904067 -0.028570456 -0.0013324654 0.026015565 -0.03721336 -0.031105552 0.06711623 0.13424474
-0.097073905 -0.08445803 -0.06632268 0.060120992 0.17921965 -0.025697904 -0.102103055 0.031365063
-0.10025514 0.1274098 -0.12288938 0.033358246 0.08362589 0.06893754 -0.072653264 -0.12944107
-0.104525164 -0.117113 -0.017447544 0.12658133 -0.020597782 -0.07902414 -0.0574376 0.017282361
-0.019135498 -0.024840109 0.15840225 0.022126028 0.19492094 0.061076146 0.13595107 0.0564786
0.10906352 -0.063382596 0.03699476 -0.0028235917 0.05054387 0.07081913 0.12782243 0.008788448
-0.06267524 -0.0125427805 -0.03958993 0.04808566 0.006874525 -0.046060767 0.009849546 -0.13814546
0.054197397 -0.0204337 0.027629765 0.11740065 -0.08413235 -0.046826042 0.02406151 -0.050108477
-0.13038635 0.20301789 0.086121425 0.29713315 -0.031576008 -0.15956722 0.040800024
00000000: df35 2bbc a536 6c3d ae51 41bd 0f61 7f3d
00000010: d239 33ba 0c1c 89bd 628a d3bc 2fa1 9dbd
00000020: b2c4 503e 6589 f7bc 7470 bcbd 057e 6e3d
00000030: 0eae cd3c d210 f0bd 5d13 273d 58c6 cd3c
00000040: 5450 bf3e f9d6 bf3d e329 7d3d b54b 543d
00000050: ed3c 0c3d 7771 c7bc dbb3 30bd 4b6d b03c
00000060: 9060 48be 63dc 583d d15d a33d e7ee 853d
00000070: 3c4b 82bd f3c1 ecbc 29ee f93c b5fe a6bc
00000080: bc1e 4dbd 80d9 b3b7 da05 ae3d 5794 83bb
00000090: 66d3 5b3e c014 8e3b aefb 06bd f4a8 003d
000000a0: 493e 853c c190 ac3d 71f5 a53d 8cb5 bb3a
000000b0: 1e2b 83bc 6a55 80bd e0e1 1f3d 7c67 8dbc
000000c0: 1185 6e3c fd44 273e fb9f 0cbd a86d 63bb
000000d0: ed64 713d b60d fb3d faa6 3f3d 7c11 1c3e
000000e0: 713e 783d 44bf a93d 570d 93bd 0182 a2bc
000000f0: 463b 803d 63b2 1bbd d079 2c3d 1dbe 023e
00000100: b828 17bd 970c eabc 1fa6 aeba 981e d53c
00000110: 096d 18bd 12d1 febc 3c74 893d 7477 093e
00000120: afce c6bd 55f8 acbd 2fd4 87bd 6e41 763d
00000130: 5b85 373e 6984 d2bc 681b d1bd a778 003d
00000140: 9152 cdbd b777 023e 6dad fbbd a8a2 083d
00000150: 0d44 ab3d 202f 8d3d 3ccb 94bd 338c 04be
00000160: 4a11 d6bd f1d8 efbd 27ee 8ebc 899e 013e
00000170: aebc a8bc 69d7 a1bd b043 6bbd bd93 8d3c
00000180: 0cc2 9cbc 7c7d cbbc 3334 223e a541 b53c
00000190: 5b99 473e fb2a 7a3d c236 0b3e 1b56 673d
000001a0: b25c df3d bcce 81bd d187 173d 020c 39bb
000001b0: 1707 4f3d 9f09 913d e2e3 023e 6cfd 0f3c
000001c0: e05b 80bd 3c80 4dbc 0d29 22bd 78f5 443d
000001d0: b243 e13b 37aa 3cbd fd5f 213c 0176 0dbe
000001e0: 17fe 5d3d 9364 a7bc d157 e23c c16f f03d
000001f0: 954d acbd aacc 3fbd a51c c53c 8c3e 4dbd
00000200: 0084 05be ece3 4f3e 6e60 b03d d621 983e
00000210: d855 01bd 9765 23be ed1d 273d

encoder.dense3s.bias f4 [3]
-0.12807542 -0.08512566 -0.1831913
00000000: 3426 03be 5d56 aebd 8096 3bbe

decoder.linear.bias f4 [28]
0.7420848 0.13498075 -0.54638004 0.95842296 0.9966068 -1.1679083 -0.6906541 1.2200489
0.54866403 -1.5984901 -0.19717517 1.4348663 -0.568186 0.15444282 -0.3387373 0.1975148
-0.21880557 0.5722376 0.36897364 -0.06792564 -0.56953865 -0.9159411 0.25549966 -0.7868591
-0.13360594 -1.0151603 0.98810655 -1.5910985
00000000: 45f9 3d3f 6538 0a3e 90df 0bbf 355b 753f
00000010: a021 7f3f 057e 95bf b5ce 30bf 902a 9c3f
00000020: 3f75 0c3f 539b ccbf 4ae8 49be b3a9 b73f
00000030: a374 11bf 4226 1e3e fa6e adbe 5241 4a3e
00000040: 910e 60be 2a7e 123f 1dea bc3e 991c 8bbd
00000050: 49cd 11bf 1e7b 6abf dad0 823e 996f 49bf
00000060: ffcf 08be c6f0 81bf 8df4 7c3f 1ea9 cbbf

decoder.linear.weight_orig f4 [28, 3]
-0.94628596 -1.1599634 0.008388877 0.20167702 -1.3498352 -0.28706104 -0.50932556 0.18527758
1.4570736 0.31464195 -0.27266482 0.88997334 0.5666821 -0.11307055 0.5032028 -0.053279817
0.14261365 1.318189 -1.0594342 -0.12512904 1.5910307 0.44893277 -1.3352273 -0.49032736
-0.18530223 0.23177963 1.2952864 -1.7970208 0.5710684 -0.26797214 -1.3892642 -0.16884187
0.38915935 -0.64444894 0.20866078 1.2554339 -1.8307482 -0.12944701 -0.26728183 -1.1640317
-0.56223565 -0.20147726 0.29828984 -0.3411941 1.809941 -1.6038358 0.45439875 1.345841
0.10888934 -1.3244867 1.7326229 -0.09182307 -0.51842207 1.1914092 -0.54757226 -0.36680585
1.3332332 -1.4815558 0.0719257 0.6059191 -1.2655072 -0.181252 1.435301 -0.3588788
0.57374907 1.2239356 -0.54385936 -1.0168436 0.21710706 -0.0032767057 -1.6057916 0.57696617
-1.0192631 -0.2653192 -0.3960379 0.08586168 0.08886117 1.8191869 -1.6979916 -0.19855437
-0.5287363 -0.26113963 0.47596896 0.9033666
00000000: cc3f 72bf ae79 94bf 8071 093c 6c84 4e3e
00000010: 66c7 acbf aaf9 92be 2963 02bf 68b9 3d3e
00000020: 6381 ba3f c018 a13e b99a 8bbe 4bd5 633f
00000030: 1412 113f 8891 e7bd e6d1 003f f03b 5abd
00000040: 5009 123e 6bba a83f 8a9b 87bf d421 00be
00000050: e5a6 cb3f 84da e53e bae8 aabf 300c fbbe
00000060: debf 3dbe a457 6d3e f2cb a53f c704 e6bf
00000070: 8a31 123f a533 89be 69d3 b1bf e2e4 2cbe
00000080: e53f c73e 9bfa 24bf 2cab 553e 0fb2 a03f
00000090: f555 eabf c28d 04be 2ad9 88be fefe 94bf
000000a0: adee 0fbf 0e50 4ebe 72b9 983e feb0 aebe
000000b0: 26ac e73f 7e4a cdbf f4a6 e83e 8544 ac3f
000000c0: 6001 df3d c888 a9bf 96c6 dd3f bc0d bcbd
000000d0: 4fb7 04bf 1980 983f b22d 0cbf facd bbbe
000000e0: 63a7 aa3f 9fa3 bdbf c84d 933d 841d 1b3f
000000f0: 24fc a1bf 209a 39be f1b7 b73f f6be b7be
00000100: 38e1 123f eca9 9c3f 5e3a 0bbf ee27 82bf
00000110: 5051 5e3e 00be 56bb 948a cdbf 0eb4 133f
00000120: 3777 82bf ebd7 87be 7bc5 cabe 40d8 af3d
00000130: d8fc b53d 1edb e83f ca57 d9bf d651 4bbe
00000140: 435b 07bf 18b4 85be 34b2 f33e 0943 673f

decoder.linear.weight_mask f4 [28, 3]
1.0 1.0 0.0 0.0 1.0 0.0 1.0 0.0
1.0 0.0 0.0 1.0 0.0 0.0 1.0 0.0
0.0 1.0 1.0 0.0 1.0 0.0 1.0 0.0
0.0 0.0 1.0 1.0 0.0 0.0 1.0 0.0
1.0 1.0 0.0 1.0 1.0 0.0 0.0 1.0
0.0 0.0 0.0 0.0 1.0 1.0 0.0 1.0
0.0 1.0 1.0 0.0 0.0 1.0 0.0 0.0
1.0 1.0 0.0 1.0 1.0 0.0 1.0 0.0
0.0 1.0 0.0 1.0 0.0 0.0 1.0 0.0
1.0 0.0 0.0 0.0 0.0 1.0 1.0 0.0
0.0 0.0 0.0 1.0
00000000: 0000 803f 0000 803f 0000 0000 0000 0000
00000010: 0000 803f 0000 0000 0000 803f 0000 0000
00000020: 0000 803f 0000 0000 0000 0000 0000 803f
00000030: 0000 0000 0000 0000 0000 803f 0000 0000
00000040: 0000 0000 0000 803f 0000 803f 0000 0000
00000050: 0000 803f 0000 0000 0000 803f 0000 0000
00000060: 0000 0000 0000 0000 0000 803f 0000 803f
00000070: 0000 0000 0000 0000 0000 803f 0000 0000
00000080: 0000 803f 0000 803f 0000 0000 0000 803f
00000090: 0000 803f 0000 0000 0000 0000 0000 803f
000000a0: 0000 0000 0000 0000 0000 0000 0000 0000
000000b0: 0000 803f 0000 803f 0000 0000 0000 803f
000000c0: 0000 0000 0000 803f 0000 803f 0000 0000
000000d0: 0000 0000 0000 803f 0000 0000 0000 0000
000000e0: 0000 803f 0000 803f 0000 0000 0000 803f
000000f0: 0000 803f 0000 0000 0000 803f 0000 0000
00000100: 0000 0000 0000 803f 0000 0000 0000 803f
00000110: 0000 0000 0000 0000 0000 803f 0000 0000
00000120: 0000 803f 0000 0000 0000 0000 0000 0000
00000130: 0000 0000 0000 803f 0000 803f 0000 0000
00000140: 0000 0000 0000 0000 0000 0000 0000 803f

exp_avg f4 [45, 28]
-0.00015515182 0.0005911471 -0.00019180446 0.0003399576 0.00046853285 0.0005149932 -6.679635e-05 0.00089317554
0.00011773454 -2.5943678e-05 -5.9693586e-05 0.00046019896 -0.00015051698 0.00044346252 0.0003881136 0.00069815083
0.00035486708 0.00017911545 0.00036450394 0.0002700396 2.3327593e-05 0.0004939936 0.0006574562 0.00043567547
-7.352122e-05 -4.462045e-05 -9.334879e-06 5.3298252e-05 -0.0015419193 -0.0023451853 -0.0009382097 -0.002925071
-0.0035069184 -0.0020545584 -0.00093779725 -0.004291174 -0.0019935062 -0.0013071555 -0.0014843633 -0.0032589722
-0.002073404 -0.0030565 -0.0025912547 -0.0014964262 -0.0031559658 -0.002873789 -0.0017422427 -0.0018995568
-0.0024357217 -0.002350018 -0.0023362632 -0.0023569302 -0.001934605 -0.0021261054 -0.0028179092 -0.00083109335
-0.00042844447 0.00034419028 -0.00060033135 0.00029307592 0.0002308964 0.00037077777 -0.0003743961 0.00089282857
2.6627793e-05 -6.283377e-05 -0.00032687664 0.00022704783 -0.0002173885 0.00031313451 0.00035630044 0.00038158905
-0.00013662118 3.897876e-05 0.00019073137 -0.00010815309 -0.00026557862 0.0004686442 0.0008415325 0.00021143799
-0.00039600022 -0.0004571781 -0.00018502097 5.7823287e-05 0.0007723232 0.0007805994 0.00071803574 0.00087296305
0.0009766422 0.0005164184 0.000491035 0.0011268057 0.00055235357 0.00017091184 0.00060501596 0.0011614275
0.00012293248 0.0005114245 0.0004695435 0.0007684814 0.0010571129 0.00091021636 0.0010182534 0.0008871216
0.000784924 0.00027642434 0.00025628717 0.0007497837 0.0005799481 0.0008928159 0.00057513395 0.00037640386
0.0007451647 0.00037961942 0.0009105651 0.00096590794 0.0010600935 0.00018312363 0.00057192566 0.0008185336
0.00089484936 0.00036239013 0.0009192308 0.0010157166 0.00041849003 0.00036683318 0.00048165116 5.8887526e-05
0.00066146225 0.0009824524 0.00087683764 0.00079099636 0.0010403388 9.573012e-05 -9.041093e-05 0.00032482843
0.000641937 0.0006933891 0.00081972627 0.000430941 -0.0009994966 9.2355185e-05 -0.001081438 -0.00023934548
-0.0002976898 0.00021648937 -0.0007495557 0.0002798566 -0.00038218102 -0.0002701073 -0.00068983913 -0.00033792225
-0.00069456676 -0.00010052789 6.8068504e-05 0.0004727142 -0.0006827551 -0.00051154685 -0.00030219834 -0.0005280676
-0.0008410986 0.0003437989 0.0007339098 -0.00020071096 -0.00087424216 -0.0010993355 -0.0008046585 -0.00014236849
-0.0013727905 -0.0018124755 -0.001192095 -0.0014717702 -0.0020219032 -0.0013075629 -0.0009288994 -0.0019692061
-0.0013887419 -0.0004791643 -0.0012940768 -0.001817287 -0.00035366265 -0.001286409 -0.0009771397 -0.0015927675
-0.0021405749 -0.0013405429 -0.0015913326 -0.0017073285 -0.0016113285 -0.0008497237 -0.0011417307 -0.0015174075
-0.0012042968 -0.0015361868 -0.0010205037 -0.00047622813 0.0008352529 0.00036668207 0.0007679882 0.00061808666
0.0008554206 0.0003913864 0.0004962868 0.0005550567 0.0007989324 0.00027386157 0.0005127796 0.00064521976
0.0006774046 0.000366595 0.0006012617 -3.154698e-05 0.00076104345 0.0006158765 0.00065372395 0.00068601855
0.0010118821 0.00022605216 -1.3305806e-05 0.00031525365 0.0005217812 0.0008228563 0.0007873838 0.00029506627
0.0001704293 9.305349e-05 4.573104e-05 0.0002492079 -0.00011652184 -5.8641846e-05 8.438845e-05 -0.0003137448
0.00031857466 0.00017676177 0.000119073535 0.00015380397 -0.00028571393 -0.00024239958 -5.255083e-05 0.00017272463
-0.00018224234 8.716597e-06 1.409369e-05 6.461778e-05 -9.4934214e-05 -0.0004268991 0.00021220002 -0.00013152415
-0.00016174419 -0.0001090076 -0.0004309193 -4.250789e-05 1.9552157e-05 0.00035498216 5.7040015e-06 0.0002246856
00000000: 40b0 22b9 36f7 1a3a 1e1f 49b9 563c b239
00000010: 6aa5 f539 9c00 073a 0415 8cb8 ff23 6a3a
00000020: 40e8 f638 a0a1 d9b7 805f 7ab8 dc46 f139
00000030: 18d4 1db9 8880 e839 ba7b cb39 1c04 373a
00000040: 740d ba39 f0d0 3b39 e41a bf39 1a94 8d39
00000050: a0af c337 597f 013a 2459 2c3a 5f6b e439
00000060: 682f 9ab8 d826 3bb8 009d 1cb7 908c 5f38
00000070: 3a1a caba aeb1 19bb 30f2 75ba 8cb2 3fbb
00000080: 54d4 65bb c5a5 06bb 82d6 75ba fa9c 8cbb
00000090: 7ca5 02bb dc54 abba f88e c2ba 7b94 55bb
000000a0: f2e1 07bb 904f 48bb 0ad2 29bb bb23 c4ba
000000b0: 52d4 4ebb 2e56 3cbb f75b e4ba 8dfa f8ba
000000c0: a1a0 1fbb c202 1abb fe1b 19bb ba76 1abb
000000d0: 9292 fdba 2156 0bbb acac 38bb bbdd 59ba
000000e0: d8a0 e0b9 7074 b439 8e5f 1dba fca7 9939
000000f0: c81c 7239 f364 c239 984a c4b9 b60c 6a3a
00000100: c05e df37 a0c5 83b8 a460 abb9 b013 6e39
00000110: c8f2 63b9 342c a439 d6cd ba39 0410 c839
00000120: f841 0fb9 207d 2338 10ff 4739 40d0 e2b8
00000130: 5c3d 8bb9 5cb4 f539 4a9a 5c3a 74b5 5d39
00000140: 409e cfb9 68b1 efb9 3002 42b9 4887 7238
00000150: bc75 4a3a 24a1 4c3a 903a 3c3a 8fd7 643a
00000160: ad02 803a 4160 073a cdb8 003a 53b1 933a
00000170: d2cb 103a cc36 3339 ef99 1e3a 0a3b 983a
00000180: 70e7 0039 1e11 063a 102d f639 ea73 493a
00000190: d38e 8a3a 969b 6e3a ea76 853a b98d 683a
000001a0: 5cc3 4d3a 0ced 9039 485e 8639 228d 443a
000001b0: a807 183a dc0b 6a3a 96c4 163a 1258 c539
000001c0: 2857 433a a807 c739 fdb2 6e3a fc34 7d3a
000001d0: d6f2 8a3a e004 4039 48ed 153a dc92 563a
000001e0: 5394 6a3a 2eff bd39 89f8 703a cb21 853a
000001f0: c868 db39 8453 c039 2086 fc39 00fe 7638
00000200: fb65 2d3a a2c5 803a 94db 653a de5a 4f3a
00000210: fa5b 883a b8c2 c838 009b bdb8 bc4d aa39
00000220: aa47 283a 8ec4 353a e6e2 563a ecef e139
00000230: 8a01 83ba d0ae c138 0abf 8dba d0f8 7ab9
00000240: 4013 9cb9 6c01 6339 d57d 44ba b8b9 9239
00000250: 785f c8b9 309d 8db9 52d6 34ba 282b b1b9
00000260: 9613 36ba 80d2 d2b8 00c0 8e38 a0d6 f739
00000270: ebfa 32ba 5419 06ba 6070 9eb9 046e 0aba
00000280: 2c7d 5cba e83f b439 da63 403a f075 52b9
00000290: 662d 65ba 9417 90ba b8ef 52ba c048 15b9
000002a0: 35ef b3ba 9690 edba 1240 9cba 6ae8 c0ba
000002b0: e881 04bb 8862 abba 6281 73ba cc0d 01bb
000002c0: 7206 b6ba 5838 fbb9 039e a9ba 0832 eeba
000002d0: cc6b b9b9 b99c a8ba 5e13 80ba 69c4 d0ba
000002e0: e348 0cbb 28b5 afba 4394 d0ba 70c8 dfba
000002f0: 3633 d3ba febf 5eba 20a6 95ba bfe3 c6ba
00000300: 7fd9 9dba e059 c9ba 6cc2 85ba 42ae f9b9
00000310: e0f4 5a3a 3c3f c039 d152 493a 1807 223a
00000320: 4e3e 603a fe32 cd39 3e19 023a 3981 113a
00000330: 726f 513a 1495 8f39 0e6c 063a f723 293a
00000340: da93 313a 8c33 c039 fd9d 1d3a 5051 04b8
00000350: c380 473a c672 213a ac5e 2b3a edd5 333a
00000360: 21a1 843a 6a08 6d39 003c 5fb7 a148 a539
00000370: 25c8 083a f4b4 573a 6f68 4e3a 20b3 9a39
00000380: 44b5 3239 b625 c338 55cf 3f38 1ea8 8239
00000390: 305d f4b8 34f6 75b8 b4f9 b038 1d7e a4b9
000003a0: 5e06 a739 2059 3939 1eb7 f938 7046 2139
000003b0: e0cb 95b9 a42c 7eb9 066a 5cb8 6a1d 3539
000003c0: 4e18 3fb9 803d 1237 f073 6c37 6883 8738
000003d0: 6b17 c7b8 6dd1 dfb9 0282 5e39 bfe9 09b9
000003e0: e099 29b9 029b e4b8 02ed e1b9 804a 32b8
000003f0: f003 a437 e61c ba39 0065 bf36 9599 6b39

exp_avg_sq f4 [45, 28]
2.8354136e-05 1.8366298e-05 1.5358646e-05 3.3970722e-05 3.4809662e-05 8.131644e-06 1.6116232e-05 3.279548e-05
2.7716624e-05 6.978793e-06 1.8858605e-05 4.0212086e-05 1.4559334e-05 2.1419257e-05 1.7281423e-05 2.5075242e-05
1.834131e-05 2.7653434e-05 2.5163503e-05 2.1029658e-05 1.6933696e-05 9.959269e-06 2.0172905e-05 9.478939e-06
1.8176728e-05 1.1322882e-05 3.2150438e-05 3.9622846e-06 0.00051607215 0.00035700665 0.00026498103 0.00060394907
0.0006254618 0.00013061329 0.00026532297 0.00061771995 0.0004900049 0.00011357967 0.00033276243 0.00071613124
0.0002529805 0.00037327566 0.00029377325 0.00043356032 0.00033003985 0.0005039969 0.00045162463 0.000363744
0.00028477533 0.00016678877 0.00038211886 0.00018863502 0.00030702745 0.00018530975 0.00056602777 6.23844e-05
5.9356633e-05 3.943327e-05 3.3314154e-05 7.5103926e-05 7.475752e-05 1.801142e-05 3.5261804e-05 6.973744e-05
6.002534e-05 1.4520404e-05 4.0786716e-05 8.59712e-05 3.0842377e-05 4.6698668e-05 3.665492e-05 5.340676e-05
3.9000555e-05 5.8620415e-05 5.5523706e-05 4.4854285e-05 3.647626e-05 2.1082144e-05 4.2201664e-05 1.8692388e-05
3.8340604e-05 2.5145626e-05 6.866209e-05 8.737604e-06 2.7253322e-05 1.789191e-05 1.4043951e-05 3.0080271e-05
3.2168955e-05 7.455768e-06 1.314324e-05 3.1291733e-05 2.3500259e-05 5.9248096e-06 1.6974727e-05 3.702226e-05
1.32482455e-05 1.9747551e-05 1.4706772e-05 2.1758102e-05 1.6856318e-05 2.5284266e-05 2.2618658e-05 1.9240077e-05
1.392591e-05 8.254772e-06 2.014322e-05 9.814476e-06 1.5484535e-05 9.9548515e-06 2.9715082e-05 3.6926108e-06
5.573918e-05 4.0134484e-05 2.7284981e-05 6.101101e-05 6.4334774e-05 1.28647725e-05 2.7903714e-05 6.605504e-05
5.077941e-05 1.3638613e-05 3.6854537e-05 7.2327704e-05 2.8007185e-05 4.028995e-05 3.0206596e-05 4.6230096e-05
3.6877507e-05 4.7894468e-05 4.4930526e-05 3.9601997e-05 2.9905343e-05 1.7139273e-05 4.184235e-05 2.1142741e-05
3.3175547e-05 1.7765993e-05 6.112801e-05 7.2096427e-06 0.00011812429 7.831249e-05 6.365156e-05 0.00014110038
0.00014514315 3.36527e-05 6.58928e-05 0.00013826648 0.00011470116 2.8368318e-05 7.9360194e-05 0.00016588076
5.972643e-05 8.774098e-05 7.209232e-05 0.000103868006 7.8826924e-05 0.00011404725 0.00010415945 8.6463246e-05
6.8880574e-05 4.049463e-05 8.535557e-05 4.0481238e-05 7.3599505e-05 4.62838e-05 0.00013294368 1.6526541e-05
4.2169082e-05 2.9632973e-05 2.2757691e-05 5.0129645e-05 5.2596955e-05 1.3718379e-05 2.2662174e-05 5.041189e-05
4.279085e-05 8.368694e-06 2.7678014e-05 6.0189584e-05 1.9950261e-05 3.0837873e-05 2.7800024e-05 3.579677e-05
3.0205565e-05 4.1686126e-05 3.8635295e-05 2.9361441e-05 2.4379933e-05 1.4890034e-05 3.183031e-05 1.646709e-05
2.453611e-05 1.759829e-05 4.6858244e-05 6.3188377e-06 4.6223293e-05 3.2082688e-05 2.1459016e-05 5.097091e-05
5.1289986e-05 1.1644187e-05 2.24841e-05 5.4225253e-05 4.101321e-05 1.07232745e-05 2.7886867e-05 6.028281e-05
2.312565e-05 3.3164448e-05 2.5334904e-05 3.662771e-05 2.8608258e-05 4.04387e-05 3.6059933e-05 3.114267e-05
2.4646848e-05 1.4176564e-05 3.270375e-05 1.7312525e-05 2.7662143e-05 1.5165207e-05 5.081062e-05 5.585671e-06
7.7065015e-06 5.9729155e-06 2.9028622e-06 1.2093075e-05 1.15769335e-05 1.7954035e-06 2.1443125e-06 1.1411072e-05
8.406893e-06 1.0056001e-06 3.75398e-06 1.27339945e-05 2.9705313e-06 6.3118628e-06 4.481662e-06 4.2454976e-06
3.7471718e-06 8.645646e-06 7.858916e-06 4.5365314e-06 2.6231921e-06 2.131634e-06 7.120421e-06 2.8132754e-06
4.3511573e-06 2.2584832e-06 8.7077005e-06 7.205669e-07 2.7094287e-05 1.7747388e-05 1.5508243e-05 3.2258216e-05
00000000: 0bda ed37 5311 9a37 71d6 8037 c97b 0e38
00000010: 9700 1238 256d 0837 5831 8737 e18d 0938
00000020: ff80 e837 602b ea36 8c32 9e37 66a9 2838
00000030: dd43 7437 81ad b337 93f7 9037 ac58 d237
00000040: aadb 9937 4cf9 e737 3616 d337 d968 b037
00000050: d60c 8e37 bc16 2737 fc38 a937 bc07 1f37
00000060: 3a7a 9837 68f7 3d37 45d9 0638 c4f3 8436
00000070: 0449 073a 9f2c bb39 27ed 8a39 5652 1e3a
00000080: 08f6 233a 3df5 0839 0c1b 8b39 7cee 213a
00000090: ac73 003a 9f31 ee38 9e76 ae39 c1ba 3b3a
000000a0: 78a2 8439 36b4 c339 9405 9a39 7b4f e339
000000b0: 3309 ad39 a91e 043a 08c8 ec39 e5b4 be39
000000c0: e64d 9539 05e4 2e39 2057 c839 54cc 4539
000000d0: 87f8 a039 b54f 4239 7b61 143a 5fd4 8238
000000e0: b3f5 7838 2765 2538 cdba 0b38 1d81 9d38
000000f0: 23c7 9c38 3b17 9737 13e6 1338 0140 9238
00000100: b8c3 7b38 a99c 7337 6712 2b38 704b b438
00000110: c05c 0138 50de 4338 ecbd 1938 1201 6038
00000120: 8794 2338 31df 7538 20e2 6838 ec21 3c38
00000130: 16fe 1838 8fd9 b037 b101 3138 99cd 9c37
00000140: e9cf 2038 d2ef d237 aefe 8f38 b997 1237
00000150: 109e e437 9616 9637 4f9e 6b37 e454 fc37
00000160: 27ed 0638 8f2c fa36 c981 5c37 3e3f 0338
00000170: 6c22 c537 bacd c636 f364 8e37 5948 1b38
00000180: c844 5e37 8ba7 a537 1bbd 7637 2b85 b637
00000190: ab66 8d37 8c19 d437 33bd bd37 c065 a137
000001a0: 54a3 6937 fa7d 0a37 3cf9 a837 daa8 2437
000001b0: c9e4 8137 c303 2737 a744 f937 92ce 7736
000001c0: 7dc9 6938 1356 2838 0de2 e437 13e6 7f38
000001d0: 78eb 8638 c7d5 5737 c512 ea37 0887 8a38
000001e0: fafb 5438 66d1 6437 4294 1a38 a4ae 9738
000001f0: f9f0 ea37 01fd 2838 2c64 fd37 30e7 4138
00000200: ecac 1a38 4be2 4838 c973 3c38 521a 2638
00000210: 3cdd fa37 4fc6 8f37 e27f 2f38 b15b b137
00000220: f925 0b38 2e08 9537 da31 8038 5cea f136
00000230: 7fb9 f738 b33b a438 ac7c 8538 58f4 1339
00000240: 9131 1839 5026 0d38 ed2f 8a38 a0fb 1039
00000250: b78b f038 80f8 ed37 2e6e a638 47f0 2d39
00000260: c482 7a38 9401 b838 4530 9738 b6d3 d938
00000270: e24f a538 a72c ef38 2e70 da38 9a53 b538
00000280: fa73 9038 c7d8 2938 ec00 b338 66ca 2938
00000290: 6f59 9a38 da20 4238 cc66 0b39 7aa2 8a37
000002a0: b5de 3038 5394 f837 c5e7 be37 4c42 5238
000002b0: 8d9b 5c38 fd27 6637 a61a be37 5b71 5338
000002c0: 537a 3338 4467 0c37 152e e837 1374 7c38
000002d0: dc5a a737 ea57 0138 1934 e937 7d24 1638
000002e0: f561 fd37 23d8 2e38 550c 2238 374d f637
000002f0: 8283 cc37 36d0 7937 8981 0538 ce22 8a37
00000300: e5d2 cd37 0aa0 9337 a889 4438 6706 d436
00000310: e2df 4138 8690 0638 e302 b437 99c9 5538
00000320: 3420 5738 675b 4337 3d9c bc37 ec6f 6338
00000330: 9905 2c38 1de8 3337 97ee e937 2dd8 7c38
00000340: f5fd c137 0e1a 0b38 4b86 d437 b4a0 1938
00000350: c4fb ef37 b99c 2938 0f3f 1738 309f 0238
00000360: b4c0 ce37 e1d7 6d37 622b 0938 5d3a 9137
00000370: 000c e837 116e 7e37 7d1d 5538 8c6c bb36
00000380: 2c4b 0137 f46a c836 cbce 4236 5de3 4a37
00000390: 8d3a 4237 98f9 f035 02e7 0f36 2e72 3f37
000003a0: 550b 0d37 28f8 8635 e3ec 7b36 17a4 5537
000003b0: 5759 4736 7dca d336 2f61 9636 8c74 8e36
000003c0: ec77 7b36 c40c 1137 cad9 0337 8238 9836
000003d0: 190a 3036 310d 0f36 f3eb ee36 b4cb 3c36
000003e0: 2800 9236 7290 1736 4a17 1237 fb6c 4135
000003f0: 8a48 e337 3ae0 9437 b317 8237 ff4c 0738

max_exp_avg_sq f4 [45, 28]
2.8354136e-05 1.8373405e-05 1.5360542e-05 3.3970722e-05 3.4809662e-05 8.138828e-06 1.6116232e-05 3.279548e-05
2.7716624e-05 6.978793e-06 1.8858605e-05 4.0212086e-05 1.4559334e-05 2.1419257e-05 1.7284814e-05 2.5075242e-05
1.8347475e-05 2.7653434e-05 2.5163503e-05 2.1029658e-05 1.6933696e-05 9.963966e-06 2.0172905e-05 9.478939e-06
1.8176728e-05 1.1327724e-05 3.2150438e-05 3.9622846e-06 0.00051614305 0.00035736102 0.00026514777 0.0006044942
0.00062590453 0.00013068623 0.00026534608 0.0006182609 0.0004902466 0.000113661874 0.0003330049 0.00071635604
0.0002532039 0.00037348378 0.00029400486 0.00043374792 0.00033034888 0.0005043231 0.00045175466 0.00036400522
0.00028500054 0.00016694632 0.0003823808 0.00018875375 0.00030726125 0.00018548933 0.0005663496 6.239967e-05
5.9356633e-05 3.943327e-05 3.3314154e-05 7.5103926e-05 7.475752e-05 1.801142e-05 3.5261804e-05 6.973744e-05
6.002534e-05 1.4520404e-05 4.0786716e-05 8.59712e-05 3.0842377e-05 4.6698668e-05 3.665492e-05 5.340676e-05
3.9000555e-05 5.8620415e-05 5.5523706e-05 4.4854285e-05 3.647626e-05 2.1082144e-05 4.2201664e-05 1.8692388e-05
3.8340604e-05 2.5145626e-05 6.866209e-05 8.737604e-06 2.7253322e-05 1.789191e-05 1.4043951e-05 3.0080271e-05
3.2168955e-05 7.455768e-06 1.314324e-05 3.1291733e-05 2.3500259e-05 5.9248096e-06 1.6974727e-05 3.702226e-05
1.32482455e-05 1.9747551e-05 1.4706772e-05 2.1758102e-05 1.6856318e-05 2.5284266e-05 2.2618658e-05 1.9240077e-05
1.392591e-05 8.254772e-06 2.014322e-05 9.814476e-06 1.5484535e-05 9.9548515e-06 2.9715082e-05 3.6926108e-06
5.573918e-05 4.0134484e-05 2.7284981e-05 6.101101e-05 6.4334774e-05 1.28647725e-05 2.7903714e-05 6.605504e-05
5.077941e-05 1.3638613e-05 3.6854537e-05 7.2327704e-05 2.8007185e-05 4.028995e-05 3.0206596e-05 4.6230096e-05
3.6877507e-05 4.7894468e-05 4.4930526e-05 3.9601997e-05 2.9905343e-05 1.7139273e-05 4.184235e-05 2.1142741e-05
3.3175547e-05 1.7765993e-05 6.112801e-05 7.2096427e-06 0.00011812429 7.831249e-05 6.365156e-05 0.00014110038
0.00014514315 3.36527e-05 6.58928e-05 0.00013826648 0.00011470116 2.8368318e-05 7.9360194e-05 0.00016588076
5.972643e-05 8.774098e-05 7.209232e-05 0.000103868006 7.8826924e-05 0.00011404725 0.00010415945 8.6463246e-05
6.8880574e-05 4.049463e-05 8.535557e-05 4.0481238e-05 7.3599505e-05 4.62838e-05 0.00013294368 1.6526541e-05
4.2169082e-05 2.9632973e-05 2.2757691e-05 5.0129645e-05 5.2596955e-05 1.3718379e-05 2.2662174e-05 5.041189e-05
4.279085e-05 8.368694e-06 2.7678014e-05 6.0189584e-05 1.9950261e-05 3.0837873e-05 2.7800024e-05 3.579677e-05
3.0205565e-05 4.1686126e-05 3.8635295e-05 2.9361441e-05 2.4379933e-05 1.4890034e-05 3.183031e-05 1.646709e-05
2.453611e-05 1.759829e-05 4.6858244e-05 6.3188377e-06 4.6223293e-05 3.2082688e-05 2.1459016e-05 5.097091e-05
5.1289986e-05 1.1650138e-05 2.24841e-05 5.4225253e-05 4.101321e-05 1.07232745e-05 2.7886867e-05 6.028281e-05
2.312565e-05 3.3164448e-05 2.5334904e-05 3.662771e-05 2.8608258e-05 4.04387e-05 3.6059933e-05 3.114267e-05
2.4646848e-05 1.4176564e-05 3.270375e-05 1.7312525e-05 2.7662143e-05 1.5165207e-05 5.081062e-05 5.585671e-06
7.7065015e-06 5.9785334e-06 2.9054645e-06 1.2103069e-05 1.1581586e-05 1.7971347e-06 2.1443125e-06 1.1416238e-05
8.411733e-06 1.0063789e-06 3.75398e-06 1.27339945e-05 2.9723803e-06 6.3119564e-06 4.4856383e-06 4.2454976e-06
3.7507755e-06 8.648798e-06 7.864326e-06 4.5365314e-06 2.62497e-06 2.1329847e-06 7.120421e-06 2.8156055e-06
4.3552313e-06 2.2607385e-06 8.7077005e-06 7.205669e-07 2.7126285e-05 1.776137e-05 1.551559e-05 3.2288946e-05
00000000: 0bda ed37 9620 9a37 83da 8037 c97b 0e38
00000010: 9700 1238 008c 0837 5831 8737 e18d 0938
00000020: ff80 e837 602b ea36 8c32 9e37 66a9 2838
00000030: dd43 7437 81ad b337 dbfe 9037 ac58 d237
00000040: e7e8 9937 4cf9 e737 3616 d337 d968 b037
00000050: d60c 8e37 e82a 2737 fc38 a937 bc07 1f37
00000060: 3a7a 9837 340c 3e37 45d9 0638 c4f3 8436
00000070: c64d 073a 2f5c bb39 8803 8b39 eb76 1e3a
00000080: be13 243a d108 0939 261e 8b39 c912 223a
00000090: e483 003a c15d ee38 2997 ae39 d7c9 3b3a
000000a0: 74c0 8439 25d0 c339 aa24 9a39 a968 e339
000000b0: ad32 ad39 8d34 043a 7cd9 ec39 f4d7 be39
000000c0: 206c 9539 500e 2f39 487a c839 33ec 4539
000000d0: e817 a139 ea7f 4239 1477 143a 91dc 8238
000000e0: b3f5 7838 2765 2538 cdba 0b38 1d81 9d38
000000f0: 23c7 9c38 3b17 9737 13e6 1338 0140 9238
00000100: b8c3 7b38 a99c 7337 6712 2b38 704b b438
00000110: c05c 0138 50de 4338 ecbd 1938 1201 6038
00000120: 8794 2338 31df 7538 20e2 6838 ec21 3c38
00000130: 16fe 1838 8fd9 b037 b101 3138 99cd 9c37
00000140: e9cf 2038 d2ef d237 aefe 8f38 b997 1237
00000150: 109e e437 9616 9637 4f9e 6b37 e454 fc37
00000160: 27ed 0638 8f2c fa36 c981 5c37 3e3f 0338
00000170: 6c22 c537 bacd c636 f364 8e37 5948 1b38
00000180: c844 5e37 8ba7 a537 1bbd 7637 2b85 b637
00000190: ab66 8d37 8c19 d437 33bd bd37 c065 a137
000001a0: 54a3 6937 fa7d 0a37 3cf9 a837 daa8 2437
000001b0: c9e4 8137 c303 2737 a744 f937 92ce 7736
000001c0: 7dc9 6938 1356 2838 0de2 e437 13e6 7f38
000001d0: 78eb 8638 c7d5 5737 c512 ea37 0887 8a38
000001e0: fafb 5438 66d1 6437 4294 1a38 a4ae 9738
000001f0: f9f0 ea37 01fd 2838 2c64 fd37 30e7 4138
00000200: ecac 1a38 4be2 4838 c973 3c38 521a 2638
00000210: 3cdd fa37 4fc6 8f37 e27f 2f38 b15b b137
00000220: f925 0b38 2e08 9537 da31 8038 5cea f136
00000230: 7fb9 f738 b33b a438 ac7c 8538 58f4 1339
00000240: 9131 1839 5026 0d38 ed2f 8a38 a0fb 1039
00000250: b78b f038 80f8 ed37 2e6e a638 47f0 2d39
00000260: c482 7a38 9401 b838 4530 9738 b6d3 d938
00000270: e24f a538 a72c ef38 2e70 da38 9a53 b538
00000280: fa73 9038 c7d8 2938 ec00 b338 66ca 2938
00000290: 6f59 9a38 da20 4238 cc66 0b39 7aa2 8a37
000002a0: b5de 3038 5394 f837 c5e7 be37 4c42 5238
000002b0: 8d9b 5c38 fd27 6637 a61a be37 5b71 5338
000002c0: 537a 3338 4467 0c37 152e e837 1374 7c38
000002d0: dc5a a737 ea57 0138 1934 e937 7d24 1638
000002e0: f561 fd37 23d8 2e38 550c 2238 374d f637
000002f0: 8283 cc37 36d0 7937 8981 0538 ce22 8a37
00000300: e5d2 cd37 0aa0 9337 a889 4438 6706 d436
00000310: e2df 4138 8690 0638 e302 b437 99c9 5538
00000320: 3420 5738 f674 4337 3d9c bc37 ec6f 6338
00000330: 9905 2c38 1de8 3337 97ee e937 2dd8 7c38
00000340: f5fd c137 0e1a 0b38 4b86 d437 b4a0 1938
00000350: c4fb ef37 b99c 2938 0f3f 1738 309f 0238
00000360: b4c0 ce37 e1d7 6d37 622b 0938 5d3a 9137
00000370: 000c e837 116e 7e37 7d1d 5538 8c6c bb36
00000380: 2c4b 0137 369b c836 80fb 4236 490e 4b37
00000390: 884e 4237 1435 f135 02e7 0f36 5e88 3f37
000003a0: 1e20 0d37 ea12 8735 e3ec 7b36 17a4 5537
000003b0: 1b79 4736 4bcb d336 5783 9636 8c74 8e36
000003c0: d5b5 7b36 4e1a 1137 06f1 0337 8238 9836
000003d0: a428 3036 6624 0f36 f3eb ee36 bcf3 3c36
000003e0: 2723 9236 31b7 1736 4a17 1237 fb6c 4135
000003f0: 418d e337 40fe 9437 7a27 8237 fe6d 0738

exp_avg f4 [45]
0.00039700815 -0.0032354826 0.0002732114 0.0010772599 0.0011052954 -0.0003788087 -0.0018153205 0.0007807595
-0.00022553638 0.00040205123 6.368972e-05 0.00047856383 -0.00044945162 -0.0011387866 -0.0009307444 0.00046005388
-0.00044900045 0.00021437602 -0.0003869417 -0.00056530023 9.336953e-06 -0.0013270954 0.00016154977 0.0010821801
0.0013530515 -0.0014708748 0.000609986 0.0006626127 8.072186e-05 -0.0003475123 0.0011179519 1.5125843e-05
-0.00062530814 -0.00073012925 0.00013553165 0.0015878421 -5.4174685e-05 -0.0009691538 -0.0009280151 -0.00010696714
0.0006578937 -0.00065073534 0.00058705907 0.0020013063 0.0020004327
00000000: 8825 d039 640a 54bb d03d 8f39 d832 8d3a
00000010: 8fdf 903a d89a c6b9 0cf0 edba e2ab 4c3a
00000020: f67d 6cb9 67ca d239 2891 8538 c0e7 fa39
00000030: 60a4 ebb9 5643 95ba 33fd 73ba 6333 f139
00000040: d267 ebb9 20ca 6039 70de cab9 a830 14ba
00000050: e8a5 1c37 eff1 adba b065 2939 f0d7 8d3a
00000060: e058 b13a 5eca c0ba 78e7 1f3a 30b3 2d3a
00000070: 3849 a938 5032 b6b9 3e88 923a 00c5 7d37
00000080: b8eb 23ba 2566 3fba 801d 0e39 241f d03a
00000090: a039 63b8 d00e 7eba 0a46 73ba 8c53 e0b8
000000a0: 8076 2c3a 1c96 2aba dee4 193a 5928 033b
000000b0: b119 033b

exp_avg_sq f4 [45]
6.055277e-05 0.0010921311 0.00013016751 5.589613e-05 0.00011272284 0.00025035118 8.838199e-05 9.2719245e-05
2.2835513e-05 5.5814387e-05 1.9664369e-05 0.00038828075 0.001088549 8.038079e-05 0.00031945657 2.2694578e-05
1.6238617e-05 0.00022867102 0.00081798574 0.0013202499 4.9299365e-06 7.163545e-05 0.00021015258 3.5403442e-05
0.001676744 0.0003661659 3.8224374e-05 0.00011843334 9.389132e-05 0.0015657154 0.00015405456 0.0003626578
0.00012296131 1.6648895e-05 0.00017679858 0.00027618345 3.2824617e-05 0.0001313689 0.00039392384 1.1791467e-05
0.00016724985 1.9594969e-05 6.0297974e-05 0.00037886846 0.0001253187
00000000: 0bfa 7d38 d725 8f3a 937d 0839 0372 6a38
00000010: 9d65 ec38 9141 8339 b859 b938 4472 c238
00000020: e48e bf37 3e1a 6a38 e9f4 a437 2992 cb39
00000030: a5ad 8e3a 1c92 a838 bc7c a739 3c60 be37
00000040: 2a38 8837 69c7 6f39 186e 563a 3c0c ad3a
00000050: d56b a536 fd3a 9638 675c 5c39 287e 1438
00000060: 31c6 db3a f5f9 bf39 1c53 2038 6a5f f838
00000070: 85e7 c438 b138 cd3a b589 2139 1b23 be39
00000080: 2def 0039 3ba9 8b37 0263 3939 b7cc 9039
00000090: 2aad 0938 12c0 0939 9087 ce39 f7d3 4537
000000a0: ca5f 2f39 e05f a437 75e8 7c38 dda2 c639
000000b0: fb67 0339

max_exp_avg_sq f4 [45]
6.055277e-05 0.0010928586 0.00013016751 5.589613e-05 0.00011272284 0.00025035118 8.838199e-05 9.2719245e-05
2.2848535e-05 5.5857992e-05 2.2022288e-05 0.00038828075 0.001088549 8.047474e-05 0.00031970599 2.2716962e-05
1.6535943e-05 0.00022867102 0.00081798574 0.0013202499 4.934171e-06 7.163545e-05 0.00021015258 3.5403442e-05
0.0016767844 0.00036651985 3.832833e-05 0.00011843334 9.3963994e-05 0.0015657154 0.00015405456 0.0003629341
0.00012316991 1.6648895e-05 0.00017679858 0.00027645583 3.2852127e-05 0.0001313689 0.00039392384 1.4483104e-05
0.00016732202 1.9594969e-05 6.0297974e-05 0.00037924104 0.0001253187
00000000: 0bfa 7d38 403e 8f3a 937d 0839 0372 6a38
00000010: 9d65 ec38 9141 8339 b859 b938 4472 c238
00000020: dbaa bf37 1049 6a38 81bc b837 2992 cb39
00000030: a5ad 8e3a 8cc4 a838 369e a739 4e90 be37
00000040: abb6 8a37 69c7 6f39 186e 563a 3c0c ad3a
00000050: 3590 a536 fd3a 9638 675c 5c39 287e 1438
00000060: 8cc7 db3a 7629 c039 bbc2 2038 6a5f f838
00000070: 890e c538 b138 cd3a b589 2139 3148 be39
00000080: 2c27 0139 3ba9 8b37 0263 3939 46f1 9039
00000090: b4ca 0938 12c0 0939 9087 ce39 75fc 7237
000000a0: 2a73 2f39 e05f a437 75e8 7c38 dfd4 c639
000000b0: fb67 0339

exp_avg f4 [3, 45]
-0.0012266315 -0.004073712 -0.0006077604 -0.00010408519 -0.0011923824 -0.0033368021 -0.0028978023 0.00065029203
0.005082159 -0.0014399958 0.004091615 -0.0003678091 -0.0032143486 -0.0018631881 -0.0010473031 0.0010387935
0.00036245398 0.0012456686 -0.0026536663 -0.005085796 0.0059605525 -0.0015311659 0.0009605747 0.00019903283
-0.00087289326 -0.0048502255 0.002106315 -0.0022030836 0.0005423753 -0.0014066983 -0.0016130484 0.00045487797
-0.00061831134 -0.00082014524 -0.001231486 0.0013855721 0.0038067806 -0.0012926912 -0.0027029337 0.003900609
0.002647875 0.004426069 -0.0011128781 0.00015997421 -0.00068881456 0.0012530638 0.0013237242 -0.00025696924
-0.0010561044 0.00022752219 0.0018849084 0.0012786782 0.0011806369 -0.0014821538 -0.00075943925 -0.0016411254
-0.00043169572 0.00051943166 0.002036875 0.00022138323 -0.00022134633 -0.0015786039 -0.00043759216 0.0015313325
0.0019348105 -0.0014229561 6.3030806e-05 0.0009550342 -7.958489e-05 -0.00032674125 0.002136387 -0.0015394122
0.0008467892 4.481408e-06 0.0007803998 0.00068579917 -0.0012462635 0.0013296964 -0.0007613725 0.00019920943
0.00059271726 -0.0015120986 0.0006556773 0.003154943 -0.0012367982 -0.0010858437 -0.0016700197 -0.00021196036
0.00064311037 0.0011389004 -0.003594147 -0.0049769175 -0.00082836684 -0.0005736321 -0.0005811592 -0.0064919456
-0.0022394992 -0.0029700936 0.004053891 0.00070636056 0.0035487912 -0.0021324926 -0.002142369 -0.0035046258
-0.00015877602 -9.432137e-05 0.005126552 0.002088526 -0.0044744853 -0.008396672 0.006931121 0.0005966579
-0.0013223535 -0.00077628426 4.245875e-05 -0.0064887507 -0.0002580522 -0.0065107383 -0.00016396595 -0.000605066
-0.0048343977 0.0004055999 -0.0021165446 0.0007828985 -0.0018409408 -0.0012483408 0.004402276 -0.0018297967
-0.004272992 0.003332994 0.0018962523 0.0026848414 -8.995976e-05 -0.0013768128 -0.0053732563
00000000: ecc6 a0ba c67c 85bb 1c52 1fba 5048 dab8
00000010: b749 9cba 40ae 5abb 0ee9 3dbb 5c78 2a3a
00000020: 3d88 a63b 3ebe bcba f412 863b 80d6 c0b9
00000030: d2a7 52bb 3836 f4ba a945 89ba 2028 883a
00000040: c007 be39 b445 a33a 22e9 2dbb c0a6 a6bb
00000050: bd50 c33b 67b1 c8ba 14cf 7b3a 78b3 5039
00000060: e0d2 64ba a4ee 9ebb 1a0a 0a3b 9c61 10bb
00000070: 312e 0e3a f660 b8ba ec6c d3ba b07c ee39
00000080: 2c16 22ba 04ff 56ba d069 a1ba 169c b53a
00000090: 2e7b 793b 856f a9ba b423 31bb 5ca1 7f3b
000000a0: f987 2d3b 8f08 913b fedd 91ba c0be 2739
000000b0: 9091 34ba d83d a43a d080 ad3a d4b9 86b9
000000c0: fc6c 8aba 0693 6e39 080f f73a 5299 a73a
000000d0: 9abf 9a3a d444 c2ba 1b15 47ba 081b d7ba
000000e0: 3855 e2b9 782a 083a 187d 053b 1c23 6839
000000f0: 3419 68b9 28e9 ceba a06c e5b9 feb6 c83a
00000100: 7899 fd3a 7c82 baba 682f 8438 435b 7a3a
00000110: d0e6 a6b8 784e abb9 a002 0c3b 1ac6 c9ba
00000120: 10fb 5d3a 005f 9636 be93 4c3a 34c7 333a
00000130: aa59 a3ba 3549 ae3a d896 47ba e0e2 5039
00000140: 9560 1b3a 9c31 c6ba c2e1 2b3a 29c3 4e3b
00000150: 101c a2ba de52 8eba 90e4 daba ad41 5eb9
00000160: 6896 283a 2847 953a c88b 6bbb 6915 a3bb
00000170: c226 59ba cc5f 16ba ef58 18ba 63ba d4bb
00000180: 90c4 12bb e7a5 42bb 81d6 843b 0e2b 393a
00000190: d692 683b 4ac1 0bbb fd66 0cbb ddad 65bb
000001a0: 1d7d 26b9 66ce c5b8 a3fc a73b a7df 083b
000001b0: b49e 92bb 3292 09bc 751e e33b 0969 1c3a
000001c0: d252 adba 8e7f 4bba bc15 3238 969f d4bb
000001d0: 2e4b 87b9 0858 d5bb 46ee 2bb9 4b9d 1eba
000001e0: de69 9ebb b2a6 d439 bab5 0abb 6e3b 4d3a
000001f0: b94b f1ba 5e9f a3ba f840 903b cad5 efba
00000200: 7404 8cbb 5c6e 5a3b ab8b f83a 2af4 2f3b
00000210: c7a8 bcb8 2c76 b4ba 2412 b0bb

exp_avg_sq f4 [3, 45]
0.0015643901 0.0009041566 0.00012756804 6.0474267e-05 0.00012631979 0.002517825 0.00052118517 0.00011435524
0.0017389789 7.422593e-05 0.001048821 0.00022820923 0.0005248176 0.00057795737 1.515071e-05 1.9696123e-05
0.0016997387 0.00040330098 0.00090097525 0.002812339 0.002587738 2.9132152e-05 2.8525683e-05 0.00012882236
0.0001359921 0.0018962838 6.513089e-05 0.0015169767 2.6473592e-05 0.00022236201 0.0007944443 0.00033794297
0.00022337199 8.658854e-05 0.00041427548 1.7657929e-05 0.00084163196 0.00020631564 0.0012347219 0.0011452037
0.0005132357 0.0016863927 0.0001271631 0.00044104544 0.0015703979 0.00058632577 0.00031987246 4.8909707e-05
2.2880304e-05 4.676718e-05 0.0009332472 0.0001942911 3.7430862e-05 0.0006310455 4.108057e-05 0.00035776626
8.9367524e-05 0.00020882257 0.00021366676 6.819418e-06 2.0860862e-05 0.0005611492 0.00014866662 0.00033524653
0.0009986755 0.00090856734 1.23878535e-05 1.8246135e-05 5.1174753e-05 5.2809257e-05 0.00067483244 2.4742145e-05
0.00056732737 1.3455181e-05 8.316938e-05 0.0002800833 0.00013556017 8.069451e-05 2.8732347e-05 0.00017877828
7.839825e-06 0.0002784675 7.71715e-05 0.00041559406 0.0003971842 0.00018790395 0.0006263108 5.3173273e-05
0.00016819163 0.0005579069 0.0024780354 0.0014222233 0.00020845686 9.8747056e-05 0.00019297158 0.0040542725
0.000786907 0.00016088854 0.002829904 0.00011629507 0.0017943479 0.0003724185 0.00084930816 0.00087221025
2.0641379e-05 3.2721928e-05 0.0027787713 0.00064493774 0.0014712814 0.004714208 0.004339022 3.681761e-05
3.8947248e-05 0.00021116984 0.00022233627 0.0030732516 9.4498464e-05 0.0025218977 3.8779937e-05 0.00035273543
0.0012957831 0.0005242141 0.00033540075 0.00013503936 0.00063703384 2.2982978e-05 0.0014267255 0.00031174405
0.0019433411 0.001943282 0.0008360281 0.0027601118 0.00017509639 0.00072201574 0.002641244
00000000: 390c cd3a ec04 6d3a c9c3 0539 c0a5 7d38
00000010: b674 0439 1802 253b 25a0 083a 01d2 ef38
00000020: 73ee e33a bea9 9b38 9878 893a 734b 6f39
00000030: ea93 093a 1082 173a ce2f 7e37 1a39 a537
00000040: c4c9 de3a 2472 d339 6d2f 6c3a 384f 383b
00000050: 0a97 293b d260 f437 704a ef37 7d14 0739
00000060: 1a99 0e39 ba8c f83a e196 8838 4bd5 c63a
00000070: 9b13 de37 d929 6939 4142 503a f02d b139
00000080: f638 6a39 de96 b538 1d33 d939 1d20 9437
00000090: f7a0 5c3a 6f56 5839 64d6 a13a a91a 963a
000000a0: aa8a 063a f309 dd3a 1657 0539 1e3c e739
000000b0: cfd5 cd3a a8b3 193a 8eb4 a739 6624 4d38
000000c0: 14ef bf37 e127 4438 29a5 743a 9fba 4b39
000000d0: 15ff 1c38 bf6c 253a ed4d 2c38 9392 bb39
000000e0: d36a bb38 62f7 5a39 bc0b 6039 5bd2 e436
000000f0: 5cfe ae37 161a 133a 64e3 1b39 07c4 af39
00000100: fde5 823a ec2c 6e3a 6dd5 4f37 470f 9937
00000110: 79a4 5638 827f 5d38 3de7 303a 5a8d cf37
00000120: b2b8 143a 90bd 6137 396b ae38 25d8 9239
00000130: 2825 0e39 893a a938 3f06 f137 6e76 3b39
00000140: cb87 0337 46ff 9139 22d7 a138 17e4 d939
00000150: 293d d039 1508 4539 022f 243a 5e06 5f38
00000160: 995c 3039 8040 123a 8966 223b e569 ba3a
00000170: 3695 5a39 6c16 cf38 6a58 4a39 b4d9 843b
00000180: 6f48 4e3a 30b4 2839 e975 393b 71e3 f338
00000190: 5330 eb3a 2a41 c339 1ba4 5e3a 0aa5 643a
000001a0: 0627 ad37 e73e 0938 0c1c 363b 0a11 293a
000001b0: 03d8 c03a a579 9a3b 5b2e 8e3b 9c6c 1a38
000001c0: 4a5b 2338 796d 5d39 f022 6939 9b68 493b
000001d0: 7a2d c638 6c46 253b a4a7 2238 59ef b839
000001e0: 44d7 a93a 6a6b 093a bad8 af39 5a99 0d39
000001f0: 9efe 263a 92cb c037 f700 bb3a 9471 a339
00000200: b5b7 fe3a b9b5 fe3a e528 5b3a fee2 343b
00000210: 149a 3739 a845 3d3a b918 2d3b
