logs/my_logs/version_0/checkpoints/epoch=763-step=764.ckpt (torch, 41316 bytes, 33 tensors)

encoder.dense1.weight f4 [45, 28]
0.250381 0.2779134 0.09729628 -0.059541617 -0.05041048 0.13539262 0.12223494 0.2161408
0.04962103 -0.069971345 0.079962224 -0.11165312 0.12403523 0.0746959 -0.14074723 0.08834023
0.14284487 -0.012824371 0.1111679 0.12283149 0.09555695 0.06125994 0.26117378 0.020119226
0.019859005 -0.12180092 0.1794954 0.008563482 -0.24982631 -0.11105206 0.013174882 0.099983685
-0.10598527 0.12690419 -0.07735015 -0.23665102 0.0729145 0.17816155 0.009164426 -0.0046867826
0.039408077 -0.012152102 -0.06925876 -0.04429728 -0.2936943 -0.1868228 0.015676599 -0.030375479
0.12614568 -0.0026859196 -0.22834685 -0.12864429 0.0663334 0.046180606 -0.040026177 -0.09809679
-0.1506477 0.0022399242 -0.07021806 0.1218593 -0.09936104 0.20178483 0.091530636 -0.03273527
0.1409703 0.29239032 0.11592778 -0.06577295 0.17642003 0.024592511 0.019693743 -0.051951066
0.04990219 -0.14767049 0.021031182 0.007392036 0.07227555 0.033881694 -0.105403215 -0.12836485
0.12982541 0.11842747 0.018404644 0.036884896 -0.006770671 -0.08213323 0.045726687 0.048452947
-0.02169272 0.047395032 0.2634596 0.07322457 -0.079853125 -0.05296642 -0.14805304 0.057206832
-0.08514218 0.015911652 0.0732697 -0.200629 0.14873162 -0.06534841 -0.036094707 0.015718343
-0.13870293 -0.04878637 -0.1074675 0.0985702 0.05452808 0.19440122 -0.08996395 0.1462732
0.06402953 0.026196646 0.050520282 -0.14611171 -0.26302555 -0.070765235 0.2269669 -0.10318375
-0.10514201 0.2556253 0.070050165 -0.20314796 0.11788335 0.15592165 -0.058070198 0.15237522
-0.10625747 -0.22967564 -0.16796444 0.1493597 0.060123745 0.02955417 -0.0034018012 -0.026603634
0.15097994 -0.017336097 0.07041641 -0.04634693 0.14346686 -0.065260805 0.020067535 -0.09595548
0.10174282 0.034246776 -0.021790525 -0.04505586 -0.009419982 0.3308862 0.07793897 0.0044454234
0.2629609 0.12621415 -0.11574577 0.11195911 -0.12967637 -0.102904074 -0.117797635 0.15778087
0.058222726 -0.02063665 0.01207724 0.032190334 0.14480926 -0.0077856374 0.31018052 -0.10867234
-0.013459913 0.13971625 0.20396088 -0.025477553 -0.055750802 -0.108704984 -0.06786125 -0.00054261956
-0.0056771743 -0.051111367 0.06507854 -0.030817384 -0.05480845 -0.024232326 -0.07173004 0.1869656
-0.041691024 -0.01872625 0.049028464 0.12803605 -0.10989005 -0.20533499 0.019044803 -0.04776127
-0.14253828 -0.19021952 0.023805954 0.06215057 0.025463834 0.11740628 0.11183112 0.074941546
0.10553367 -0.048547868 -0.03736929 0.16093597 -0.16816218 0.027640248 0.12097793 0.20684136
0.031353325 -0.025979456 0.18729098 0.07774027 0.15811184 -0.053337548 -0.08239699 0.12859488
-0.097297296 -0.009166895 0.123009235 0.12125971 0.1621788 0.051646076 0.104927935 0.09278395
0.0111980615 -0.079616 -0.33844286 -0.26131406 -0.16228047 -0.23193146 -0.23543999 0.0053631375
-0.332709 0.20736037 0.049668863 -0.3168781 0.10077746 0.118597046 -0.26827893 -0.25656378
-0.36037755 -0.2905458 -0.26531345 -0.11796951 -0.21497065 -0.15895481 -0.07843368 -0.023219595
0.0941723 -0.3724195 0.11713578 -0.17744283 0.026481114 0.04409638 0.075895086 0.035478733
00000000: f031 803e aa4a 8e3e 4643 c73d e9e1 73bd
00000010: 387b 4ebd 5da4 0a3e 5056 fa3d 0454 5d3e
00000020: 6c3f 4b3d 234d 8fbd 3cc3 a33d 64aa e4bd
00000030: 2f06 fe3d 2afa 983d 0b20 10be b9eb b43d
00000040: ed45 123e 501d 52bc ffab e33d 148f fb3d
00000050: 5db3 c33d b4eb 7a3d 92b8 853e 13d1 a43c
00000060: 5aaf a23c c372 f9bd a4cd 373e d94d 0c3c
00000070: 78d2 7fbe 436f e3bd 76db 573c 3fc4 cc3d
00000080: ce0e d9bd 2cf3 013e c169 9ebd a554 72be
00000090: 3354 953d fb6f 363e 6326 163c 9593 99bb
000000a0: 5d6a 213d 9c19 47bc 89d7 8dbd 1171 35bd
000000b0: 195f 96be 7a4e 3fbe 366c 803c ffd5 f8bc
000000c0: 552c 013e 4106 30bb c2d3 69be 54bb 03be
000000d0: ced9 873d e027 3d3d 7df2 23bd f8e6 c8bd
000000e0: 6443 1abe b1cb 123b 7cce 8fbd 5e91 f93d
000000f0: cd7d cbbd afa0 4e3e 6a74 bb3d 6b15 06bd
00000100: 855a 103e 2fb4 953e 8b6b ed3d f8b3 86bd
00000110: 74a7 343e 3c76 c93c c654 a13c a4ca 54bd
00000120: 3d66 4c3d ef36 17be 9649 ac3c e438 f23b
00000130: 3405 943d 88c7 0a3d a4dd d7bd 1372 03be
00000140: f4f0 043e 1a8a f23d 56c5 963c 9e14 173d
00000150: 81dc ddbb 7835 a8bd e84b 3b3d 9976 463d
00000160: eeb4 b1bc 4b21 423d 2de4 863e c3f6 953d
00000170: 098a a3bd 51f3 58bd 379b 17be b651 6a3d
00000180: 065f aebd 2759 823c 6d0e 963d b071 4dbe
00000190: 1a4d 183e 63d5 85bd 0bd8 13bd c1c3 803c
000001a0: 2408 0ebe 37d4 47bd ec17 dcbd 2cdf c93d
000001b0: d658 5f3d 1d11 473e 053f b8bd a4c8 153e
000001c0: ea21 833d 599a d63c 5bee 4e3d 4f9e 15be
000001d0: 49ab 86be 5ded 90bd 036a 683e 0052 d3bd
000001e0: b254 d7bd 52e1 823e 7676 8f3d 0506 50be
000001f0: d36c f13d eda9 1f3e 04db 6dbd 4008 1c3e
00000200: 849d d9bd 1730 6bbe dffe 2bbe c0f1 183e
00000210: 5144 763d 961b f23c c1f0 5ebb ddef d9bc
00000220: 7c9a 1a3e 6e04 8ebc 7b36 903d 47d6 3dbd
00000230: fae8 123e 75a7 85bd ac64 a43c 4f84 c4bd
00000240: 8a5e d03d 5946 0c3d 0b82 b2bc 7e8c 38bd
00000250: 4556 1abc ea69 a93e 779e 9f3d eaaa 913b
00000260: d0a2 863e 483e 013e 1e0c edbd d14a e53d
00000270: e2c9 04be 5fbf d2bd e33f f1bd 4f91 213e
00000280: f47a 6e3d 310e a9bc 9edf 453c 03da 033d
00000290: e148 143e a91e ffbb fbcf 9e3e 9b8f debd
000002a0: f886 5cbc c711 0f3e 1fdb 503e 4db6 d0bc
000002b0: f45a 64bd b8a0 debd d7fa 8abd 953e 0eba
000002c0: 9707 babb 275a 51bd e647 853d bd74 fcbc
000002d0: d37e 60bd df82 c6bc 33e7 92bd e973 3f3e
000002e0: 35c4 2abd cb67 99bc 12d2 483d e21b 033e
000002f0: 090e e1bd 5643 52be d903 9c3c 52a1 43bd
00000300: 8ef5 11be e8c8 42be b404 c33c 9991 7e3d
00000310: 8899 d03c b472 f03d b707 e53d f47a 993d
00000320: 0922 d83d 21da 46bd 8a10 19bd 66cc 243e
00000330: b532 2cbe cd6d e23c 47c3 f73d 39ce 533e
00000340: 586c 003d ded2 d4bc 35c9 3f3e 4a36 9f3d
00000350: 12e8 213e 7978 5abd c1bf a8bd 60ae 033e
00000360: ce43 c7bd bf30 16bc 44ec fb3d 0357 f83d
00000370: 3312 263e d68a 533d 75e4 d63d 8305 be3d
00000380: 1378 373c b70d a3bd 6248 adbe f5ca 85be
00000390: da2c 26be 717f 6dbe 2e17 71be 42bd af3b
000003a0: d658 aabe 4756 543e 9471 4b3d d93d a2be
000003b0: 6a64 ce3d 02e3 f23d db5b 89be 545c 83be
000003c0: 6883 b8be 6bc2 94be 2ad7 87be 009a f1bd
000003d0: 4421 5cbe 0dc5 22be d6a1 a0bd 0537 bebc
000003e0: 68dd c03d c5ad bebe e2e4 ef3d 93b3 35be
000003f0: ecee d83c 689e 343d e26e 9b3d 2652 113d

encoder.dense1.bias f4 [45]
-0.35850298 0.41303992 -0.41000006 0.042110503 -0.10086767 0.34913418 0.1973862 -0.4324725
0.19168198 -0.36473167 -0.36674175 0.21585722 0.113241665 -0.09303488 0.13702753 0.5257214
-0.11192969 0.35385528 0.5445538 0.2275495 0.17457832 -0.22176959 0.25445104 0.09558982
0.5930882 -0.14803842 -0.41377714 -0.26400387 0.123681046 -0.028130088 -0.30503768 0.3557349
0.38713157 0.28116935 0.12727305 -0.10485843 -0.31497878 -0.27789584 0.34594455 -0.22435689
-0.06631648 0.18637592 -0.28508306 -0.036255714 -0.44945028
00000000: b48d b7be f879 d33e 87eb d1be 107c 2c3d
00000010: b593 cebd b7c1 b23e 9c1f 4a3e 096d ddbe
00000020: 4848 443e 1cbe babe 93c5 bbbe ad09 5d3e
00000030: 3feb e73d 1289 bebd f250 0c3e ad95 063f
00000040: 653b e5bd 852c b53e e167 0b3f bc02 693e
00000050: a9c4 323e 9117 63be 6847 823e 98c4 c33d
00000060: a1d4 173f 6297 17be 99da d3be 842b 87be
00000070: 7d4c fd3d 1271 e6bc e62d 9cbe e322 b63e
00000080: 1c36 c63e 6ef5 8f3e de53 023e 04c0 d6bd
00000090: e644 a1be 5d48 8ebe a51f b13e d0bd 65be
000000a0: efd0 87bd 54d9 3e3e 68f6 91be df80 14bd
000000b0: 591e e6be

encoder.dense3m.weight f4 [3, 45]
0.18390922 -0.07304498 0.26719388 -0.09087291 0.14612772 0.25952956 0.009547415 0.23398174
0.03634227 0.17903882 0.055899892 0.043161694 -0.2750141 -0.049793523 0.067510486 -0.2735048
-0.07671669 -0.07016299 -0.047337893 0.08949693 -0.113401644 0.08582345 -0.28425455 -0.09905929
-0.18729122 0.049433224 0.34023172 0.22375207 -0.026464945 -0.108242504 0.027610416 -0.02426698
-0.11865269 -0.043179408 -0.11232153 0.04800505 -0.09211772 0.16790296 -0.19935335 0.27518156
0.08993149 -0.086639665 0.13074702 -0.10467069 0.21317746 0.26910505 -0.1543447 -0.069880925
-0.00424228 -0.0438916 -0.14897063 -0.031229835 0.30173734 -0.044080194 0.027426397 0.16570899
0.10385421 0.03199613 -0.15231165 0.01253031 -0.1539206 -0.032874297 -0.21822241 -0.29009345
-0.27354428 0.034092966 0.14091724 0.2471269 -0.021880288 -0.36255813 0.104890786 0.21435963
-0.001181386 0.28415552 0.09870865 -0.11774864 -0.12643449 -0.15460925 -0.09489732 -0.29007277
-0.08814295 -0.012896523 -0.054891493 -0.12330292 0.013144812 -0.15010971 0.08250901 -0.01998155
0.04555817 0.065472335 -0.06706948 0.09046568 -0.1617908 -0.049935002 0.1552292 0.233926
0.0994765 -0.16926378 0.1591276 -0.13590251 0.007298265 0.14803915 -0.081814826 -0.15138058
0.20954199 0.29017195 -0.113771714 0.19903031 0.24886115 0.029331928 0.10361698 -0.0940736
0.031897157 0.02022771 0.18469572 0.009929831 -0.2015046 -0.18826641 0.1754275 -0.03698405
-0.22639865 0.30505976 0.2711536 0.11976799 -0.10899926 -0.10017546 -0.18695466 -0.107768744
-0.064759605 0.030237522 -0.07383387 0.21081941 -0.37444606 -0.06733313 -0.15960018
00000000: b352 3c3e 9b98 95bd a3cd 883e 941b babd
00000010: 81a2 153e 0fe1 843e c36c 1c3c e998 6f3e
00000020: a2db 143d f455 373e 49f7 643d 51ca 303d
00000030: a6ce 8cbe 4bf4 4bbd f042 8a3d d208 8cbe
00000040: a41d 9dbd 9db1 8fbd 61e5 41bd 2b4a b73d
00000050: 1f3f e8bd 34c4 af3d d089 91be 99df cabd
00000060: 45c9 3fbe 7e7a 4a3d da32 ae3e 431f 653e
00000070: 03cd d8bc 3fae ddbd 3d2f e23c 8ccb c6bc
00000080: 2e00 f3bd e4dc 30bd d508 e6bd f1a0 443d
00000090: 37a8 bcbd c1ee 2b3e 4923 4cbe 99e4 8c3e
000000a0: 002e b83d 2370 b1bd 8ce2 053e 965d d6bd
000000b0: 314b 5a3e 23c8 893e 890c 1ebe bb1d 8fbd
000000c0: d302 8bbb aec7 33bd c28b 18be b6d5 ffbc
000000d0: 517d 9a3e 6f8d 34bd 53ad e03c 9eaf 293e
000000e0: 84b1 d43d 600e 033d 96f7 1bbe ee4b 4d3c
000000f0: 5d9d 1dbe 33a7 06bd b275 5fbe 2187 94be
00000100: ff0d 8cbe 11a5 0b3d 9c4c 103e d60e 7d3e
00000110: 4a3e b3bc 38a1 b9be fbd0 d63d 1781 5b3e
00000120: bcd8 9aba d57c 913e c327 ca3d 3326 f1bd
00000130: 0b78 01be e351 1ebe 8759 c2bd 6b84 94be
00000140: 4a84 b4bd f04b 53bc e7d5 60bd 3e86 fcbd
00000150: 565d 573c 5cb6 19be 7cfa a83d 59b0 a3bc
00000160: 349b 3a3d 5c16 863d b95b 89bd 1246 b93d
00000170: 7dac 25be a588 4cbd 67f4 1e3e 4c8a 6f3e
00000180: 56ba cb3d 7c53 2dbe 58f2 223e 072a 0bbe
00000190: 4926 ef3b 9397 173e 888e a7bd 8303 1bbe
000001a0: 2d92 563e 6b91 943e 2501 e9bd 9ace 4b3e
000001b0: 75d5 7e3e 8349 f03c 2435 d43d a9a9 c0bd
000001c0: 98a6 023d 95b4 a53c e020 3d3e bbb0 223c
000001d0: 3957 4ebe e9c8 40be 44a3 333e 967c 17bd
000001e0: 0cd5 67be cb30 9c3e a5d4 8a3e ec48 f53d
000001f0: 013b dfbd cb28 cdbd 0b71 3fbe dcb5 dcbd
00000200: afa0 84bd aeb4 f73c 3636 97bd 0be1 573e
00000210: 65b7 bfbe f4e5 89bd 3b6e 23be

encoder.dense3m.bias f4 [3]
-0.13294269 -0.15650196 0.074995495
00000000: 2122 08be 0d42 20be 3d97 993d

encoder.dense3s.weight f4 [3, 45]
-0.0326031 0.0015499478 0.048069395 -0.03440127 0.15201224 -0.0924721 -0.03476875 0.1559889
-0.049865577 -0.098287664 0.003247455 -0.07889499 0.038383693 -0.06473705 0.059364498 0.20475443
0.2913333 -0.042361777 0.033972047 -0.05708052 0.025271436 0.07597201 -0.11556109 -0.025132544
-0.13875811 -0.08516388 0.13419984 0.09431404 0.058481693 0.31465733 0.040502485 -0.049206145
-0.050073992 -0.05521722 -0.02367103 0.0071549714 0.085119925 0.035646256 -0.057794645 0.021526748
0.008915673 0.04344535 0.043526538 -0.056038976 -0.038521677 0.068189465 0.16628799 -0.0037846686
0.02048387 -0.034488276 -0.0742777 -0.036373056 0.0407013 0.019175658 -0.014576351 0.14262044
0.08644892 -0.01999071 -0.014526435 -0.033280555 -0.039105497 0.13500986 -0.05617486 -0.012156612
-0.002564421 0.023366893 0.07255494 -0.062159084 0.053493734 -0.08842804 -0.012023618 0.0037130765
-0.00725438 0.03377872 -0.044929046 -0.034586675 -0.07353685 -0.09681694 0.010747645 -0.066976905
-0.059480984 0.0035510482 -0.019773109 -0.030018859 0.08719268 0.008467505 0.0038933489 0.12786329
-0.029837614 0.26414326 0.0035594949 -0.017547205 0.037352286 -0.0047731646 -0.06340056 -0.032114107
-0.046016954 0.108746596 0.24818921 0.17007884 0.03222183 -0.075259045 0.008602277 0.030949336
0.051837433 0.02202899 0.05337983 -0.037720546 -0.03589125 -0.08191431 -0.02807561 -0.01209803
-0.024593938 -0.023373554 -0.046201944 -0.07133226 0.09956487 0.067877464 -0.014549417 0.09614415
0.04347222 -0.096595466 -0.037150428 -0.08770827 -0.014425044 0.0014160965 0.13274452 0.016235147
-0.10439926 0.3092494 0.04987029 0.18249698 0.078999765 0.040931825 0.03499674
00000000: d48a 05bd 9e27 cb3a 6ae4 443d 59e8 0cbd
00000010: 19a9 1b3e 0362 bdbd ad69 0ebd 8ebb 1f3e
00000020: d93f 4cbd 0b4b c9bd 41d3 543b b293 a1bd
00000030: 3838 1d3d dc94 84bd 3028 733d 25ab 513e
00000040: a329 953e 8b83 2dbd 4626 0b3d 43cd 69bd
00000050: 0b06 cf3c 3797 9b3d 4bab ecbd c4e2 cdbc
00000060: 9b16 0ebe 666a aebd af6b 093e b827 c13d
00000070: 808a 6f3d c41a a13e efe5 253d 628c 49bd
00000080: 631a 4dbd 742b 62bd bfe9 c1bc 4074 ea3b
00000090: 5b53 ae3d cf01 123d 14ba 6cbd dd58 b03c
000000a0: 0b13 123c c0f3 313d e248 323d 2089 65bd
000000b0: e8c8 1dbd eba6 8b3d 6647 2a3e 3408 78bb
000000c0: cacd a73c 9443 0dbd e81e 98bd eafb 14bd
000000d0: 68b6 263d 4516 9d3c a6d1 6ebc 180b 123e
000000e0: 220c b13d 8fc3 a3bc 4900 6ebc 3151 08bd
000000f0: 162d 20bd 0640 0a3e 9c17 66bd 872c 47bc
00000100: d80f 28bb ed6b bf3c af97 943d 869a 7ebd
00000110: 3f1c 5b3d c319 b5bd b6fe 44bc 1657 733b
00000120: 26b6 edbb 8e5b 0a3d 8507 38bd c2aa 0dbd
00000130: 7d9a 96bd f647 c6bd e416 303c 302b 89bd
00000140: 55a2 73bd b4b8 683b 37fb a1bc 1cea f5bc
00000150: 1392 b23d 4abb 0a3c 8e27 7f3b 98ee 023e
00000160: 036e f4bc c93d 873e 6a46 693b 28bf 8fbc
00000170: b6fe 183d 3568 9cbb 27d8 81bd 158a 03bd
00000180: 467c 3cbd 89b6 de3d 5025 7e3e 2629 2e3e
00000190: 0afb 033d 6a21 9abd 91f0 0c3c 7689 fd3c
000001a0: 7d53 543d 2476 b43c cfa4 5a3d dc80 1abd
000001b0: b402 13bd b1c2 a7bd d2fe e5bc d136 46bc
000001c0: 3a79 c9bc e579 bfbc 403e 3dbd a616 92bd
000001d0: abe8 cb3d 5703 8b3d ae60 6ebc 39e7 c43d
000001e0: ed0f 323d d8d3 c5bd 0c2b 18bd 65a0 b3bd
000001f0: 0557 6cbc 509c b93a 2eee 073e 92ff 843c
00000200: 47cf d5bd f055 9e3e ca44 4c3d 7de0 3a3e
00000210: a1ca a13d 21a8 273d be58 0f3d

encoder.dense3s.bias f4 [3]
-0.13214818 -0.04854564 0.0063248468
00000000: da51 07be cbd7 46bd a940 cf3b

decoder.linear.bias f4 [28]
0.7357812 0.1276495 -0.5280422 0.9699435 1.0002193 -1.138136 -0.64013064 1.1982628
0.56465214 -1.5265762 -0.17145659 1.4654019 -0.538545 0.17251791 -0.30304182 0.22756748
-0.2061039 0.58385825 0.38788816 -0.037249036 -0.5025265 -0.9134804 0.25248712 -0.7942418
-0.119317174 -1.0171984 1.065919 -1.5382944
00000000: 285c 3c3f 8db6 023e c62d 07bf 384e 783f
00000010: 3007 803f 71ae 91bf 9adf 23bf ad60 993f
00000020: 0b8d 103f d966 c3bf 5192 2fbe 4a92 bb3f
00000030: 16de 09bf 89a8 303e 4c28 9bbe 7307 693e
00000040: e70c 53be bc77 153f 4799 c63e 7292 18bd
00000050: 94a5 00bf dad9 69bf fe45 813e 6e53 4bbf
00000060: 905c f4bd 8f33 82bf 0970 883f d5e6 c4bf

decoder.linear.weight_orig f4 [28, 3]
0.93712664 1.1455818 0.3975346 -0.31902003 1.3480061 0.10443294 0.50252473 -0.17947587
-1.4406371 -0.48399195 0.17683876 -0.8830923 -0.044385493 0.483369 -0.49586445 -0.39614734
0.06622827 -1.2931361 1.0048449 0.26785618 -1.4668428 0.283839 1.3107296 0.45384288
-0.49234787 -0.53251517 -1.2696235 1.7134732 -0.33072594 0.45938897 1.364106 -0.3833719
-0.38153946 0.64359367 -0.47155574 -1.2212557 1.8047032 0.14654315 -0.04112208 1.1512066
0.39794242 0.51651716 -0.2299647 0.12810129 -1.5873872 1.4561371 0.5187243 -1.2687001
0.22654301 1.3247508 -1.6927209 -0.55742484 -0.04832685 -1.1598319 -0.4799749 0.15205592
-1.3309965 1.4547043 0.19858712 -0.5949566 1.1926867 0.21495414 -1.2780191 -0.13396192
-0.26094657 -1.2044916 0.26409698 1.0175135 -0.16576797 -0.12722749 1.593826 0.12391102
1.0054544 -0.03948134 -0.1326817 0.00794816 0.08781117 -1.8150369 1.7634726 0.52056396
-0.41547567 -0.21349743 -0.33809185 -0.8684029
00000000: 88e7 6f3f 6da2 923f a889 cb3e 9856 a3be
00000010: 778b ac3f f0e0 d53d 76a5 003f 86c8 37be
00000020: cc66 b8bf cbcd f7be 3815 353e 5612 62bf
00000030: 90cd 35bd 247c f73e f2e1 fdbe d3d3 cabe
00000040: b0a2 873d 7c85 a5bf c29e 803f 7224 893e
00000050: 81c1 bbbf 5853 913e fdc5 a73f 185e e83e
00000060: 0515 fcbe ea52 08bf 0683 a2bf 1753 db3f
00000070: e954 a9be 0835 eb3e 079b ae3f 5249 c4be
00000080: 2459 c3be 8ec2 243f c16f f1be 1b52 9cbf
00000090: 8400 e73f 680f 163e a06f 28bd bd5a 933f
000000a0: 1cbf cb3e 783a 043f de7b 6bbe fc2c 033e
000000b0: 812f cbbf b362 ba3f 1ecb 043f c464 a2bf
000000c0: e4fa 673e 6f91 a93f 14ab d8bf 65b3 0ebf
000000d0: 60f2 45bd 5f75 94bf 45bf f5be 8cb4 1b3e
000000e0: 185e aabf c033 ba3f 6c5a 4b3e 134f 18bf
000000f0: f5a9 983f f01c 5c3e 2196 a3bf 502d 09be
00000100: ca9a 85be c82c 9abf b837 873e e23d 823f
00000110: 14bf 29be ec47 02be 7e02 cc3f 10c5 fd3d
00000120: bbb2 803f 30b7 21bd b6dd 07be 0039 023c
00000130: 58d6 b33d 2153 e8bf 78b9 e13f ae43 053f
00000140: 3ab9 d4be 129f 5abe 601a adbe a74f 5ebf

decoder.linear.weight_mask f4 [28, 3]
1.0 1.0 0.0 0.0 1.0 0.0 1.0 0.0
1.0 0.0 0.0 1.0 0.0 0.0 1.0 0.0
0.0 1.0 1.0 0.0 1.0 0.0 1.0 0.0
0.0 0.0 1.0 1.0 0.0 0.0 1.0 0.0
1.0 1.0 0.0 1.0 1.0 0.0 0.0 1.0
0.0 0.0 0.0 0.0 1.0 1.0 0.0 1.0
0.0 1.0 1.0 0.0 0.0 1.0 0.0 0.0
1.0 1.0 0.0 1.0 1.0 0.0 1.0 0.0
0.0 1.0 0.0 1.0 0.0 0.0 1.0 0.0
1.0 0.0 0.0 0.0 0.0 1.0 1.0 0.0
0.0 0.0 0.0 1.0
00000000: 0000 803f 0000 803f 0000 0000 0000 0000
00000010: 0000 803f 0000 0000 0000 803f 0000 0000
00000020: 0000 803f 0000 0000 0000 0000 0000 803f
00000030: 0000 0000 0000 0000 0000 803f 0000 0000
00000040: 0000 0000 0000 803f 0000 803f 0000 0000
00000050: 0000 803f 0000 0000 0000 803f 0000 0000
00000060: 0000 0000 0000 0000 0000 803f 0000 803f
00000070: 0000 0000 0000 0000 0000 803f 0000 0000
00000080: 0000 803f 0000 803f 0000 0000 0000 803f
00000090: 0000 803f 0000 0000 0000 0000 0000 803f
000000a0: 0000 0000 0000 0000 0000 0000 0000 0000
000000b0: 0000 803f 0000 803f 0000 0000 0000 803f
000000c0: 0000 0000 0000 803f 0000 803f 0000 0000
000000d0: 0000 0000 0000 803f 0000 0000 0000 0000
000000e0: 0000 803f 0000 803f 0000 0000 0000 803f
000000f0: 0000 803f 0000 0000 0000 803f 0000 0000
00000100: 0000 0000 0000 803f 0000 0000 0000 803f
00000110: 0000 0000 0000 0000 0000 803f 0000 0000
00000120: 0000 803f 0000 0000 0000 0000 0000 0000
00000130: 0000 0000 0000 803f 0000 803f 0000 0000
00000140: 0000 0000 0000 0000 0000 0000 0000 803f

exp_avg f4 [45, 28]
-0.0010674447 0.00058480585 -0.0009494707 -0.00090343464 -0.0009393802 -0.0013490863 -0.0013647464 -0.0006421722
-0.00174594 -0.0008252913 -0.0014539661 -0.0018937453 -0.0005437882 -0.0016974891 -0.0019819029 -0.000838605
-0.00029001303 -0.000920856 -0.0019125323 -0.001454261 -0.002222913 -0.0001727104 0.0005521849 0.00013772136
-0.0013445291 -0.0016075089 -0.00047585776 5.988404e-05 0.0010174189 0.0006810973 0.0004756129 0.0013437114
0.000988147 0.00055989495 0.0007772594 0.0007719875 0.0009550678 0.0003488475 0.0006489477 0.0014862001
0.00021885644 0.0010381319 0.0011516409 0.00058373983 0.00036156015 0.000482507 0.0012486202 0.000701525
0.001064396 0.00015765562 6.127893e-05 0.00034462378 0.0013883049 0.0006966527 0.0005553701 -6.144881e-05
-0.0017206279 -0.00015984697 -0.001011868 -0.0017509568 -0.00200744 -0.0007794754 -0.0019236524 -0.000976869
-0.002586884 -0.0007439099 -0.0022360748 -0.0027800745 -0.00088747323 -0.0019240638 -0.0021886954 -0.0019604305
-2.2805529e-05 -0.0011186034 -0.0020849109 -0.002267774 -0.002499995 -0.0009924065 6.108463e-05 -1.33018475e-05
-0.002431513 -0.0024291785 -0.0006410306 -0.00033583122 0.00029450364 -0.0004857026 0.00034243523 6.487599e-05
0.00029074843 0.00046075106 0.00021317383 1.480605e-05 0.00043722944 0.00012657535 0.00021206724 0.00022927631
0.00018042064 0.0002218034 0.0001412387 0.00023211958 4.121859e-06 -6.0738384e-05 0.00013231166 0.00016364947
0.00034669202 0.00011012449 -0.0001377755 2.6985821e-05 0.0002816106 0.00032850905 0.00014606144 0.00018224255
-1.796335e-05 0.0006923985 -0.00066261773 0.0003714965 -0.00032544488 -0.0006978425 -0.00029733448 5.1080584e-05
-4.3386535e-06 1.7668062e-05 -0.00010952537 0.00031335183 -0.00023145686 0.00024833396 0.00017842192 0.0001310756
5.874684e-05 0.00022690577 0.00015824893 0.0002369911 -0.0003040721 9.129872e-06 -0.00021556877 -0.00045745927
0.00024217008 -0.00010292597 9.0613496e-05 -0.00039562982 -0.0012540068 0.00044728504 -0.0010843242 -0.0007909085
-0.001441381 -0.0015228767 -0.0006223643 -0.0006805352 -0.00074031064 -0.0008901327 -0.0009719174 -0.00084274355
-0.0015277489 -0.0011632012 -0.00051477103 -0.0013469 -0.00016856601 -4.451981e-05 -0.00034468065 -0.00080076116
-0.0010950115 -0.00032648598 -0.00066758203 -0.0005226972 -0.0015608084 -0.00035109182 -0.0009383621 -0.0010126216
-1.2689881e-05 8.292825e-05 -0.00035862956 2.8974086e-05 -0.0001299643 -0.0002869904 0.0001363497 2.964263e-05
0.00046299078 -0.000115126844 0.00014695118 0.0004070098 -0.0003144984 4.851108e-05 0.0001742697 -6.094703e-05
-9.054705e-05 0.00018940371 0.00021672976 0.00016262295 0.00014054388 0.00011921642 -0.00027929636 -0.00032930987
-7.14449e-05 0.0004392493 -0.00030993286 -0.0003199961 -0.0010164417 0.0011933215 -0.00077332655 -0.00048542395
-0.0005360681 -0.001262509 -0.0015967556 -0.00011135405 -0.0026061097 -0.00044596888 -0.0014469483 -0.0021209929
3.1411182e-05 -0.0015545564 -0.0018426288 -0.00066457456 8.4837666e-05 -0.00064762984 -0.0019979854 -0.001420557
-0.0025109306 -0.00054193375 0.0012849245 0.00061648944 -0.0011364374 -0.002422392 0.00037257024 0.0004509125
0.00021357882 0.00035421076 5.176592e-05 7.6703545e-05 0.00014168827 0.0001028904 0.00025906131 0.00043714215
8.5650994e-05 -9.1147595e-05 0.00016612715 0.00041457667 1.1581178e-05 0.00026245823 0.00031857108 0.000101648104
0.00030805322 0.00029519718 0.000498069 -1.4544043e-05 7.8933386e-05 0.00023212445 0.00028915406 6.0023376e-06
0.00015962301 0.0002502163 0.0005327385 -0.0001133799 -0.00035310426 7.101102e-05 0.00012797907 -0.0002349909
00000000: 80e9 8bba a84d 193a e6e5 78ba 79d4 6cba
00000010: bd40 76ba d3d3 b0ba 4ae1 b2ba 7257 28ba
00000020: 06d8 e4ba 5d58 58ba 0293 beba 8c37 f8ba
00000030: 028d 0eba 487e deba d0e2 01bb d4d5 5bba
00000040: e40c 98b9 9a65 71ba efad faba e79c beba
00000050: 4bae 11bb 9819 35b9 80c0 103a 4c69 1039
00000060: e93a b0ba 0cb3 d2ba 8c7c f9b9 002c 7b38
00000070: ea5a 853a ab8b 323a af5b f939 791f b03a
00000080: b684 813a eac5 123a ffc0 4b3a 345f 4a3a
00000090: 845d 7a3a 85e5 b639 251e 2a3a 9acc c23a
000000a0: d47c 6539 ed11 883a a8f2 963a 1e06 193a
000000b0: c88f bd39 fef8 fc39 bea8 a33a 8ce6 373a
000000c0: 3483 8b3a 5c50 2539 e082 8038 9fae b439
000000d0: c8f7 b53a 929f 363a 4296 113a 14de 80b8
000000e0: b186 e1ba 989c 27b9 a8a0 84ba 5c80 e5ba
000000f0: 418f 03bb b555 4cba 1023 fcba 490a 80ba
00000100: b688 29bb f302 43ba 1c8b 12bb e931 36bb
00000110: 52a5 68ba de30 fcba 3770 0fbb 917a 00bb
00000120: 804e bfb7 1a9e 92ba 00a3 08bb ef9e 14bb
00000130: f5d6 23bb a313 82ba 901a 8038 002b 5fb7
00000140: 055a 1fbb da32 1fbb d60a 28ba 8112 b0b9
00000150: 9c67 9a39 e6a5 feb9 e188 b339 080e 8838
00000160: 986f 9839 f690 f139 6a87 5f39 8067 7837
00000170: f13b e539 50b9 0439 5e5e 5e39 e469 7039
00000180: 4c2f 3d39 e693 6839 7a19 1439 2065 7339
00000190: 804e 8a36 58c1 7eb8 24bd 0a39 5299 2b39
000001a0: 37c4 b539 a3f2 e638 d477 10b9 9c5f e237
000001b0: 23a5 9339 bd3b ac39 1228 1939 5d18 3f39
000001c0: 00b0 96b7 1482 353a 86b3 2dba 6bc5 c239
000001d0: 79a0 aab9 6bef 36ba 8fe3 9bb9 5c3f 5638
000001e0: c094 91b6 e035 9437 fcb0 e5b8 5f49 a439
000001f0: 3ab3 72b9 d232 8239 c516 3b39 5771 0939
00000200: f066 7638 8eed 6d39 a0ef 2539 d080 7839
00000210: de6b 9fb9 802c 1937 4d0a 62b9 25d7 efb9
00000220: 09ef 7d39 f6d9 d7b8 c007 be38 896c cfb9
00000230: 7c5d a4ba 9581 ea39 e21f 8eba f954 4fba
00000240: b9ec bcba 439b c7ba 2926 23ba f265 32ba
00000250: 6811 42ba cb57 69ba 46c8 7eba 90eb 5cba
00000260: bf3e c8ba 8e76 98ba b3f1 06ba 778a b0ba
00000270: 18c1 30b9 c8ba 3ab8 41b6 b4b9 2cea 51ba
00000280: 7d86 8fba 352c abb9 ac00 2fba 9e05 09ba
00000290: 0a94 ccba bf12 b8b9 6afc 75ba f1b9 84ba
000002a0: a0e6 54b7 c4e9 ad38 7206 bcb9 600d f337
000002b0: 0747 08b9 3377 96b9 18f9 0e39 10a9 f837
000002c0: 92bd f239 4170 f1b8 e816 1a39 ee63 d539
000002d0: 43e3 a4b9 6078 4b38 2bbc 3639 60a1 7fb8
000002e0: 14e4 bdb8 ac9a 4639 f441 6339 c485 2a39
000002f0: f65e 1339 d403 fa38 866e 92b9 39a7 acb9
00000300: b0d4 95b8 0b4b e639 7c7e a2b9 26c5 a7b9
00000310: 203a 85ba 3a69 9c3a 11b9 4aba 8080 feb9
00000320: ec86 0cba c67a a5ba 3a4a d1ba c086 e9b8
00000330: 44cb 2abb eed0 e9b9 87a7 bdba 5b00 0bbb
00000340: 80bf 0338 42c2 cbba 5d84 f1ba d836 2eba
00000350: e0ea b138 b4c5 29ba a2f0 02bb fc31 baba
00000360: 6d8e 24bb 8f10 0eba e96a a83a e89b 213a
00000370: 83f4 94ba fec0 1ebb 8855 c339 7468 ec39
00000380: 21f4 5f39 5db5 b939 3c1f 5938 e7db a038
00000390: 2892 1439 ddc6 d738 9fd2 8739 3a30 e539
000003a0: 879f b338 7e26 bfb8 6b32 2e39 8a5b d939
000003b0: c84c 4237 8c9a 8939 e305 a739 e92b d538
000003c0: 3482 a139 b2c4 9a39 d890 023a 3002 74b7
000003d0: 0a89 a538 6f66 7339 9a99 9739 b067 c936
000003e0: 7a60 2739 772f 8339 7aa7 0b3a 5fc6 edb8
000003f0: da20 b9b9 c0eb 9438 1f32 0639 e467 76b9

exp_avg_sq f4 [45, 28]
0.00016368534 0.00010767591 8.1523875e-05 0.00018597255 0.00019066068 4.1297233e-05 8.1760845e-05 0.00018792179
0.00014899191 3.621821e-05 0.000103352046 0.0002254835 8.140545e-05 0.00012065547 8.8933564e-05 0.0001377776
9.984938e-05 0.00015119075 0.0001329941 0.00011324414 8.81443e-05 5.0063703e-05 0.00011848817 5.845752e-05
9.4856645e-05 5.6493456e-05 0.00018100969 2.0135196e-05 4.9351846e-05 3.2326596e-05 2.693163e-05 6.472282e-05
6.336415e-05 1.4069351e-05 2.6022954e-05 5.7408233e-05 5.03986e-05 1.3905001e-05 3.546209e-05 7.710367e-05
2.770797e-05 4.1890107e-05 2.8483912e-05 4.542524e-05 2.6954887e-05 4.7534613e-05 4.436091e-05 3.8067115e-05
3.0903706e-05 1.609152e-05 3.4156885e-05 1.6456397e-05 3.4110126e-05 1.8543604e-05 6.124105e-05 5.7414054e-06
0.00015413116 0.000102051104 8.384309e-05 0.0001975913 0.00018710742 4.834719e-05 8.98811e-05 0.0001817249
0.0001593848 4.247353e-05 0.00011282656 0.0002300809 8.995452e-05 0.00012628462 9.405948e-05 0.00014674432
0.00010374919 0.00014932826 0.00013860111 0.00012114237 9.521956e-05 5.329225e-05 0.0001099326 5.2702493e-05
0.00010346178 6.399058e-05 0.00018845116 2.1005197e-05 8.156488e-06 5.39674e-06 4.12572e-06 1.0092893e-05
1.1126607e-05 2.30596e-06 4.2356896e-06 1.0063601e-05 7.693868e-06 1.3874812e-06 4.4654753e-06 1.1579383e-05
3.61883e-06 6.389332e-06 4.78267e-06 6.386878e-06 5.6950653e-06 7.6206447e-06 6.8454565e-06 5.351039e-06
4.223907e-06 2.6018463e-06 6.1203996e-06 3.2367006e-06 4.9570544e-06 3.3947636e-06 8.257322e-06 1.4320026e-06
1.7316755e-05 1.1032389e-05 8.623281e-06 1.7162554e-05 1.7453202e-05 3.551335e-06 9.511347e-06 1.7436614e-05
1.3409411e-05 5.4952784e-06 1.1505339e-05 2.1509344e-05 1.0637355e-05 1.47222345e-05 8.283114e-06 1.4872251e-05
9.3495255e-06 1.3862714e-05 1.1841395e-05 1.3664449e-05 1.0184582e-05 4.7563394e-06 1.2039058e-05 5.6339068e-06
1.1300072e-05 5.0003923e-06 1.9203037e-05 2.0677264e-06 8.0379985e-05 5.2905016e-05 4.2194726e-05 9.083676e-05
9.3983064e-05 2.032387e-05 4.2658132e-05 9.011938e-05 7.2530565e-05 2.1080385e-05 5.2244e-05 0.000110696936
4.328811e-05 6.1682425e-05 4.4316002e-05 6.8058514e-05 5.0331404e-05 7.4518866e-05 6.4489e-05 5.7855428e-05
4.903707e-05 2.4963922e-05 5.7578563e-05 2.878676e-05 4.9099668e-05 2.9175606e-05 8.904193e-05 1.0893491e-05
2.6841382e-05 1.8416506e-05 1.341914e-05 3.0053929e-05 3.1480355e-05 6.042477e-06 1.2378684e-05 3.128955e-05
2.4017147e-05 5.9828208e-06 1.671736e-05 3.6208396e-05 1.3580558e-05 2.0320516e-05 1.32359455e-05 2.2346656e-05
1.6478061e-05 2.4049374e-05 2.1347721e-05 1.8572067e-05 1.3405127e-05 7.4029904e-06 2.0130392e-05 9.906328e-06
1.5502068e-05 8.362361e-06 2.9857141e-05 3.701054e-06 0.00039511235 0.00026626047 0.00019432766 0.00045518976
0.00046896926 9.8756944e-05 0.00019024948 0.00046348816 0.0003583105 8.2678605e-05 0.00024313996 0.00055100926
0.00018862437 0.00028750728 0.00021431588 0.00032378154 0.00024331769 0.0003695015 0.00032016137 0.00026806621
0.00020377818 0.00011986021 0.0002932676 0.00014621908 0.00023015235 0.00013351605 0.00043437263 4.7587502e-05
7.039255e-06 4.4279923e-06 2.2371948e-06 6.4712713e-06 7.8463645e-06 1.0647215e-06 2.3418038e-06 8.344466e-06
4.5141155e-06 1.7647897e-06 4.240083e-06 7.5971716e-06 3.6100555e-06 5.5071087e-06 2.918514e-06 4.394308e-06
2.9980024e-06 4.9366986e-06 4.2475285e-06 4.034309e-06 2.7204424e-06 1.5529299e-06 4.7065687e-06 2.574332e-06
4.3589407e-06 1.5400445e-06 8.009551e-06 6.5134503e-07 2.6999393e-05 1.8696377e-05 1.3454674e-05 3.0989748e-05
00000000: f3a2 2b39 10d0 e138 ccf7 aa38 a001 4339
00000010: 16ec 4739 9136 2d38 0577 ab38 df0c 4539
00000020: b63a 1c39 02e9 1738 b5be d838 c46f 6c39
00000030: 38b8 aa38 6a08 fd38 d881 ba38 6578 1039
00000040: 3a66 d138 f588 1e39 5574 0b39 7c7d ed38
00000050: 1cda b838 7efb 5138 da7c f838 4930 7538
00000060: c6ed c638 63f3 6c38 6bcd 3d39 01e8 a837
00000070: 24ff 4e38 6b96 0738 3ceb e137 cdbb 8738
00000080: 5ee2 8438 670b 6c37 de4b da37 9fc9 7038
00000090: 1663 5338 8649 6937 21bd 1438 b8b2 a138
000000a0: 6a6e e837 29b3 2f38 bcf0 ee37 fb86 3e38
000000b0: 2e1d e237 e75f 4738 2a10 3a38 41aa 1f38
000000c0: 9a9e 0138 47fc 8637 ad43 0f38 d80b 8a37
000000d0: 7811 0f38 168e 9b37 8a6e 8038 4ca6 c036
000000e0: 459e 2139 4504 d638 ebd4 af38 8330 4f39
000000f0: 4432 4439 66c8 4a38 8c7e bc38 688d 3e39
00000100: 8820 2739 9b25 3238 4c9d ec38 df41 7139
00000110: f7a5 bc38 456b 0439 cc41 c538 61df 1939
00000120: ec93 d938 0095 1c39 7455 1139 d10d fe38
00000130: 9db0 c738 1e86 5f38 9d8b e638 df0c 5d38
00000140: 9ff9 d838 ae32 8638 f99a 4539 5134 b037
00000150: d9d7 0837 a515 b536 aa6f 8a36 a554 2937
00000160: 6aac 3a37 17c0 1a36 4c20 8e36 d6d6 2837
00000170: e914 0137 7e39 ba35 24d6 9536 1245 4237
00000180: 07db 7236 f263 d636 d37a a036 dd4e d636
00000190: 3d18 bf36 d7b4 ff36 06b2 e536 138d b336
000001a0: 16bb 8d36 619b 2e36 d55d cd36 1836 5936
000001b0: c654 a636 98d1 6336 ee88 0a37 3c33 c035
000001c0: 7343 9137 c017 3937 b6ac 1037 4ef8 8f37
000001d0: 7768 9237 7953 6e36 ed92 1f37 d844 9237
000001e0: fbf8 6037 1564 b836 0e07 4137 f76e b437
000001f0: 1877 3237 84ff 7637 b4f7 0a37 d583 7937
00000200: e8db 1c37 e793 6837 67aa 4637 5d40 6537
00000210: 72de 2a37 a598 9f36 5cfb 4937 e40a bd36
00000220: 7195 3d37 0bc9 a736 3516 a137 45c3 0a36
00000230: ad91 a838 54e6 5d38 3efa 3038 9d7f be38
00000240: c618 c538 2e7d aa37 d2eb 3238 79fe bc38
00000250: 8d1b 9838 c8d5 b037 9120 5b38 f725 e838
00000260: 4190 3538 805b 8138 f2df 3938 a3ba 8e38
00000270: ef1a 5338 0347 9c38 453e 8738 cba9 7238
00000280: 27ad 4d38 9d69 d137 8380 7138 197b f137
00000290: 5ef0 4d38 23be f437 06bc ba38 30c3 3637
000002a0: 6e29 e137 257d 9a37 c422 6137 521c fc37
000002b0: c609 0438 7bc0 ca36 0bae 4f37 e63c 0338
000002c0: 6e78 c937 0ac0 c836 423c 8c37 78de 1738
000002d0: 0dd8 6337 fa75 aa37 f40f 5e37 1475 bb37
000002e0: 5e3a 8a37 a3bd c937 e213 b337 36cb 9b37
000002f0: 95e6 6037 3467 f836 b0dd a837 5b33 2637
00000300: 700a 8237 114c 0c37 b975 fa37 a05f 7836
00000310: 1527 cf39 e098 8b39 6fc4 4b39 89a6 ee39
00000320: fddf f539 bb1b cf38 b57d 4739 5400 f339
00000330: 9fdb bb39 bd63 ad38 63f3 7e39 9b71 103a
00000340: 78c9 4539 93bc 9639 fbb9 6039 39c1 a939
00000350: 1823 7f39 a7b9 c139 55db a739 3d8b 8c39
00000360: 4aad 5539 765d fb38 b6c1 9939 6352 1939
00000370: 0d55 7139 7100 0c39 82bc e339 b198 4738
00000380: bd32 ec36 2a94 9436 b722 1636 cc23 d936
00000390: e1a3 0337 8de7 8e35 e227 1d36 35ff 0b37
000003a0: f577 9736 b6dd ec35 0946 8e36 35eb fe36
000003b0: 4844 7236 b4c9 b836 b0db 4336 d172 9336
000003c0: 4a31 4936 eba5 a536 fe85 8e36 735e 8736
000003d0: d890 3636 446e d035 1eed 9d36 b0c2 2c36
000003e0: 0443 9236 87b3 ce35 c260 0637 17d8 2e35
000003f0: c17c e237 2ad6 9c37 63bb 6137 fdfa 0138

max_exp_avg_sq f4 [45, 28]
0.00016368534 0.00010767591 8.1571874e-05 0.0001862332 0.00019071597 4.1297233e-05 8.1760845e-05 0.0001881352
0.00014919286 3.6245714e-05 0.00010350539 0.0002254835 8.141419e-05 0.00012065547 8.8978086e-05 0.0001377776
9.984938e-05 0.0001513282 0.0001329941 0.00011334964 8.81443e-05 5.013211e-05 0.00011850135 5.847588e-05
9.4856645e-05 5.6493456e-05 0.00018100969 2.014205e-05 4.9447302e-05 3.243521e-05 2.6989914e-05 6.484671e-05
6.350782e-05 1.4086902e-05 2.6059011e-05 5.756143e-05 5.0522307e-05 1.3932201e-05 3.5609395e-05 7.724472e-05
2.7817436e-05 4.196889e-05 2.8517661e-05 4.555446e-05 2.7018523e-05 4.762046e-05 4.440661e-05 3.815602e-05
3.0950552e-05 1.6141936e-05 3.422814e-05 1.65367e-05 3.415255e-05 1.8576002e-05 6.138226e-05 5.7617444e-06
0.00015413116 0.000102051104 8.395227e-05 0.00019759682 0.00018710742 4.834719e-05 8.98811e-05 0.0001817249
0.0001593848 4.2513697e-05 0.00011282656 0.0002300809 8.995452e-05 0.00012628462 9.405948e-05 0.00014683972
0.00010379027 0.00014932826 0.00013860111 0.00012114237 9.521956e-05 5.331969e-05 0.00011003767 5.2772702e-05
0.00010346178 6.399058e-05 0.00018853614 2.1013488e-05 8.225463e-06 5.425813e-06 4.1722487e-06 1.0234614e-05
1.127143e-05 2.3170135e-06 4.281292e-06 1.0149152e-05 7.773337e-06 1.3966734e-06 4.5156307e-06 1.1700475e-05
3.6431493e-06 6.440386e-06 4.8331003e-06 6.4593487e-06 5.759763e-06 7.705895e-06 6.92135e-06 5.394043e-06
4.272637e-06 2.6333562e-06 6.1788305e-06 3.2579344e-06 5.0082363e-06 3.4297211e-06 8.328353e-06 1.4453071e-06
1.7352913e-05 1.1058205e-05 8.6296905e-06 1.7212873e-05 1.7505632e-05 3.556924e-06 9.544303e-06 1.7502434e-05
1.3444216e-05 5.5033315e-06 1.1522615e-05 2.1577214e-05 1.0643552e-05 1.4749313e-05 8.313687e-06 1.4926189e-05
9.3652525e-06 1.38922005e-05 1.1867777e-05 1.369483e-05 1.0204471e-05 4.764368e-06 1.20715495e-05 5.6484255e-06
1.1338005e-05 5.0147555e-06 1.9254296e-05 2.0710456e-06 8.0379985e-05 5.29832e-05 4.227517e-05 9.098203e-05
9.4115276e-05 2.0352207e-05 4.2845262e-05 9.030569e-05 7.2745635e-05 2.1080385e-05 5.2343625e-05 0.00011087578
4.3292854e-05 6.1682425e-05 4.4495948e-05 6.826347e-05 5.0456158e-05 7.470902e-05 6.4598666e-05 5.7947767e-05
4.9148217e-05 2.5038375e-05 5.7603633e-05 2.8820674e-05 4.9119928e-05 2.9297185e-05 8.910255e-05 1.092127e-05
2.6879345e-05 1.842767e-05 1.34481215e-05 3.0113562e-05 3.1520965e-05 6.056994e-06 1.2409566e-05 3.134494e-05
2.4054863e-05 5.9973454e-06 1.6764685e-05 3.625277e-05 1.3599275e-05 2.0381132e-05 1.3263388e-05 2.2407507e-05
1.6503149e-05 2.408555e-05 2.1364813e-05 1.8625034e-05 1.34269385e-05 7.423312e-06 2.014849e-05 9.912399e-06
1.5541815e-05 8.384917e-06 2.9919796e-05 3.7096213e-06 0.00039511235 0.00026626047 0.00019458559 0.00045561683
0.00046910995 9.8794095e-05 0.00019029847 0.00046377574 0.00035861976 8.274809e-05 0.0002435894 0.00055100926
0.00018862437 0.00028768554 0.00021438405 0.00032378154 0.00024331769 0.0003697483 0.00032016137 0.00026839875
0.00020377818 0.000120040946 0.00029332004 0.00014625317 0.00023015235 0.00013354777 0.00043437263 4.7587502e-05
7.2598164e-06 4.4935737e-06 2.6324785e-06 6.9399075e-06 8.599962e-06 1.238033e-06 2.7651342e-06 8.570609e-06
5.197329e-06 1.7714168e-06 4.457935e-06 8.183709e-06 3.631543e-06 5.5385326e-06 3.5403334e-06 4.946549e-06
3.5005562e-06 5.642503e-06 4.8182374e-06 4.3452624e-06 3.1528134e-06 1.8143311e-06 4.7282992e-06 2.6432012e-06
4.4478616e-06 1.8946329e-06 8.159194e-06 7.5866706e-07 2.7014983e-05 1.8707871e-05 1.3519161e-05 3.108407e-05
00000000: f3a2 2b39 10d0 e138 9111 ab38 9847 4339
00000010: eefa 4739 9136 2d38 0577 ab38 2846 4539
00000020: a770 1c39 8a06 1838 0811 d938 c46f 6c39
00000030: e9bc aa38 6a08 fd38 bf99 ba38 6578 1039
00000040: 3a66 d138 dbad 1e39 5574 0b39 20b6 ed38
00000050: 1cda b838 f144 5238 ee83 f838 0044 7538
00000060: c6ed c638 63f3 6c38 6bcd 3d39 b9f6 a837
00000070: a365 4f38 0b0b 0838 6668 e237 50fe 8738
00000080: 802f 8538 c956 6c37 4d99 da37 1d6e 7138
00000090: eae7 5338 59be 6937 4c5b 1538 71fe a138
000000a0: 7d59 e937 c107 3038 3639 ef37 bb11 3f38
000000b0: d6a5 e237 14bc 4738 3c41 3a38 b709 2038
000000c0: e7d0 0138 8b68 8737 2f90 0f38 4bb8 8a37
000000d0: 053f 0f38 a9d3 9b37 5aba 8038 0255 c136
000000e0: 459e 2139 4504 d638 880f b038 fe31 4f39
000000f0: 4432 4439 66c8 4a38 8c7e bc38 688d 3e39
00000100: 8820 2739 bc50 3238 4c9d ec38 df41 7139
00000110: f7a5 bc38 456b 0439 cc41 c538 fdf8 1939
00000120: faa9 d938 0095 1c39 7455 1139 d10d fe38
00000130: 9db0 c738 95a3 5f38 06c4 e638 4258 5d38
00000140: 9ff9 d838 ae32 8638 c9b1 4539 1f46 b037
00000150: 1800 0a37 610f b636 58ff 8b36 55b5 2b37
00000160: 6c1a 3d37 fd7d 1b36 05a8 8f36 4746 2a37
00000170: 3a6a 0237 5575 bb35 f984 9736 284d 4437
00000180: d47c 7436 7f1a d836 042c a236 62bd d836
00000190: fd43 c136 9148 0137 f23d e836 7afe b436
000001a0: ac5d 8f36 b7b8 3036 c053 cf36 e3a2 5a36
000001b0: 6c0c a836 292a 6636 01ba 0b37 60fc c135
000001c0: 1991 9137 a186 3937 3dc8 1037 5d64 9037
000001d0: 0fd9 9237 7db3 6e36 7820 2037 31d2 9237
000001e0: 788e 6137 42a9 b836 4151 4137 b700 b537
000001f0: b591 3237 d173 7737 047b 0b37 7e6b 7a37
00000200: 741f 1d37 8c12 6937 b71b 4737 d9c2 6537
00000210: df33 2b37 9cdd 9f36 e986 4a37 9b87 bd36
00000220: 5c38 3e37 6c44 a836 4984 a137 4bfc 0a36
00000230: ad91 a838 473a 5e38 9e50 3138 9bcd be38
00000240: c15f c538 08ba aa37 c0b4 3338 8062 bd38
00000250: 048f 9838 c8d5 b037 8a8b 5b38 fb85 e838
00000260: 5995 3538 805b 8138 29a1 3a38 ac28 8f38
00000270: e3a0 5338 1aad 9c38 2579 8738 f10c 7338
00000280: 7f24 4e38 8009 d237 6e9b 7138 edc3 f137
00000290: 1f06 4e38 3ac3 f537 91dc ba38 7f3a 3737
000002a0: f47a e137 1f95 9a37 3e9f 6137 629c fc37
000002b0: 6135 0438 2f3d cb36 ae32 5037 6078 0338
000002c0: 6dc9 c937 ce3c c936 e3a1 8c37 1e0e 1838
000002d0: 7128 6437 26f8 aa37 d185 5e37 c1f7 bb37
000002e0: 3e70 8a37 530b ca37 9638 b337 f53c 9c37
000002f0: 4344 6137 c415 f936 8e04 a937 6e4d 2637
00000300: cb5f 8237 f2ac 0c37 46fc fa37 cff2 7836
00000310: 1527 cf39 e098 8b39 ac09 4c39 dbdf ee39
00000320: dff2 f539 ad2f cf38 db8a 4739 ed26 f339
00000330: 2105 bc39 0b89 ad38 086c 7f39 9b71 103a
00000340: 78c9 4539 80d4 9639 48cc 6039 39c1 a939
00000350: 1823 7f39 c7da c139 55db a739 dfb7 8c39
00000360: 4aad 5539 7ebe fb38 c0c8 9939 895b 1939
00000370: 0d55 7139 f508 0c39 82bc e339 b198 4738
00000380: 5999 f336 81c7 9636 a3a9 3036 5add e836
00000390: 8e48 1037 7d2a a635 a590 3936 7cca 0f37
000003a0: b764 ae36 6bc1 ed35 5f95 9536 c34c 0937
000003b0: 6fb5 7336 a2d7 b936 7796 6d36 88fa a536
000003c0: 19eb 6a36 bb54 bd36 58ac a136 85cd 9136
000003d0: ec94 5336 f183 f335 c8a7 9e36 da61 3136
000003e0: d73e 9536 174b fe35 79e3 0837 34a7 4b35
000003f0: 3c9e e237 d9ee 9c37 5bd0 6237 4460 0238

exp_avg f4 [45]
-0.0008832179 0.0011756523 -0.0015962422 5.8388745e-05 0.0004257343 -0.0011445847 -3.2731972e-05 -0.00038140127
0.0004774335 -0.00025319378 0.0005321738 4.7691137e-05 0.0010872325 -0.00083482673 0.0011040195 0.00043507986
0.00011873717 0.0004865157 0.0007980799 -0.0013865352 0.0009263052 -0.00012851087 0.0013155406 0.00010452769
7.399218e-05 -0.0005626918 -0.0015864873 -0.0015412546 0.0016962215 0.00017767091 -0.00016257568 0.0005519446
0.0011632799 -4.252058e-05 -0.00085081125 -0.0008789038 0.0008806868 -0.0013377786 -0.00035701494 0.0008095851
-0.000665505 0.00030302227 -0.002010068 0.00028141798 -0.00034376825
00000000: c087 67ba 5818 9a3a 0039 d1ba 70e6 7438
00000010: 1735 df39 e405 96ba b049 09b8 d0f6 c7b9
00000020: 0a50 fa39 18bf 84b9 9481 0b3a f807 4838
00000030: 7881 8e3a 46d8 5aba bfb4 903a 6e1b e439
00000040: 8802 f938 0813 ff39 3c36 513a 67bc b5ba
00000050: 4ad3 723a e0c0 06b9 386e ac3a e035 db38
00000060: 402c 9b38 9c81 13ba aef1 cfba ec03 caba
00000070: c053 de3a 2c4d 3a39 1479 2ab9 60b0 103a
00000080: 3279 983a 2058 32b8 fa08 5fba 3c66 66ba
00000090: e4dd 663a 6758 afba bc2d bbb9 563a 543a
000000a0: 4975 2eba f6de 9e39 58bb 03bb 488b 9339
000000b0: cb3b b4b9

exp_avg_sq f4 [45]
0.00034174084 0.00011584897 0.0003383687 1.8657254e-05 3.248342e-05 0.00016110159 5.622278e-05 0.0008364792
1.4849389e-05 5.809964e-05 5.761183e-05 4.911733e-05 9.516841e-05 4.493279e-05 0.00011668883 0.00019693488
1.0423643e-05 0.00041136262 0.00053216063 6.531178e-05 0.00011151928 0.00020042855 0.00021324494 3.324005e-05
0.00074576546 2.8752407e-05 0.0011081825 0.0005313982 8.129211e-05 6.640501e-06 8.404048e-05 0.00058409234
0.0006483324 0.00012011606 7.5797994e-05 5.415865e-05 5.30107e-05 0.00020872959 0.00010949901 1.6454975e-05
4.507072e-05 2.260422e-05 0.0009106062 2.5660203e-05 1.0010246e-05
00000000: ae2b b339 f1f3 f238 1467 b139 2682 9c37
00000010: ce3e 0838 61ed 2839 c0d0 6b38 2b47 5b3a
00000020: a421 7937 03b0 7338 3ba4 7138 5503 4e38
00000030: 2795 c738 3776 3c38 d7b6 f438 4e80 4e39
00000040: 35e1 2e37 28ac d739 b280 0b3a fff7 8838
00000050: 75df e938 212a 5239 819a 5f39 3b6b 0b38
00000060: 797f 433a 5331 f137 6f40 913a 884d 0b3a
00000070: 5f7b aa38 78d1 de36 e43e b038 c61d 193a
00000080: daf4 293a d2e6 fb38 bdf5 9e38 6828 6338
00000090: ce57 5e38 6cde 5a39 d5a2 e538 ca08 8a37
000000a0: 510a 3d38 319e bd37 bfb5 6e3a de40 d737
000000b0: aef1 2737

max_exp_avg_sq f4 [45]
0.00034174084 0.00011603923 0.0003383687 1.8844456e-05 3.256719e-05 0.00016121806 5.6285728e-05 0.0008364792
1.5363528e-05 5.8183312e-05 5.780215e-05 4.916649e-05 9.551862e-05 4.5022756e-05 0.00011685619 0.00019816626
1.04375395e-05 0.00041162194 0.0005326321 6.536626e-05 0.00011151928 0.00020058367 0.00021324494 3.3333752e-05
0.00074576546 2.8822646e-05 0.0011081825 0.0005314684 8.1407474e-05 6.640501e-06 8.4077576e-05 0.0005843721
0.0006483324 0.000120142075 7.5797994e-05 5.4175132e-05 5.306189e-05 0.00020877953 0.00010949901 1.6454975e-05
4.507072e-05 2.4295696e-05 0.0009106159 2.5772124e-05 1.0010246e-05
00000000: ae2b b339 165a f338 1467 b139 2914 9e37
00000010: c198 0838 a50c 2939 5714 6c38 2b47 5b3a
00000020: ede0 8037 db09 7438 9670 7238 1e38 4e38
00000030: 2b51 c838 d1d6 3c38 b010 f538 daca 4f39
00000040: e41c 2f37 f6ce d739 56a0 0b3a 3e15 8938
00000050: 75df e938 c553 5239 819a 5f39 d8cf 0b38
00000060: 797f 433a 29c8 f137 6f40 913a 3e52 0b3a
00000070: 4eb9 aa38 78d1 de36 ce52 b038 8c30 193a
00000080: daf4 293a c9f4 fb38 bdf5 9e38 1b3a 6338
00000090: c58e 5e38 d4eb 5a39 d5a2 e538 ca08 8a37
000000a0: 510a 3d38 9cce cb37 66b6 6e3a 3731 d837
000000b0: aef1 2737

exp_avg f4 [3, 45]
-0.0033193505 -0.0013087065 -0.0029441891 -0.00036795042 -0.00036214414 -0.0084420405 0.0017397718 -0.0028258092
0.0053932923 0.004202907 0.001965227 0.0033269862 0.0012965377 -0.0032242297 -0.00012339058 0.005939294
0.006280862 0.0010867246 -0.003688332 -0.0036642447 0.001474153 -0.0027019943 0.00024625426 0.0027722963
-0.0025893808 -0.00033744494 -0.006443573 -0.0032675676 0.0022192802 0.010066019 -0.0015034591 -0.0005880804
0.00042542035 0.00020269962 -0.004413907 -0.0038725636 0.00024706963 -0.0035018164 -0.0025959092 0.005192342
-0.0016029421 0.0065967534 -0.0069492674 -0.0010721943 0.004447457 0.000592425 -0.00080460595 -0.0013794799
-0.0011004203 -0.0003933671 0.0013323198 0.00089357083 0.00035159604 0.000105702085 -0.0009861912 -0.00020205285
0.00029152972 -0.0004931162 -0.0010248693 0.0005197468 -0.00020252005 -0.0008850774 0.0008908805 0.0009915298
-0.000716103 5.1016614e-06 -0.00022559389 0.00075062434 -0.00088224874 0.0009264958 0.00030752958 -0.0009547707
-0.00092401064 0.0013945813 0.000115564675 -0.0018523957 0.00064285926 0.0017608264 0.00048931164 -9.938056e-05
-0.0009830551 -0.0015228193 -0.00038284578 0.0007783822 -0.00069875305 -0.0008636712 -0.00011219992 -0.00018847315
-0.00021862314 -0.0014759598 0.0005699985 0.0013720297 0.0005502078 -8.159427e-05 -0.0012879724 0.0038564967
-0.00039608637 0.001074661 -0.0051319953 -0.0032526355 -0.0021734752 -0.0032292579 6.250125e-05 0.0020463509
-0.0018132036 -0.0031678476 -0.0032883016 0.0001031561 0.0040872297 0.0016919528 -0.0025323837 -0.0008013777
-0.0011241429 -0.0013862092 0.0022088385 0.001594523 0.0009581356 0.00044241734 -0.0019682958 -0.004250837
-8.963974e-05 -0.000563269 0.00057599955 -0.0008891014 0.0031116002 0.0009037955 -0.0015216279 0.0007237275
0.0017410947 -0.0033631788 -0.00028253984 -0.006663777 0.0012034809 -0.0001946591 -0.003275905
00000000: 7689 59bb e788 abba 4cf3 40bb 78e9 c0b9
00000010: 2ade bdb9 7c50 0abc 0e09 e43a 3631 39bb
00000020: 37ba b03b 8ab8 893b 0acb 003b 9109 5a3b
00000030: 96f0 a93a 994d 53bb 6862 01b9 699e c23b
00000040: b0cf cd3b 6d70 8e3a f1b7 71bb d323 70bb
00000050: 5e38 c13a f113 31bb b01b 8139 6aaf 353b
00000060: 9ab2 29bb 18eb b0b9 9c24 d3bb b024 56bb
00000070: 5871 113b f2eb 243c b70f c5ba 6829 1aba
00000080: f40a df39 c48b 5439 89a2 90bb d6ca 7dbb
00000090: 2089 8139 bb7e 65bb 2120 2abb 8624 aa3b
000000a0: d019 d2ba 9429 d83b aeb6 e3bb df88 8cba
000000b0: f9bb 913b f84c 1b3a 31ec 52ba aacf b4ba
000000c0: fa3b 90ba d73c ceb9 3ca1 ae3a 863e 6a3a
000000d0: 6c56 b839 60ac dd38 1643 81ba 26de 53b9
000000e0: 75d8 9839 7844 01ba e854 86ba 9e3f 083a
000000f0: 905b 54b9 8a04 68ba fa89 693a 38f6 813a
00000100: dcb8 3bba f02e ab36 668d 6cb9 8cc5 443a
00000110: b646 67ba 15e0 723a ec3b a139 9449 7aba
00000120: 4e39 72ba 62ca b63a 505b f238 16cc f2ba
00000130: 8e85 283a 88cb e63a 2645 003a 886a d0b8
00000140: dbd9 80ba 5699 c7ba b1b8 c8b9 580c 4c3a
00000150: 862c 37ba fe67 62ba e04c ebb8 e0a0 45b9
00000160: 343e 65b9 fe74 c1ba f46b 153a add5 b33a
00000170: d23b 103a 971d abb8 2fd1 a8ba 47bd 7c3b
00000180: d0a9 cfb9 a4db 8c3a 4c2a a8bb 2b2a 55bb
00000190: dd70 0ebb f5a1 53bb 1a13 8338 121c 063b
000001a0: 04a9 edba aa9b 4fbb 8c80 57bb 8255 d838
000001b0: 2bee 853b 84c4 dd3a 59f6 25bb 8c13 52ba
000001c0: fa57 93ba 76b1 b5ba 29c2 103b 50ff d03a
000001d0: 642b 7b3a 40f4 e739 86fe 00bb 9b4a 8bbb
000001e0: f8fc bbb8 58a8 13ba adfe 163a 9612 69ba
000001f0: fdeb 4b3b b0ec 6c3a 5c71 c7ba 88b8 3d3a
00000200: 7235 e43a c768 5cbb db21 94b9 d05b dabb
00000210: 1ebe 9d3a 671d 4cb9 91b0 56bb

exp_avg_sq f4 [3, 45]
0.0017687498 7.6444776e-05 4.6448826e-05 1.7787563e-05 8.98031e-05 0.0023033593 5.457384e-05 0.0007870569
0.0009991771 0.0009914574 7.520409e-05 4.7319278e-05 0.00026277773 0.00012843694 5.61825e-05 0.0009937651
0.0014441708 8.618555e-05 0.00050471426 0.00024096745 3.7163176e-05 0.0004429887 0.0016788179 0.00021143146
0.00017621147 0.00091876584 0.0015974221 0.00011078083 0.00065111823 0.0015673614 0.00011822123 0.00013067575
0.00018717679 2.3269804e-05 0.0004341066 0.00023321863 5.908018e-05 0.00012520247 0.00073916814 0.0014719886
4.1734405e-05 0.0012191992 0.001139719 0.00021316968 0.0019866503 0.0005381587 3.3110224e-05 1.6734168e-05
7.395074e-06 2.9598443e-05 0.00067821966 1.8942605e-05 0.00023109387 0.00028687107 0.00029036799 2.79806e-05
2.6322925e-05 8.510582e-05 4.0306288e-05 4.4497094e-05 0.00027468847 0.0004229916 2.5261415e-05 0.00015335999
8.27401e-05 1.4306946e-05 0.00013731615 0.0004625484 6.411157e-05 5.434335e-05 0.0003254693 0.00047211218
3.6775422e-05 0.00017879174 0.00045501825 5.0350463e-05 4.326419e-05 5.9131693e-05 1.0467276e-05 0.0001185809
9.517497e-05 1.5516569e-05 4.469469e-05 0.0002095681 0.00042612778 1.43208945e-05 0.00034123566 0.0003283337
7.074222e-05 0.0005875178 0.0029009057 0.00015142075 7.213723e-05 2.8072545e-05 0.00014611089 0.0037450143
0.00010491958 0.0012981368 0.0017040339 0.0015649531 0.00011675858 9.547593e-05 0.00038684378 0.00017762474
0.00014598275 0.0016313161 0.002287706 0.00013136015 0.00079507456 0.00038657596 5.4563418e-05 0.00070510403
0.0026126285 0.00036478596 0.0002627346 0.0015196283 0.002662431 0.00016976173 0.0009942051 0.00245877
0.00021000342 0.00019164644 0.00028863858 3.0387031e-05 0.00068636134 0.0003681218 9.082006e-05 0.00020967338
0.0011356225 0.002361068 5.8133755e-05 0.0020566538 0.001801375 0.00033515418 0.003117709
00000000: 65d5 e73a fa50 a038 0cd2 4238 8036 9537
00000010: ac54 bc38 f5f3 163b 37e6 6438 7f52 4e3a
00000020: d2f6 823a caf3 813a e3b6 9d38 b078 4638
00000030: 6ec5 8939 07ad 0639 80a5 6b38 3941 823a
00000040: 554a bd3a 84be b438 cd4e 043a 35ac 7c39
00000050: a8df 1b38 f040 e839 c80b dc3a b3b3 5d39
00000060: 68c5 3839 55d9 703a 9760 d13a 0153 e838
00000070: ceaf 2a3a ec6f cd3a 8aed f738 0106 0939
00000080: e344 4439 8633 c337 cd98 e339 268c 7439
00000090: dccc 7738 c848 0339 bcc4 413a beef c03a
000000a0: fa0b 2f38 89cd 9f3a a062 953a 4d86 5f39
000000b0: 7632 023b 3813 0d3a d5df 0a38 5a60 8c37
000000c0: 3423 f836 2c4a f837 8dca 313a efe6 9e37
000000d0: ca51 7239 2f67 9639 883c 9839 e2b7 ea37
000000e0: 0dd0 dc37 d77a b238 8c0e 2938 64a2 3a38
000000f0: 1004 9039 f9c4 dd39 7ae8 d337 42cf 2039
00000100: c184 ad38 dd07 7037 86fc 0f39 3282 f239
00000110: a373 8638 baee 6338 c0a3 aa39 d385 f739
00000120: 4f3f 1a38 0b7a 3b39 848f ee39 662f 5338
00000130: 9276 3538 2c04 7838 9c9c 2f37 a3ae f838
00000140: ac98 c738 9429 8237 8f76 3b38 82bf 5b39
00000150: e769 df39 c643 7037 e0e7 b239 3424 ac39
00000160: 715b 9438 a703 1a3a 1f1d 3e3b b3c6 1e39
00000170: 6148 9738 557d eb37 5835 1939 ea6e 753b
00000180: 4508 dc38 3e26 aa3a e459 df3a 1d1f cd3a
00000190: 49dc f438 403a c838 4bd1 ca39 c740 3a39
000001a0: f212 1939 e3d1 d53a 56ed 153b b9bd 0939
000001b0: 8d6c 503a 59ad ca39 06db 6438 bbd6 383a
000001c0: a238 2b3b be40 bf39 a4bf 8939 442e c73a
000001d0: 2e7c 2e3b 1102 3239 fd4f 823a 5123 213b
000001e0: 5d34 5c39 b3f4 4839 6a54 9739 a7e7 fe37
000001f0: eeec 333a 7900 c139 a676 be38 c5db 5b39
00000200: 2bd9 943a 26bc 1a3b a5d4 7338 edc8 063b
00000210: 1d1c ec3a a2b7 af39 7a52 4c3b
