logs/my_logs/version_3/checkpoints/epoch=27-step=28.ckpt (torch, 32636 bytes, 25 tensors)

encoder.dense1.weight f4 [45, 28]
000000 4d 61 2d 3d 7e 53 3b 3e 4e a3 8a 3d e9 58 0e be
       0.04232912 0.18293568 0.06769429 -0.13901104
000010 00 7c eb bc eb ad 04 bd 3b 1e e3 3d 4e 3a 82 3d
       -0.028745651 -0.032392424 0.110897504 0.06358777
000020 cd 69 ef 3d 6b f9 25 3d 4a 7e 5e 3d 70 bf 36 3e
       0.11690102 0.040521067 0.054319657 0.17846465
000030 16 eb 69 bd b5 e0 df bd 25 8d 9f 3c 59 af 56 bd
       -0.05710896 -0.10931531 0.019476483 -0.05241332
000040 13 e8 15 be 7b 73 32 be 1f cb 0d 3e 42 58 49 bd
       -0.1463931 -0.17426865 0.13847016 -0.049156435
000050 b9 9e 3e 3e 64 7c 60 3c d6 40 03 3a 83 1b ad bc
       0.18615235 0.013701532 0.0005006915 -0.021131283
000060 00 b8 37 3d 35 6b 49 be 66 ff 66 3b e3 04 84 bb
       0.04485321 -0.19669802 0.0035247444 -0.004028903
000070 2e 14 37 be 6a 87 21 be e5 a3 e7 bc 0d 7b 2c 3e
       -0.17878792 -0.15774313 -0.028276393 0.16843815
000080 53 84 fb 3d 24 3f 4a bd fb 8a d1 3d b5 15 84 3d
       0.12281098 -0.04937662 0.102315865 0.06449453
000090 43 50 e5 3c 0d f7 da 3c c9 14 79 3b 62 a3 21 3e
       0.027992373 0.026729131 0.0038006774 0.15784982
0000a0 40 08 ba bd 6c e8 3c be 09 c7 ab bd af 39 bd 3d
       -0.09083605 -0.18448037 -0.08387572 0.09239518
0000b0 f6 a3 bc bd b6 0f 22 3e f1 71 75 3d 7e 25 78 3d
       -0.092109606 0.15826306 0.059923116 0.06058263
0000c0 3b a9 8e bd bf ca 86 bd 95 09 67 bc 51 b6 56 bd
       -0.06965872 -0.065816395 -0.014101406 -0.052419964
0000d0 61 23 0f be 61 f2 06 bd d2 a5 f8 3d cb bd 89 bd
       -0.1397834 -0.032945994 0.12141003 -0.06725653
0000e0 23 99 84 3c a4 dc 00 be a4 34 23 3d fc 41 ee 3d
       0.016186303 -0.12584168 0.039845124 0.11633679
0000f0 eb 68 a6 bd ca b3 20 be 23 f1 73 bc 94 73 0f bd
       -0.0812548 -0.15693584 -0.014889034 -0.035022333
000100 39 98 71 bd 90 d1 a9 bc f9 a7 29 bd 4b 13 9c 3d
       -0.05898306 -0.02072981 -0.041419957 0.07620867
000110 d4 01 f4 3d 34 38 28 3e de 21 b5 bd 81 95 c6 bd
       0.11914411 0.1642769 -0.0884435 -0.09696484
000120 29 da 98 3d cc 52 00 be 61 eb c4 bd 32 a6 ab bd
       0.07463486 -0.12531585 -0.096152075 -0.083813086
000130 33 a6 d1 3d 4e 50 c3 bc bb 6b a9 bc f8 43 15 3e
       0.10236778 -0.023842003 -0.020681253 0.1457671
000140 77 e8 f5 bd 4d e5 b2 3c 1f 5c 13 3e 6a 5f db bd
       -0.1200723 0.021837855 0.1439061 -0.10711558
000150 7e 47 6c bb 69 6e 08 3e a5 05 f5 bd 91 8c 74 3d
       -0.0036053355 0.13323368 -0.11963967 0.059704367
000160 b1 c7 ee 3d f5 74 47 3e 62 14 cd bd 42 e7 b4 bd
       0.11659182 0.1947821 -0.10013653 -0.088331714
000170 15 ca a5 bd 44 d6 97 3d b4 5b 2e 3d 2e fa 06 3e
       -0.08095185 0.07413915 0.042567924 0.13181373
000180 60 a3 2d 3e 79 58 6c bd b0 18 2d be c2 bc 2d 3e
       0.16956854 -0.05770156 -0.16903949 0.16966537
000190 2c f8 7c bd 46 de d2 3c d4 0f 3c be 2f 31 cc 3d
       -0.061760113 0.025740754 -0.18365413 0.099703185
0001a0 52 16 2e 3d f2 42 b2 3d bd 7b c4 3d 4f e2 11 be
       0.042501755 0.08704175 0.09593914 -0.14246486
0001b0 a8 20 85 bc 3a 61 4e be cf 8d 31 3e 04 84 4d 3d
       -0.016250923 -0.20154276 0.17339252 0.050174728
0001c0 68 e7 39 3e 42 12 3f be b2 4c 5b bd fa 6f d9 bd
       0.1815468 -0.18659309 -0.05353994 -0.10617061
0001d0 49 08 cc bd a1 46 1f bd e3 51 34 be 8e 09 31 bb
       -0.09962518 -0.038885716 -0.17609362 -0.0027013752
0001e0 54 51 8b 3d 98 60 29 bd c5 5e 2b bc d3 3d 27 3e
       0.068026215 -0.041351885 -0.010459607 0.16332178
0001f0 e6 df d9 3d 5c 54 d4 3d 01 48 8d 3d 8a c7 62 3d
       0.10638408 0.10367653 0.06898499 0.055366077
000200 68 d1 6c 3d ce 8d 95 3d 0c 26 fe bd eb de eb bd
       0.057816893 0.07302438 -0.124096006 -0.115171276
000210 ed b2 94 3c c9 e1 9f bd 36 4f cd 39 5c fc e3 bd
       0.018151725 -0.07806737 0.00039159664 -0.11132118
000220 65 e6 97 3d e1 73 b6 3b 78 30 35 3e 68 61 8b 3d
       0.07416991 0.005568013 0.1769427 0.06805688
000230 33 06 2e be 68 41 30 3e 1a ee 25 be 58 96 fc bd
       -0.16994552 0.1721245 -0.1620411 -0.12333363
000240 da aa 7f bc f2 03 83 3d 8e e3 b0 3c 09 06 06 3d
       -0.015604699 0.06397237 0.021592882 0.0327206
000250 13 a8 47 be 84 ff 7f bd 0a 3b 6a bd de f4 e6 3c
       -0.19497709 -0.062499538 -0.05718521 0.028192934
000260 b8 fc 0b 3e a7 9d b3 bd 31 df 8d bd 05 ae 98 3b
       0.13670623 -0.08770304 -0.06927336 0.0046594166
000270 0d 87 76 bd a3 67 6a bd 99 b1 06 be 4a d1 07 3e
       -0.06018739 -0.057227742 -0.13153686 0.13263431
000280 02 75 0f 3e 50 2d 36 3d 27 47 4c 3d fd 0b 4e bd
       0.14009479 0.044476807 0.049872544 -0.0503044
000290 3c 53 4a be e3 1b 3d be 16 3c 10 3e e5 fb d1 3d
       -0.19758314 -0.18467669 0.14085421 0.10253123
0002a0 79 d6 05 be 71 2e ae bd ce 31 1f be de b6 90 bd
       -0.13070096 -0.08504952 -0.15546343 -0.07066129
0002b0 df 97 ce 3d 27 3f 06 be be 51 1e be 74 3e c9 bd
       0.10087561 -0.13110028 -0.1546087 -0.09826365
0002c0 7f 6b f9 bd 8f 62 07 3e de 54 de bd 7e dd f7 3d
       -0.121787064 0.13221191 -0.10856031 0.12102793
0002d0 40 4f bd 3c de 4b 25 3d 96 bc 6d bd d1 31 e7 3d
       0.023109078 0.040355556 -0.058041178 0.112887986
0002e0 75 6a 3b be 9f eb 35 3e 27 3f 22 be 3c da f4 3d
       -0.18302329 0.17765664 -0.15844403 0.119556874
0002f0 23 75 b6 bd 1b cd e9 bc f8 b5 5a bd 05 d4 d3 3d
       -0.08909061 -0.028540185 -0.053396195 0.10343174
000300 8e ff 19 be 10 80 9e bb d2 c7 78 bd 5a 09 18 be
       -0.15038893 -0.0048370436 -0.06073744 -0.14847317
000310 54 bd b0 bd 9c 5e 04 3e 45 58 64 3c 2c c9 2d be
       -0.086298615 0.12926716 0.013937061 -0.16971272
000320 d1 0f 45 bd 43 fb 07 be fc ab 5e 3d 4c 93 f6 3d
       -0.048110787 -0.13279442 0.054363236 0.120398134
000330 c8 b9 43 bc 1c ef ac bd 62 93 10 be 42 5f 33 3d
       -0.011946149 -0.08444044 -0.14118722 0.043792017
000340 0a b8 30 bd b3 46 48 3c 82 04 5d bc 53 1f 02 3e
       -0.043144263 0.012223887 -0.013489844 0.12707262
000350 fe a0 87 bc 6c b3 22 bd 08 1d 1c bd 8d 86 39 be
       -0.01655626 -0.03972189 -0.038113624 -0.18117733
000360 c1 5c 96 bb fb 9b e8 3d 06 b4 ae 3d e3 fa 98 bd
       -0.004588694 0.11357876 0.085304305 -0.07469728
000370 4a 8b 1f be e9 61 90 bd f4 47 91 3d 24 6a 73 bd
       -0.15580478 -0.07049925 0.07093802 -0.059427395
000380 85 7e d2 3d 3e 9a 00 3d af 08 89 bb e3 c7 04 be
       0.10278038 0.031397097 -0.0041819434 -0.12966876
000390 4f ef 2f 3e d2 45 31 3e e4 41 30 3e 5b 4e a7 3d
       0.17181133 0.1731179 0.17212635 0.08169242
0003a0 be 05 cb bd e3 e1 f7 bd a6 14 26 3e 82 08 dc 3c
       -0.099132046 -0.12103631 0.16218814 0.026859526
0003b0 74 29 ad bb 90 81 fa bd 81 76 94 3d 4e 24 d8 3b
       -0.0052844826 -0.12231743 0.07249165 0.0065961247
0003c0 46 42 bb bd d4 b9 92 bd f1 70 73 3d 4e 6f 13 bc
       -0.091435 -0.0716435 0.05943388 -0.008998705
0003d0 95 5a d4 3d 2f 20 0d be be 25 41 3d d0 66 18 be
       0.1036884 -0.13781808 0.047155134 -0.1488297
0003e0 1a ce c3 bd 30 e3 df bd 9f 7b 4f bd c6 8e 15 bd
       -0.09560795 -0.109320045 -0.050655004 -0.036513112
0003f0 e1 c5 87 3d ad c0 06 3e 20 14 33 be 19 ba 02 be
       0.06629539 0.13159437 -0.17488146 -0.12766303

encoder.dense1.bias f4 [45]
000000 e9 cb 1c 3e 73 26 68 3d 1b 9c 79 bd 49 f2 41 be
       0.1531216 0.056677293 -0.06093989 -0.1894008
000010 ff b5 da bd 5e 95 c8 bd 8e 1a dc 3d 19 8a f3 3c
       -0.10679244 -0.097941145 0.107472524 0.029728936
000020 5b ba d1 bd f9 1b 2d be 7c ea 1a bd ea 7a d3 3b
       -0.102406226 -0.16905202 -0.037821278 0.0064538615
000030 79 c8 b4 bc db 73 01 be bb d7 0f 3e 66 5c 0d be
       -0.022068249 -0.12641852 0.14047138 -0.13804778
000040 86 29 06 bd ae e7 c9 bb 29 40 f2 3d c3 42 e1 3d
       -0.032754444 -0.0061616516 0.11828644 0.10999062
000050 ea b4 7e bd 17 63 a5 bd f6 36 38 be 98 12 04 be
       -0.06218425 -0.080755405 -0.17989716 -0.12897718
000060 77 26 fe bd 4d d1 ea bd ba 86 ee 3d c2 b5 0b bd
       -0.1240968 -0.11465702 0.11646791 -0.034108885
000070 11 00 ce 3d 49 70 86 3d 3e 30 b3 3c 45 37 b0 bd
       0.100586064 0.065643854 0.02187359 -0.08604292
000080 e3 e1 78 3c 26 ac 35 3e c4 cd 71 bd c8 bb 15 3e
       0.015190574 0.1774145 -0.059034124 0.14622414
000090 bc 41 42 bc 38 00 1a be 2c 74 14 bd 85 37 4a 3e
       -0.011856493 -0.15039146 -0.036243603 0.19747742
0000a0 3c 22 16 be 94 aa 84 bd d8 27 3a 3e fe 9f ae 3d
       -0.14661497 -0.06477848 0.18179262 0.0852661
0000b0 ec 18 29 3e
       0.16513413

encoder.dense3m.weight f4 [3, 45]
000000 81 95 ee 3d a9 c2 94 3d 1a dd a7 bd 7c fe d9 bd
       0.11649609 0.07263691 -0.08196469 -0.10644242
000010 a8 a8 04 bb 75 5f 94 bd c8 54 0c 3e ec ea 6f 3c
       -0.0020242129 -0.072447695 0.13704216 0.014643412
000020 41 01 21 3d 53 64 18 bd ed be c8 bc 90 3e e4 3d
       0.039307836 -0.03720505 -0.024505103 0.11144745
000030 45 81 c7 3d f6 89 8c 3c 5f d1 81 3d c7 86 ce bd
       0.09741453 0.017155629 0.063387625 -0.100843005
000040 d4 0b e6 bd 3d 45 3e bd 93 d0 26 3e 59 e0 98 bd
       -0.11232725 -0.04645275 0.16290502 -0.07464666
000050 1c f3 92 bb ff 9b ed bd 82 ce ee bd 3b a3 4c 3d
       -0.0044845473 -0.116020195 -0.11660482 0.049960356
000060 6e 64 5d 3d 3f 4a eb 3d 62 d8 b9 bc a6 21 55 bd
       0.054050855 0.11488771 -0.022686187 -0.052034043
000070 19 c6 8f bd 43 65 ef bd bc d7 76 bd 83 67 38 bd
       -0.07020206 -0.11689236 -0.060264334 -0.04502059
000080 e1 8b 7c bd 81 6d d8 3d a7 43 ab 3c 0a 45 8b bd
       -0.061656836 0.10567761 0.020906283 -0.068002775
000090 63 5f 24 3e ea f0 0d be 57 4f 06 be d8 6c 08 bd
       0.16052012 -0.13861433 -0.13116203 -0.033306926
0000a0 a8 a1 c3 3c 03 53 be 3d e6 74 e2 3d fc 59 be 3d
       0.023880795 0.09293177 0.11057453 0.09294507
0000b0 60 94 17 be 75 d5 9a bd b7 55 8b 3c 96 35 fc bd
       -0.14802694 -0.07560245 0.017008645 -0.12314908
0000c0 cc a6 4a 3d 0f 91 1e 3e 59 88 c1 bc 65 8b 19 be
       0.049475476 0.15485023 -0.023624586 -0.14994581
0000d0 25 48 c7 bd f9 b2 6d bd 34 86 97 bc 49 7d 95 bc
       -0.09730557 -0.05803201 -0.01849661 -0.018248217
0000e0 69 f7 6c 3d 79 39 2b be 8a 27 0b be f2 01 1e bc
       0.057853136 -0.16721143 -0.13589302 -0.0096440185
0000f0 4f f1 c3 bd b7 ba fd 3c 22 38 40 bd d8 53 0a be
       -0.0956751 0.030972822 -0.046928532 -0.13508546
000100 8c cc 34 3d bd 77 ef 3b 73 ac 16 3d 40 a6 89 bc
       0.044140384 0.007307975 0.036785554 -0.016802907
000110 e5 29 e4 bd 78 98 c0 3d 20 53 af bd c4 c7 bf 3d
       -0.11140803 0.09404081 -0.08560777 0.09364274
000120 df c3 86 3c 6f 7c f8 bd 5e 20 45 ba cc 7a ec 3d
       0.01645082 -0.12133109 -0.00075197767 0.11546859
000130 be 50 a4 bd 9b b0 75 3c 15 fe 94 bd a4 f5 b2 bd
       -0.08023213 0.014995719 -0.07275025 -0.087382585
000140 d8 01 0d 3d ba d5 3d bd 16 18 a5 bd 10 d1 cc 3d
       0.034425586 -0.046346404 -0.08061235 0.10000813
000150 70 a3 a0 3d d4 cc da bd 05 03 ad 3d 17 03 ca bc
       0.07843673 -0.10683599 0.084478416 -0.024659676
000160 8f 02 80 bd 3f 3e 14 bb 35 9c 18 3e ac 49 ab 3d
       -0.06250488 -0.002262011 0.14903338 0.08363661
000170 1a 6d 84 3d 69 ba ea 3d 3e c8 22 bd 18 1c 15 3c
       0.06466122 0.11461336 -0.039741747 0.009100936
000180 60 83 5d bc f8 f1 4b bb 2a 32 a7 3d 6c 56 84 3c
       -0.013520092 -0.0031119566 0.08163865 0.01615449
000190 05 1a 12 3e ce 29 eb 3d 4e 87 f7 bd 36 ee 85 bd
       0.14267738 0.11482583 -0.12086354 -0.06539576
0001a0 8a ee 6a 3d 8b 1c 87 3d af 32 c4 3d 0d c2 03 3d
       0.057356395 0.06597241 0.0957998 0.032167483
0001b0 6f 86 47 3d 22 6c 18 bc a7 d1 82 bd da a6 60 3d
       0.04871219 -0.009303125 -0.06387644 0.054846622
0001c0 4c de 05 be a2 fc 47 bd 30 4a b9 bc 5d fa 24 3d
       -0.13073081 -0.048824914 -0.022618383 0.040277828
0001d0 0b 64 01 3e aa f7 9e 3d a7 a9 3e bd ea 25 04 3e
       0.1263582 0.07762082 -0.04654851 0.12905088
0001e0 d5 bd 11 3b 82 f0 47 bd 3e 9c fa 3d 32 5e c8 3d
       0.0022238393 -0.04881335 0.12236832 0.09783591
0001f0 ad fd be bd 93 95 84 bd f6 bb a3 bd 4f 4b 69 3d
       -0.093257286 -0.064738415 -0.07994835 0.056956585
000200 2c 99 f1 3d c5 5d f3 3d 06 8d 2e 3e 7d ee f6 3d
       0.11796793 0.118831195 0.17045984 0.12057207
000210 6b 18 23 3d 83 2a e2 bd a2 8a be bd
       0.03981821 -0.11043265 -0.09303786

encoder.dense3m.bias f4 [3]
000000 cd a6 dd 3d 77 d9 66 bd 4b a2 fe 3d
       0.1082283 -0.056359734 0.12433299

encoder.dense3s.weight f4 [3, 45]
000000 a2 f5 3e bd 84 94 18 be c1 ae f7 bd e6 8b 67 bc
       -0.046620972 -0.14900404 -0.120938785 -0.0141324755
000010 3a b7 1b bd 73 7f e2 3d 5f 30 13 bd f2 5d 0a 3e
       -0.038016535 0.11059465 -0.035934802 0.135124
000020 af 36 d6 3d 14 3e 19 bd 4a fa 39 bd 82 21 da bc
       0.10459649 -0.037412718 -0.04540471 -0.026627306
000030 aa db 56 3c cc b2 5c bd 38 93 09 3e 13 70 73 bc
       0.013113895 -0.05388145 0.13435066 -0.014858264
000040 a6 a8 01 3e 81 45 cd bc 16 b7 af 3d c2 16 66 3d
       0.1266199 -0.025057556 0.08579843 0.056174047
000050 63 ca e5 3d 57 9a 09 be 2f 8e 2d 3d 73 b9 b9 bc
       0.11220243 -0.13437782 0.042371925 -0.022671437
000060 97 bd 00 3e 36 9e 7e bb 96 5d a4 bd 0e 13 0f 3d
       0.12572323 -0.0038851625 -0.080256626 0.03493028
000070 84 20 fa bd b6 d1 0e 3e 02 63 ba 3d 59 35 0e be
       -0.12213233 0.13947186 0.091009155 -0.13887538
000080 8d c5 bd bd ca 44 19 3c 19 33 a9 3d e1 9d 6b bd
       -0.092661954 0.0093547795 0.08261699 -0.057523612
000090 42 08 07 be 86 04 92 3c 1f f2 66 bd 18 1a c2 bd
       -0.13186744 0.017824423 -0.05638325 -0.09477633
0000a0 51 a6 dc bd 46 c0 ae 3d 93 a0 a9 bd 8d 03 94 3d
       -0.1077391 0.08532767 -0.0828258 0.0722724
0000b0 29 87 3e 3c 05 48 1d bc 2a af 0b bc c7 29 0c 3e
       0.011628904 -0.00959969 -0.008525649 0.13687812
0000c0 3d 74 e2 3d 69 64 6a bc be e1 05 bd 31 e6 e8 bd
       0.11057327 -0.014306166 -0.032685988 -0.113720305
0000d0 32 a0 b3 bd ac 45 c7 3d eb e1 9b bc 1f 58 a2 3d
       -0.08770789 0.09730086 -0.019028625 0.07926964
0000e0 92 84 a3 3d 45 b5 ed bd b2 c3 b1 3d a9 fd c5 bc
       0.0798427 -0.1160684 0.08679904 -0.024168806
0000f0 c1 22 fe bb d9 32 02 3e e6 fd 22 bd c5 6f 6d bc
       -0.007755608 0.1271471 -0.039792918 -0.01449198
000100 4c 66 ac 3d 56 19 77 3c d9 09 bb 3d f7 9a ea 3d
       0.08417949 0.015081724 0.09132738 0.114553384
000110 24 98 7d 3c 1c f1 0b 3e 03 ac 82 3d 4d 89 5d 3d
       0.015478168 0.13666195 0.06380465 0.05408602
000120 81 bc 1b 3d da 55 3e 3c 4e 9d 08 3e 1b c1 75 3d
       0.03802157 0.011617148 0.13341257 0.059998613
000130 48 c3 87 3d 7c 54 0e be 2e c2 bb bc 4d fe fc 3d
       0.06629044 -0.13899416 -0.02291974 0.123531915
000140 3b b8 08 be e7 06 a9 3d ca 32 41 bd 3c a6 16 3e
       -0.13351528 0.0825327 -0.047167577 0.14711851
000150 f5 62 92 bd 3b 11 fc 3c 71 d4 99 3d f3 0e 2f bd
       -0.07147781 0.030769935 0.07511223 -0.042738866
000160 80 a6 d2 3d c3 2a 0b 3d 99 38 da bd fd 77 7b 3c
       0.102856636 0.033976328 -0.106553264 0.015348432
000170 5f 81 d3 3d 83 09 c6 3d 45 6f 24 be 00 4d 44 3d
       0.1032741 0.09669783 -0.16058071 0.047924995
000180 c9 d0 0b 3d e6 19 06 be cd ff 09 bd 08 ae 2b be
       0.03413466 -0.13095817 -0.033691216 -0.16765606
000190 4f 8a 9a bd e2 d5 ea 3b 1d 22 d0 bc 94 2a 8e 3c
       -0.075459115 0.00716661 -0.025406891 0.017354287
0001a0 3c 73 6a bd 95 23 37 bd bf 08 68 3d 5c e3 95 3d
       -0.057238802 -0.044711668 0.056648966 0.07318756
0001b0 d7 c6 82 3c 9f a4 89 bd 14 47 00 3e 29 9d f5 3d
       0.015963955 -0.06720852 0.12527114 0.119928665
0001c0 b3 ea d9 bd ec 65 de 3d 0f 59 a4 bd e6 0e 35 3d
       -0.106404684 0.10859284 -0.08024799 0.04420366
0001d0 75 c7 1f 3d e9 3d 93 39 07 f0 de 3d 09 b8 0b bd
       0.039008576 0.00028084152 0.10885625 -0.034111056
0001e0 bf 7c b4 bc 8a d2 97 bd e6 08 85 bd 85 5d e3 bd
       -0.02203214 -0.07413204 -0.06495838 -0.11101822
0001f0 25 d5 6f bd 5a c8 f6 bc 38 ba a4 bd 7b 64 c6 3d
       -0.05855288 -0.030124832 -0.08043331 0.09687134
000200 08 80 ea 3d 02 a9 3b bd b6 84 eb bd f8 fd 78 3d
       0.11450201 -0.045815475 -0.11499922 0.06078908
000210 6e 55 e8 bc 18 c7 2a bd 13 f4 4d 3d
       -0.028361049 -0.041693777 0.050281595

encoder.dense3s.bias f4 [3]
000000 44 26 97 3b a6 0c b1 bd 21 93 0c bd
       0.004612716 -0.086449906 -0.03432

decoder.linear.bias f4 [28]
000000 6c b4 e4 be f0 a6 0a bc 21 5d 99 3e 2f 41 4c be
       -0.446689 -0.008462653 0.29953864 -0.1994674
000010 f3 38 c2 be 28 64 d4 3c 51 67 b3 3e c1 3c 17 3f
       -0.37934074 0.025926664 0.35039762 0.5907708
000020 c9 bf bf be 17 9a 23 be b3 da fa 3c 95 25 ec 3c
       -0.37451008 -0.1597675 0.030621862 0.028826514
000030 3d 7b 02 bf 44 5c c8 be 87 66 09 3f 84 fb 8b 3e
       -0.50969297 -0.39132893 0.5367207 0.2734033
000040 0e 96 7d be 37 a8 f5 be 4b da 81 bc 94 08 95 3b
       -0.24764273 -0.479799 -0.01585116 0.0045481417
000050 f4 fb e8 be 55 5f d4 3e 1e b4 c6 be 4f 7f 83 be
       -0.45504725 0.41478983 -0.38809294 -0.25683066
000060 03 18 fe be 71 02 f2 3e 16 72 60 3e 8e bd 14 bf
       -0.49627694 0.47267488 0.2191852 -0.5810174

decoder.linear.weight_orig f4 [28, 3]
000000 a3 37 b2 be 04 bb 4d 3e 00 67 ff 3e da 4b fd be
       -0.34808072 0.20090872 0.4988327 -0.49471933
000010 a7 f7 ec be c6 8e 39 be 19 4b 07 3c 68 4b e6 be
       -0.46282694 -0.1812087 0.008257651 -0.44979405
000020 a3 50 8f be b4 84 e7 be 80 69 1e 3e 8a d6 e3 be
       -0.27991208 -0.45218432 0.15469933 -0.44499618
000030 8f dd f1 be a4 b3 5d be e9 93 ba 3e d0 88 2d be
       -0.47239348 -0.21650559 0.36440971 -0.16946721
000040 94 bf f7 3e ab e2 c0 3e 06 00 a7 bd 78 6e b2 3d
       0.4838835 0.37672934 -0.08154301 0.087124765
000050 aa 36 87 be 00 b1 28 3d 53 5b 01 be 9e 48 02 3f
       -0.26408893 0.041184425 -0.12632494 0.50892055
000060 4c bd cd 3e 3d e5 82 be 7b ab 0c be 67 03 bf be
       0.40183485 -0.2556552 -0.1373729 -0.37307283
000070 38 aa c7 bd 00 2e 9f 3d ca 2b 0f 3e a0 3c 8f bd
       -0.097492635 0.07772446 0.13981548 -0.06993985
000080 79 73 3a bc 39 a4 ad 3d b4 06 f8 bd b7 bd ea 3e
       -0.01138007 0.084785886 -0.121106535 0.45847866
000090 42 bb a3 be 5c 38 86 be cc 90 bc be 58 fb 36 be
       -0.31978804 -0.26214874 -0.3682922 -0.17869318
0000a0 58 1b d1 3d 40 65 01 bc ad e2 8e be 64 ed 23 3e
       0.102102935 -0.007897675 -0.27907315 0.16008526
0000b0 93 94 db 3e e2 b3 c8 be b0 47 10 3d 07 d0 cf be
       0.4288679 -0.3919974 0.035224617 -0.405884
0000c0 78 ef 0e be 9f 8f 0c 3f 1b e8 f3 bd c8 ad a3 be
       -0.13958538 0.5490665 -0.11909505 -0.31968522
0000d0 36 8f 56 be 05 90 ae be d0 de 62 bd 74 5a b0 3e
       -0.20953068 -0.34094253 -0.05538827 0.3444401
0000e0 1e 26 f5 bd a9 11 ea be 7c 2d 80 3e cb 7b 15 3c
       -0.11970161 -0.457166 0.25034702 0.009123753
0000f0 77 ef 0c 3f 2f 2e 12 bf 77 bb f6 3e f8 61 4b be
       0.55052894 -0.5710172 0.481899 -0.19861591
000100 80 40 80 3c 35 ea 4f bd b0 6f 72 bd bd 3b 83 bd
       0.015655756 -0.050760467 -0.059188545 -0.064078785
000110 50 60 c9 3d 8e ec c1 3e 31 ee fb be 5c 36 d4 3e
       0.09832823 0.3787579 -0.49205163 0.41447723
000120 da 8c 02 3e 28 e6 ef 3e fb 82 dc be 33 81 88 be
       0.12749043 0.46855283 -0.4306868 -0.2666107
000130 90 9f f6 3d 93 97 05 bf 7b 98 6d 3e 70 5f b4 3d
       0.12042153 -0.5218441 0.23202698 0.08807266
000140 12 3d f0 be c9 fd 06 bf 45 f7 f1 be c8 ab 6b 3e
       -0.46921593 -0.52730995 -0.47258964 0.23014748

decoder.linear.weight_mask f4 [28, 3]
000000 00 00 80 3f 00 00 00 00 00 00 00 00 00 00 00 00
       1.0 0.0 0.0 0.0
000010 00 00 80 3f 00 00 00 00 00 00 80 3f 00 00 00 00
       1.0 0.0 1.0 0.0
000020 00 00 80 3f 00 00 00 00 00 00 00 00 00 00 80 3f
       1.0 0.0 0.0 1.0
000030 00 00 00 00 00 00 00 00 00 00 80 3f 00 00 00 00
       0.0 0.0 1.0 0.0
000040 00 00 00 00 00 00 80 3f 00 00 80 3f 00 00 00 00
       0.0 1.0 1.0 0.0
000050 00 00 80 3f 00 00 00 00 00 00 80 3f 00 00 00 00
       1.0 0.0 1.0 0.0
000060 00 00 00 00 00 00 00 00 00 00 80 3f 00 00 80 3f
       0.0 0.0 1.0 1.0
000070 00 00 00 00 00 00 00 00 00 00 80 3f 00 00 00 00
       0.0 0.0 1.0 0.0
000080 00 00 80 3f 00 00 80 3f 00 00 00 00 00 00 80 3f
       1.0 1.0 0.0 1.0
000090 00 00 80 3f 00 00 00 00 00 00 00 00 00 00 80 3f
       1.0 0.0 0.0 1.0
0000a0 00 00 00 00 00 00 00 00 00 00 00 00 00 00 00 00
       0.0 0.0 0.0 0.0
0000b0 00 00 80 3f 00 00 80 3f 00 00 00 00 00 00 80 3f
       1.0 1.0 0.0 1.0
0000c0 00 00 00 00 00 00 80 3f 00 00 80 3f 00 00 00 00
       0.0 1.0 1.0 0.0
0000d0 00 00 00 00 00 00 80 3f 00 00 00 00 00 00 00 00
       0.0 1.0 0.0 0.0
0000e0 00 00 80 3f 00 00 80 3f 00 00 00 00 00 00 80 3f
       1.0 1.0 0.0 1.0
0000f0 00 00 80 3f 00 00 00 00 00 00 80 3f 00 00 00 00
       1.0 0.0 1.0 0.0
000100 00 00 00 00 00 00 80 3f 00 00 00 00 00 00 80 3f
       0.0 1.0 0.0 1.0
000110 00 00 00 00 00 00 00 00 00 00 80 3f 00 00 00 00
       0.0 0.0 1.0 0.0
000120 00 00 80 3f 00 00 00 00 00 00 00 00 00 00 00 00
       1.0 0.0 0.0 0.0
000130 00 00 00 00 00 00 80 3f 00 00 80 3f 00 00 00 00
       0.0 1.0 1.0 0.0
000140 00 00 00 00 00 00 00 00 00 00 00 00 00 00 80 3f
       0.0 0.0 0.0 1.0

exp_avg f4 [45, 28]
000000 9a e6 27 3b e2 3f 72 bc 41 5b a1 3c 1e 75 a8 3b
       0.0025619627 -0.014785739 0.019696834 0.0051409146
000010 8d 57 b7 bc 4e 61 6d ba 2f a8 98 3c d5 b1 36 bc
       -0.022380615 -0.0009055332 0.018634884 -0.011150797
000020 54 47 ce 3b 7d 7b 0e 3c b9 97 02 3b 39 a9 1e bc
       0.006295124 0.008696434 0.001992686 -0.0096839005
000030 69 51 b1 3b cd 85 a1 3b 87 25 ec bb 9f 1d a8 3c
       0.005411316 0.0049292804 -0.007206622 0.020521937
000040 db c5 0a 3c 7f 27 4f 3b 54 b1 50 3c cd f3 2c 3c
       0.008470024 0.0031609235 0.012737591 0.0105561735
000050 76 25 1e bc e8 d2 dd 38 b7 81 9e bb 62 85 fa bb
       -0.009652486 0.000105773855 -0.0048372406 -0.007645295
000060 72 12 19 bb 9c 8d 5f 3c 2f 33 b9 bb 18 19 f8 ba
       -0.0023356942 0.013644602 -0.0056518535 -0.0018928377
000070 7b 7e 6a 3c 20 c8 d5 3a 78 20 22 3c 5c 26 36 3c
       0.014312382 0.0016310252 0.0098954365 0.011117544
000080 8b 65 5a bc a6 21 ee ba 1a 66 3a 3c 53 af e4 ba
       -0.013329874 -0.0018167987 0.011376882 -0.001744727
000090 55 64 ec 3a 00 c2 6f 3c c2 8c 0d 3c 37 c1 95 3a
       0.0018035272 0.014633656 0.008639516 0.001142538
0000a0 2a 67 69 3c ec 58 16 3c 30 dd a5 bb a2 e7 94 3c
       0.014245788 0.009176474 -0.005061768 0.018176857
0000b0 2e d9 e9 3b 44 63 af 3b cb 8d 0e 3c ca 8b 5b 3c
       0.0071364855 0.0053524096 0.008700798 0.0134000275
0000c0 02 e7 28 ba 49 d7 18 3b 73 f5 2b 3b f7 4c 02 3c
       -0.0006443114 0.002332168 0.0026238828 0.00795292
0000d0 c2 2f c6 3b 1d 08 19 3c 98 65 f7 3b 43 a9 b8 bb
       0.0060481736 0.009340313 0.0075499527 -0.005635412
0000e0 08 bb 0d 39 a9 68 0f bc 39 d5 d8 3b e9 2c 08 3c
       0.00013516482 -0.00875298 0.006617215 0.008311489
0000f0 95 a1 b5 bb 6f 77 c1 ba 15 dd e4 3b 90 64 81 bb
       -0.0055429437 -0.0014760325 0.006984363 -0.0039487556
000100 3e 38 6d 39 75 01 a1 3b 5b e2 2a 3c 51 90 9e 3b
       0.00022623033 0.004913504 0.010429944 0.004838981
000110 eb b6 d8 3b 53 52 51 bb b2 06 82 b9 cf 3f c0 3b
       0.0066136024 -0.0031939938 -0.0002480052 0.0058669816
000120 4f 95 65 3c 8e 53 14 3c 08 70 ae 3b 7c 30 e9 3a
       0.014012649 0.009053124 0.0053234138 0.0017790939
000130 10 74 32 3c f5 1b b8 3b f5 d3 f6 bb 67 0f f4 bb
       0.010891929 0.005618567 -0.0075325915 -0.007448125
000140 60 6a 98 3b bb 6f 46 3b 5a 03 b7 3b 7c 21 50 bb
       0.0046513528 0.0030279 0.0055851163 -0.003175824
000150 a8 eb c9 bb 4b 78 07 3c 3c 87 9d ba d8 97 fe 3b
       -0.0061621256 0.008268426 -0.0012018452 0.007769566
000160 05 80 d5 bb cd 8e ff bb 6c 4d 1c b9 02 a3 0c ba
       -0.0065155053 -0.0077990056 -0.00014906161 -0.0005364866
000170 78 a4 10 bb 11 d9 13 bb a1 0b c0 3a 5e e8 c6 bb
       -0.0022070687 -0.0022559802 0.0014651903 -0.006070181
000180 41 7c 36 bb 45 24 40 bc 7c 52 1d bc 90 78 1d b8
       -0.0027845057 -0.011727397 -0.009602185 -3.7544e-05
000190 98 5a 90 b8 47 06 2e 3c 8f 65 3f bb c8 91 12 bc
       -6.8833295e-05 0.010621614 -0.002920482 -0.00894589
0001a0 95 79 2c 3b 2c 1d 30 3b 36 c2 37 bb 83 50 19 3b
       0.0026317586 0.0026872857 -0.0028039343 0.0023393936
0001b0 ce fe 83 3a 3d 1d 85 3b ac a7 ab b8 f2 56 8c bb
       0.0010070445 0.0040623234 -8.185147e-05 -0.0042828256
0001c0 e7 cb ba 3b c8 9b 1f 3c e3 4b f6 3a 38 c8 9a b9
       0.0057005766 0.009741731 0.0018790927 -0.00029522344
0001d0 e3 aa 34 b9 e7 7d 28 3c 46 91 76 3b b3 3d 0c 3c
       -0.00017229798 0.010283924 0.003762321 0.008559632
0001e0 07 2f 1d 3c 16 71 0d bb 28 4e 3c b9 e9 71 9f 3b
       0.009593732 -0.0021582297 -0.00017958193 0.004865874
0001f0 42 bd 49 bb 1b ed 2a 3c c8 79 03 3c d9 80 4c 3b
       -0.0030782972 0.010432507 0.00802464 0.003120473
000200 f0 84 a7 bb 92 3a 69 bb 44 46 7d 3b b2 ee 95 3b
       -0.005112283 -0.003558789 0.0038646618 0.004575574
000210 26 e2 dd 3b ec 84 47 3a 14 34 0e 3c b0 e3 8e 3c
       0.0067713438 0.00076110545 0.008679409 0.017442554
000220 d8 6a 31 3b 51 07 6b b9 80 22 5c 3b 94 af c5 3b
       0.002707174 -0.00022414072 0.00335899 0.0060328934
000230 14 bf bb bb 65 d3 74 3b d4 14 51 bb 39 a1 9b 3a
       -0.0057295654 0.0037357446 -0.0031903284 0.001187361
000240 60 b4 02 3c e0 06 1a bb dc 4d 86 bb 29 9f d8 3a
       0.007977575 -0.0023502633 -0.004098637 0.0016526926
000250 c7 92 44 ba ae 97 ba bb 7d df 15 bb ab 64 94 b9
       -0.0007498678 -0.005694351 -0.0022868805 -0.00028303763
000260 a5 fe 95 bb 15 8b b4 bb cd 4f 13 ba 12 f8 c3 bb
       -0.004577475 -0.005509744 -0.0005619496 -0.0059805
000270 9d 5c ba ba 09 eb 84 3b b6 73 1f bb e7 b5 e3 bb
       -0.0014218275 0.0040563387 -0.0024330444 -0.0069491747
000280 a7 5a 03 ba ba a3 9b 3a 8d bb a3 3a 97 fb 9a bb
       -0.00050107617 0.0011874356 0.0012491808 -0.004729699
000290 c8 66 32 ba 7a 1f 0b 3a 8c da 90 38 a9 5c 7e 3a
       -0.0006805477 0.00053071196 6.9071626e-05 0.00097031385
0002a0 cc 91 28 3c 98 8b 07 bc bb 92 62 3b 7e 3b 27 3a
       0.010288667 -0.008273028 0.0034572321 0.00063794095
0002b0 90 5c ce 3a 70 a0 8d ba 66 5c 17 3b 44 89 57 bb
       0.0015744139 -0.001080526 0.0023095845 -0.0032888213
0002c0 70 e6 52 bb 1c 7a 2f 3c 75 03 71 3b ea 26 83 3b
       -0.0032180808 0.0107102655 0.0036775742 0.0040024417
0002d0 8b 7a 41 3c 36 84 0a 3c d4 ca 26 3a fd 3e e9 3b
       0.011809002 0.008454373 0.0006362621 0.0071181045
0002e0 9a 01 bf 3b 8d 10 25 bb 60 e2 83 3b 97 bc 3b 3c
       0.0058290483 -0.0025186867 0.0040247887 0.011458538
0002f0 40 4e ce bb 10 86 a5 ba ec f4 cb 39 61 84 d0 bb
       -0.006295949 -0.0012628455 0.00038901658 -0.006363437
000300 7b 48 e6 3a c6 f6 af 3a 86 44 74 3b 1a b5 21 bb
       0.0017569208 0.0013424985 0.0037272288 -0.0024674595
000310 91 6a 12 bc cf e1 20 bc c2 a5 ac 3b 86 9c 82 bb
       -0.00893654 -0.009819462 0.0052687833 -0.003985944
000320 67 1d 8c 3b fd dd 49 3b 4e 78 30 3b e3 86 69 bb
       0.004275966 0.0030802481 0.0026927176 -0.0035633377
000330 3f 5f b4 3b eb 8f 00 bc 59 a1 af bb 6f 2a 22 bb
       0.0055045183 -0.007846813 -0.0053598103 -0.002474453
000340 6f 30 07 bc 05 39 2e ba c8 f9 7a 3b f0 3e 1a bb
       -0.008251294 -0.000664607 0.0038295854 -0.0023536049
000350 74 e6 18 3a a4 3f 83 ba db 53 79 3b c5 05 55 bb
       0.000583268 -0.0010013473 0.0038044367 -0.003250466
000360 24 ca 8b bb cc 5f 14 b8 cc 6f a7 ba 46 0f 5d bc
       -0.0042660404 -3.5375167e-05 -0.0012774407 -0.013492411
000370 ba 70 96 bb 15 9d 4d 3b 83 a5 cc bb 30 14 bd 3b
       -0.004591075 0.0031374146 -0.0062453165 0.005770229
000380 2f 71 5d bc 20 75 4f bc a2 54 88 3b 27 63 d2 bb
       -0.013515755 -0.012662202 0.0041604796 -0.0064205113
000390 86 dd 19 bc 59 c5 a9 bb af 75 05 3b 48 8d 0e bc
       -0.009391194 -0.0051809964 0.0020364334 -0.008700676
0003a0 11 b9 bb ba 1a 83 91 bb 3f c6 dc bb 20 0e 66 bc
       -0.0014322122 -0.0044406774 -0.0067375 -0.014041454
0003b0 4b 0d 02 bc b3 25 3e bc 1d 02 03 bc 3e 4f 90 ba
       -0.00793774 -0.011605668 -0.007996109 -0.0011009944
0003c0 2c 8e 30 b9 ae 7c da b8 d7 ca 28 bb 22 9e e1 bb
       -0.00016837631 -0.000104182735 -0.0025755668 -0.006885306
0003d0 2f 65 23 bc ad b9 73 bb 6b 62 34 bc ff 5c 69 bc
       -0.0099728545 -0.0037189529 -0.011009793 -0.014243363
0003e0 c4 24 0f bc 24 bd eb 39 b1 d7 74 bc 2a fa a7 b8
       -0.008736793 0.00044963614 -0.014944003 -8.009777e-05
0003f0 fc 7b c9 39 64 7d b3 bb 57 76 3d 3c 78 15 7c 3b
       0.00038430083 -0.005477594 0.011563859 0.0038464945

exp_avg_sq f4 [45, 28]
000000 59 85 cf 35 15 1f df 36 74 be a0 37 50 95 6d 36
       1.5461511e-06 6.6495363e-06 1.9162173e-05 3.5402663e-06
000010 ce 59 5b 37 fe 15 3f 35 fb e5 96 37 2f a9 5c 36
       1.30743265e-05 7.118505e-07 1.7988486e-05 3.2881032e-06
000020 bf a1 ae 36 85 e0 86 36 a9 7d cc 35 17 cd 1c 36
       5.204434e-06 4.0196487e-06 1.5235756e-06 2.336519e-06
000030 cf ae 1a 36 a5 81 58 36 64 b3 a8 35 fa aa b4 37
       2.304954e-06 3.2261971e-06 1.2569185e-06 2.153729e-05
000040 1e 12 a8 36 d3 d4 04 36 42 ab 33 37 32 c8 03 37
       5.0088993e-06 1.9793413e-06 1.07091055e-05 7.85482e-06
000050 70 a1 07 36 b5 da 2e 35 f5 08 44 35 af ab d2 35
       2.0210537e-06 6.513831e-07 7.3028724e-07 1.5696186e-06
000060 15 e7 01 35 51 c5 1d 37 dd f9 7f 35 82 d3 2a 34
       4.8392513e-07 9.4038705e-06 9.53585e-07 1.590943e-07
000070 d6 a9 56 37 ae ed 62 37 7b a9 08 37 29 2f 99 37
       1.2794937e-05 1.3525989e-05 8.145692e-06 1.8260982e-05
000080 e9 e4 3c 38 7e ea c9 36 8d d6 07 37 da 05 da 37
       4.5035882e-05 6.0175653e-06 8.096581e-06 2.599035e-05
000090 24 34 9a 37 8b fa e8 36 eb c0 ee 36 53 af c4 37
       1.838251e-05 6.943306e-06 7.1154113e-06 2.3446662e-05
0000a0 ee bc 03 37 71 b9 0a 37 86 50 82 37 52 56 7a 37
       7.852197e-06 8.268617e-06 1.5534704e-05 1.4921259e-05
0000b0 2d d9 17 37 05 fd 8a 37 a3 3f 5b 37 7a 63 22 37
       9.0508665e-06 1.6568703e-05 1.3068234e-05 9.679114e-06
0000c0 e3 61 0d 37 86 5b bf 36 a0 25 66 37 70 7f 9e 36
       8.427046e-06 5.7028983e-06 1.3717829e-05 4.7236026e-06
0000d0 c2 54 d2 36 b6 1e df 36 b0 98 5c 37 5d 42 ce 36
       6.268355e-06 6.649493e-06 1.3148572e-05 6.147004e-06
0000e0 9c ec be 36 b0 3e 45 37 16 db 4e 36 8e b5 fc 36
       5.689986e-06 1.1756711e-05 3.0823917e-06 7.531321e-06
0000f0 c8 b4 7a 37 fc 52 ed 35 15 ed 33 36 67 9e 47 37
       1.4943253e-05 1.7682028e-06 2.6811078e-06 1.1898205e-05
000100 57 c1 f8 36 56 1e 74 35 a1 97 86 36 07 09 fe 36
       7.4134837e-06 9.094123e-07 4.011163e-06 7.570841e-06
000110 10 45 15 36 b8 73 c1 36 f1 8d 7b 36 70 ae 76 36
       2.224293e-06 5.7653197e-06 3.7484535e-06 3.6758393e-06
000120 93 ea d1 36 d9 a8 cd 36 70 fc 99 36 78 9e 31 36
       6.2559934e-06 6.1291325e-06 4.589143e-06 2.6467296e-06
000130 8d f0 83 36 5b d3 12 36 a1 87 4b 37 d2 ea c7 36
       3.932108e-06 2.187872e-06 1.21313215e-05 5.957999e-06
000140 f6 93 10 36 40 7e 29 36 e4 6b ad 36 d4 6a 06 36
       2.1543797e-06 2.525645e-06 5.168362e-06 2.0029738e-06
000150 2e 29 8f 36 4f e6 fd 36 67 94 f6 35 8d e9 fa 36
       4.266526e-06 7.566799e-06 1.8371619e-06 7.4777695e-06
000160 9c d1 a5 36 dd 12 34 36 f0 3f 01 36 c1 a5 b8 36
       4.941785e-06 2.683307e-06 1.9259714e-06 5.5029236e-06
000170 db 35 59 36 22 55 9d 35 4b 73 59 36 26 79 b6 36
       3.2366868e-06 1.1722188e-06 3.240263e-06 5.438126e-06
000180 54 95 17 36 b6 9b c0 36 5a a2 87 36 ee 45 6d 36
       2.2587674e-06 5.740173e-06 4.0422137e-06 3.5356456e-06
000190 b2 d9 2c 36 ce da 1f 37 4e 33 3c 36 69 55 95 36
       2.5756713e-06 9.528083e-06 2.8044046e-06 4.450489e-06
0001a0 17 a9 48 36 3d 7d b1 35 34 a2 26 36 b2 5c 30 36
       2.9900746e-06 1.3223977e-06 2.4830342e-06 2.628e-06
0001b0 ae c5 4c 36 cb ce d9 35 bb 9e 9f 36 62 88 71 35
       3.0513434e-06 1.6227945e-06 4.757048e-06 8.997796e-07
0001c0 37 f1 d4 36 18 8c a9 36 31 f4 82 36 40 b0 28 37
       6.3461734e-06 5.0529015e-06 3.9027295e-06 1.0054617e-05
0001d0 b5 02 40 37 0f a0 59 36 09 f6 63 36 78 53 14 37
       1.1444722e-05 3.2428686e-06 3.3968847e-06 8.8409215e-06
0001e0 7b e2 ed 36 fd a6 17 36 0f 91 ac 36 12 03 24 37
       7.089516e-06 2.2597953e-06 5.1428865e-06 9.775877e-06
0001f0 3b 47 b8 36 37 82 ac 36 0f df 83 36 70 6b df 36
       5.4919196e-06 5.1411585e-06 3.9300717e-06 6.6584253e-06
000200 af 7c ee 36 4b 90 5a 37 75 3e b8 36 b9 a6 8f 36
       7.107468e-06 1.3027408e-05 5.4908983e-06 4.281141e-06
000210 b4 4e 69 36 dd 3c 0a 36 e9 8e a6 36 6e c6 00 37
       3.4765517e-06 2.059903e-06 4.9638224e-06 7.675595e-06
000220 ca 23 a0 36 f9 3e 5e 36 dc 16 14 37 91 c3 c1 35
       4.772538e-06 3.3117233e-06 8.82681e-06 1.4436538e-06
000230 05 c9 10 36 f4 7d c8 36 81 6a 63 35 36 28 85 36
       2.157468e-06 5.9751274e-06 8.4719073e-07 3.96839e-06
000240 59 b9 4b 37 8d 88 16 35 64 4a 85 35 44 88 d4 36
       1.21428975e-05 5.607806e-07 9.930923e-07 6.3339558e-06
000250 b0 aa 25 36 df 2a 84 35 ef bc 86 35 99 e5 96 36
       2.468627e-06 9.847244e-07 1.0038765e-06 4.497077e-06
000260 0d e5 86 35 1c 6b d3 35 7e d4 dd 35 39 33 f6 35
       1.005044e-06 1.5751898e-06 1.6527626e-06 1.8343336e-06
000270 9a 3b a7 35 73 a2 b3 36 f8 0e e0 35 a5 ac fe 35
       1.2459816e-06 5.3535273e-06 1.6693657e-06 1.8974721e-06
000280 54 f2 9e 35 88 27 a6 35 eb 70 89 36 2e 38 89 35
       1.1842444e-06 1.2379469e-06 4.0960635e-06 1.0223646e-06
000290 9f 4e a4 35 9e 50 85 35 72 c0 6c 36 8d 73 4c 35
       1.2241834e-06 9.932735e-07 3.5278758e-06 7.616407e-07
0002a0 bd b0 f4 36 d6 cb cc 36 ef 32 35 36 e3 0b c3 36
       7.2923417e-06 6.1034034e-06 2.700075e-06 5.8128367e-06
0002b0 eb 83 e5 36 a0 14 a1 35 79 d0 20 36 83 d4 ee 36
       6.840089e-06 1.2001437e-06 2.3963205e-06 7.1176923e-06
0002c0 69 e3 c9 36 87 0d b2 36 78 ef 4d 36 cd 61 e3 36
       6.016741e-06 5.306388e-06 3.068677e-06 6.7765127e-06
0002d0 76 cd ec 36 cb 84 b5 36 f4 e7 2d 36 13 7c b4 36
       7.057267e-06 5.4096795e-06 2.5914023e-06 5.378862e-06
0002e0 3f 52 6c 36 82 bb cc 36 0e 17 8b 36 25 82 f7 36
       3.5214614e-06 6.1015025e-06 4.1452067e-06 7.3763244e-06
0002f0 4e 69 8d 36 b9 6b e6 35 76 25 61 36 7f ed 5b 36
       4.2143865e-06 1.7167687e-06 3.3549418e-06 3.2771784e-06
000300 4e 50 24 36 c1 02 dc 35 01 f9 a7 36 52 85 7a 35
       2.4484648e-06 1.6392079e-06 5.0059757e-06 9.3326264e-07
000310 6b cc ee 36 8d 09 1b 37 6b 64 2a 37 87 3e 67 37
       7.11675e-06 9.240944e-06 1.015617e-05 1.3783231e-05
000320 3e 65 ea 37 93 3f b7 36 05 04 ea 36 60 e1 83 37
       2.7942118e-05 5.461226e-06 6.9742114e-06 1.5721365e-05
000330 27 e4 ae 37 69 92 06 36 59 10 6b 36 33 6c 89 37
       2.0848658e-05 2.0052778e-06 3.5027244e-06 1.6382057e-05
000340 db 5e 46 36 0b b6 d2 36 80 7b 52 37 7d 7c ed 36
       2.9559512e-06 6.2796803e-06 1.254573e-05 7.0776427e-06
000350 a9 7e 04 37 ac 65 6c 37 14 04 7c 37 77 af 8e 36
       7.8973035e-06 1.40903685e-05 1.502132e-05 4.2523566e-06
000360 fa 76 95 36 da 39 c7 36 93 cf 3a 37 fd 01 bc 36
       4.4543967e-06 5.937397e-06 1.1134794e-05 5.603068e-06
000370 6e fe 66 36 d5 9c 07 37 2a 71 06 37 25 2d ca 36
       3.4420768e-06 8.083142e-06 8.0133705e-06 6.0253246e-06
000380 6b 8b 4f 38 b2 a2 19 38 97 15 46 38 a2 2a 99 38
       4.948249e-05 3.6629564e-05 4.7226986e-05 7.3035495e-05
000390 63 a7 bd 38 68 44 a7 37 80 13 32 38 61 da a0 38
       9.0434005e-05 1.9939805e-05 4.2456668e-05 7.670071e-05
0003a0 e6 d6 9a 38 65 9d 09 37 08 ae 18 38 00 80 b0 38
       7.38332e-05 8.202483e-06 3.6401703e-05 8.416176e-05
0003b0 cf a3 b3 37 09 3e 10 38 81 13 2e 38 3a 23 6d 38
       2.1414742e-05 3.439005e-05 4.1502997e-05 5.653801e-05
0003c0 f2 ee 4b 38 6f 21 99 38 97 51 83 38 d9 b5 25 38
       4.8621507e-05 7.301836e-05 6.261764e-05 3.9508424e-05
0003d0 06 1c 14 38 be e7 b6 37 6d a9 28 38 a5 cb 86 37
       3.531205e-05 2.1804004e-05 4.021211e-05 1.6068874e-05
0003e0 4c 9a f8 37 38 31 e4 37 ef ef 62 38 20 a7 4a 37
       2.9635754e-05 2.7202637e-05 5.4106054e-05 1.207905e-05
0003f0 82 ac 1c 37 0f 0f 43 37 4f 4f ba 36 f4 a3 2a 37
       9.33849e-06 1.1626412e-05 5.5524647e-06 1.0170963e-05

exp_avg f4 [45]
000000 de 64 51 bc 3d 25 0c ba 56 c6 eb 39 84 bb 17 bb
       -0.012780396 -0.0005346125 0.00044970465 -0.002315254
000010 2c 0b 3e 3a 3b 62 b9 3b 6b e0 8e 3b 28 7e 0c ba
       0.00072495895 0.005657462 0.004360249 -0.0005359375
000020 87 8e 66 bc c9 26 ce b8 bc 20 2d bc e1 60 3f bc
       -0.014072067 -9.83007e-05 -0.0105668865 -0.011680813
000030 c0 c0 f5 3b 5e 78 3c bb 2f 78 02 bc 7c 2e d0 b9
       0.007499784 -0.0028758268 -0.007963224 -0.00039707485
000040 fe 9f eb bb 2b a5 d6 3b be 78 eb bb 90 e3 71 bb
       -0.0071907034 0.0065504513 -0.0071860244 -0.003690932
000050 a4 6f 5c 3b ca 26 b7 3b 2e 74 02 3b 1f 38 82 3b
       0.003363588 0.005589341 0.0019905674 0.0039739753
000060 95 05 7e bc 76 78 b3 bb 27 4b 22 bb 15 45 05 bb
       -0.015504261 -0.0054770065 -0.0024764033 -0.0020335366
000070 64 eb 40 3c c5 bb 2b bc 47 b3 03 bb d8 0d b2 3b
       0.0117748715 -0.010481779 -0.0020095871 0.005433779
000080 94 59 36 3c b5 0c 20 bc ea d9 f7 bb 16 22 94 3c
       0.0111297555 -0.009768655 -0.007563819 0.01808266
000090 6a 5d b1 bb 8a 94 10 3c 66 2d ab ba b6 c0 a3 3b
       -0.005412747 0.008824477 -0.0013059794 0.004997338
0000a0 5e 04 34 bc 8a 13 4e bc 52 65 f2 ba 55 e5 14 bc
       -0.010987369 -0.012577901 -0.001849333 -0.00908788
0000b0 26 13 21 3c
       0.0098312255

exp_avg_sq f4 [45]
000000 ad 5c 86 36 df 0f 26 38 54 f9 86 37 dc 09 03 37
       4.0043e-06 3.9592265e-05 1.6090147e-05 7.810504e-06
000010 2b 67 9e 37 d0 92 57 37 ab 4a 31 37 4b 0a fd 37
       1.8883109e-05 1.2849181e-05 1.0567407e-05 3.0164743e-05
000020 10 ad 06 39 16 58 cb 37 34 08 97 36 4f 9b dc 37
       0.00012843707 2.4240504e-05 4.5011056e-06 2.6298365e-05
000030 4a 44 4a 37 c5 80 68 34 93 e2 e0 38 f1 3d cb 36
       1.2056038e-05 2.165353e-07 0.00010723355 6.0570824e-06
000040 b4 98 1d 39 de 5c 52 37 5a bb 80 38 c2 dc 08 38
       0.00015029573 1.2538598e-05 6.1384126e-05 3.2630523e-05
000050 b0 f5 18 38 56 a6 15 38 0b 0f 80 37 42 65 2e 36
       3.646844e-05 3.567928e-05 1.5265794e-05 2.598696e-06
000060 23 31 53 39 3c 5a a5 36 f9 42 10 36 0a 10 8c 37
       0.00020140833 4.927888e-06 2.1496655e-06 1.669677e-05
000070 ae 17 97 38 88 3a ef 38 e2 a8 81 38 f9 25 82 38
       7.204652e-05 0.000114073104 6.182656e-05 6.205956e-05
000080 6b b3 c3 38 eb fe 3e 37 ee e0 ae 38 21 c0 af 38
       9.331744e-05 1.1384235e-05 8.338863e-05 8.380437e-05
000090 6c 28 9d 37 30 fb 41 37 fd a6 53 35 ba 8e 1d 38
       1.8734681e-05 1.1562181e-05 7.8846625e-07 3.756464e-05
0000a0 16 92 bc 37 c1 7a 0b 39 3a b6 56 37 ad 91 60 38
       2.2479373e-05 0.00013301802 1.2797822e-05 5.3541433e-05
0000b0 ec 2f 72 36
       3.6088704e-06

exp_avg f4 [3, 45]
000000 17 95 de bc 60 8d aa bc 9a 93 0b 3c 83 fe 1f 3c
       -0.027170701 -0.020819366 0.008519078 0.00976527
000010 d0 75 01 b7 03 c1 c1 3b fd 2b 03 3d 72 d3 c2 bb
       -7.7164295e-06 0.0059129014 0.032024372 -0.0059456164
000020 07 47 8b bb fe 2d 73 3b 14 0d 95 3c 78 00 d5 bb
       -0.0042504105 0.003710627 0.018194713 -0.0065003
000030 88 d7 bf bb e9 e4 10 3d 80 cd b0 bc cb 0b 40 3d
       -0.0058545507 0.035374556 -0.021582365 0.046886247
000040 4a 09 21 bc 7f 8d b6 3a 9d 43 75 bb a3 d2 b2 3b
       -0.009828875 0.0013927667 -0.0037424334 0.0054572388
000050 df 2d 84 3c ce a3 8d 3c ec 1b 5e bd 67 d0 a9 3c
       0.016135154 0.017290022 -0.054225847 0.020729257
000060 91 ce ce ba 3d 64 58 3c 94 a3 40 3a 43 63 ea bc
       -0.0015778114 0.013207492 0.0007348594 -0.028611785
000070 c2 46 a9 bc c6 76 27 3d b9 53 8f bb 5d 90 67 bc
       -0.020663623 0.040884756 -0.004373994 -0.01413354
000080 89 42 d4 3c 5b 99 83 3a 48 32 e3 3b 85 d4 d5 bc
       0.025910633 0.001004021 0.006933484 -0.026102314
000090 37 74 02 bc b6 a2 f4 3b 62 a8 c2 bb 5f 36 9d 3c
       -0.007962278 0.0074656857 -0.005940483 0.019190965
0000a0 68 ae 8b 3a 4c 1f 1b bd 46 87 0a 3d 4a c8 ea 3c
       0.0010656836 -0.037871644 0.033820413 0.028659958
0000b0 32 c9 6c 3b fe ab 54 3c 94 9d a2 bc a5 d8 34 bb
       0.0036130664 0.012980459 -0.01985053 -0.002759495
0000c0 c8 11 46 3c 1b 9c ab bc bc 32 7b 3c 82 1a 43 3c
       0.0120892 -0.02094846 0.01533192 0.011908175
0000d0 46 07 47 3c 0d 32 35 bc 7e e7 09 3d cf c1 93 3c
       0.01214773 -0.011059296 0.033668034 0.018036751
0000e0 f9 d4 12 3c 97 ce cb 3b 11 60 c3 3c 0c 3e c1 bb
       0.008961909 0.006219696 0.023849519 -0.005897289
0000f0 80 f8 8b bb 26 5f c3 3c 8a ac b3 3c 93 71 db ba
       -0.004271567 0.023849081 0.021932859 -0.0016742222
000100 a4 04 bd 3b 51 35 25 bb 97 b7 c5 3c 31 7e 9d bc
       0.0057683755 -0.002520878 0.024135394 -0.019225212
000110 92 8d 80 bc 9d b1 76 ba 8d 49 cc bc bc fb 3a 38
       -0.015692506 -0.0009410622 -0.024937415 4.45803e-05
000120 2a 59 06 bc e5 71 b8 3c ee f9 8e bc b4 e6 27 bc
       -0.008199969 0.022515247 -0.01745316 -0.010247875
000130 7d ac 8f bc bd 3c 5b bc fe 23 46 3c 9b 2c a4 3c
       -0.017538304 -0.01338118 0.012093542 0.0200408
000140 a8 3e 4d 3c 51 1e 95 bc 22 c3 9a bb 95 3a 2a bb
       0.012527145 -0.018202933 -0.0047229687 -0.002597486
000150 fd 5e 89 bc 04 b9 1d bc 92 65 0d 3c 6e a6 a1 3c
       -0.016768927 -0.009626631 0.008630173 0.01973268
000160 f1 2a af bb 1c 5e ae bc 73 bd 2a bd e0 04 cd 3c
       -0.005345695 -0.02128511 -0.04168458 0.025026739
000170 76 62 65 3a 77 38 c5 bc 63 a0 d9 bc 3d 60 e5 bc
       0.00087503286 -0.024074776 -0.026565736 -0.027999992
000180 ed 3e 1d bc 99 df 8d 3a da 23 1b bd cb 2f c4 bc
       -0.009597522 0.0010824084 -0.037875988 -0.02394857
000190 38 6d cb bb c3 06 c6 3c 64 de b3 bc df 96 f0 3c
       -0.0062080882 0.024173146 -0.02195663 0.029368816
0001a0 05 f7 63 3b 89 f2 f3 3c af b9 af bb c8 7f 3a 3a
       0.0034784686 0.029778736 -0.0053627114 0.0007114378
0001b0 af 2a 18 3c de 45 ec bc f5 76 27 bb f1 be 9d bc
       0.00928752 -0.028841909 -0.0025553082 -0.019256087
0001c0 13 ff 37 bc 37 7e e1 bb 01 dd a8 3c 25 7f a1 3c
       -0.011230248 -0.006881501 0.020613195 0.019713948
0001d0 42 48 e6 3c 89 b2 23 3b d3 f5 01 bd 04 93 e6 3b
       0.028110627 0.0024978241 -0.031728577 0.0070365686
0001e0 4d ea 6d bc c4 39 96 bc c6 9e 71 3d 56 7e 28 3a
       -0.014521194 -0.018338092 0.05898931 0.0006427517
0001f0 38 51 72 bc 8b 41 4a bd 0c f1 d7 bc a4 2e 01 bd
       -0.014789872 -0.049378913 -0.026360057 -0.03153862
000200 88 9e 42 bc e2 46 11 3d 72 3d 0a bd 3b 8e 8d 3c
       -0.011878617 0.03546799 -0.033750005 0.017279735
000210 82 13 c2 3c 73 9e e5 3b a6 36 93 3c
       0.023690943 0.007007414 0.017970394

exp_avg_sq f4 [3, 45]
000000 0e 84 71 38 d9 de 61 37 d8 cc 14 37 df 8d ba 37
       5.7581863e-05 1.3462931e-05 8.869181e-06 2.2238992e-05
000010 f5 ad 6e 35 e4 b0 3b 38 ac dd 0d 38 0f f4 9e 37
       8.891505e-07 4.4749017e-05 3.3823468e-05 1.8948716e-05
000020 5d 40 d1 35 81 c1 03 36 27 12 34 37 4e 1a 17 36
       1.5590446e-06 1.9633155e-06 1.07330625e-05 2.2516065e-06
000030 d2 47 af 35 e9 8b 17 39 f9 c9 9a 38 94 8a 69 38
       1.3059419e-06 0.00014452603 7.3809126e-05 5.568059e-05
000040 6d 81 b7 37 6e 50 aa 36 c9 6a b7 37 00 8c 86 38
       2.1875569e-05 5.075758e-06 2.1865026e-05 6.415695e-05
000050 f3 5d 3e 37 51 19 1e 37 a2 83 d6 38 12 f6 f5 37
       1.1346757e-05 9.423428e-06 0.00010228834 2.9320861e-05
000060 e2 f9 b9 38 06 ff 92 38 b4 56 bc 37 d7 1a 00 38
       8.868032e-05 7.009324e-05 2.245172e-05 3.0542575e-05
000070 a5 52 6c 39 8a cf 22 38 c2 d9 73 36 34 eb 18 37
       0.00022537501 3.8817096e-05 3.6336573e-06 9.1146685e-06
000080 e3 5a c8 38 57 d5 4a 38 6d 46 d3 35 d5 da ff 37
       9.553672e-05 4.835924e-05 1.5741222e-06 3.050027e-05
000090 57 1f 93 36 f4 df 89 36 3d b3 7d 38 e0 f9 94 37
       4.38459e-06 4.1089897e-06 6.048683e-05 1.7759332e-05
0000a0 bf 6b a1 37 c5 7f 2a 38 1a 7d 91 39 b6 c5 c0 37
       1.9242869e-05 4.0650153e-05 0.00027749763 2.298025e-05
0000b0 bf cf 0c 37 ad 22 b8 36 b9 a2 98 37 75 d3 7d 35
       8.39302e-06 5.487664e-06 1.8195586e-05 9.4557555e-07
0000c0 21 07 d2 36 79 26 7b 37 34 1e 50 37 b9 68 d4 36
       6.2593176e-06 1.4969723e-05 1.2404798e-05 6.3302837e-06
0000d0 60 40 ee 36 8a f2 a2 36 50 28 1c 38 58 7d 17 37
       7.100447e-06 4.8562115e-06 3.7230842e-05 9.029485e-06
0000e0 bb ef bf 36 19 77 70 35 e6 26 9b 37 4a cb a1 36
       5.720152e-06 8.9580277e-07 1.8495553e-05 4.82184e-06
0000f0 d0 ed 29 36 34 fc b4 37 c3 1e 9a 37 d2 49 1a 35
       2.5321388e-06 2.1575113e-05 1.8372555e-05 5.7476893e-07
000100 17 28 79 36 2b 0c 38 35 e0 96 b4 37 94 89 d5 37
       3.7127227e-06 6.856305e-07 2.1527929e-05 2.5455643e-05
000110 13 96 2f 37 1a b9 6c 36 67 20 d8 37 0b 11 52 35
       1.0465755e-05 3.5274484e-06 2.5764295e-05 7.8255897e-07
000120 88 86 37 36 2b 41 e4 37 28 d8 3f 37 1d d9 6a 36
       2.7347432e-06 2.7210064e-05 1.1434815e-05 3.4995094e-06
000130 df 3f 6d 37 c9 c4 35 37 8f 08 dc 36 2f 58 97 37
       1.4141172e-05 1.0834258e-05 6.5575073e-06 1.8041666e-05
000140 29 36 f5 36 b7 91 51 37 a5 56 a0 35 60 d7 f7 35
       7.307874e-06 1.2491298e-05 1.1946146e-06 1.8465616e-06
000150 df ce 3f 37 03 89 ff 36 b9 69 aa 36 af 85 86 37
       1.1432653e-05 7.6155425e-06 5.0787025e-06 1.6036296e-05
000160 18 2f 5a 35 b1 d5 b5 37 cb 09 55 38 94 25 21 38
       8.127986e-07 2.167639e-05 5.0792278e-05 3.842039e-05
000170 1f 9d 98 36 6a 0f 91 37 4d 3c fe 37 d0 b6 86 38
       4.5482443e-06 1.7292525e-05 3.030724e-05 6.4236694e-05
000180 fe 8d b5 37 ec 97 06 36 e0 f5 3c 38 19 b3 b4 37
       2.1643002e-05 2.0055986e-06 4.505168e-05 2.1541071e-05
000190 6c 8c 3a 36 a0 7f da 37 e1 ee 96 37 65 b8 49 38
       2.7797896e-06 2.6047055e-05 1.799263e-05 4.8093865e-05
0001a0 23 c3 17 38 e0 14 e6 37 90 cc 24 37 05 66 67 36
       3.618294e-05 2.7427857e-05 9.82279e-06 3.4481066e-06
0001b0 e4 b9 7a 36 13 d1 f7 37 c2 f4 d1 36 e4 d6 b1 37
       3.7361106e-06 2.9542052e-05 6.257179e-06 2.120011e-05
0001c0 e8 79 25 38 ce d8 bf 37 b2 94 87 38 90 01 b0 37
       3.94526e-05 2.2869932e-05 6.464998e-05 2.0981563e-05
0001d0 5e 72 8e 38 01 de 2b 36 b2 b8 84 38 ea 7f 45 36
       6.79239e-05 2.561021e-06 6.328653e-05 2.9429743e-06
0001e0 15 08 e7 36 3b 99 24 37 51 4b 24 39 c9 2f 91 37
       6.8852773e-06 9.8108385e-06 0.00015668316 1.7307599e-05
0001f0 a6 a3 0d 37 81 8f 9a 38 12 52 f8 37 dc 77 15 38
       8.442357e-06 7.370022e-05 2.960212e-05 3.5635996e-05
000200 bd c8 ab 37 34 61 28 38 b0 a8 45 38 64 17 b5 37
       2.0478265e-05 4.014485e-05 4.7125563e-05 2.1587774e-05
000210 72 1d 9b 38 64 d9 c7 35 ee 59 4f 37
       7.3964606e-05 1.4889924e-06 1.23591e-05

exp_avg f4 [3]
000000 41 6e 55 bd 81 f5 bf 3b 50 0a 29 bd
       -0.0521071 0.005858124 -0.0412696

exp_avg_sq f4 [3]
000000 3f 27 c5 39 1d cf a2 37 26 3f 05 39
       0.0003760401 1.940835e-05 0.00012707393

exp_avg f4 [3, 45]
000000 42 da a3 bc c0 99 7a 3b 4c 9c d0 bc ca d9 6f bc
       -0.020001534 0.0038238615 -0.025465153 -0.014639327
000010 e1 04 de bc 76 ad de 3c b4 f6 c7 3c 0b 62 14 3d
       -0.027101936 0.027182322 0.02440963 0.036226314
000020 c0 5a 82 3c 23 8b db bc d9 e7 88 bc 8e cb 91 3c
       0.015912414 -0.026799744 -0.016712116 0.017797258
000030 87 49 cb ba 86 2a 5c bc fd f1 cc 3c dd c1 38 bc
       -0.0015509584 -0.013437873 0.025017733 -0.011276689
000040 50 5d 44 3b 9b 9b 90 3a 84 05 71 3d 04 7a a9 bc
       0.0029962845 0.0011032702 0.05884315 -0.020688064
000050 15 aa aa 3c 7c 35 3b bc 43 e4 6e bc 9d 1a 9e 3c
       0.020833055 -0.011426326 -0.014580789 0.0192998
000060 14 96 c5 bc bf 74 d5 3c 53 cf 50 3b da 2e 0a 3d
       -0.024119414 0.026056645 0.0031861856 0.033736087
000070 d6 77 a2 bd b8 a0 cd 3c 62 29 6f 3c 1e ee 3c bd
       -0.07933013 0.02510105 0.014597269 -0.046125524
000080 90 f0 84 bd a8 e5 42 bc 63 19 8b 3c df a9 a6 bb
       -0.06491196 -0.011895575 0.016979879 -0.005086168
000090 06 01 21 bc 8c 6b 06 bd 10 a8 54 3c b4 73 5c b9
       -0.009826904 -0.03281741 0.012979522 -0.00021023938
0000a0 67 ad ef 3b 5c a5 c2 3c 82 aa 8a bd 14 ea e1 3a
       0.0073143723 0.02376049 -0.06770803 0.0017235898
0000b0 ba fe 97 bc 38 41 9a bb f8 8e 00 bc d7 36 64 ba
       -0.01855408 -0.0047074817 -0.007846586 -0.00087056815
0000c0 26 cf 84 bb 97 cd d5 bb a4 0c 9e 3c 1e 91 79 3b
       -0.0040530143 -0.0065247524 0.019293137 0.0038080881
0000d0 f6 a4 f9 3b 16 1c 80 3c 8a fe 94 bb 4a 68 14 3c
       0.007618542 0.015638392 -0.004546945 0.009058068
0000e0 dd 19 01 bb 30 1d 90 bc 55 f5 9b ba 6b 55 b6 bc
       -0.0019699254 -0.017592043 -0.0011898676 -0.022257527
0000f0 d9 2f 1c 3b d3 c5 60 bc 39 2a 80 bc 1b 64 f6 3b
       0.002383223 -0.01371904 -0.015645133 0.0075192577
000100 1c ac 50 bc 27 1a a4 3c 4a 1c 9d 3b c2 7e b6 3b
       -0.012736347 0.020032002 0.004794632 0.00556931
000110 12 bf b7 3c 9c c2 f5 b9 d6 f8 07 3d b1 8a 85 bc
       0.022429977 -0.00046875037 0.033196293 -0.016301485
000120 f9 f4 04 bb 31 47 ec bc e1 d9 f3 3c b3 f4 18 3c
       -0.0020287617 -0.02884254 0.029766979 0.009335685
000130 ee df 49 3b c0 50 a5 bc 7c 2f bb bb 45 1c 3e 3b
       0.0030803639 -0.020180106 -0.0057124477 0.002900855
000140 c3 5c 37 bd 65 a2 3f 3c ac 22 ec b9 d6 86 a8 3c
       -0.0447662 0.011696433 -0.0004503926 0.020572107
000150 34 33 c7 bb 69 4e 5d 3c d3 79 3b 3b 7f bf 9d bc
       -0.006079102 0.013507464 0.0028606548 -0.019256352
000160 d8 a8 fd 3b 6f d1 8a bc 44 ed 3e bc ed 27 66 3b
       0.007741075 -0.016945569 -0.011653248 0.0035119012
000170 de 07 37 3c 63 4f 03 3d a6 c3 f7 b9 2f 53 97 3c
       0.011171309 0.03205813 -0.0004725728 0.018472282
000180 a3 16 1a 3d f6 3f 58 3b b1 39 3b bc 9a 59 65 3a
       0.037619244 0.0032997108 -0.011427329 0.00087490084
000190 72 38 f4 3b 37 c5 c7 3b b6 71 5f bc 84 c4 0f ba
       0.007453018 0.006096508 -0.013637951 -0.00054843
0001a0 39 ce 2a 3c e1 c9 99 3c a0 53 32 3c 09 83 d2 3c
       0.010425144 0.018773021 0.010884196 0.025697248
0001b0 c2 99 70 3c 02 8d b9 bb 29 6b 8a 3a 80 e3 7f 3c
       0.014685096 -0.0056625614 0.0010560501 0.015618205
0001c0 57 ba 86 bd 5e af 8c 3b af 98 fd bc e0 2a d3 38
       -0.0657851 0.0042933663 -0.030956594 0.0001006925
0001d0 1c ee 80 bc 01 70 48 bb 84 a1 04 3d 50 c5 0a ba
       -0.01573854 -0.0030584338 0.032380596 -0.0005293684
0001e0 55 8f 0b 3b 62 a5 3e bd 20 dc 18 bd b2 eb f0 bc
       0.002129515 -0.04654444 -0.037319303 -0.029409263
0001f0 02 4c 6e bc c7 a2 5f bc 22 0d c1 bc c8 cf 6c 3c
       -0.014544489 -0.013649649 -0.023565833 0.014453836
000200 d8 f7 a6 3b d6 00 1f bc e5 b7 05 bd 73 3a ca 3b
       0.0050954632 -0.009704789 -0.03264608 0.0061715185
000210 ba 90 50 3c 0c 68 b7 3c 38 5d ea 37
       0.012729818 0.02238848 2.7938382e-05
