logs/my_logs/version_4/checkpoints/epoch=2244-step=2245.ckpt (torch, 32636 bytes, 25 tensors)

encoder.dense1.weight f4 [45, 28]
0	0x3d038def	0.03211778
1	0x3e8cfe7a	0.275379
2	0xbe0dea71	-0.13858964
3	0x3e552aa0	0.20817041
4	0xbd01ec71	-0.03171963
5	0x3e61a18f	0.22034286
6	0xbe01e3eb	-0.126846
7	0x3d96e7a8	0.07368404
8	0x3de3625c	0.11102745
9	0xbe54e89e	-0.20791861
10	0xbe0334e7	-0.1281315
11	0xbcbe55ef	-0.023234336
12	0x3d3ac612	0.04559905
13	0xbe04f8e8	-0.12985575
14	0x3d63d216	0.055620275
15	0x3e153364	0.14570385
16	0x3d820b5b	0.06349822
17	0x3de02273	0.10944071
18	0x3e43f8e1	0.19137909
19	0xbdd12599	-0.10212249
20	0x3e4a13a0	0.19734049
21	0x3cf0b2c1	0.029382112
22	0x3e126473	0.14296131
23	0x3de9fb88	0.11424929
24	0x3dcda1cc	0.10040626
25	0x3e566144	0.20935541
26	0x3dfa0315	0.12207619
27	0x3c246000	0.010032654
28	0xbd83937c	-0.06424615
29	0x3e173b90	0.14768815
30	0x3de17f5b	0.11010619
31	0xbe2444a3	-0.16041808
32	0x3db0504e	0.08609067
33	0x3d2c90ed	0.0421304
34	0x3dba35cc	0.09092292
35	0x3e492e19	0.19646491
36	0x3e3be829	0.18350281
37	0xbd29decf	-0.041472252
38	0x3cdf88dd	0.027286941
39	0x3c20d133	0.009815502
40	0x3d04d30a	0.032427825
41	0xbd4b57ea	-0.04964439
42	0x3e086e63	0.13323359
43	0x3dabd96c	0.08391079
44	0xbd9edf28	-0.077574074
45	0xbad24447	-0.0016042077
46	0xbb6862ca	-0.0035459273
47	0xbe493bad	-0.19651671
48	0xbda34cee	-0.079736575
49	0x3e3770bf	0.17914103
50	0x3d9dcd06	0.07705121
51	0x3e16100d	0.1465456
52	0xbe0e13db	-0.13874762
53	0x3d810448	0.06299645
54	0xbe869934	-0.2628876
55	0xbe28fcf1	-0.1650274
56	0xbd9508da	-0.07277079
57	0xbd0d2118	-0.03445539
58	0x3d70cfb4	0.05879183
59	0xbe203c19	-0.15647925
60	0xbd6c6347	-0.057711866
61	0x3e07e66b	0.13271491
62	0xbda3dc65	-0.08001021
63	0x3cffc744	0.031222947
64	0xbe15ed60	-0.14641333
65	0x3e54227a	0.20716277
66	0x3da326a2	0.07966353
67	0x3cd5717d	0.026055092
68	0xbdd0f56e	-0.10203062
69	0xbdc60c8a	-0.096703604
70	0xbd24342c	-0.040088817
71	0xbe255bcf	-0.16148303
72	0x3d1b5c7c	0.037929997
73	0xbda12baf	-0.0786966
74	0x3c7253e4	0.014790509
75	0xbdb90e33	-0.090359114
76	0x3dd4b7e0	0.10386634
77	0x39bfa22e	0.00036551192
78	0xbd46c596	-0.048528276
79	0xbcfc7394	-0.03081683
80	0xba71a9a8	-0.0009218701
81	0xbd3a7a1a	-0.0455266
82	0x3cf41509	0.029795187
83	0x3d9ffdaa	0.078120545
84	0xbe665577	-0.2249354
85	0x3c8515c3	0.016245728
86	0xbe5111fd	-0.20417018
87	0xbd9a4546	-0.07532744
88	0x3d1d87e0	0.03845966
89	0xbce600a7	-0.028076483
90	0xbe596e27	-0.21233426
91	0x3cef973e	0.029246923
92	0xbd7eb5f5	-0.062185246
93	0xbe79b9a4	-0.24387223
94	0xbe982b32	-0.29720455
95	0xbe577c5d	-0.21043535
96	0xbeb7b37c	-0.35879123
97	0xbe93efbd	-0.28893843
98	0xbcc07ab5	-0.023496011
99	0xbeabb456	-0.33536023
100	0xbdca7647	-0.09885841
101	0xbd03cd5c	-0.032178268
102	0xbdceca7a	-0.10097213
103	0xbe999385	-0.2999536
104	0xbe9cd4a8	-0.30630994
105	0x3c2b20b4	0.010444809
106	0x3c845a8b	0.016156456
107	0x3d834d11	0.064111836
108	0xbe830cab	-0.25595602
109	0xbc4660b0	-0.012108013
110	0xbeaa63d8	-0.332793
111	0x3cd2ded0	0.02574101
112	0xbcd2571e	-0.025676306
113	0xbdb48c81	-0.088158615
114	0x3d9c7efa	0.07641406
115	0x3d4b3ec8	0.04962042
116	0x3de5111b	0.11184903
117	0xbd156327	-0.036471512
118	0x3d9a840e	0.07544719
119	0x3e48974c	0.19588965
120	0x3e1258bb	0.1429166
121	0xba4a79a1	-0.00077238126
122	0xbddbfdad	-0.10741744
123	0x3d94c658	0.072643936
124	0xbe1856ce	-0.14876863
125	0x3da15c31	0.07878912
126	0x3e2129d5	0.15738614
127	0x3e3f509e	0.18683097
128	0xbdaedd15	-0.08538262
129	0x3d4e9dad	0.05044334
130	0x3e14e73d	0.14541335
131	0x3dcc68ff	0.09980964
132	0x3e74043e	0.23829743
133	0x3e514c96	0.20439371
134	0xbdeed420	-0.116615534
135	0xbc9ffdb1	-0.01953015
136	0xbc530c55	-0.012881358
137	0x3ded1a29	0.11577255
138	0x3d9e1f56	0.077208206
139	0xbc2ccc1d	-0.010546711
140	0xbe0e77a2	-0.13912824
141	0x3e40aa52	0.18814972
142	0x3e149c80	0.14512825
143	0x3e313e5f	0.17308949
144	0x3d7dc577	0.061955895
145	0x3ddc0215	0.107425846
146	0x3c70adc1	0.014689864
147	0x3d5fcda9	0.054639492
148	0x3d0a2ec8	0.03373602
149	0x3b0e5ae0	0.0021721646
150	0x3d17aad4	0.03702815
151	0xbdc43414	-0.095802456
152	0xbd86a3c1	-0.06574202
153	0xbe3f0c1c	-0.18656963
154	0x3e0a045b	0.13478224
155	0xbc8870cb	-0.016655346
156	0x3e46b1c6	0.19403753
157	0x3ccb1f52	0.024795208
158	0x3e3d815f	0.18506382
159	0x3b1d47e3	0.0023999147
160	0xbdbd2e53	-0.09237351
161	0x3ca112f7	0.019662363
162	0x3d76a911	0.060219828
163	0xbd77c7b3	-0.060493182
164	0x3db38ccc	0.08767089
165	0x3da7b9b7	0.08189719
166	0xbd1b8632	-0.037969775
167	0x3e46a34c	0.1939823
168	0xbdf08850	-0.117447495
169	0x3cccfd90	0.025023252
170	0x3e0efaf0	0.13962913
171	0x3c772d90	0.015086547
172	0xbe47149f	-0.1944146
173	0x3e040fcc	0.12896651
174	0xbc9d0476	-0.019167166
175	0x3d8aed51	0.06783546
176	0xbe585cde	-0.21129176
177	0x3db029a9	0.08601696
178	0xbb850db5	-0.004060472
179	0xbe6ea80c	-0.23306292
180	0xbc364099	-0.0111238
181	0x3d0aea4e	0.033914857
182	0xbcd240b4	-0.025665618
183	0xbba14ccf	-0.0049224864
184	0xbc84b233	-0.016198253
185	0xbdb16d4a	-0.08663423
186	0xbe0691e6	-0.13141593
187	0x3d8272c0	0.06369543
188	0xbe4b8a7c	-0.19877046
189	0xbb732190	-0.0037098862
190	0xbc17bba0	-0.009261042
191	0xbda7de6a	-0.08196719
192	0xbc8ba695	-0.017047206
193	0x3d9d543f	0.07682084
194	0xbe158dec	-0.1460492
195	0x3c6824a1	0.014168889
196	0xbe2029b2	-0.15640905
197	0xbe09d33d	-0.13459487
198	0xbda8a361	-0.08234287
199	0x3e32d8d8	0.17465532
200	0xbd46b59d	-0.048513044
201	0xbc216dde	-0.009852855
202	0xbd6746ed	-0.056464124
203	0x3e138285	0.14405258
204	0x3c55144a	0.013005326
205	0x3d2f5547	0.042805936
206	0xbe2d2aca	-0.16910854
207	0x3e603be8	0.21897852
208	0xbcb1efe7	-0.02172084
209	0x3d79bf99	0.060973737
210	0x3d8ac0ca	0.06775053
211	0xbe068a1d	-0.13138624
212	0x3d6562ce	0.05600243
213	0x3df4b7ba	0.119491056
214	0x3dc70a34	0.09718743
215	0xbe251d1e	-0.16124389
216	0xbc924f6e	-0.01786014
217	0x3e295930	0.16537929
218	0x3d1ff551	0.03905231
219	0x3c8f7fd8	0.017517015
220	0x3da73c8c	0.08165845
221	0xbc619470	-0.0137683
222	0xbda6effd	-0.08151243
223	0x3d80bf86	0.0628653
224	0xbb2da86c	-0.0026498092
225	0x3d039f5f	0.03213441
226	0x3c69ca31	0.014269398
227	0x3ca19991	0.019726546
228	0x3e46924c	0.19391745
229	0x3c102951	0.008798913
230	0x3d60b057	0.05485567
231	0xbe5c5f00	-0.21520615
232	0xbe11f54f	-0.14253734
233	0xbd7f0562	-0.062260993
234	0xbdae7bdd	-0.08519719
235	0x3e3c5b97	0.18394314
236	0xbd956592	-0.072947636
237	0x3dfb3c37	0.122673444
238	0xbd552505	-0.052037258
239	0x3c88c2da	0.016694475
240	0xbe46f923	-0.19430976
241	0xbd1776ca	-0.03697852
242	0xbcd1a0f7	-0.02558945
243	0xbd9b764f	-0.07590925
244	0x3e123a07	0.14279948
245	0xbda92914	-0.08259788
246	0xbe207909	-0.15671171
247	0xbdbf431f	-0.09338974
248	0x3e44429d	0.19166036
249	0x3d9a1aee	0.07524668
250	0x3d2e4e08	0.042554885
251	0xbd3cdd29	-0.046109352
252	0xbd3ebb93	-0.046565603
253	0x3d12e768	0.035865217
254	0x3e3245d3	0.17409448
255	0xbd9b5fdc	-0.07586643

encoder.dense1.bias f4 [45]
0	0xbe889e7d	-0.26683417
1	0x3e3e49dc	0.18582863
2	0x3e8f1add	0.27950183
3	0x3e5eda7d	0.21763034
4	0xbdb250f4	-0.08706847
5	0x3dde2699	0.10847206
6	0x3e9d1464	0.3067962
7	0x3e8fc969	0.2808335
8	0x3ee57a33	0.44819793
9	0xbe09e9c3	-0.1346808
10	0xbe874188	-0.26417184
11	0x3ec79133	0.38977966
12	0xbe3c1623	-0.1836782
13	0x3f0b8bb8	0.5451007
14	0xbe23343b	-0.15937893
15	0x3edcc7a0	0.43121052
16	0x3e5a18a2	0.21298459
17	0x3e1d0ce1	0.15336944
18	0x3c9eda7e	0.019391295
19	0x3cd9ad64	0.026571937
20	0x3ebf7c49	0.3739951
21	0x3ec5cbaf	0.3863196
22	0xbe854274	-0.26027262
23	0x3dd06d81	0.10177136
24	0xbe286c8c	-0.16447657
25	0x3e620111	0.2207072
26	0x3e2fcc9f	0.171679
27	0x3e8dc239	0.27687243
28	0xbecc185e	-0.3986234
29	0x3ea9d0d2	0.3316713
30	0x3e504dca	0.20342174
31	0xbe8377d5	-0.25677362
32	0xbdc3fd95	-0.09569851
33	0x3c30bee5	0.0107877
34	0xbd27f8b9	-0.041008685
35	0x3ec6b7e7	0.3881218
36	0x3eb3c6b1	0.35112527
37	0x3b80461e	0.0039146086
38	0xbe35ca00	-0.17752838
39	0x3de87a67	0.113514714
40	0x3e8259a7	0.25459024
41	0xbc7da38a	-0.015480885
42	0x3e98e6ab	0.29863486
43	0x3e425947	0.18979369
44	0xbe39993f	-0.18124865

encoder.dense3m.weight f4 [3, 45]
0	0x3beaf92f	0.0071708183
1	0xbe5f9461	-0.21833946
2	0xbe40116f	-0.1875665
3	0xbe5fd7ee	-0.21859714
4	0xbbdb3c23	-0.0066905185
5	0xbe5bcd4b	-0.21465032
6	0xbdf912ac	-0.121617645
7	0xbec4ac03	-0.38412485
8	0xbe2f18d2	-0.17099312
9	0x3d378085	0.0448003
10	0xbe0cdee3	-0.137569
11	0xbec8a651	-0.3918939
12	0xbcfc3edc	-0.030791692
13	0x3d68c36e	0.056827
14	0xbbe981cf	-0.00712607
15	0xbde99abb	-0.114064656
16	0xbe47210f	-0.19446205
17	0xbdb06643	-0.08613255
18	0xbdc264de	-0.09491895
19	0x3c0ccd7d	0.008593914
20	0x3d4a2bf4	0.049358323
21	0xbe4bee51	-0.19915129
22	0x3de6963c	0.11259124
23	0xbd7e2678	-0.062048405
24	0x3ceae410	0.028673202
25	0xbddd2349	-0.10797746
26	0x3e1fea5f	0.15616749
27	0xbe01cd1f	-0.12675904
28	0x3ea131ab	0.31483206
29	0xbe4c1c26	-0.19932613
30	0xbbfaa0c5	-0.0076485598
31	0x3e8b3823	0.27191266
32	0x3e701696	0.23446116
33	0xbe11a8ea	-0.14224592
34	0x3e2c1464	0.16804653
35	0xbe208236	-0.15674672
36	0x3d14d17f	0.036332604
37	0xbdf9fc40	-0.12206316
38	0x3e286335	0.16444094
39	0xbe11aa69	-0.14225163
40	0xbe12f0e5	-0.14349706
41	0x3e7e9bdb	0.24864142
42	0xbe907d88	-0.28220773
43	0xbd9f5dc0	-0.07781553
44	0x3d0b8331	0.03406066
45	0x3ea7c9bf	0.32771108
46	0x3dd20fdb	0.102569304
47	0xbd377aee	-0.04479497
48	0xbb1c7644	-0.0023874203
49	0xbdbb8a0f	-0.09157192
50	0x3d876176	0.06610386
51	0xbd5e4b18	-0.054270834
52	0xbd8bced7	-0.06826561
53	0xbecf0a0d	-0.40437356
54	0x3e43c786	0.19119081
55	0x3dc2bf89	0.09509189
56	0xbd41bc24	-0.047298566
57	0xbc7a0db9	-0.015262061
58	0xbe882b7b	-0.26595673
59	0x3e8e40b3	0.27783737
60	0xbe2777d2	-0.16354302
61	0xbde8125c	-0.11331627
62	0xbe28a4e8	-0.16469157
63	0x3d929faf	0.071593635
64	0x3db2c471	0.087288745
65	0xbe3f90ca	-0.18707576
66	0xbe8e4c06	-0.27792376
67	0x3ded4757	0.115858726
68	0xbdff794d	-0.12474308
69	0x3d20a3e0	0.039218783
70	0x3d44b3aa	0.048022904
71	0xbe28e4ca	-0.16493526
72	0xbdd2a49a	-0.102853015
73	0x3dff8ffc	0.12478635
74	0xbe8a37b4	-0.26995623
75	0x3e725b64	0.23667675
76	0x3e476627	0.19472562
77	0x3e856c2f	0.260591
78	0xbda45713	-0.080244206
79	0x3ca95bb0	0.020673603
80	0xbe05ef1b	-0.13079493
81	0xbc9e28bb	-0.019306531
82	0x3d498ff5	0.049209554
83	0xbc854815	-0.016269723
84	0xbcc2f130	-0.023796648
85	0x3e86f49f	0.26358506
86	0xbe7db2ee	-0.24775288
87	0x3e645b32	0.22300413
88	0xbe691fe9	-0.22766079
89	0x3d60ccd4	0.05488284
90	0xbe874626	-0.26420707
91	0xbd8615a5	-0.06547097
92	0x3e8b2568	0.27176976
93	0x3e08125f	0.13288258
94	0xbe901740	-0.28142738
95	0xbdc54c74	-0.09633723
96	0x3e918f1d	0.284295
97	0xbc28866f	-0.010285958
98	0x3e5af5ae	0.21382782
99	0xbc4eff2f	-0.012634083
100	0xbe4d4e58	-0.20049417
101	0x3d8db64c	0.06919536
102	0xbe2f0db0	-0.17095065
103	0x3e77edf5	0.24211867
104	0x3d981e29	0.074276276
105	0x3e285958	0.16440332
106	0x3e84ced1	0.25939038
107	0x3cc79595	0.024363318
108	0xbc6b0bfd	-0.01434612
109	0xbd1859d4	-0.03719504
110	0x3debdde4	0.11516932
111	0x3db821e7	0.08990841
112	0xbe10ff15	-0.14159806
113	0xbe1f3538	-0.15547645
114	0xbe02c5ab	-0.12770717
115	0x3e1b3890	0.15158296
116	0x3e053efa	0.13012305
117	0x3e2588d1	0.16165473
118	0xbe1727e1	-0.14761306
119	0x3e8fad0c	0.28061712
120	0x3ed1b209	0.40956143
121	0xbe2534d5	-0.16133435
122	0x3daa46d0	0.08314288
123	0xbd52a5bb	-0.051427584
124	0xbe07aec2	-0.13250259
125	0x3e663e94	0.22484809
126	0x3e9e7005	0.3094484
127	0xbe3e2db4	-0.18572122
128	0xbe65b1f7	-0.2243117
129	0xbd8b6bed	-0.068076946
130	0x3e64004e	0.22265741
131	0x3d4e76b7	0.050406184
132	0x3ea07b2e	0.3134398
133	0xbe1fd5f1	-0.15608956
134	0x3d109223	0.035295617

encoder.dense3m.bias f4 [3]
0	0xbe696607	-0.22792827
1	0xbe2a21a2	-0.16614392
2	0x3e6a7a4b	0.22898214

encoder.dense3s.weight f4 [3, 45]
0	0xbd5f72eb	-0.054552954
1	0xbca912c3	-0.02063883
2	0xbdce07bf	-0.10060071
3	0x3ee41cdb	0.44553265
4	0xbd3e1212	-0.046403952
5	0xbd88489f	-0.066544764
6	0x3cb1f497	0.021723075
7	0x3cfb4a11	0.030674966
8	0xbe0f32e1	-0.13984253
9	0x3d330bfe	0.04371261
10	0x3dc8e792	0.098097935
11	0x3d941e28	0.07232314
12	0x3e0b76b5	0.13619502
13	0xbcaba05c	-0.020950489
14	0x3c4649e9	0.0121025825
15	0xbe1f925b	-0.15583174
16	0xbd04ec51	-0.03245193
17	0x3df007a3	0.117202066
18	0xbde2732a	-0.11057122
19	0xbd8be65b	-0.06831046
20	0xbd520ceb	-0.05128185
21	0xbd82b735	-0.063826
22	0xbd64cc46	-0.055858873
23	0xbe11a432	-0.14222792
24	0x3dea65d1	0.11445201
25	0xbdc3d1fe	-0.09561537
26	0xbdb1df82	-0.08685209
27	0x3d8e5ea0	0.06951642
28	0x3d9c9f33	0.07647552
29	0xbcf99fb9	-0.03047167
30	0xbd7921c1	-0.060823206
31	0x3dc19365	0.094519414
32	0xbd443b70	-0.047908247
33	0x3d7c8b47	0.061656263
34	0x3d762581	0.06009436
35	0xbd2cfdaa	-0.0422341
36	0xbd1d930d	-0.038470317
37	0xbc8c4b98	-0.01712589
38	0x3d8a5439	0.067543454
39	0x3d9cd005	0.07656864
40	0xbcdd0e92	-0.026984487
41	0x3da61080	0.08108616
42	0xbe181c6d	-0.14854594
43	0xbd55ca5d	-0.05219494
44	0x3e235dc4	0.15953737
45	0xbc22d9dd	-0.009939638
46	0x3d84ce1f	0.06484627
47	0x3c334959	0.01094278
48	0xbc2d58ba	-0.010580236
49	0x3da8f20d	0.082492925
50	0xbd72e8f2	-0.059304185
51	0xbcb5fd94	-0.022215642
52	0xbda35972	-0.07976045
53	0xbdbaa3d3	-0.09113278
54	0xbd5bc8a1	-0.05365813
55	0x3cf0f53f	0.029413817
56	0x3c83a959	0.016071962
57	0x3e01ac70	0.12663436
58	0x3cea44ac	0.028597198
59	0xbb135892	-0.0022483212
60	0xbc9033d6	-0.017602842
61	0xbe3551e1	-0.17707016
62	0xbcc14a0b	-0.023594877
63	0xbc602c9d	-0.013682512
64	0xbd7fce5a	-0.06245265
65	0xbdcb83db	-0.09937259
66	0xbdaa5f33	-0.08318939
67	0x3d4fa0e6	0.050690554
68	0x3daf9d1c	0.08574888
69	0xbcded8d9	-0.02720301
70	0x3c9afc6d	0.018919194
71	0xbd4da64e	-0.05020743
72	0x3d8249a1	0.063617
73	0x3da79db9	0.0818438
74	0xbc691815	-0.014226933
75	0xbd4957ff	-0.049156185
76	0xbda162a1	-0.0788014
77	0x3cb63a5d	0.022244627
78	0x3d390a01	0.045175556
79	0xbd33a324	-0.043856755
80	0xbdf2c6e1	-0.118543394
81	0x3cfd9bd1	0.030958088
82	0x3d316961	0.043313388
83	0xbd3f08d8	-0.046639293
84	0xbdce2f7c	-0.10067651
85	0x3d105c97	0.03524455
86	0x3d0c44b7	0.03424522
87	0x3bab5c3d	0.0052295015
88	0x3de6594f	0.11247503
89	0x3d6a5da8	0.057218224
90	0x3df10a3f	0.117695324
91	0xbd97643b	-0.07392164
92	0xbc730cc8	-0.01483459
93	0x3e001d6e	0.12511227
94	0xbda0e10a	-0.07855423
95	0xbd6fc444	-0.058536783
96	0xbddda3fe	-0.10822295
97	0xbcd7b67d	-0.026332134
98	0x3d4e9611	0.050436083
99	0x3c4f11ee	0.012638552
100	0x3e0614d7	0.13093887
101	0xbe34cb46	-0.17655668
102	0xbd3549ea	-0.044259943
103	0xbe0c1900	-0.13681412
104	0x3dcbd110	0.09951985
105	0x3dbe810e	0.09301959
106	0xbdbcf9e6	-0.09227352
107	0xbc86b96e	-0.016445842
108	0xbd884b9c	-0.06655046
109	0xbdbeaced	-0.09310327
110	0xbe1b437d	-0.15162463
111	0x3ce0230e	0.027360465
112	0xbd82faad	-0.06395469
113	0xbbd40cd8	-0.0064712577
114	0x3e83d76b	0.25750288
115	0x3d368c5c	0.04456745
116	0x3db514a0	0.088418245
117	0xbe0494ae	-0.12947342
118	0xbc05b4a2	-0.008160742
119	0xbd150a40	-0.03638673
120	0x3c282fe4	0.010265324
121	0x3d0a56ca	0.033774175
122	0x3df3a24c	0.1189619
123	0x3d23c83e	0.039985888
124	0x3d5174a7	0.05113664
125	0xbdba8fc4	-0.09109452
126	0x3eab4cd4	0.33457053
127	0xbce59010	-0.028022796
128	0x3d91e687	0.07124048
129	0x3d5cd77d	0.053916443
130	0xbe3067ab	-0.17227046
131	0x3d14e48b	0.036350768
132	0xbda2b34b	-0.07944354
133	0xbdf0bfa2	-0.11755301
134	0xbd46685f	-0.04843938

encoder.dense3s.bias f4 [3]
0	0xbde27c7d	-0.110589005
1	0xbe2eae49	-0.17058672
2	0xbdee4016	-0.11633317

decoder.linear.bias f4 [28]
0	0x3f1f1310	0.6213846
1	0x3e01df7c	0.12682909
2	0xbefd044f	-0.4941735
3	0x3f59051e	0.84773433
4	0x3f7a9ee4	0.978987
5	0xbf989342	-1.191994
6	0xbf16bf62	-0.58885777
7	0x3f8d893c	1.1057506
8	0x3f116f2b	0.56810254
9	0xbf8100f7	-1.007842
10	0xbdcba72e	-0.09943996
11	0x3fb02624	1.376164
12	0xbedddd5e	-0.43332952
13	0x3e6f05d8	0.23342073
14	0xbe8fc01a	-0.2807625
15	0x3e85c3c9	0.26125935
16	0xbe35dc51	-0.17759825
17	0x3f17120f	0.5901193
18	0x3ec7e268	0.39039922
19	0x3cf42bbf	0.029806016
20	0xbeeac082	-0.45849997
21	0xbf5f6307	-0.8726048
22	0x3e7eff8f	0.24902175
23	0xbf33af1a	-0.7018906
24	0xbd87e5e6	-0.066356465
25	0xbf7caf6d	-0.9870518
26	0x3f8f8706	1.1213081
27	0xbf937475	-1.1519915

decoder.linear.weight_orig f4 [28, 3]
0	0x3f3e1a95	0.7425931
1	0x3e42f934	0.19040376
2	0x3e330da4	0.17485672
3	0x3f127cde	0.5722178
4	0x3fb400eb	1.406278
5	0xbeba5806	-0.36395282
6	0x3ef38b5a	0.47567254
7	0xbd6edcb0	-0.058315933
8	0xbfae31cc	-1.3608947
9	0x3e98a3de	0.2981252
10	0x3e9a43d4	0.30129874
11	0xbf4e59de	-0.80605876
12	0xbea0e5c8	-0.3142531
13	0xbece7f08	-0.40331292
14	0xbef2205c	-0.47290313
15	0xbf049add	-0.517988
16	0x3efffae4	0.49996102
17	0xbfa63d7f	-1.2987517
18	0x3f7fb7b1	0.99889666
19	0x3dee6b00	0.116415024
20	0xbfbc10ad	-1.4692589
21	0x3c941960	0.018078506
22	0x3f9c56b7	1.2213963
23	0xbdcd1ee8	-0.100156605
24	0xbeaa38b8	-0.33246398
25	0x3ee8dcd8	0.4548099
26	0xbf9e17ba	-1.2350991
27	0x3fa8e357	1.3194379
28	0x3e8854f6	0.2662732
29	0xbed3df9c	-0.41381538
30	0x3faa87fc	1.3322749
31	0x3ef43b84	0.47701657
32	0xbeb19891	-0.3468671
33	0x3f17f407	0.5935673
34	0xbe86ffe4	-0.26367104
35	0xbf82178e	-1.0163438
36	0x3fd63498	1.67348
37	0xbeea4b9c	-0.4576081
38	0xbe247b00	-0.16062546
39	0x3f9068d9	1.1281997
40	0x3e9bb9d2	0.30415207
41	0x3edba010	0.42895555
42	0x3e939f34	0.288324
43	0xbec0a946	-0.37629145
44	0xbfac7867	-1.3474244
45	0x3f9c5b30	1.2215328
46	0xbe375746	-0.17904386
47	0xbf6b0ffe	-0.9182128
48	0xbd21f730	-0.039542377
49	0x3f8630de	1.0483663
50	0xbf98e9e5	-1.1946379
51	0x3f038cc6	0.5138668
52	0x3e970710	0.29497576
53	0xbf90ddc9	-1.1317683
54	0xbe73f6d0	-0.2382462
55	0xbeea89d4	-0.4580828
56	0xbfa598d7	-1.2937268
57	0x3f926e78	1.1439962
58	0xbe79702a	-0.24359193
59	0xbf081559	-0.53157574
60	0x3f99da7f	1.2019805
61	0xbf112b1a	-0.5670639
62	0xbfa93342	-1.3218768
63	0x3e33ead4	0.17570049
64	0x3ee27004	0.44226086
65	0xbf9000a5	-1.1250197
66	0x3de1ced0	0.110257745
67	0x3f855d00	1.0419006
68	0x3f04964e	0.51791847
69	0x3ecc2cea	0.39878017
70	0x3fa2db9a	1.2723267
71	0xbd9e80cc	-0.0773941
72	0x3f7dc96e	0.9913548
73	0x3f0461a2	0.51711476
74	0xbf0aa706	-0.5416111
75	0xbecd0760	-0.4004469
76	0xbe5fb0d8	-0.21844804
77	0xbfd81eaa	-1.6884358
78	0x3fcf697c	1.6204066
79	0xbd725d30	-0.0591709
80	0xbf0d2c82	-0.5514604
81	0x3ed13432	0.40860134
82	0xbf02eb9c	-0.5114076
83	0xbf2c4b36	-0.6730226

decoder.linear.weight_mask f4 [28, 3]
0	0x3f800000	1.0
1	0x00000000	0.0
2	0x00000000	0.0
3	0x00000000	0.0
4	0x3f800000	1.0
5	0x00000000	0.0
6	0x3f800000	1.0
7	0x00000000	0.0
8	0x3f800000	1.0
9	0x00000000	0.0
10	0x00000000	0.0
11	0x3f800000	1.0
12	0x00000000	0.0
13	0x00000000	0.0
14	0x3f800000	1.0
15	0x00000000	0.0
16	0x00000000	0.0
17	0x3f800000	1.0
18	0x3f800000	1.0
19	0x00000000	0.0
20	0x3f800000	1.0
21	0x00000000	0.0
22	0x3f800000	1.0
23	0x00000000	0.0
24	0x00000000	0.0
25	0x00000000	0.0
26	0x3f800000	1.0
27	0x3f800000	1.0
28	0x00000000	0.0
29	0x00000000	0.0
30	0x3f800000	1.0
31	0x00000000	0.0
32	0x3f800000	1.0
33	0x3f800000	1.0
34	0x00000000	0.0
35	0x3f800000	1.0
36	0x3f800000	1.0
37	0x00000000	0.0
38	0x00000000	0.0
39	0x3f800000	1.0
40	0x00000000	0.0
41	0x00000000	0.0
42	0x00000000	0.0
43	0x00000000	0.0
44	0x3f800000	1.0
45	0x3f800000	1.0
46	0x00000000	0.0
47	0x3f800000	1.0
48	0x00000000	0.0
49	0x3f800000	1.0
50	0x3f800000	1.0
51	0x00000000	0.0
52	0x00000000	0.0
53	0x3f800000	1.0
54	0x00000000	0.0
55	0x00000000	0.0
56	0x3f800000	1.0
57	0x3f800000	1.0
58	0x00000000	0.0
59	0x3f800000	1.0
60	0x3f800000	1.0
61	0x00000000	0.0
62	0x3f800000	1.0
63	0x00000000	0.0
64	0x00000000	0.0
65	0x3f800000	1.0
66	0x00000000	0.0
67	0x3f800000	1.0
68	0x00000000	0.0
69	0x00000000	0.0
70	0x3f800000	1.0
71	0x00000000	0.0
72	0x3f800000	1.0
73	0x00000000	0.0
74	0x00000000	0.0
75	0x00000000	0.0
76	0x00000000	0.0
77	0x3f800000	1.0
78	0x3f800000	1.0
79	0x00000000	0.0
80	0x00000000	0.0
81	0x00000000	0.0
82	0x00000000	0.0
83	0x3f800000	1.0

exp_avg f4 [45, 28]
0	0x3b2a44a4	0.0025980854
1	0x3b301745	0.0026869338
2	0x3ae3ab2e	0.0017369741
3	0x3b78d811	0.0037970582
4	0x3b610806	0.0034337058
5	0x3aa48274	0.0012551085
6	0x3b16a8cc	0.0022988794
7	0x3b6bbf4f	0.0035972183
8	0x3b0e2924	0.0021692002
9	0x3aa7cbaa	0.0012801785
10	0x3b757315	0.0037452627
11	0x3b7a08b5	0.0038152162
12	0x3b26c867	0.002544904
13	0x3b1b6554	0.002371152
14	0x3a94f456	0.0011364322
15	0x3b2d359f	0.0026429666
16	0x3ac14bf2	0.0014747365
17	0x3b1c9bde	0.0023896615
18	0x3afdb378	0.0019355854
19	0x3b4e66b8	0.003149433
20	0x3b2f1664	0.0026716227
21	0x38f929e0	0.00011881045
22	0x3b698785	0.0035633754
23	0x3b126990	0.0022340752
24	0x3ae2cba2	0.0017303119
25	0xb95ffb38	-0.00021360524
26	0x3b529bfd	0.0032136433
27	0xb76f2c40	-1.4255813e-05
28	0xba54065e	-0.0008088107
29	0x3972c630	0.00023152749
30	0xb6ae7320	-5.1990064e-06
31	0xba5b9d4b	-0.00083776255
32	0xb94669ba	-0.00018922138
33	0x39975c07	0.0002886953
34	0x3918b3f0	0.00014562882
35	0xb920d89e	-0.00015339485
36	0xb7d44b00	-2.5307294e-05
37	0xb7f4944a	-2.915612e-05
38	0xb9829980	-0.000249099
39	0xb8bc9b8c	-8.9935114e-05
40	0xba03c76e	-0.0005026971
41	0xb9907b68	-0.00027557765
42	0x39e2ca2f	0.00043256718
43	0x38b192cc	8.467361e-05
44	0xb9502a30	-0.00019852142
45	0xb98e88a9	-0.0002718617
46	0xb9602fc8	-0.00021380105
47	0xb9dde1f5	-0.00042320756
48	0xb9c2e1f9	-0.00037170926
49	0x39aee5b5	0.0003335901
50	0xba666b5a	-0.00087898003
51	0x39f3ae69	0.00046478517
52	0x37ea3908	2.7921531e-05
53	0xb8b4538c	-8.598631e-05
54	0x3906f800	0.00012871623
55	0xb99b5842	-0.0002962966
56	0xbb605de8	-0.003423566
57	0xbb40354a	-0.0029328638
58	0xbb194afe	-0.0023390646
59	0xbb840a67	-0.0040295604
60	0xbb8abab7	-0.004233684
61	0xbaa4bd7a	-0.0012568675
62	0xbb2341b4	-0.0024910988
63	0xbb775295	-0.0037738432
64	0xbb28b76e	-0.0025744098
65	0xbaed5628	-0.0018107342
66	0xbb57b8fe	-0.003291666
67	0xbb73698f	-0.0037141775
68	0xbb4a3bd0	-0.0030858405
69	0xbb5866ed	-0.0033020333
70	0xbad3b7b4	-0.001615277
71	0xbb40d55b	-0.0029424045
72	0xbb28d5e0	-0.0025762245
73	0xbb2abaef	-0.0026051363
74	0xbb237f76	-0.0024947799
75	0xbb622d8f	-0.0034512018
76	0xbb5baf66	-0.0033521294
77	0xba5125aa	-0.00079783297
78	0xbb8bb8c9	-0.0042639715
79	0xbb1f81b8	-0.0024338793
80	0xbad1d75d	-0.0016009618
81	0xba546e70	-0.00081036147
82	0xbb53b7c7	-0.0032305585
83	0xba4a2997	-0.0007711886
84	0xb8fe17af	-0.00012116075
85	0xb9a410c4	-0.0003129301
86	0xb9b348d2	-0.00034195796
87	0xba38e71c	-0.0007053481
88	0x39b317ed	0.00034159367
89	0xb8c6e3f4	-9.483835e-05
90	0xb8f365d0	-0.00011606107
91	0xb9a35464	-0.0003115266
92	0xb8342a77	-4.2954893e-05
93	0x38983cc3	7.2592426e-05
94	0x38ecc809	0.000112906164
95	0xb97f97bf	-0.00024375225
96	0x39006987	0.00012246343
97	0x39d1871d	0.00039964254
98	0x397e18c8	0.0002423256
99	0x38ec898a	0.000112789756
100	0xba19df1e	-0.0005869734
101	0x38519cb1	4.9975413e-05
102	0xba34e559	-0.00069006305
103	0x393fc4e3	0.00018288525
104	0x383bb766	4.4755077e-05
105	0xb927c416	-0.00015999409
106	0xba5d3d66	-0.000843963
107	0xb8ff5774	-0.00012175637
108	0x39012cd8	0.00012319104
109	0x384a7078	4.8265298e-05
110	0x3a5c1819	0.0008395925
111	0x39acaf60	0.0003293706
112	0x3b1e64c7	0.0024168955
113	0x3b06ce7e	0.0020569856
114	0x3b05ed24	0.0020435536
115	0x3b1a1ee2	0.0023516943
116	0x3b495268	0.0030719284
117	0x3aa11d95	0.0012292141
118	0x3b195b4e	0.002340037
119	0x3b4345ca	0.0029796236
120	0x3ae0eb90	0.0017160047
121	0x3a9dd356	0.0012041132
122	0x3b0d7c85	0.0021589112
123	0x3b44ec42	0.0030048047
124	0x3b25f8f2	0.0025325385
125	0x3b1b9e7c	0.0023745587
126	0x3ab5de45	0.0013875446
127	0x3b39cd32	0.0028351066
128	0x3b15a622	0.0022834619
129	0x3ad29ab2	0.0016067831
130	0x3aefb28c	0.0018287464
131	0x3b2da2b8	0.0026494693
132	0x3b192a50	0.0023371167
133	0x3a7c410e	0.0009622731
134	0x3b56a8d7	0.0032754445
135	0x3b1f04d8	0.0024264362
136	0x3a981390	0.001160251
137	0x39d82700	0.00041227788
138	0x3b2f9574	0.0026791962
139	0x39ec53cd	0.00045075864
140	0xba2d66bb	-0.00066147343
141	0x39a53ca6	0.0003151644
142	0x398c920e	0.000268117
143	0xba0da5b6	-0.0005403416
144	0xb82bf110	-4.0994084e-05
145	0x39f41b5d	0.00046559694
146	0x391b85a8	0.00014831743
147	0x38fa5578	0.00011936849
148	0x38658930	5.472562e-05
149	0x38cc8f02	9.754115e-05
150	0x39a9e519	0.00032404883
151	0x39b4ffd4	0.00034522882
152	0xb81a593c	-3.6799567e-05
153	0xb9d96511	-0.00041464766
154	0x3a0354e2	0.0005009902
155	0x3a04d24c	0.0005066737
156	0x36f393c0	7.2591647e-06
157	0xb7f97b80	-2.9740622e-05
158	0xb91479b8	-0.00014159724
159	0xb8ccc5c4	-9.764315e-05
160	0x38f6a8ae	0.00011761613
161	0x39aff771	0.0003356296
162	0xb9de1328	-0.00042357412
163	0x3a4a08ec	0.0007707018
164	0xb83145f8	-4.2265252e-05
165	0x38226448	3.8717204e-05
166	0x39d53fc1	0.00040674026
167	0xb98b5f49	-0.0002658314
168	0xbb2b613f	-0.0026150492
169	0xbaef6dff	-0.0018267034
170	0xbaf71741	-0.0018851535
171	0xbb44d5c1	-0.0030034634
172	0xbb3734d7	-0.002795508
173	0xba5b3d7a	-0.0008363348
174	0xbb0832fe	-0.0020782347
175	0xbb3125ff	-0.0027030704
176	0xbaa9e0f6	-0.001296072
177	0xba70eb31	-0.00091903197
178	0xbb1536e6	-0.0022768318
179	0xbb2eff29	-0.002670238
180	0xbb233862	-0.0024905433
181	0xbb05e8bc	-0.002043291
182	0xba48fa6e	-0.00076667115
183	0xbb03ad87	-0.0020092444
184	0xbacc74e4	-0.0015598801
185	0xbaa77f39	-0.0012779004
186	0xbab21ec9	-0.0013589497
187	0xbb38867a	-0.0028156326
188	0xbb1137cc	-0.0022158502
189	0xb9b42dd4	-0.0003436642
190	0xbb64ee76	-0.0034932173
191	0xbaefa845	-0.0018284401
192	0xba8e53e4	-0.0010858742
193	0xb97b3b30	-0.00023959274
194	0xbb0d79c3	-0.0021587468
195	0xb8c463dc	-9.3646086e-05
196	0xbb2c3a81	-0.0026279988
197	0xbaa59b26	-0.0012634739
198	0xba49be8d	-0.0007695936
199	0xbb483c1a	-0.0030553401
200	0xbb11c104	-0.002224029
201	0xb8eb4a60	-0.00011219527
202	0xbace47b0	-0.0015737917
203	0xbafa986a	-0.0019118909
204	0xbae213cd	-0.0017248333
205	0xba687ca6	-0.0008868672
206	0xbaef074a	-0.0018236425
207	0xbafc4b51	-0.001924852
208	0xbad4f495	-0.0016247208
209	0xbb0a12e0	-0.002106838
210	0x38cc22d0	9.733962e-05
211	0xba98c8f6	-0.0011656571
212	0xbaaa1dfe	-0.0012978909
213	0xbabd5a82	-0.0014446529
214	0xbade427e	-0.0016957072
215	0xbad296ef	-0.001606671
216	0xbab5d27e	-0.0013871936
217	0x38dcf5f0	0.00010536227
218	0xbb411a78	-0.002946524
219	0xb9e9f5a6	-0.00044624245
220	0xba803a0b	-0.0009782923
221	0x39bdec60	0.00036225002
222	0xbac8168f	-0.0015265512
223	0xba090145	-0.00052263244
224	0xbb7ecd50	-0.00388797
225	0xbb7fc0af	-0.003902476
226	0xbb0b6ea4	-0.0021275664
227	0xbba46f6f	-0.0050181667
228	0xbbacda1c	-0.005275024
229	0xbad1859e	-0.0015985256
230	0xbb5f8982	-0.003410906
231	0xbb96458e	-0.0045859283
232	0xbb79ac6d	-0.0038097159
233	0xbb0b5963	-0.0021262995
234	0xbb88814a	-0.004165803
235	0xbb9cd2fe	-0.0047858944
236	0xbb525f9f	-0.0032100452
237	0xbb8c240b	-0.0042767576
238	0xbaeae06f	-0.001791967
239	0xbb58c842	-0.0033078347
240	0xbb2ab5a4	-0.0026048208
241	0xbb5f719f	-0.0034094823
242	0xbb46c720	-0.003033109
243	0xbb66d946	-0.003522472
244	0xbb39a36c	-0.0028326167
245	0xba220f34	-0.0006182075
246	0xbb918999	-0.0044414517
247	0xbb21b1dd	-0.0024672665
248	0xbb32503a	-0.0027208463
249	0xb9f6edd8	-0.00047097984
250	0xbb93da03	-0.004512073
251	0xba8ad2b0	-0.0010591354
252	0x3a36c093	0.0006971445
253	0x3a71279c	0.00091993227
254	0x399b05a6	0.00029568112
255	0x3aa125f1	0.0012294633

exp_avg_sq f4 [45, 28]
0	0x3907182f	0.00012883612
1	0x38bff3f9	9.153033e-05
2	0x3889fbdf	6.579584e-05
3	0x39217f92	0.0001540168
4	0x39235ffd	0.0001558065
5	0x3816adc5	3.5924622e-05
6	0x388b34eb	6.637893e-05
7	0x3920f0d7	0.00015348509
8	0x390294a5	0.0001245314
9	0x38026758	3.109066e-05
10	0x38aefa28	8.343562e-05
11	0x393b757b	0.00017877475
12	0x388a89f8	6.6060515e-05
13	0x38cc4355	9.7400196e-05
14	0x389b54e1	7.406786e-05
15	0x38e123ae	0.00010735482
16	0x38b09339	8.419756e-05
17	0x3901dcc2	0.00012384637
18	0x38ea9f5f	0.00011187675
19	0x38bd09b2	9.014028e-05
20	0x389796e1	7.2283445e-05
21	0x383571b2	4.325965e-05
22	0x38cf264d	9.877663e-05
23	0x3855d42e	5.0980765e-05
24	0x38ac4680	8.214731e-05
25	0x384d7d8b	4.899273e-05
26	0x39153970	0.00014231144
27	0x3798a3de	1.8196119e-05
28	0x37a6318e	1.9811818e-05
29	0x37781251	1.47862165e-05
30	0x3738ebae	1.1022128e-05
31	0x37c678b1	2.365964e-05
32	0x37d35a3f	2.5195184e-05
33	0x36e64da5	6.863573e-06
34	0x372d2162	1.0319376e-05
35	0x37d2607b	2.5078878e-05
36	0x37aa722d	2.0318746e-05
37	0x36a9b5a9	5.0577405e-06
38	0x37510411	1.24583175e-05
39	0x37df7235	2.6636853e-05
40	0x372bdda0	1.0243995e-05
41	0x377ed531	1.5189217e-05
42	0x3755c190	1.2740857e-05
43	0x3790e9ae	1.7274953e-05
44	0x37737c35	1.4512848e-05
45	0x37a1b671	1.9277652e-05
46	0x3798228f	1.8135905e-05
47	0x37614d20	1.3429002e-05
48	0x37389476	1.1001821e-05
49	0x3707ca70	8.093761e-06
50	0x3787f62c	1.6207887e-05
51	0x370dd06f	8.452785e-06
52	0x37550070	1.2695891e-05
53	0x3712dfb7	8.754366e-06
54	0x37b5c659	2.1669244e-05
55	0x36677948	3.4492277e-06
56	0x38fa096b	0.00011922683
57	0x38b733b9	8.735754e-05
58	0x38870211	6.4376865e-05
59	0x39156468	0.00014247152
60	0x391c078b	0.0001488013
61	0x381fc2db	3.8090027e-05
62	0x3872757c	5.7806712e-05
63	0x3921a27f	0.00015414691
64	0x38eb360a	0.00011215739
65	0x380cc0fa	3.3558325e-05
66	0x38aa326c	8.1156235e-05
67	0x39398509	0.00017692534
68	0x3868fc29	5.5547953e-05
69	0x38b91550	8.825457e-05
70	0x3891d971	6.9546404e-05
71	0x38ca91d9	9.659277e-05
72	0x38a9d9ee	8.0991405e-05
73	0x38f5ba39	0.00011717197
74	0x38e088f9	0.000107066655
75	0x38a686cf	7.940607e-05
76	0x388da12b	6.753424e-05
77	0x382d1758	4.1268155e-05
78	0x38c74564	9.5019845e-05
79	0x3849c0f5	4.810184e-05
80	0x38a2a419	7.7553275e-05
81	0x383c4f63	4.4896628e-05
82	0x3911a374	0.00013889169
83	0x37a561e9	1.9715126e-05
84	0x373a96e1	1.1121593e-05
85	0x37197939	9.147735e-06
86	0x36a114f4	4.800613e-06
87	0x3775ab31	1.4642997e-05
88	0x3786551d	1.6013679e-05
89	0x364e10bf	3.070614e-06
90	0x36af4bc1	5.2242253e-06
91	0x3781b77b	1.5463438e-05
92	0x374b08c0	1.210178e-05
93	0x36233afb	2.4323224e-06
94	0x36f8f5be	7.419584e-06
95	0x378b62e6	1.6616144e-05
96	0x36a796fc	4.9945647e-06
97	0x370e7f9d	8.493572e-06
98	0x36e07737	6.6895986e-06
99	0x37129ccf	8.738788e-06
100	0x36daa5cb	6.516207e-06
101	0x374b3ba9	1.2113634e-05
102	0x37221c31	9.662516e-06
103	0x36ea26ba	6.978252e-06
104	0x36c2e976	5.808829e-06
105	0x36870653	4.0240498e-06
106	0x371e6f2c	9.443418e-06
107	0x36bdbbc5	5.654498e-06
108	0x36f65e1f	7.3423284e-06
109	0x369f56df	4.7486824e-06
110	0x37657f3b	1.3679087e-05
111	0x36086b04	2.032787e-06
112	0x3898e24c	7.290076e-05
113	0x3854362a	5.0595183e-05
114	0x3832c4aa	4.2621665e-05
115	0x38ba4eb7	8.883833e-05
116	0x38ba7fe6	8.892994e-05
117	0x37d2ba85	2.5120806e-05
118	0x3832fbce	4.267302e-05
119	0x38b25d46	8.505075e-05
120	0x389d4f70	7.50114e-05
121	0x37a40b2f	1.9555531e-05
122	0x3851c7e4	5.0015646e-05
123	0x38dd0861	0.00010539662
124	0x381d55e8	3.7511723e-05
125	0x3868baed	5.54872e-05
126	0x383ea9ca	4.545766e-05
127	0x3889d84e	6.572959e-05
128	0x38597e93	5.1854713e-05
129	0x389b0db1	7.393526e-05
130	0x388eb249	6.804296e-05
131	0x38642427	5.4393106e-05
132	0x383efd38	4.553536e-05
133	0x37eb513e	2.8052014e-05
134	0x38654168	5.465877e-05
135	0x37f71241	2.9453195e-05
136	0x3845b465	4.7136466e-05
137	0x380762cf	3.227853e-05
138	0x38a781e1	7.9873724e-05
139	0x374c487f	1.2176227e-05
140	0x379f5fa7	1.8998819e-05
141	0x377282af	1.4454751e-05
142	0x372de611	1.036517e-05
143	0x37c4f2a4	2.347801e-05
144	0x37db9d2d	2.6180025e-05
145	0x36d74b7a	6.416286e-06
146	0x3721b2d2	9.637983e-06
147	0x37ce7477	2.4611347e-05
148	0x37a818b6	2.0038668e-05
149	0x369b9a36	4.6373125e-06
150	0x374606af	1.1803276e-05
151	0x37d67614	2.5565772e-05
152	0x3728be5d	1.0057903e-05
153	0x377441c2	1.4558844e-05
154	0x374f4b14	1.2355642e-05
155	0x3786be0f	1.6062548e-05
156	0x37748672	1.4574836e-05
157	0x379e228f	1.885116e-05
158	0x37932d4b	1.7544857e-05
159	0x375c968f	1.31480765e-05
160	0x372993cb	1.0107596e-05
161	0x3709911e	8.199624e-06
162	0x378197c5	1.5448672e-05
163	0x3708b41f	8.148169e-06
164	0x375a0f6d	1.2997404e-05
165	0x370af30f	8.2820325e-06
166	0x37aa4a03	2.0300044e-05
167	0x367218c2	3.607522e-06
168	0x389e770a	7.5562e-05
169	0x3873f662	5.8165177e-05
170	0x3829dcd7	4.0498413e-05
171	0x38c62688	9.448553e-05
172	0x38b8626d	8.792137e-05
173	0x37bdc454	2.2621978e-05
174	0x38183ebe	3.6298057e-05
175	0x38d30c4a	0.00010063553
176	0x3888c5be	6.521818e-05
177	0x37aef920	2.0858424e-05
178	0x385341dd	5.036766e-05
179	0x38d61107	0.00010207487
180	0x3823253c	3.8896906e-05
181	0x3883019c	6.2468665e-05
182	0x382abb82	4.070579e-05
183	0x3881b222	6.184379e-05
184	0x38466c6b	4.730785e-05
185	0x38949005	7.084016e-05
186	0x387d17f2	6.03422e-05
187	0x386254f6	5.3961725e-05
188	0x3813f737	3.5277768e-05
189	0x37c9f907	2.407703e-05
190	0x3883f8ab	6.292885e-05
191	0x37fc9894	3.011179e-05
192	0x38550cc8	5.079506e-05
193	0x37f0bd1e	2.8698294e-05
194	0x38aec723	8.334059e-05
195	0x3733a811	1.0708362e-05
196	0x38dfd55e	0.00010673211
197	0x38981ff2	7.253875e-05
198	0x386dfbc4	5.673968e-05
199	0x3906001e	0.0001277928
200	0x39043fd2	0.00012612276
201	0x3802a789	3.1150445e-05
202	0x386a15ca	5.581024e-05
203	0x39048b68	0.00012640434
204	0x38d7c92d	0.00010289471
205	0x37ce8b51	2.4621988e-05
206	0x388d1d43	6.728854e-05
207	0x391c1fde	0.00014889191
208	0x38585399	5.157627e-05
209	0x38a739ab	7.973922e-05
210	0x38878abe	6.4631444e-05
211	0x38bf8f81	9.1343194e-05
212	0x38978bca	7.226279e-05
213	0x38da7c86	0.00010418244
214	0x38c3acf2	9.330538e-05
215	0x38971cea	7.205627e-05
216	0x3875904d	5.8546942e-05
217	0x381d849c	3.755522e-05
218	0x38ab3112	8.1630555e-05
219	0x382ad988	4.073375e-05
220	0x3888b7b9	6.519206e-05
221	0x3836fbea	4.3626795e-05
222	0x38f73994	0.000117886026
223	0x378bb682	1.6655078e-05
224	0x3946bf74	0.00018954073
225	0x3908eaab	0.00013057391
226	0x38dac71a	0.000104321356
227	0x39755623	0.00023397109
228	0x3978b400	0.00023718178
229	0x38691df6	5.5579432e-05
230	0x38d7bdcf	0.000102873535
231	0x396dda30	0.00022683362
232	0x3946372b	0.00018903303
233	0x383e6d27	4.5401186e-05
234	0x3900ff3d	0.00012302115
235	0x39913810	0.00027698325
236	0x38c60149	9.441615e-05
237	0x39166573	0.00014342908
238	0x38f43a70	0.000116457115
239	0x392cd570	0.0001648271
240	0x3906f99f	0.00012872227
241	0x3948e5e6	0.0001915913
242	0x39318234	0.0001692854
243	0x390d87b2	0.00013497358
244	0x38e5dcec	0.00010960721
245	0x388bca36	6.665701e-05
246	0x3917df7d	0.00014483738
247	0x3895ccd3	7.143025e-05
248	0x38fb8b95	0.00011994612
249	0x38a1ad21	7.709326e-05
250	0x39610028	0.0002145773
251	0x37f7b7c0	2.953026e-05
252	0x3745996a	1.17778345e-05
253	0x37113451	8.654854e-06
254	0x36d4d2d9	6.3426382e-06
255	0x37717a37	1.4393175e-05

exp_avg f4 [45]
0	0x3b9c6a92	0.0047734464
1	0xb97db178	-0.00024194072
2	0xbba94c60	-0.0051665753
3	0xba4c0bde	-0.0007783751
4	0x3b709fd9	0.003671637
5	0x38877088	6.458262e-05
6	0xbb6a1fa5	-0.0035724428
7	0xbb3a3b9d	-0.002841688
8	0xbbdccd69	-0.006738354
9	0x3ac1c68c	0.0014783903
10	0x3b02d50e	0.0019963416
11	0xbb64072e	-0.0034794318
12	0x3a349c3d	0.00068897364
13	0xbb827ef7	-0.0039824205
14	0xb9683f5c	-0.00022148847
15	0xbb8be65a	-0.0042694034
16	0xbbae1df1	-0.005313628
17	0xbab2cdf6	-0.0013641703
18	0xb9922de6	-0.00027881487
19	0x3a9db667	0.001203251
20	0xbae05ba2	-0.0017117152
21	0xbb890c1e	-0.0041823527
22	0x3b1331e0	0.0022460148
23	0x3a5f7b12	0.0008525114
24	0x39fdb180	0.00048388168
25	0xbb47b021	-0.0030469971
26	0xbaedcbc6	-0.0018142394
27	0xbb4fb579	-0.003169386
28	0x3ba44f58	0.0050143413
29	0xbbdc6d62	-0.0067269066
30	0xbbaa411d	-0.0051957504
31	0x3bb536f8	0.0055302344
32	0x3aa4dd80	0.0012578219
33	0xba328775	-0.0006810346
34	0x3b5fe33f	0.003416255
35	0xbb99294d	-0.004674113
36	0xbaa09c50	-0.0012253616
37	0x3afc0bd1	0.0019229596
38	0x3b9324c5	0.0044904673
39	0xb8621ba0	-5.3908327e-05
40	0xbb34edc8	-0.002760755
41	0x38b706c8	8.727383e-05
42	0xbbbfc469	-0.0058522713
43	0x3a48121a	0.0007632092
44	0x39c0a716	0.00036745582

exp_avg_sq f4 [45]
0	0x398d27d1	0.0002692328
1	0x382ddd0c	4.145228e-05
2	0x3990b351	0.0002759942
3	0x38127602	3.4919016e-05
4	0x391d63b6	0.00015009832
5	0x382cbdf6	4.118491e-05
6	0x3938fca5	0.00017641725
7	0x3969295d	0.0002223602
8	0x39d7f4ae	0.00041190296
9	0x37ccf54e	2.4432924e-05
10	0x385e16c8	5.295014e-05
11	0x39b1d262	0.00033916818
12	0x373cda4f	1.1256502e-05
13	0x39300dc9	0.00016789803
14	0x37e7975e	2.7607832e-05
15	0x393db341	0.00018091222
16	0x39da2141	0.00041604976
17	0x384c71f4	4.8743517e-05
18	0x37dff34a	2.6696962e-05
19	0x37c60f14	2.361046e-05
20	0x3871c208	5.7639583e-05
21	0x3958fa57	0.00020692624
22	0x38629f74	5.40311e-05
23	0x381636c6	3.58138e-05
24	0x37509d01	1.2434321e-05
25	0x38e61384	0.0001097089
26	0x38022c97	3.1035943e-05
27	0x392ec0be	0.00016665735
28	0x39c11cd1	0.00036833299
29	0x3a02a9b0	0.0004984392
30	0x399e2251	0.00030161676
31	0x39bcc24a	0.0003600291
32	0x38bf9dbb	9.136969e-05
33	0x3819f019	3.670165e-05
34	0x3920bfc0	0.00015330222
35	0x399be8c8	0.0002973734
36	0x37138a32	8.794059e-06
37	0x38070158	3.218776e-05
38	0x39882d3d	0.00025973647
39	0x37bdaeb4	2.2611908e-05
40	0x39594bea	0.00020723013
41	0x389264ce	6.980599e-05
42	0x3a071678	0.00051531894
43	0x381d7fec	3.7550853e-05
44	0x3783cf3b	1.5712916e-05

exp_avg f4 [3, 45]
0	0x3b894aef	0.004189841
1	0x3a81187e	0.0009849218
2	0xbaca0aac	-0.0015414557
3	0xbb9ead3c	-0.0048424285
4	0x3b87611e	0.0041314503
5	0x3b704572	0.0036662486
6	0xbb22820c	-0.0024796752
7	0x3b38fcbe	0.0028226818
8	0x3b104891	0.002201591
9	0x3b1ce65f	0.0023941023
10	0xb9af517a	-0.00033439306
11	0x3b55a682	0.0032600467
12	0xbbaf36b6	-0.005347098
13	0x3bc2874f	0.00593654
14	0x3b8514f9	0.004061338
15	0x399a20f0	0.0002939771
16	0x3a4042be	0.0007334164
17	0x3b3c8522	0.0028765877
18	0x3b9c9932	0.0047790045
19	0x3b2b8a33	0.0026174902
20	0x3b7dd0e6	0.003872925
21	0x3aedc10c	0.0018139197
22	0xbb2c5c4c	-0.002630013
23	0x3b98e435	0.0046658763
24	0xbbbca2c8	-0.0057567097
25	0x3b25f4fc	0.0025323024
26	0x3b36abe2	0.0027873446
27	0x3b3142c6	0.0027047857
28	0x3c50ff0a	0.012756119
29	0x3b1c260e	0.0023826393
30	0x3bc8f284	0.0061324257
31	0x3bf33608	0.0074222125
32	0x3bcb1717	0.006197821
33	0xb93f3380	-0.00018234365
34	0x3c196a8a	0.00936378
35	0x3b1f0d2e	0.002426933
36	0xbbaaf244	-0.0052168686
37	0xba701678	-0.00091586215
38	0x3c0cb6c6	0.008588498
39	0x3aa1a819	0.0012333422
40	0x3ba4a238	0.005024221
41	0x3b8ef8ca	0.004363154
42	0x3b8facca	0.0043846117
43	0x3b4a1342	0.0030834232
44	0x3a77cb86	0.00094526296
45	0x3a9b7cd3	0.0011862762
46	0x3a8a30c8	0.0010543102
47	0xb8b2a2c8	-8.518022e-05
48	0xbb29528b	-0.0025836553
49	0x3ad4b638	0.0016228622
50	0x3ad75486	0.0016428388
51	0xbaa348bd	-0.0012457591
52	0x3abc1c00	0.0014351606
53	0x3b181748	0.0023207236
54	0x3a897add	0.0010488887
55	0xba8a6c3c	-0.0010560821
56	0x3ad3296a	0.0016110365
57	0xbb044f3d	-0.0020188831
58	0x3b769b08	0.0037629027
59	0x3a8c317a	0.0010695898
60	0x3921de00	0.00015436858
61	0x3a120271	0.0005569822
62	0x3b088857	0.0020833218
63	0x3abbe6e0	0.0014335774
64	0x3a78b220	0.0009486992
65	0x3b491b87	0.0030686574
66	0x3b17fa4b	0.0023189958
67	0xbae19250	-0.0017209742
68	0x3a806c20	0.0009797849
69	0xba93da00	-0.0011280179
70	0x3a0561ba	0.000508811
71	0x3ab19527	0.0013548479
72	0x3a835fca	0.0010023054
73	0x3bb69829	0.005572338
74	0x3aad1894	0.0013206177
75	0x3b3587d9	0.002769938
76	0x3b0d4ff5	0.002156255
77	0x3b6fbab8	0.00365798
78	0x3a350b00	0.0006906241
79	0x3b860844	0.004090341
80	0x39bb4db0	0.000357253
81	0xbb0173a2	-0.001975276
82	0xba3ff467	-0.00073224906
83	0x3b35d797	0.002774691
84	0x39bccb45	0.00036009602
85	0x3adf985e	0.0017058959
86	0x3aa922de	0.0012904068
87	0x3b3d6e72	0.0028904942
88	0x3af78577	0.001888438
89	0x3a2f0768	0.0006676824
90	0xbc0354e7	-0.008015848
91	0xbba0663c	-0.004895
92	0x3aef5ce5	0.0018261938
93	0x3c4b50c9	0.012409397
94	0xbc1b06ad	-0.009462041
95	0xbbe025ae	-0.0068404293
96	0x3b8e24bc	0.004337875
97	0xbb909d6c	-0.0044132974
98	0xbb97e5d6	-0.004635553
99	0xbbda2a90	-0.006657906
100	0x3aa1a665	0.0012332915
101	0xbb7cd511	-0.0038579146
102	0x3c2ccc36	0.010546735
103	0xbc1cb826	-0.009565389
104	0xbbef3c18	-0.007300865
105	0xba5a2378	-0.00083213253
106	0xbb2e7e82	-0.0026625698
107	0xbb971098	-0.0046101324
108	0xbbb6541d	-0.0055642263
109	0xbbc43d5d	-0.0059887604
110	0xbbc4f429	-0.0060105515
111	0xbbaecce4	-0.0053344835
112	0x3b9d7d94	0.00480623
113	0xbbde2cba	-0.006780234
114	0x3c2a3964	0.01038966
115	0xbb52caae	-0.0032164264
116	0xbb8d9ddd	-0.0043217973
117	0xbb0a77d0	-0.0021128543
118	0xbccd923d	-0.025094146
119	0xbb242e74	-0.0025052102
120	0xbc411533	-0.011784839
121	0xbc4dc659	-0.012559497
122	0xbc300b61	-0.0107449
123	0xba248ed8	-0.0006277389
124	0xbca36616	-0.01994614
125	0xbb97b504	-0.004629733
126	0x3c13e3a8	0.009026445
127	0xb9e04f6c	-0.00042783783
128	0xbc5f1ca2	-0.013617666
129	0xb99597a0	-0.00028532464
130	0xbc3384c6	-0.010956949
131	0xbbd304ce	-0.0064397817
132	0xbbf22871	-0.007390075
133	0xbb9b88cf	-0.0047465335
134	0xbb76030e	-0.0037538442

exp_avg_sq f4 [3, 45]
0	0x3a1ef225	0.0006063304
1	0x39522e67	0.00020044447
2	0x384b13ff	4.8417594e-05
3	0x3a4093b4	0.0007346228
4	0x3a6e8c02	0.0009099842
5	0x3a108700	0.00055132806
6	0x39026edd	0.00012439066
7	0x399cc78a	0.00029903307
8	0x395e3e7f	0.00021194851
9	0x3931ecf1	0.00016968303
10	0x380ddebc	3.3824457e-05
11	0x3967e597	0.00022115406
12	0x3a04c804	0.0005065205
13	0x3a1588b8	0.00057042716
14	0x396df428	0.00022693037
15	0x384edfe3	4.9322738e-05
16	0x382c2c4c	4.104925e-05
17	0x3974119f	0.00023276218
18	0x39dd97f6	0.00042265625
19	0x39a5489f	0.0003152536
20	0x39a39a23	0.00031204624
21	0x39d6d48b	0.00040975618
22	0x3971d583	0.0002306309
23	0x3a0796ea	0.0005172329
24	0x3a2d6e4a	0.00066158606
25	0x3845b902	4.7140762e-05
26	0x39067e85	0.00012826368
27	0x38829b89	6.227854e-05
28	0x3b646e10	0.0034855641
29	0x38a6111c	7.918684e-05
30	0x39dd3866	0.00042194425
31	0x3a45cf84	0.0007545876
32	0x3a3283bf	0.0006809793
33	0x38ae9de9	8.3263796e-05
34	0x3b496e71	0.0030735994
35	0x3916e37e	0.00014389862
36	0x3a5261b9	0.0008025426
37	0x382cc0f4	4.1187697e-05
38	0x3ad59746	0.0016295693
39	0x39000a4f	0.00012210872
40	0x3a19405e	0.0005846078
41	0x39b18fe1	0.0003386727
42	0x39e7c83b	0.00044208937
43	0x3995091c	0.00028426282
44	0x38d0ad90	9.9505414e-05
45	0x390611e7	0.00012785905
46	0x38393902	4.416053e-05
47	0x37607c6e	1.33804115e-05
48	0x39230d01	0.00015549736
49	0x394cc0a7	0.00019526725
50	0x39006a1e	0.00012246563
51	0x37dd3a83	2.63725e-05
52	0x388791e8	6.464479e-05
53	0x385d199a	5.271435e-05
54	0x3816f391	3.5989626e-05
55	0x37350e2e	1.0791742e-05
56	0x3861cfd9	5.3837754e-05
57	0x38ee6a3a	0.000113685106
58	0x390e47ef	0.00013568973
59	0x384374f4	4.6600544e-05
60	0x37eb2821	2.803287e-05
61	0x37140a50	8.8238885e-06
62	0x3894c46c	7.0937764e-05
63	0x38d179ee	9.988608e-05
64	0x38adbe6b	8.284751e-05
65	0x3898c692	7.2849114e-05
66	0x38b46aaa	8.6029366e-05
67	0x386dc43a	5.6687953e-05
68	0x390199a6	0.00012359637
69	0x391d3f21	0.00014996204
70	0x37893980	1.6358448e-05
71	0x3818401f	3.629934e-05
72	0x379f860e	1.9016701e-05
73	0x3a46fa46	0.0007590394
74	0x37a7918b	1.9975725e-05
75	0x38c96573	9.603323e-05
76	0x39340fa0	0.00017171958
77	0x391afb9a	0.00014780313
78	0x37a13fa1	1.9222325e-05
79	0x3a344608	0.00068768905
80	0x37e8f176	2.7768994e-05
81	0x3936d09d	0.00017434587
82	0x378a11a6	1.64591e-05
83	0x39b8cd7a	0.00035248307
84	0x381a5d8a	3.6803576e-05
85	0x390444ee	0.0001261418
86	0x38a58cfb	7.894073e-05
87	0x38c37e2f	9.321828e-05
88	0x384d1c36	4.8902082e-05
89	0x379d00df	1.8716264e-05
90	0x3a6355d1	0.00086721504
91	0x3990415a	0.0002751451
92	0x38971e09	7.2058356e-05
93	0x3a8bd379	0.0010667882
94	0x3aac758d	0.0013157591
95	0x3a54b98c	0.0008114807
96	0x39420fee	0.00018507216
97	0x39e3673c	0.0004337373
98	0x39adf5f6	0.00033180387
99	0x398c4cdf	0.00026760154
100	0x386fca55	5.7170477e-05
101	0x39a222a8	0.0003092487
102	0x3a4212e1	0.0007403326
103	0x3a6fd8a1	0.00091494067
104	0x39a8c6de	0.00032191625
105	0x38da9a40	0.00010423781
106	0x3857a2b2	5.1411516e-05
107	0x39b50a0b	0.00034530493
108	0x3a2247ba	0.00061904977
109	0x39f8d999	0.0004746437
110	0x39f218b2	0.00046176236
111	0x3a0ff870	0.0005492037
112	0x39b35d5e	0.00034211105
113	0x3a3ec99c	0.0007277967
114	0x3a83908a	0.0010037583
115	0x388733ae	6.446928e-05
116	0x3948c1f6	0.00019145742
117	0x38bb8f77	8.943577e-05
118	0x3babf575	0.0052477666
119	0x3906cdd0	0.00012855907
120	0x3a22dbc2	0.0006212556
121	0x3a91cfdc	0.0011124569
122	0x3a880d26	0.0010379895
123	0x38f0053b	0.00011445066
124	0x3b962c57	0.0045829224
125	0x393e17db	0.00018128699
126	0x3a9ef151	0.0012126361
127	0x38505d47	4.9677936e-05
128	0x3b1e28a2	0.0024133106
129	0x39472c05	0.00018994517
130	0x3a5b802e	0.0008373287
131	0x3a03a7a1	0.0005022232
132	0x3a22a796	0.0006204782
133	0x39a6bff0	0.00031804992
134	0x3895a04b	7.1347305e-05

exp_avg f4 [3]
0	0x3c004850	0.007829741
1	0x3b907422	0.0044083754
2	0xbc718b8f	-0.014742746

exp_avg_sq f4 [3]
0	0x3ac1a191	0.0014772882
1	0x39b8b3b5	0.00035229107
2	0x3b12b7d6	0.0022387407

exp_avg f4 [3, 45]
0	0x3aca7d3d	0.0015448701
1	0x38d85bf0	0.00010316807
2	0xb9bc1d78	-0.0003588011
3	0xbb123416	-0.0022308878
4	0x3b0936ad	0.002093713
5	0x3af93f46	0.0019016049
6	0xb8ec1590	-0.00011257373
7	0x3acb9028	0.0015530633
8	0x3b05d4b0	0.002042096
9	0xb90c6d2c	-0.0001339211
10	0x3a8593d2	0.0010191149
11	0x3ac7dfb4	0.0015249164
12	0xbad84716	-0.0016500677
13	0x3aa1997c	0.0012329067
14	0x39d77120	0.0004109228
15	0xb9e03a60	-0.00042768102
16	0xb9a0a474	-0.00030640105
17	0x3a6294e1	0.00086434005
18	0x39eb1eec	0.00044845731
19	0xb7a63c00	-1.9816682e-05
20	0x3a909886	0.0011031784
21	0x3a98b16c	0.0011649556
22	0xbab35d24	-0.0013684374
23	0x3aeffe73	0.0018310085
24	0xbae2a1f7	-0.0017290701
25	0xb76144f7	-1.3427102e-05
26	0x3a54dba8	0.00081198895
27	0x3966ec90	0.00022022636
28	0x3b3a1ad8	0.0028397348
29	0x399dd5a8	0.0003010456
30	0x3a59c716	0.0008307559
31	0x3aa369d5	0.0012467453
32	0x3a9b491a	0.0011847347
33	0x39f3595a	0.00046415144
34	0x3b71d3a0	0.003689982
35	0x3abbe072	0.0014333858
36	0xbb11ed2c	-0.002226661
37	0x3a85767a	0.0010182403
38	0x3b21897c	0.0024648597
39	0x3a6cb3d3	0.00090294814
40	0x3ac7ce52	0.0015243983
41	0x3ad2ba57	0.0016077262
42	0x3abf6123	0.0014601093
43	0x3a8d3871	0.0010774267
44	0xba4298a3	-0.00074232573
45	0xbb00a1a6	-0.00196276
46	0xba3efe81	-0.0007285849
47	0xb8b4e8bc	-8.626419e-05
48	0x3aa3d695	0.0012499864
49	0xba69952c	-0.0008910473
50	0xba874f96	-0.0010323401
51	0x3a4e319a	0.00078656676
52	0xb9e901ec	-0.00044442655
53	0xb947dd30	-0.00019060518
54	0xb5082100	-5.071197e-07
55	0x38c55b6c	9.410721e-05
56	0xba8c1b88	-0.0010689357
57	0x3a18d108	0.0005829488
58	0xba847f40	-0.0010108724
59	0xba35ec8a	-0.0006939849
60	0xb84117f0	-4.603708e-05
61	0xba493cb3	-0.00076765864
62	0xba844db9	-0.0010093964
63	0xba4df5d8	-0.0007856763
64	0xb945ab92	-0.00018851299
65	0xba392a4a	-0.00070634915
66	0xba8baa82	-0.0010655674
67	0x3a3f6b30	0.0007302044
68	0xba8aa72d	-0.0010578387
69	0x3a508fcb	0.0007955997
70	0x39ff924c	0.0004874639
71	0xb956bd3e	-0.00020479129
72	0x3a0fa016	0.0005478872
73	0xbb17ecfd	-0.0023182028
74	0x39801b1d	0.00024434263
75	0xba8b451b	-0.0010625453
76	0xba3ba790	-0.00071584526
77	0xbab4adcc	-0.0013784706
78	0xb8eb8950	-0.0001123125
79	0xbb127ba8	-0.0022351537
80	0x396102cc	0.00021458714
81	0x3a794d0b	0.00095100765
82	0xb87b11d8	-5.985968e-05
83	0xbb1b3123	-0.002368041
84	0xb9516bc4	-0.00019971939
85	0xb970f586	-0.00022979648
86	0xb9de6cf1	-0.00042424307
87	0xb95d0d8c	-0.00021081249
88	0xba8afa34	-0.0010603131
89	0xb9588950	-0.00020650518
90	0xbb2b9aa5	-0.0026184705
91	0xbb3b3e7b	-0.0028571177
92	0x37b31ce6	2.135192e-05
93	0x3b1ceeb6	0.0023945994
94	0xbb491286	-0.0030681207
95	0xbb3dc07f	-0.0028953848
96	0x3ac2e656	0.0014869671
97	0xbadac7fe	-0.0016691682
98	0xba575ce5	-0.00082154415
99	0xbb04c49e	-0.0020258795
100	0xb8d2a0e8	-0.000100435514
101	0xba6c54d3	-0.00090153253
102	0x3ad4f618	0.0016247658
103	0xbb015f44	-0.001974062
104	0xbad3a96a	-0.0016148512
105	0xb96ef6c6	-0.00022789379
106	0x392ca7b4	0.00016465673
107	0xba8f8194	-0.0010948651
108	0xbae26fdd	-0.001727577
109	0xbb0aa286	-0.0021154
110	0xba885985	-0.0010402655
111	0xbb2a5072	-0.002598789
112	0x3af73e2f	0.0018863137
113	0xba11c1aa	-0.0005560169
114	0x3afe8178	0.0019417247
115	0x39b6058f	0.00034717887
116	0xb8f3b430	-0.000116207055
117	0x3927c534	0.00015999825
118	0xbbc90608	-0.006134752
119	0xba17593f	-0.00057734916
120	0xba31f85e	-0.0006789024
121	0xbb4971d4	-0.0030738013
122	0xbb21f06a	-0.0024709948
123	0xbafe1193	-0.00193839
124	0xbbce9fcf	-0.0063056718
125	0x3a22a4ca	0.0006204365
126	0x3b502a61	0.003176354
127	0xbaaca6da	-0.0013172284
128	0xbb7029cb	-0.0036646004
129	0xba054d3b	-0.00050850556
130	0xbb0dc03c	-0.0021629473
131	0xba9549f6	-0.001138984
132	0xbb07bc99	-0.0020711778
133	0xbaa424de	-0.0012523194
134	0x3aaf8a26	0.0013392612
