logs/my_logs/version_6/checkpoints/epoch=9999-step=10000.ckpt (torch, 32255 bytes, 25 tensors)

encoder.dense1.weight f4 [45, 28]
0.16936679 0.0027787401 0.10960668 -0.036120735 -0.020672515 0.020376291 0.11784908 -0.10190401
-0.055609018 0.19540262 0.010755308 -0.05090386 0.17028524 0.10272097 -0.053742345 0.0052060615
-0.14740372 -0.16647874 -0.033178777 0.16046393 -0.034879684 0.10104954 0.019191269 -0.043968838
0.24036913 0.08058097 0.18549632 0.006468547 -0.34847617 0.026815603 -0.28354663 0.02268468
0.031710535 -0.019287528 -0.61163056 0.03491601 0.018219547 -1.8174235 -0.73935527 -0.25341833
-1.0072843 -0.5266442 -0.021244638 -0.8825107 -0.024619384 0.014768657 0.008376387 -0.808666
-0.7634565 -0.016578188 0.025140861 0.0031857544 -0.49161655 -0.01688964 -0.71312946 -0.029569417
-0.049894348 0.081665464 0.016517222 0.1240499 0.0074068513 -0.06640387 -0.123588994 -0.06375512
-0.12020994 -0.0481105 0.1131903 0.048506066 0.21470393 0.14693294 -0.055633403 0.17990461
0.22062962 0.009363453 0.007212849 0.042859145 -0.061911907 -0.16103254 -0.022250574 0.16121349
0.17077899 -0.044456884 -0.101358965 0.11843491 -0.036961775 -0.020312687 0.012361983 0.058446247
-0.032999404 0.029554684 -0.08541798 0.10574495 0.070663705 -0.16914949 -0.021924146 0.03508061
0.088619106 0.17176017 0.05131915 -0.07944138 -0.19437464 0.17588645 0.021470506 -0.14363664
-0.2165159 -0.107290864 -0.047577046 0.009017844 0.12833516 -0.122492805 0.0029857208 -0.03850357
-0.022390733 -0.04483052 0.13811958 -0.068447106 -0.13332555 0.06579492 0.21522829 -0.19218697
-0.06770214 0.06705925 0.16677487 -0.18709308 0.22989626 0.054125927 -0.033166878 0.13320504
0.017939558 -0.0050868136 -0.044598904 0.18071763 0.25685525 0.07237442 -0.0029630973 -0.024390599
0.08375072 0.057377007 0.08510486 0.0770121 0.0022088392 -0.03671735 -0.18764341 -0.15443541
-0.0969419 -0.16504112 -0.22116847 -0.054698657 -0.16493577 0.06381045 -0.03818694 -0.18271825
0.0061975997 -0.007814142 -0.24187341 -0.16244204 -0.22426404 -0.16768768 -0.19235139 -0.047278266
-0.14857921 -0.13449244 -0.022663226 -0.027847493 0.0037538398 -0.24462341 -0.02545834 -0.08961442
0.15023653 -0.03469062 -0.23614576 -0.16078395 -0.1117171 0.17881688 -0.18215369 0.046602383
-0.075794846 0.12461736 -0.008649528 -0.05493322 0.0979853 0.10676529 -0.17419101 0.107644364
0.15574397 0.13070521 -0.02740235 0.045390837 0.033666648 -0.11119456 0.042788427 -0.090301245
-0.042027865 0.061632827 -0.06312949 0.021862503 0.11900352 -0.063211225 0.107470565 0.019598817
0.06917791 0.114702746 0.06003662 0.1223835 0.0012347404 0.08871764 -0.04543341 0.026105918
0.11283081 0.007776971 -0.10116739 -0.10855409 -0.022970935 0.08980725 -0.017732967 -0.06457213
0.15053928 -0.10888207 -0.15387946 -0.058068253 0.121302456 -0.18763192 0.13852277 0.004852321
0.093036376 -0.13637039 0.01344813 -0.06547529 0.0145895975 -0.03959933 0.067415655 0.13053414
-0.124616966 0.052419122 0.07342749 0.09192299 0.044630513 0.23258674 -0.08547176 0.14827514
-0.2019865 0.07261378 0.052257787 0.063632 0.08286422 -0.099401854 0.053220704 -0.037222352
0.20596428 -0.0868178 -0.040867828 -0.19425692 -0.060410295 -0.093008704 0.070388295 -0.1383769
00000000: 7d6e 2d3e 861b 363b 7879 e03d 56f3 13bd
00000010: 6859 a9bc 2eec a63c dc5a f13d 0db3 d0bd
00000020: 48c6 63bd a017 483e 0837 303c 9180 50bd
00000030: 415f 2e3e 5f5f d23d ef20 5cbd 9c97 aa3b
00000040: 00f1 16be 6779 2abe 78e6 07bd a850 243e
00000050: 00de 0ebd 10f3 ce3d 0237 9d3c ab18 34bd
00000060: 5323 763e a307 a53d bff2 3d3e 1bf6 d33b
00000070: 786b b2be 65ac db3c 062d 91be 39d5 b93c
00000080: e8e2 013d e100 9ebc d293 1cbf 1704 0f3d
00000090: 2941 953c 55a1 e8bf 6346 3dbf 0cc0 81be
000000a0: b1ee 80bf 27d2 06bf 3c09 aebc 39ec 61bf
000000b0: 97ae c9bc 3df8 713c 1d3d 093c bc04 4fbf
000000c0: e371 43bf fbce 87bc 35f4 cd3c 17c8 503b
000000d0: 2ab5 fbbe 245c 8abc a78f 36bf 903b f2bc
000000e0: 045e 4cbd 3940 a73d 204f 873c e00d fe3d
000000f0: 2cb5 f23b c1fe 87bd 3a1c fdbd 0b92 82bd
00000100: a130 f6bd 840f 45bd 51d0 e73d 4cae 463d
00000110: 59db 5b3e 9775 163e dadf 63bd ea38 383e
00000120: bbec 613e 2b69 193c c359 ec3b 128d 2f3d
00000130: 5797 7dbd b7e5 24be d646 b6bc 2615 253e
00000140: b0e0 2e3e 6c18 36bd 4a95 cfbd 018e f23d
00000150: 3b65 17bd cb66 a6bc ea89 4a3c 5565 6f3d
00000160: 622a 07bd aa1c f23c 9fef aebd cf90 d83d
00000170: 22b8 903d 8635 2dbe 449a b3bc b0b0 0f3d
00000180: ef7d b53d e6e1 2f3e 0734 523d 2ab2 a2bd
00000190: 250a 47be 941b 343e eae2 af3c 7c15 13be
000001a0: 58b6 5dbe 50bb dbbd 26e0 42bd 94bf 133c
000001b0: 4b6a 033e 82dd fabd 15ac 433b ebb5 1dbd
000001c0: c56c b7bc 35a0 37bd 386f 0d3e ff2d 8cbd
000001d0: 7e86 08be 7dbf 863d ce64 5c3e a9cc 44be
000001e0: 6ba7 8abd 5c56 893d 08c7 2a3e 5495 3fbe
000001f0: ed69 6b3e 26b3 5d3d fed9 07bd e766 083e
00000200: fbf5 923c 49af a6bb 57ad 36bd 0b0e 393e
00000210: 8882 833e 0a39 943d 8630 42bb cbce c7bc
00000220: 7f85 ab3d 2704 6b3d 754b ae3d 85b8 9d3d
00000230: 2cc2 103b ef64 16bd 9825 40be 5124 1ebe
00000240: 7a89 c6bd 8a00 29be fd79 62be b30b 60bd
00000250: ece4 28be 0eaf 823d e969 1cbd 7e1a 3bbe
00000260: 3c15 cb3b e306 00bc aaad 77be 3557 26be
00000270: 79a5 65be 52b6 2bbe c3f7 44be dba6 41bd
00000280: 2625 18be 63b8 09be 3ba8 b9bc 6d20 e4bc
00000290: fb02 763b 8f7e 7abe 028e d0bc c487 b7bd
000002a0: 9bd7 193e c017 0ebd 32d0 71be 8ca4 24be
000002b0: efcb e4bd c61b 373e 7f86 3abe 24e2 3e3d
000002c0: 543a 9bbd 6337 ff3d c0b6 0dbc a801 61bd
000002d0: 84ac c83d c3a7 da3d 215f 32be a674 dc3d
000002e0: 597b 1f3e 96d7 053e e57a e0bc beeb 393d
000002f0: 0ae6 093d f9b9 e3bd eb42 2f3d dcef b8bd
00000300: 6925 2cbd b472 7c3d 094a 81bd fe18 b33c
00000310: 1eb8 f33d e374 81bd 8719 dc3d b38d a03c
00000320: 26ad 8d3d 46e9 ea3d f5e8 753d 33a4 fa3d
00000330: 03d7 a13a 98b1 b53d 6218 3abd 14dc d53c
00000340: d713 e73d f6d5 fe3b d930 cfbd 9b51 debd
00000350: 8b2d bcbc ddec b73d ba44 91bc 653e 84bd
00000360: f826 1a3e 90fd debd 9492 1dbe fad8 6dbd
00000370: 6c6d f83d 9522 40be ead8 0d3e 3800 9f3b
00000380: db89 be3d aea4 0bbe 8c55 5c3c e917 86bd
00000390: 3509 6f3c e832 22bd 3811 8a3d beaa 053e
000003a0: 2e37 ffbd 6fb5 563d 2761 963d 1f42 bc3d
000003b0: 7cce 363d 382b 6e3e d10b afbd 70d5 173e
000003c0: 8dd5 4ebe 89b6 943d 430c 563d 7e51 823d
000003d0: b7b4 a93d 3393 cbbd f4fd 593d 7776 18bd
000003e0: 4de8 523e 88cd b1bd 0665 27bd 49eb 46be
000003f0: c970 77bd 597b bebd bd27 903d adb2 0dbe

encoder.dense1.bias f4 [45]
0.34994605 0.44834477 -0.2128809 0.3355732 -0.7373465 0.5428154 0.075564384 -0.17127915
0.289564 0.18470764 -0.81017774 0.19018465 0.24081466 0.6624381 0.004523031 0.12858677
0.22265987 0.20772211 -0.0108095305 0.49161765 0.14502156 -0.039595973 0.009451701 0.18149756
-0.24908207 0.3684665 -0.18035404 0.3444313 -0.22035544 0.13220263 -0.62782764 -0.050320614
-0.31438062 0.50481 0.2745917 -0.01374869 -0.04154895 -0.69098985 -0.01206349 -0.056959108
0.09485915 -0.003268103 -0.44931224 -0.45757097 0.42932087
00000000: 212c b33e 728d e53e 73fd 59be 40d0 ab3e
00000010: bdc2 3cbf f3f5 0a3f 80c1 9a3d cd63 2fbe
00000020: bc41 943e 0024 3d3e cf67 4fbf c4bf 423e
00000030: 1e98 763e 8b95 293f ef35 943b 40ac 033e
00000040: f300 643e 1bb5 543e 751a 31bc 4fb5 fb3e
00000050: 8880 143e 632f 22bd 4fdb 1a3c 7fda 393e
00000060: 5f0f 7fbe a4a7 bc3e bbae 38be 4d59 b03e
00000070: dba4 61be 2060 073e 50b9 20bf fd1c 4ebd
00000080: 7ff6 a0be 3a3b 013f 4997 8c3e 2f42 61bc
00000090: 3b2f 2abd b6e4 30bf f2a5 45bc f44d 69bd
000000a0: 8445 c23d ac2d 56bb 410c e6be be46 eabe
000000b0: f2cf db3e

encoder.dense3m.weight f4 [3, 45]
-0.0013550741 -0.36998093 0.13929802 -0.23800957 0.5045358 0.23222947 0.06298237 0.22457594
0.0433932 -0.17007808 0.16075152 -0.15452716 -0.034478016 -0.04762644 0.07625963 -0.17050774
-0.18332395 0.031262126 -0.14539571 -0.21071352 -0.16330458 0.12686874 0.04756741 -0.10877596
0.043708816 -0.14333376 0.17726453 -0.3047662 -0.040307123 -0.19923855 -0.17550129 0.15256971
0.25676563 -0.15697636 0.015080827 -0.120557964 -0.12912123 0.34285542 -0.14230122 -0.121064715
0.20695005 0.13274696 0.16157854 -0.2787352 -0.37356445 -0.1368541 0.0012712321 0.12998784
-0.11394445 -0.020452715 -0.010906528 -0.06164273 -0.0946428 -0.020923158 -0.08984308 0.021783486
-0.022776881 -0.42927587 -0.005668529 0.31099442 0.15525351 -0.07024008 -0.0067493776 -0.04230094
-0.39726973 -0.045336805 -0.25125918 -0.1276848 -0.064365014 0.16912323 -0.08730972 0.06528567
-0.098615095 0.23125756 -0.25862986 0.13439848 0.31567436 0.015284276 0.033309042 -0.279953
0.18609557 0.15797451 0.008663691 -0.059923615 0.16952357 -0.039303925 -0.10436198 0.427592
0.0026493855 0.0044956263 0.3183925 0.01247975 0.042503864 0.20017317 -0.20500295 -0.1662735
0.13413344 0.013482038 0.1546841 0.18588918 -0.45990098 0.026023448 0.02250681 0.42268905
0.018103596 0.041507017 0.06475555 0.30109367 -0.27353448 0.15856981 0.15087399 -0.13571909
-0.062441114 0.14605284 -0.05818251 0.26756808 -0.025364667 0.3263102 0.21725017 -0.157366
-0.38468862 0.09368471 -0.2805948 0.28187078 -0.0021721183 0.06853615 -0.13538969 0.1084518
-0.055265654 0.012848686 0.20351873 0.04833809 -0.19402447 0.019808365 0.19606584
00000000: be9c b1ba 246e bdbe 24a4 0e3e c8b8 73be
00000010: 4229 013f 90cd 6d3e e7fc 803d 3cf7 653e
00000020: 11bd 313d f328 2ebe 0c9c 243e 5e3c 1ebe
00000030: d238 0dbd f113 43bd 022e 9c3d 9599 2ebe
00000040: 46b9 3bbe b70c 003d 9de2 14be 49c5 57be
00000050: 5139 27be e1e9 013e 0bd6 423d eec5 debd
00000060: 0408 333d 16c6 12be d584 353e 510a 9cbe
00000070: 1519 25bd 3105 4cbe 9cb6 33be 3c3b 1c3e
00000080: c976 833e 69be 20be 9315 773c 18e7 f6bd
00000090: 5b38 04be bf8a af3e 69b7 11be c7f0 f7bd
000000a0: b7ea 533e d2ee 073e d874 253e 61b6 8ebe
000000b0: d743 bfbe 7b23 0cbe 799f a63a 881b 053e
000000c0: b55b e9bd 748c a7bc 4bb1 32bc 167d 7cbd
000000d0: 16d4 c1bd 0b67 abbc a6ff b7bd 4873 b23c
000000e0: 9596 babc 0cca dbbe 11bf b9bb a93a 9f3e
000000f0: c7fa 1e3e 08da 8fbd e229 ddbb c043 2dbd
00000100: f066 cbbe 16b3 39bd 0ba5 80be cebf 02be
00000110: ced1 83bd a42e 2d3e 70cf b2bd 7eb4 853d
00000120: b6f6 c9bd c8ce 6c3e 226b 84be c19f 093e
00000130: 12a0 a13e e66a 7a3c 106f 083d 0056 8fbe
00000140: d68f 3e3e 12c4 213e 27f2 0d3c 7772 75bd
00000150: 9697 2d3e 27fd 20bd bcbb d5bd 57ed da3e
00000160: 50a1 2d3b 0c50 933b 5704 a33e de77 4c3c
00000170: 8818 2e3d 32fa 4c3e 4bec 51be 9a43 2abe
00000180: 475a 093e c4e3 5c3c 8265 1e3e bc59 3e3e
00000190: 2478 ebbe 202f d53c 3460 b83c b36a d83e
000001a0: fe4d 943c 4303 2a3d 8f9e 843d f328 9a3e
000001b0: b60c 8cbe 2060 223e b67e 1a3e f2f9 0abe
000001c0: 41c2 7fbd e08e 153e c950 6ebd affe 883e
000001d0: 90c9 cfbc 2112 a73e d476 5e3e 8d24 21be
000001e0: e8f5 c4be c5dd bf3d 1faa 8fbe 5e51 903e
000001f0: 195a 0ebb ae5c 8c3d 98a3 0abe fa1b de3d
00000200: 3d5e 62bd 4c83 523c 3767 503e 29fe 453d
00000210: 5aae 46be 2745 a23c 7cc5 483e

encoder.dense3m.bias f4 [3]
-0.12648937 -0.2427574 -0.0011150242
00000000: 6e86 01be 6595 78be 0126 92ba

encoder.dense3s.weight f4 [3, 45]
-0.043092627 0.2529631 0.0023852477 0.031514876 0.36086926 0.12008436 -0.016096411 0.0034053836
-0.15937313 -0.09709205 0.006449091 -0.08437808 -0.0310281 0.015470192 -0.11627823 0.11377712
-0.0054392745 -0.040387593 -0.020071622 -0.11940044 -0.20434606 -0.026010394 0.031909708 -0.088072896
0.063395984 -0.10785368 -0.08723512 -0.013704356 -0.015914394 -0.054080896 -0.016946288 0.007522267
-0.03464681 -0.12143081 0.034770843 -0.069784135 -0.060431823 0.35024595 -0.003324281 -0.10323785
-0.0018188942 -0.0016533359 0.09761693 -0.1893902 -0.08044392 -0.0733199 -0.003784217 0.06631695
0.004118995 -0.033386942 0.092367396 0.048218787 -0.06264001 -0.060076043 -0.007494299 0.03568903
-0.024736304 -0.078716174 -0.0035339077 -0.036760326 0.0416033 -0.07211678 0.0066004028 0.012128468
-0.10081233 0.015840834 0.029904647 0.47881988 0.040912826 0.108042076 -0.07674146 0.0018919245
-0.085473716 0.09283649 -0.09425041 0.05741468 -0.07873791 0.08484473 -0.008862379 -0.11346641
0.051426616 -0.057364922 0.0054573845 -0.04566328 0.040263385 -0.013090311 0.056340043 0.11213967
0.009508817 -0.04248771 -0.15526496 0.027808126 -0.008470856 -0.08771128 0.10482134 0.6994809
-0.04076947 0.06687824 -0.05584309 -0.17413703 0.3793287 -0.08411209 -0.099687375 0.03683915
0.013710882 0.030291952 -0.10944242 -0.07795034 -0.038420286 0.015671246 -0.109274045 0.07989726
0.059475746 -0.10928795 -0.0008230449 -0.049748965 0.07410111 -0.021668661 -0.14026831 -0.010857909
0.1930919 0.074188516 0.078111865 -0.0568335 -0.12228338 0.008968959 0.07633352 0.012614828
0.016396692 0.033225335 -0.0070434283 0.046233207 -0.023470305 0.009550118 -0.069480486
00000000: e581 30bd 6184 813e d151 1c3b be15 013d
00000010: dbc3 b83e caee f53d 9fdc 83bc db2c 5f3b
00000020: b632 23be 32d8 c6bd e552 d33b 6ace acbd
00000030: a42e febc b076 7d3c 4823 eebd fb03 e93d
00000040: f13b b2bb 766d 25bd 3e6d a4bc 3888 f4bd
00000050: 1840 51be c013 d5bc c1b3 023d 905f b4bd
00000060: c1d5 813d 64e2 dcbd 54a8 b2bd 3c88 60bc
00000070: e75e 82bc ee83 5dbd f1d2 8abc 597d f63b
00000080: d0e9 0dbd b7b0 f8bd df6b 0e3d fcea 8ebd
00000090: 5c87 77bd 7053 b33e 2edc 59bb 5e6e d3bd
000000a0: f667 eeba bfb4 d8ba 63eb c73d 81ef 41be
000000b0: c8bf a4bd be28 96bd a000 78bb 2ed1 873d
000000c0: a2f8 863b bfc0 08bd 1e2b bd3d 1081 453d
000000d0: 6849 80bd 4c12 76bd bd92 f5bb a92e 123d
000000e0: caa3 cabc f235 a1bd 2299 67bb ff91 16bd
000000f0: 3968 2a3d f6b1 93bd 3148 d83b 7bb6 463c
00000100: b276 cebd a3c4 813c 97fa f43c e127 f53e
00000110: 3594 273d 2a45 dd3d a02a 9dbd 74fa f73a
00000120: d80c afbd 0f21 be3d 5c06 c1bd a82b 6b3d
00000130: 5741 a1bd 13c3 ad3d 8333 11bc 1461 e8bd
00000140: b7a4 523d 7bf7 6abd dcd3 b23b 6b09 3bbd
00000150: 38eb 243d be78 56bc d1c4 663d 7ca9 e53d
00000160: dfca 1b3c 9807 2ebd c7fd 1ebe decd e33c
00000170: 58c9 0abc f9a1 b3bd 92ac d63d 2e11 333f
00000180: e3fd 26bd 75f7 883d b9bb 64bd fa50 32be
00000190: 5f37 c23e f642 acbd e528 ccbd a6e4 163d
000001a0: 9ba3 603c d426 f83c 5923 e0bd 6ea4 9fbd
000001b0: 975e 1dbd fc60 803c 12cb dfbd 2da1 a33d
000001c0: d79c 733d 5cd2 dfbd 9cc1 57ba 92c5 4bbd
000001d0: 53c2 973d 7a82 b1bc 7fa2 0fbe 5fe5 31bc
000001e0: e2b9 453e 26f0 973d 1df9 9f3d 3eca 68bd
000001f0: b56f fabd 8af2 123c c054 9c3d 6cae 4e3c
00000200: 5b52 863c 4a17 083d 8fcc e6bb 085f 3d3d
00000210: cc44 c0bc 1978 1c3c c94b 8ebd

encoder.dense3s.bias f4 [3]
-0.039906796 0.012434787 -0.1939791
00000000: 4f75 23bd 47bb 4b3c 75a2 46be

decoder.linear.bias f4 [28]
0.60762167 0.14060934 -0.5583654 0.9519153 0.99091107 -1.2229658 -0.7065543 1.2276098
0.5364045 -1.590215 -0.18210453 1.4761485 -0.55604243 0.16979326 -0.35972238 0.21684754
-0.2341207 0.56249285 0.35951474 -0.052100074 -0.5712954 -0.93993443 0.25784236 -0.7820212
-0.12097593 -1.0690019 1.0827657 -1.6318483
00000000: 188d 1b3f e5fb 0f3e 09f1 0ebf b9b0 733f
00000010: 59ac 7d3f 258a 9cbf bee0 34bf 5122 9d3f
00000020: ce51 093f 2a8c cbbf 9c79 3abe 6ff2 bc3f
00000030: cc58 0ebf 49de 2d3e 882d b8be 480d 5e3e
00000040: 56bd 6fbe 88ff 0f3f 5112 b83e e366 55bd
00000050: 6a40 12bf 8b9f 70bf ea03 843e 8b32 48bf
00000060: 3ac2 f7bd 0ed5 88bf 1198 8a3f 68e0 d0bf

decoder.linear.weight_orig f4 [28, 3]
0.7808042 -0.5731877 -0.0053323507 0.07902509 1.4137678 0.3006789 0.52241457 0.4351728
-1.5233415 -0.24702123 -0.34035125 -0.91814756 -0.4082792 -0.31601346 -0.51188785 0.38481462
-0.47143778 -1.4060007 1.1010917 -0.15863863 -1.698922 0.39496118 1.354634 -0.4397539
0.23003483 -0.44030124 -1.3302906 1.8576565 0.1517672 0.4238826 1.4223213 -0.20945022
-0.40447542 0.67093086 -0.3233587 -1.326363 1.9461225 0.14749336 0.5473361 1.1846478
0.021254838 0.19553232 -0.10689393 -0.5378771 -1.9009132 1.7646364 -0.23489177 -1.467945
-0.17294297 1.3362116 -1.7724936 -0.30544797 0.13076895 -1.2215163 0.33297914 -0.4280139
-1.4025272 1.5225389 -0.49795282 -0.629973 1.3091214 -0.45071942 -1.4989921 -0.08621779
0.44709992 -1.267137 -0.077451766 1.0144849 0.30229175 0.058898747 1.6189082 0.3861115
1.0368617 -0.5334649 0.11155754 -0.01926446 0.17233157 -1.9520224 1.8728526 -0.043197513
-0.22930226 -0.10799983 -0.34161937 -0.94815207
00000000: c9e2 473f 6ebc 12bf 00bb aebb e8d7 a13d
00000010: 58f6 b43f 96f2 993e f6bc 053f f8ce de3e
00000020: dbfc c2bf 22f3 7cbe 8542 aebe b80b 6bbf
00000030: f909 d1be 84cc a1be 150b 03bf 6c06 c53e
00000040: 4b60 f1be d5f7 b3bf 93f0 8c3f 2a72 22be
00000050: 4776 d9bf 5a38 ca3e a664 ad3f 6c27 e1be
00000060: 408e 6b3e 2a6f e1be f646 aabf b0c7 ed3f
00000070: dc68 1b3e 2407 d93e a00e b63f 1e7a 56be
00000080: 6717 cfbe 20c2 2b3f 468f a5be 43c6 a9bf
00000090: 8b1a f93f 8008 173e 381e 0c3f 8aa2 973f
000000a0: a01e ae3c a039 483e 34eb dabd 50b2 09bf
000000b0: 2051 f3bf 9bdf e13f 7887 70be 9fe5 bbbf
000000c0: f617 31be fb08 ab3f 12e1 e2bf ad63 9cbe
000000d0: 4ce8 053e a55a 9cbf 3e7c aa3e a324 dbbe
000000e0: 0386 b3bf 8ee2 c23f acf3 febe e945 21bf
000000f0: 4a91 a73f b2c4 e6be f9de bfbf f492 b0bd
00000100: 48ea e43e 8c31 a2bf 089f 9ebd a4da 813f
00000110: fcc5 9a3e d03f 713d 6238 cf3f 68b0 c53e
00000120: e2b7 843f 2891 08bf 4878 e43d 80d0 9dbc
00000130: b077 303e dfdb f9bf a2b9 ef3f e0ef 30bd
00000140: 36ce 6abe 042f ddbd bce8 aebe 18ba 72bf

decoder.linear.weight_mask f4 [28, 3]
1.0 0.0 0.0 0.0 1.0 0.0 1.0 0.0
1.0 0.0 0.0 1.0 0.0 0.0 1.0 0.0
0.0 1.0 1.0 0.0 1.0 0.0 1.0 0.0
0.0 0.0 1.0 1.0 0.0 0.0 1.0 0.0
1.0 1.0 0.0 1.0 1.0 0.0 0.0 1.0
0.0 0.0 0.0 0.0 1.0 1.0 0.0 1.0
0.0 1.0 1.0 0.0 0.0 1.0 0.0 0.0
1.0 1.0 0.0 1.0 1.0 0.0 1.0 0.0
0.0 1.0 0.0 1.0 0.0 0.0 1.0 0.0
1.0 0.0 0.0 0.0 0.0 1.0 1.0 0.0
0.0 0.0 0.0 1.0
00000000: 0000 803f 0000 0000 0000 0000 0000 0000
00000010: 0000 803f 0000 0000 0000 803f 0000 0000
00000020: 0000 803f 0000 0000 0000 0000 0000 803f
00000030: 0000 0000 0000 0000 0000 803f 0000 0000
00000040: 0000 0000 0000 803f 0000 803f 0000 0000
00000050: 0000 803f 0000 0000 0000 803f 0000 0000
00000060: 0000 0000 0000 0000 0000 803f 0000 803f
00000070: 0000 0000 0000 0000 0000 803f 0000 0000
00000080: 0000 803f 0000 803f 0000 0000 0000 803f
00000090: 0000 803f 0000 0000 0000 0000 0000 803f
000000a0: 0000 0000 0000 0000 0000 0000 0000 0000
000000b0: 0000 803f 0000 803f 0000 0000 0000 803f
000000c0: 0000 0000 0000 803f 0000 803f 0000 0000
000000d0: 0000 0000 0000 803f 0000 0000 0000 0000
000000e0: 0000 803f 0000 803f 0000 0000 0000 803f
000000f0: 0000 803f 0000 0000 0000 803f 0000 0000
00000100: 0000 0000 0000 803f 0000 0000 0000 803f
00000110: 0000 0000 0000 0000 0000 803f 0000 0000
00000120: 0000 803f 0000 0000 0000 0000 0000 0000
00000130: 0000 0000 0000 803f 0000 803f 0000 0000
00000140: 0000 0000 0000 0000 0000 0000 0000 803f

exp_avg f4 [45, 28]
0.0002063192 -0.00021561634 -0.00055867183 0.00037748786 0.0015822055 -0.0013712287 -7.184256e-05 0.0011319716
0.00027434668 0.0016120435 0.00036559015 0.00024295092 0.0022633632 0.0011658024 -0.00027883644 0.00031187275
-0.0011749754 -0.00029973782 -0.0017059741 -0.00036769043 -0.0007669377 -0.00061128987 0.0011938934 0.0014949887
0.0007207546 0.00078343303 0.0019770204 0.0010449658 1.2391761e-05 0.00011508733 -0.0001603942 -0.000102197126
0.000173898 -0.00010477719 -8.6257285e-05 0.00014173311 -4.7455458e-05 2.0954605e-05 -0.00015907566 6.7870234e-05
-1.9990097e-05 -7.935669e-06 -8.384756e-05 -3.7070105e-05 -0.00019566197 -9.434937e-05 -0.00022131605 -6.235049e-05
-2.951194e-06 -0.00014993666 0.00024225938 0.0002479634 -0.00020129477 -5.990675e-05 0.00018418433 2.7458227e-05
-0.0004367789 -6.303539e-05 -9.4302784e-05 -6.783308e-05 -0.00041749186 -1.2948512e-05 0.0002086363 -0.0005151328
-0.0001498355 -0.00027038887 0.0002460705 -2.112874e-05 -2.9137882e-05 -0.0005785158 3.0531868e-05 -0.00027159663
0.000188382 -0.00022871663 0.00027728287 0.00028456305 -0.00012547403 -3.6466143e-05 -0.00087527704 -0.00061360793
-0.0003846073 -0.000327867 -0.00038241048 -0.0002900557 -0.0002987272 -0.0007521643 -0.0009383696 7.0531256e-05
0.001076399 -0.0014856941 -0.00049718213 0.00038981956 -0.00013716234 0.0009632627 -0.00070822774 -0.00027231625
0.0014076052 0.0005854038 -0.00080358406 -0.000112684735 -0.0015643912 -0.00049798604 -0.0028877007 -0.0011192211
-0.0010600828 -0.00094503775 0.0016868112 0.0017523787 0.00064921845 0.0003067968 0.0013863818 0.00070173177
-0.0004990264 0.000643797 0.0008661959 0.00019838213 -0.0016732356 0.0007460999 0.00048165146 -0.0007619337
0.0009914346 -0.0007060627 0.00017966924 -0.0010448082 -0.0016464249 -0.0007423926 0.0006259172 -0.0009858361
0.0011567359 0.00015865093 0.0030769522 0.00066231814 0.001249971 0.00058420247 -0.0018831601 -0.0022247378
-0.0015126595 -0.00046040543 -0.0015299635 -0.00058462797 0.00041197898 0.00037275872 0.00027532884 -0.0006964644
-0.0017060315 0.0009985991 1.5133748e-05 -0.0020795448 -0.0011815184 -0.0007201166 0.0006047905 -0.00040959383
-0.001322029 -0.0010933522 0.0005056737 -0.00055653625 -0.000658083 0.0005141511 0.00049215136 0.00052739657
-0.0001800668 -0.00028541553 -0.0023876433 -0.0027223637 -0.00046656647 -0.00070561946 -0.00041179432 -0.00093252887
-0.000116153285 -9.2683316e-05 -5.0833274e-05 0.00022232904 0.00030979147 -0.0003290999 0.0001089373 0.00015397616
0.00014968993 0.0005963135 0.00038230338 9.149076e-05 0.0007797555 0.00042302647 0.00019948515 6.7540284e-05
-0.00039118523 0.0001383868 -0.00036876896 5.4613265e-06 -0.00014073009 -0.00023969873 1.2596367e-05 0.00023607287
0.00025726054 0.0003616502 0.00061400206 0.0002836008 0.00042008914 0.00053144444 0.00072801264 0.0001561149
-9.141833e-05 0.00064205437 0.0003059602 0.00022601007 0.0005241163 0.00028842414 0.0008421149 0.00017941506
-9.2445785e-05 0.00035051513 0.00085568393 0.00010045201 0.00038757524 0.0005607309 0.0017016736 0.0006363559
0.00048312065 0.000401097 -0.0009025231 -0.0009230737 -0.000110530615 0.00033664872 3.2702344e-05 2.1782544e-05
0.00044284418 8.9321235e-05 -0.00011069736 -5.4977427e-05 0.00092799496 -0.0004900859 0.00010871829 0.00086928415
-0.0001690372 0.0009873467 0.0006828152 0.0005997587 0.0014000213 0.00091781793 -0.00014284236 0.0005935258
-0.00038714282 -4.5866505e-05 -0.00043630388 0.00015142013 -0.00013792765 -0.0002065956 0.000319672 0.0006339974
0.00045990053 0.00046846285 0.0011444574 0.0005500704 0.00021417861 -0.00017037276 -0.0006373298 0.0002689069
00000000: 6357 5839 1217 62b9 d573 12ba 90e9 c539
00000010: 0262 cf3a cdba b3ba 2eaa 96b8 aa5e 943a
00000020: 30d6 8f39 344b d33a aeac bf39 a4c0 7e39
00000030: ef54 143b d6cd 983a cb30 92b9 da82 a339
00000040: a201 9aba 2126 9db9 fe9a dfba 93c6 c0b9
00000050: 510c 49ba f83e 20ba 6a7c 9c3a 7ff3 c33a
00000060: 06f1 3c3a 4d5f 4d3a e690 013b 3cf7 883a
00000070: 35e6 4f37 0a5b f138 7d2f 28b9 aa52 d6b8
00000080: 6458 3639 d3bb dbb8 07e5 b4b8 319e 1439
00000090: e90a 47b8 acc7 af37 8ccd 26b9 8e55 8e38
000000a0: 68b0 a7b7 7023 05b7 51d7 afb8 b97b 1bb8
000000b0: 9c2a 4db9 6fdd c5b8 1311 68b9 2ac2 82b8
000000c0: 200d 46b6 5138 1db9 0207 7e39 1601 8239
000000d0: a712 53b9 6244 7bb8 9b21 4139 1856 e637
000000e0: 79ff e4b9 de31 84b8 6cc4 c5b8 9c41 8eb8
000000f0: cfe2 dab9 703d 59b7 61c5 5a39 fa09 07ba
00000100: 291d 1db9 fbc2 8db9 0603 8139 a03d b1b7
00000110: 206d f4b7 8aa7 17ba 580f 0038 1565 8eb9
00000120: 6888 4539 a7d3 6fb9 4760 9139 6831 9539
00000130: ae91 03b9 39f3 18b8 d972 65ba 88da 20ba
00000140: 1ea5 c9b9 90e5 abb9 447e c8b9 9e12 98b9
00000150: 7c9e 9cb9 e42c 45ba ebfc 75ba 2eea 9338
00000160: f515 8d3a 9fbb c2ba 5455 02ba b260 cc39
00000170: 3cd3 0fb9 7783 7c3a 5ca8 39ba abc5 8eb9
00000180: 657f b83a c975 193a 9da7 52ba 2851 ecb8
00000190: 420c cdba 478b 02ba 943f 3dbb d4b2 92ba
000001a0: 7af2 8aba 69bc 77ba fe17 dd3a 12b0 e53a
000001b0: 5030 2a3a 92d9 a039 41b7 b53a 6cf4 373a
000001c0: 18d1 02ba 7cc4 283a 6c11 633a cc04 5039
000001d0: 7850 dbba eb95 433a 2a86 fc39 81bc 47ba
000001e0: 06f3 813a 1117 39ba 9865 3c39 f2f1 88ba
000001f0: dacc d7ba 209d 42ba 9814 243a 2c37 81ba
00000200: 9e9d 973a 895b 2639 b1a6 493b 6b9f 2d3a
00000210: 11d6 a33a 2a25 193a 5ed4 f6ba e8cc 11bb
00000220: 6e44 c6ba 9262 f1b9 0e89 c8ba b841 19ba
00000230: e2fe d739 d46e c339 035a 9039 ef92 36ba
00000240: eb9c dfba 6de3 823a f4e6 7d37 f948 08bb
00000250: 2edd 9aba 35c6 3cba ce8a 1e3a c1be d6b9
00000260: ef47 adba d04e 8fba 308f 043a 84e4 11ba
00000270: 3483 2cba 19c8 063a b803 013a fc40 0a3a
00000280: 50d0 3cb9 d3a3 95b9 027a 1cbb af69 32bb
00000290: 7e9d f4b9 52f9 38ba 19e6 d7b9 f474 74ba
000002a0: 5297 f3b8 fa5e c2b8 d035 55b8 ff20 6939
000002b0: 826b a239 0a8b acb9 4575 e438 a974 2139
000002c0: 16f6 1c39 ec51 1c3a e46f c839 bade bf38
000002d0: 8168 4c3a a7c9 dd39 e32c 5139 6aa4 8d38
000002e0: fe17 cdb9 ec1b 1139 5557 c1b9 7040 b736
000002f0: f290 13b9 a357 7bb9 fc54 5337 548a 7739
00000300: ede0 8639 de9b bd39 fbf4 203a 41b0 9439
00000310: 693f dc39 a250 0b3a 1ad8 3e3a c6b2 2339
00000320: d8b7 bfb8 8a4f 283a 4869 a039 1efd 6c39
00000330: d964 093a a237 9739 60c1 5c3a 5d21 3c39
00000340: 74df c1b8 58c5 b739 fa4f 603a c3a9 d238
00000350: 7833 cb39 04fe 123a b10a df3a 1fd1 263a
00000360: 5b4b fd39 544a d239 4d97 6cba 6dfa 71ba
00000370: accc e7b8 3a80 b039 e029 0938 a8b9 b637
00000380: 8a2d e839 f951 bb38 3126 e8b8 9097 66b8
00000390: b044 733a 1c79 00ba b0ff e338 ace0 633a
000003a0: 943f 31b9 dc69 813a f4fe 323a 2039 1d3a
000003b0: eb80 b73a b899 703a f4c7 15b9 d896 1b3a
000003c0: 6ef9 cab9 c960 40b8 b7bf e4b9 88c6 1e39
000003d0: aca0 10b9 96a1 58b9 a699 a739 d832 263a
000003e0: ce1e f139 059c f539 9e01 963a 9a32 103a
000003f0: 2295 6039 17a6 32b9 7b12 27ba 13fc 8c39

exp_avg_sq f4 [45, 28]
0.00020783837 0.0001465902 0.000106795684 0.00023773135 0.00024961386 5.7746918e-05 0.00010340037 0.0002485218
0.00018802988 5.296519e-05 0.00013162247 0.00028539618 0.000105501 0.00015628654 0.00011742019 0.00017131165
0.00012828977 0.00019426087 0.00017622564 0.00014615366 0.00011476541 6.624864e-05 0.0001606386 8.419855e-05
0.0001328618 7.3905474e-05 0.00023205545 3.008973e-05 1.1189413e-06 1.585022e-06 3.6113966e-07 2.0547463e-06
2.2697739e-06 4.4158452e-07 1.1899607e-07 2.4988465e-06 1.5042655e-06 6.923208e-09 1.4910061e-07 1.6000902e-06
6.844065e-08 4.424244e-07 8.5312246e-07 1.2949423e-07 9.792707e-07 1.5976042e-06 1.3537397e-06 1.2341239e-07
8.0471494e-08 5.426738e-07 1.738583e-06 9.980876e-07 3.8718616e-07 5.223904e-07 6.1544415e-07 3.01606e-07
1.8700288e-05 1.2699426e-05 9.9731715e-06 2.116831e-05 2.1476848e-05 5.3952253e-06 9.724236e-06 2.084174e-05
1.6408041e-05 4.6477585e-06 1.2400521e-05 2.5142313e-05 9.87127e-06 1.4853595e-05 1.060562e-05 1.607743e-05
1.1633901e-05 1.7317741e-05 1.5397667e-05 1.3469826e-05 1.0696895e-05 6.0252846e-06 1.3858485e-05 7.275539e-06
1.20568375e-05 7.1839595e-06 2.0723439e-05 3.1117295e-06 0.00024397361 0.00017140398 0.00012469468 0.00027644535
0.00028690242 6.869004e-05 0.0001205979 0.0002876364 0.00021963421 5.8033922e-05 0.00015397905 0.00033311028
0.000121853096 0.00018374644 0.00013846334 0.0002024276 0.00015006607 0.00022978763 0.000204233 0.00016961896
0.00013237 7.634604e-05 0.00018790698 9.812968e-05 0.00015382434 8.705444e-05 0.0002726623 3.5857098e-05
0.00024186341 0.00015412166 0.00015564926 0.00027173705 0.000269147 7.861292e-05 0.00016570596 0.00025157136
0.00021971173 7.13966e-05 0.00019076913 0.000333056 0.00015420548 0.0002009338 0.00014961584 0.000254281
0.00015677653 0.00023244068 0.00021081799 0.00021543799 0.00018516181 8.941628e-05 0.00017214424 8.5535255e-05
0.00016974243 0.000104456645 0.00029906892 4.2642267e-05 6.694831e-05 5.0883853e-05 1.1351769e-05 5.24077e-05
6.899819e-05 6.597863e-06 8.450326e-06 8.291887e-05 3.2194104e-05 1.9389121e-05 3.0389556e-05 5.728327e-05
3.3901935e-05 5.16204e-05 1.1395725e-05 2.510794e-05 1.591583e-05 3.4869576e-05 2.7139018e-05 3.1863103e-05
1.2808569e-05 9.057487e-06 5.884868e-05 3.2552394e-05 4.3828633e-05 5.746804e-06 7.279612e-05 5.50826e-06
2.0051477e-05 1.3815988e-05 9.0045105e-06 2.0530502e-05 2.1731597e-05 5.79163e-06 9.329991e-06 2.3187997e-05
1.6610838e-05 5.6667536e-06 1.24465105e-05 2.522033e-05 1.0697768e-05 1.515595e-05 1.017083e-05 1.608213e-05
1.2854623e-05 1.7965462e-05 1.5791396e-05 1.3988044e-05 1.0954998e-05 5.7338943e-06 1.5118542e-05 8.085482e-06
1.2288314e-05 7.0136075e-06 2.0853096e-05 2.9022494e-06 4.7834605e-05 3.2778316e-05 2.3987213e-05 5.1287752e-05
5.3867057e-05 1.370288e-05 2.3983504e-05 5.3887583e-05 4.0570754e-05 1.1547314e-05 2.9774299e-05 6.1212806e-05
2.434754e-05 3.4901437e-05 2.5572264e-05 3.870226e-05 2.8468337e-05 4.353822e-05 3.797872e-05 3.2671156e-05
2.6719637e-05 1.49662565e-05 3.5131365e-05 1.8565443e-05 2.9692179e-05 1.6602686e-05 5.360442e-05 7.4225636e-06
4.013588e-05 2.891428e-05 2.0546944e-05 4.6218083e-05 4.8451944e-05 1.1638186e-05 2.0201556e-05 4.909484e-05
3.651209e-05 1.0700862e-05 2.5336836e-05 5.52586e-05 2.0527821e-05 3.0646614e-05 2.3199294e-05 3.2730506e-05
2.5211211e-05 3.810078e-05 3.4730903e-05 2.8205888e-05 2.2590719e-05 1.3664867e-05 3.0926814e-05 1.6873288e-05
2.595492e-05 1.4892273e-05 4.3879125e-05 6.235795e-06 7.0789414e-05 4.642755e-05 4.4225755e-05 8.519008e-05
00000000: 30ef 5939 02b6 1939 7ff7 df38 8647 7939
00000010: 9bde 8239 4835 7238 a7d8 d838 084c 8239
00000020: e329 4539 f126 5e38 2304 0a39 3aa1 9539
00000030: 6b40 dd38 d9e0 2339 7c3f f638 1fa2 3339
00000040: 8685 0639 81b2 4b39 36c9 3839 d340 1939
00000050: 36ae f038 f8ee 8a38 1971 2839 c193 b038
00000060: d150 0b39 b3fd 9a38 e953 7339 3469 fc37
00000070: 882e 9635 f1bc d435 a8e2 c134 46e4 0936
00000080: 6b52 1836 ea12 ed34 c88a ff33 dbb1 2736
00000090: 2be6 c935 2ee1 ed31 7718 2034 aec2 d635
000000a0: a5f9 9233 5986 ed34 2102 6535 1a0b 0b34
000000b0: 7c6f 8335 436d d635 24b2 b535 5783 0434
000000c0: accf ac33 42ac 1135 4259 e935 07f6 8535
000000d0: 76de cf34 653a 0c35 0035 2535 6aec a134
000000e0: 90de 9c37 9f0f 5537 7252 2737 9992 b137
000000f0: 2e29 b437 a208 b536 4725 2337 4cd5 ae37
00000100: 00a4 8937 f1f3 9b36 d50b 5037 b5e8 d237
00000110: c89c 2537 b433 7937 cbee 3137 05de 8637
00000120: 392f 4337 9145 9137 3d2a 8137 76fc 6137
00000130: d076 3337 cd2c ca36 bd81 6837 6720 f436
00000140: b947 4a37 be0d f136 3fd7 ad37 1bd3 5036
00000150: 2bd3 7f39 e8ba 3339 79c0 0239 deef 9039
00000160: 646b 9639 af0d 9038 81e9 fc38 e7cd 9639
00000170: 9c4d 6639 7369 7338 7075 2139 4ea5 ae39
00000180: 628b ff38 0fac 4039 7830 1139 bf42 5439
00000190: 0e5b 1d39 26f3 7039 6127 5639 bedb 3139
000001a0: cdcc 0a39 f81b a038 e508 4539 f9ca cd38
000001b0: e84b 2139 ff90 b638 1df4 8e39 4465 1638
000001c0: b79c 7d39 b89b 2139 c835 2339 ee77 8e39
000001d0: 4d1c 8d39 fddc a438 5bc1 2d39 56e5 8339
000001e0: 6b62 6639 c2ba 9538 3309 4839 059e ae39
000001f0: 38b2 2139 c2b1 5239 32e2 1c39 0551 8539
00000200: 6164 2439 52bb 7339 060f 5d39 32e7 6139
00000210: ff27 4239 0085 bb38 9e81 3439 6461 b338
00000220: e3fc 3139 bc0f db38 5acc 9c39 c9da 3238
00000230: 9a66 8c38 1f6c 5538 7a73 3e37 57d0 5b38
00000240: 1fb3 9038 3663 dd36 e0c5 0d37 bbe4 ad38
00000250: 2808 0738 d2a5 a237 13ed fe37 7143 7038
00000260: ed31 0e38 fc82 5838 4430 3f37 e49e d237
00000270: fc82 8537 ec40 1238 99a8 e337 bfa4 0538
00000280: 63e4 5637 9cf5 1737 4ad4 7638 de88 0838
00000290: a3d4 3738 acd4 c036 1faa 9838 98d3 b836
000002a0: 3834 a837 37cb 6737 1412 1737 eb38 ac37
000002b0: 404c b637 b955 c236 0288 1c37 d883 c237
000002c0: 8157 8b37 0b25 be36 5bd1 5037 3f90 d337
000002d0: 907a 3337 4f46 7e37 62a3 2a37 1ce8 8637
000002e0: 2faa 5737 89b4 9637 c477 8437 31ae 6a37
000002f0: 5ccb 3737 c765 c036 a5a5 7d37 e1a6 0737
00000300: e829 4e37 6e56 eb36 afed ae37 44c4 4236
00000310: 04a2 4838 737b 0938 2638 c937 ce1d 5738
00000320: 50ef 6138 6ce5 6537 2f30 c937 5a05 6238
00000330: 842a 2a38 56bb 4137 d2c3 f937 605f 8038
00000340: f23d cc37 2263 1238 0584 d637 3c54 2238
00000350: 4acf ee37 cf9c 3638 574b 1f38 6308 0938
00000360: fc23 e037 9517 7b37 045a 1338 fcbc 9b37
00000370: 7813 f937 ff45 8b37 4fd5 6038 560f f936
00000380: 9357 2838 f28c f237 3a5c ac37 4ada 4138
00000390: e138 4b38 a141 4337 8376 a937 2feb 4d38
000003a0: 8f24 1938 da87 3337 718a d437 78c5 6738
000003b0: 2933 ac37 8d8a 0038 1b9c c237 1d48 0938
000003c0: aa7c d337 67ce 1f38 06ac 1138 af9b ec37
000003d0: 3381 bd37 2842 6537 6ab7 0138 1c8b 8d37
000003e0: c4b9 d937 d3d9 7937 da0a 3838 123d d136
000003f0: c774 9438 34bb 4238 0b7f 3938 13a8 b238

exp_avg f4 [45]
0.00078274857 -2.0264597e-05 -2.6553971e-05 -1.4173536e-05 0.000801241 -0.0018387188 0.0004007026 0.0004731934
0.0007742255 0.0005251865 0.0015106443 0.00022464867 0.0012813011 0.00078056526 -0.00041834934 -0.001245552
-0.00020986484 0.00042719892 0.00010709796 0.00127425 0.000938675 0.0010039954 0.0009997467 0.0007474994
-0.0006412863 0.0006452756 0.00029794828 -0.00013283585 -0.000118189026 0.0006455846 0.00044578026 -0.0009992591
0.00044787102 0.00041330105 0.0009238776 -0.00048887206 -0.0006793623 -0.0001388221 -4.5038178e-06 -0.00040981016
0.00051526853 0.00055886584 -0.0013999646 -4.7107693e-05 -0.00026337657
00000000: 5e31 4d3a e4fd a9b7 38c0 deb7 e0ca 6db7
00000010: 600a 523a 2a01 f1ba 6415 d239 f116 f839
00000020: 65f5 4a3a abac 093a d000 c63a ab8f 6b39
00000030: 55f1 a73a d99e 4c3a e655 dbb9 ca41 a3ba
00000040: 2a0f 5cb9 abf9 df39 c899 e038 bc04 a73a
00000050: 6a11 763a 7f98 833a ef09 833a d6f3 433a
00000060: ff1b 28ba b627 293a f135 9c39 da49 0bb9
00000070: 40dc f7b8 733c 293a 9db7 e939 92f9 82ba
00000080: 3bd0 ea39 54b0 d839 6030 723a a627 00ba
00000090: 3b17 32ba c690 11b9 801f 97b6 cadb d6b9
000000a0: 1613 073a da80 123a 047f b7ba 8095 45b8
000000b0: ce15 8ab9

exp_avg_sq f4 [45]
0.00042764936 3.9168244e-06 3.68384e-05 0.0004957994 0.00047903202 0.00013428394 3.765379e-05 9.0831054e-05
8.239855e-05 0.0001589974 0.0003912203 8.2237246e-05 0.000105103354 1.1039808e-05 6.088072e-05 8.020681e-05
0.00013313758 0.00028273033 0.0001235249 0.0005343586 0.00011624195 0.00014640545 1.3540698e-05 0.00014702362
6.210899e-05 0.0004922328 0.000105402905 0.0010049837 0.000119664364 6.968281e-05 0.00014575888 7.155274e-05
0.0007115313 0.0005042978 4.5874967e-05 5.7021258e-05 5.009566e-05 8.4011575e-05 1.8713108e-05 3.3458633e-05
6.406772e-05 2.3846069e-05 0.00052956847 7.852884e-05 0.00074021606
00000000: 2036 e039 446d 8336 ee82 1a38 89f8 013a
00000010: 9726 fb39 92ce 0c39 73ee 1d38 8d7c be38
00000020: 62cd ac38 8ab8 2639 b31c cd39 c976 ac38
00000030: ef6a dc38 9d37 3937 2d5a 7f38 b434 a838
00000040: d99a 0b39 6c3b 9439 7686 0139 3314 0c3a
00000050: ecc6 f338 6a84 1939 db2c 6337 5a2a 1a39
00000060: 8340 8238 2f09 013a c10b dd38 a8b9 833a
00000070: 51f4 fa38 ac22 9238 dad6 1839 960e 9638
00000080: 0f86 3a3a da32 043a df69 4038 1c2a 6f38
00000090: ce1d 5238 5f2f b038 18fa 9c37 ef55 0c38
000000a0: 185c 8638 0b09 c837 bdd2 0a3a daaf a438
000000b0: 0f0b 423a

exp_avg f4 [3, 45]
-1.4408783e-05 -0.0015881138 -0.00079650345 -0.00057515927 -5.8858073e-05 -0.0027386267 -0.00021218718 9.6994074e-05
-0.00014683501 0.0007625958 0.00077206804 0.0015279425 -0.00034370183 -0.0033356752 5.8631995e-05 0.00020675978
0.0014688163 -0.00069890206 0.0036016582 0.0009982893 0.00048114953 0.00222988 -8.217031e-05 -0.00027426344
-0.0013747549 -0.0004834092 -0.0004785359 -0.0017899062 -0.0022118986 0.0043754326 0.00065880164 -0.0022726646
0.0014488389 -0.0025285531 0.001397301 -0.0008958507 -0.00085981796 -0.0007550572 -0.0002746984 -0.0006609025
-0.0010115869 -0.00077307737 -0.00081945467 0.0014633212 0.0011987068 -0.003210036 0.002238876 -0.0003114679
-0.0017739616 0.0005336891 0.0022111018 -0.0001534491 -0.00077992055 -0.0028831896 0.00039999915 0.0006556674
-0.0010733919 0.0005310949 0.0028780887 -0.0013437974 -0.0003889535 0.000648019 -0.0019607781 -0.0047851517
-0.0007343111 0.0012415301 -0.0033884682 0.0019881693 0.00016271269 -0.00064119464 -0.00075163913 -0.0028674472
-0.002221273 0.0018028866 -0.0042309384 0.0011766229 -0.0017265612 -0.0047613364 -0.00029133132 -0.002318802
-0.00029745806 -0.0008252469 0.00068990095 -4.1750078e-05 -0.00041287267 -0.001671105 -0.0015656105 -0.005008227
0.0018891927 -0.00049607205 0.0026362608 -7.234601e-06 0.0011174189 0.001715253 -0.00015325064 0.0040950864
-6.7542845e-05 0.0004485742 0.000813866 -0.00087174645 -0.001333405 -6.17333e-05 0.0009996081 0.002674347
0.0010603785 -0.0031126859 -0.0024949382 0.0031309072 -0.004583091 0.0012689197 0.0002987674 -0.0024053676
0.0010748446 0.000645755 0.0017868992 0.00018536748 0.0029590053 0.0016950625 0.00066282286 -0.004811438
-0.0022144893 0.001558963 -0.0010611711 0.003503873 0.00022352184 -0.00028185005 0.00049324206 0.0009833436
0.0009309497 3.413594e-05 0.0026068517 0.0027945824 -0.00045051612 -0.0030743482 -0.002674258
00000000: 40bd 71b7 4228 d0ba 71cc 50ba 49c6 16ba
00000010: 60de 76b8 887a 33bb 907e 5eb9 4c69 cb38
00000020: b9f7 19b9 f0e8 473a 9c64 4a3a 3e45 c83a
00000030: e132 b4b9 589b 5abb a0eb 7538 a8cd 5839
00000040: 4c85 c03a 8636 37ba cc09 6c3b 08d9 823a
00000050: cc42 fc39 2e23 123b d952 acb8 04cb 8fb9
00000060: 1f31 b4ba 1672 fdb9 00e4 fab9 499b eaba
00000070: 80f5 10bb ca5f 8f3b 6eb3 2c3a fcf0 14bb
00000080: f7e6 bd3a 15b6 25bb a425 b73a 86d7 6aba
00000090: 6865 61ba 08ef 45ba 6505 90b9 6a40 2dba
000000a0: 3997 84ba 58a8 4aba acd0 56ba e9cc bf3a
000000b0: ed1d 9d3a 785f 52bb 1bba 123b 844c a3b9
000000c0: 4684 e8ba 45e7 0b3a 22e8 103b 2ee7 20b9
000000d0: 9573 4cba e5f3 3cbb fab6 d139 18e1 2b3a
000000e0: 0eb1 8cba 2d39 0b3a 519e 3c3b 5c22 b0ba
000000f0: 74ec cbb9 d2df 293a 6680 00bb c3cc 9cbb
00000100: c97e 40ba d6ba a23a 1011 5ebb f24b 023b
00000110: db9d 2a39 d815 28ba a609 45ba c8eb 3bbb
00000120: c792 11bb d64e ec3a afa3 8abb ea38 9a3a
00000130: c84d e2ba fc04 9cbb d4bd 98b9 0bf7 17bb
00000140: 25f4 9bb9 6255 58ba 78da 343a ce1c 2fb8
00000150: d576 d8b9 fb08 dbba 2c35 cdba 0e1c a4bb
00000160: ca9e f73a d50a 02ba 1ec5 2c3b c0c0 f2b6
00000170: 5b76 923a 57d2 e03a e8b1 20b9 1330 863b
00000180: caa5 8db8 9c2e eb39 9f59 553a ea85 64ba
00000190: a6c5 aeba d076 81b8 4805 833a 1944 2f3b
000001a0: 66fc 8a3a 34fe 4bbb 1e82 23bb e82f 4d3b
000001b0: c12d 96bb e151 a63a e2a3 9c39 5fa3 1dbb
000001c0: cde1 8c3a e247 293a 6336 ea3a 345f 4239
000001d0: dfeb 413b dc2c de3a 4ac1 2d3a 44a9 9dbb
000001e0: f720 11bb 1e56 cc3a fe16 8bba 3ca1 653b
000001f0: 3061 6a39 46c5 93b9 ea4c 013a 89e3 803a
00000200: fa0a 743a 302d 0f38 b7d7 2a3b 5025 373b
00000210: 4033 ecb9 017b 49bb 9b42 2fbb

exp_avg_sq f4 [3, 45]
0.0011751112 0.0016764269 0.00012583184 0.0002707386 0.00019360907 0.00076620665 2.8277243e-05 5.5887733e-05
0.000926973 0.0002542771 0.00031129425 2.0840454e-05 1.8937018e-05 0.0016251063 0.0004682626 0.00014693609
3.852478e-05 0.0004235162 0.002056 0.00034530694 0.00024431382 0.0013958304 0.00093799946 3.5621648e-05
0.00020214696 0.00019203455 0.001317167 0.00017418888 5.1260155e-05 0.002020036 0.00024002377 0.0009095847
0.0020507397 0.00032196016 0.00043413776 4.7062487e-05 0.0002825197 0.00019180433 2.6601349e-05 0.00013205523
0.00012466068 8.251746e-05 0.0040606093 0.00013670619 0.0003745122 0.0002547737 0.00032387424 2.7146902e-05
5.77885e-05 4.317505e-05 0.0001586312 6.4161563e-06 1.3706601e-05 0.00019532573 4.9728387e-05 6.416171e-05
5.357772e-06 4.4575963e-06 0.00033527488 9.930197e-05 3.310166e-05 8.685126e-06 8.867893e-05 0.00042935598
7.305068e-05 5.0170383e-05 0.0002963533 0.00019565468 8.618432e-06 4.004433e-05 4.1163195e-05 0.0002769126
3.8332673e-05 1.2690819e-05 0.00041685687 5.0148414e-05 0.00018502468 0.00043189814 7.030987e-05 8.8754874e-05
1.1306161e-05 5.7776673e-05 4.162162e-05 6.4416286e-06 2.9036437e-05 2.7380682e-05 2.0576294e-05 0.00082557683
3.4420034e-05 8.135003e-05 0.0017865527 0.0024274809 0.0001955333 0.0003983892 0.0002845492 0.0012232604
3.800332e-05 9.043018e-05 0.001418589 0.00036742262 0.00045706113 3.0341314e-05 2.6756714e-05 0.002597611
0.00072481326 0.00021838088 5.3146596e-05 0.00062839326 0.0031474556 0.0005332586 0.0003618992 0.0021293499
0.0014142286 5.4901568e-05 0.00029815262 0.0002771719 0.0020110665 0.00025610026 7.943727e-05 0.003059677
0.00035584005 0.0013513946 0.0031703215 0.00046149743 0.0006497029 6.916787e-05 0.00042437448 0.00027764024
3.744016e-05 0.00019912893 0.00018060737 0.00013019722 0.0061279903 0.0002266724 0.000571347
00000000: 3006 9a3a 8dbb db3a baf1 0339 ebf1 8d39
00000010: 8a03 4b39 42db 483a eb34 ed37 ff68 6a38
00000020: 1b00 733a 7f50 8539 3535 a339 89d2 ae37
00000030: f0da 9e37 8501 d53a 2481 f539 db12 1a39
00000040: ab95 2138 620b de39 f5bd 063b 500a b539
00000050: 3f17 8039 4cf4 b63a 14e4 753a 7468 1538
00000060: 69f7 5339 e25c 4939 caa4 ac3a 79a6 3639
00000070: 2c00 5738 9562 043b e4ae 7b39 3271 6e3a
00000080: b465 063b c3cc a839 fc9c e339 f664 4538
00000090: 271f 9439 151f 4939 f625 df37 4e78 0a39
000000a0: 59b7 0239 390d ad38 dc0e 853b ca58 0f39
000000b0: 2d5a c439 2693 8539 aacd a939 87b9 e337
000000c0: ee61 7238 db16 3538 3d56 2639 5d4a d736
000000d0: 67f5 6537 5ad0 4c39 7393 5038 8e8e 8638
000000e0: e9c6 b336 7692 9536 d5c7 af39 5740 d038
000000f0: a3d6 0a38 55b6 1137 23f9 b938 2f1b e139
00000100: c932 9938 0a6e 5238 de5f 9b39 a728 4d39
00000110: e297 1037 46f5 2738 a5a6 2c38 942e 9139
00000120: 65c7 2038 a7ea 5437 958d da39 7356 5238
00000130: 2f03 4239 6370 e239 5373 9338 e921 ba38
00000140: 97af 3d37 3b55 7238 e092 2e38 2b25 d836
00000150: 4693 f337 91af e537 419b ac37 866b 583a
00000160: 3b5e 1038 779a aa38 c32a ea3a 5f16 1f3b
00000170: 1208 4d39 e5de d039 8c2f 9539 cf55 a03a
00000180: c165 1f38 55a5 bd38 f3ef b93a a1a2 c039
00000190: b5a1 ef39 7a85 fe37 9b73 e037 ae3c 2a3b
000001a0: 6501 3e3a 2cfd 6439 b9e9 5e38 c2ba 243a
000001b0: 8b45 4e3b 61ca 0b3a 4abd bd39 908c 0b3b
000001c0: a35d b93a 1c46 6638 5e51 9c39 6251 9139
000001d0: 19cc 033b 3245 8639 8f97 a638 dd84 483b
000001e0: 0b90 ba39 4721 b13a 2bc5 4f3b 23f5 f139
000001f0: d350 2a3a 380e 9138 947e de39 3e90 9139
00000200: 1109 1d38 44cd 5039 6c61 3d39 8d85 0839
00000210: 4fcd c83b e9ae 6d39 73c6 153a

exp_avg f4 [3]
0.0017166423 -0.0032021264 -0.00016631518
00000000: f500 e13a c4da 51bb e464 2eb9

exp_avg_sq f4 [3]
0.0020988553 0.0004364004 0.0031740759
00000000: f38c 093b accc e439 2804 503b

exp_avg f4 [3, 45]
-0.0039550164 0.0043912693 -0.0016327708 -0.0010424192 0.0002810563 0.00058665033 -0.0016321298 -0.0010456571
-0.004510647 0.0005252721 0.001187688 -0.00083598506 -0.00019512874 0.0023854186 -0.0024589358 -3.4146185e-05
0.00044324432 -0.0017438489 -0.0017160763 -0.0020475588 -0.00012502854 -0.002302252 0.0019407761 -2.8010109e-06
-0.0018987427 -0.0012960874 -0.0030764386 -0.00080869964 0.0013548554 -0.0033135656 0.0019267473 -0.0034050941
-0.0028245468 -0.0018461403 -0.0024065175 -0.000644375 0.00086464465 -0.00049210235 0.0006279379 -5.164271e-05
-0.0015572719 -0.001956008 -0.003986983 0.0015661973 -0.00038829073 -0.00027880087 0.0008461605 -0.00019149132
0.0007861051 0.0005661489 0.00043625294 -0.0005920701 -0.00021451706 -4.63569e-05 0.000546161 -2.0204694e-05
-0.0001905417 0.00042666344 0.0006285233 -0.0006482062 -0.00087811204 0.0004122445 -0.00042373282 -0.00032571235
0.001236676 0.0009534958 0.00024176881 0.00096922176 0.0009604069 -0.0014318174 -0.0004360545 -0.00048162302
-0.00022132914 -0.00073634106 0.00039921034 -0.00019687327 -0.001803361 -0.0010044696 -0.00040041714 0.0007407589
-0.0011390639 -0.00030682463 -0.00025121757 -7.096358e-05 -0.0014548821 -0.0008344457 0.0002517641 -0.0028654481
0.00043098687 0.00017999127 -0.0009492442 0.0008236312 -0.0011135191 -0.00011683506 0.0008599068 0.0004951721
0.00029112777 0.00040613272 -0.00038351177 0.00059297186 0.00080047094 0.0002762994 0.0006097136 0.001306177
-0.0011820303 -0.0014814727 -0.0002815214 -0.00085756625 -0.0022995188 -0.0005034199 0.0009835812 -0.00089688215
0.0021654237 0.00033169254 0.00071090274 -0.00033265667 -0.00095833297 -0.0005061555 -0.0010897627 -0.0013366109
7.52043e-06 -0.0015365075 -0.001710526 -0.0013218239 5.3094118e-05 -0.00018121919 -0.0012394161 0.00095601607
0.00040576383 -0.000721322 -0.00012351526 0.00080090266 -0.002674247 0.0008412959 -0.0015597222
00000000: 1599 81bb a3e4 8f3b b202 d6ba c9a1 88ba
00000010: bd5a 9339 70c9 193a 30ed d5ba 6e0e 89ba
00000020: 0dce 93bb 6ab2 093a 32ac 9b3a 0226 5bba
00000030: 799b 4cb9 af54 1c3b 1926 21bb 3038 0fb8
00000040: 3f63 e839 dc91 e4ba f7ed e0ba 5630 06bb
00000050: 181a 03b9 61e1 16bb a461 fe3a 00f9 3bb6
00000060: 3cdf f8ba 7ae1 a9ba 139e 49bb eafe 53ba
00000070: 6795 b13a 6828 59bb e98a fc3a 0028 5fbb
00000080: 081c 39bb 30fa f1ba aab6 1dbb 46eb 28ba
00000090: 52a9 623a 6e00 01ba 339c 243a f09a 58b8
000000a0: 601d ccba 5e30 00bb 3da5 82bb dc48 cd3a
000000b0: 8093 cbb9 052c 92b9 dfd0 5d3a 0fcb 48b9
000000c0: 9f12 4e3a 9c69 143a e1b8 e439 2735 1bba
000000d0: fcef 60b9 586f 42b8 3f2c 0f3a 407d a9b7
000000e0: 26cc 47b9 ccb1 df39 7cc3 243a 62ec 29ba
000000f0: 1a31 66ba 8522 d839 7528 deb9 5fc4 aab9
00000100: f617 a23a 05f4 793a 5283 7d39 5f13 7e3a
00000110: d1c3 7b3a d2ab bbba 3f9e e4b9 5982 fcb9
00000120: 9714 68b9 0307 41ba 1b4d d139 c46f 4eb9
00000130: c15e ecba 68a8 83ba 14ef d1b9 7d2f 423a
00000140: a44c 95ba 4edd a0b9 dab5 83b9 48d2 94b8
00000150: beb1 beba b4be 5aba 35ff 8339 3eca 3bbb
00000160: 14f6 e139 0abc 3c39 b3d6 78ba f4e8 573a
00000170: 80f3 91ba 5805 f5b8 5e6b 613a 70ce 013a
00000180: 82a2 9839 36ee d439 1412 c9b9 ab71 1b3a
00000190: b2d6 513a 47dc 9039 30d5 1f3a 0734 ab3a
000001a0: 5bee 9aba fa2d c2ba 2a99 93b9 4cce 60ba
000001b0: 86b3 16bb f0f7 03ba 82eb 803a be1c 6bba
000001c0: c8e9 0d3b 05e7 ad39 e05b 3a3a 6c68 aeb9
000001d0: a338 7bba 85af 04ba 5ed6 8eba 3831 afba
000001e0: 0058 fc36 a364 c9ba ba33 e0ba 0d41 adba
000001f0: 60b1 5e38 a805 3eb9 e773 a2ba 279d 7a3a
00000200: b3bc d439 1a17 3dba e083 01b9 abf3 513a
00000210: 6b42 2fbb 6a8a 5c3a 986f ccba

exp_avg_sq f4 [3, 45]
0.0002195621 0.00026531186 2.9536068e-05 5.4962336e-05 5.1458366e-05 0.00013419821 1.0754813e-05 1.5962232e-05
0.0001707097 4.4813427e-05 6.2610554e-05 8.488507e-06 6.9367898e-06 0.0002771207 8.8575885e-05 3.9501803e-05
1.1385787e-05 7.75492e-05 0.00036832373 6.6291526e-05 4.8539714e-05 0.00025131664 0.00016302112 1.3653783e-05
3.9609484e-05 4.1868097e-05 0.0002350711 3.6906342e-05 2.007806e-05 0.00035780593 4.8495596e-05 0.00016851192
0.00036226897 6.697417e-05 7.77141e-05 1.7540327e-05 5.3718682e-05 4.7655136e-05 1.0978332e-05 3.506008e-05
2.8582745e-05 2.480257e-05 0.0006911821 4.1558204e-05 8.078548e-05 0.00014498184 0.00018105005 1.9912346e-05
3.671127e-05 3.1605538e-05 8.444731e-05 7.49039e-06 1.0213511e-05 0.00011181638 3.1698226e-05 4.345061e-05
5.3771287e-06 4.964778e-06 0.0001818343 5.619994e-05 2.4579691e-05 8.2400575e-06 5.3838656e-05 0.00023017026
4.7804777e-05 3.259204e-05 0.00016026988 0.000105281266 8.468457e-06 2.7084683e-05 2.8478376e-05 0.00015530462
2.3008179e-05 1.6221877e-05 0.00022904194 3.3554195e-05 0.00011431249 0.00023082251 4.548473e-05 5.4409044e-05
1.33103e-05 3.749951e-05 2.9627505e-05 6.8330796e-06 2.3758063e-05 1.9007935e-05 1.5051841e-05 0.0004511169
2.662363e-05 4.9805327e-05 0.00021603907 0.00027477733 2.9096875e-05 5.9422102e-05 5.3902528e-05 0.00012527595
1.1083368e-05 1.5189461e-05 0.00016757057 4.941792e-05 7.344218e-05 9.465876e-06 7.4788727e-06 0.0002653876
8.6800785e-05 3.8535905e-05 1.3796505e-05 8.620511e-05 0.00035580742 6.560569e-05 4.9565646e-05 0.00023940646
0.00016912051 1.2566367e-05 4.0022143e-05 4.9796097e-05 0.00022853333 4.242324e-05 1.859866e-05 0.00033568434
5.6921654e-05 0.00017200195 0.00034274245 8.110021e-05 7.49966e-05 1.9090023e-05 5.6208057e-05 4.6879115e-05
1.1796018e-05 3.4736127e-05 2.9964753e-05 2.2681654e-05 0.0006867655 4.922565e-05 8.195422e-05
00000000: 413a 6639 8e19 8b39 39c4 f737 5c87 6638
00000010: 00d5 5738 8fb7 0c39 926f 3437 a2e6 8537
00000020: 8900 3339 0df6 3b38 c94d 8338 dc69 0e37
00000030: 92c2 e836 834a 9139 d1c1 b938 bdae 2538
00000040: 9505 3f37 e9a1 a238 931b c139 fe05 8b38
00000050: 1f97 4b38 26c3 8339 a6f0 2a39 8d12 6537
00000060: 5c22 2638 879b 2f38 6b7d 7639 e2cb 1a38
00000070: 4e6d a837 e697 bb39 c067 4b38 93b2 3039
00000080: ebee bd39 7c74 8c38 71fa a238 9123 9337
00000090: ff4f 6138 50e1 4738 942f 3837 790d 1338
000000a0: fac4 ef37 1d0f d037 7230 353a c84e 2e38
000000b0: 606b a938 4406 1839 41d8 3d39 7009 a737
000000c0: 6dfa 1938 3090 0438 4e19 b138 f655 fb36
000000d0: b25a 2b37 f67e ea38 b6f3 0438 bd3e 3638
000000e0: 2f6d b436 1e97 a636 c6aa 3e39 3ab8 6b38
000000f0: 7c30 ce37 c73e 0a37 d1d0 6138 dc59 7139
00000100: fd81 4838 70b3 0838 1e0e 2839 73ca dc38
00000110: bf13 0e37 ea33 e337 d9e4 ee37 44d9 2239
00000120: b001 c137 3714 8837 fa2a 7039 8bbc 0c38
00000130: 0dbb ef38 f208 7239 dbc6 3e38 4435 6438
00000140: 4e4f 5f37 cb48 1d38 9588 f837 b547 e536
00000150: 0d4c c737 3b73 9f37 2a87 7c37 e383 ec39
00000160: cf55 df37 10e6 5038 8c88 6239 fd0f 9039
00000170: 1015 f437 ff3b 7938 6615 6238 825c 0339
00000180: b4f2 3937 3dd6 7e37 e2b5 2f39 1646 4f38
00000190: f804 9a38 a1cf 1e37 07f3 fa36 b923 8b39
000001a0: d108 b638 9da1 2138 8a77 6737 04c9 b438
000001b0: aa8b ba39 c995 8938 b5e4 4f38 2f09 7b39
000001c0: f155 3139 23d4 5237 73dd 2738 27dc 5038
000001d0: 73a2 6f39 9bef 3138 5104 9c37 cafe af39
000001e0: 29bf 6e38 6c5b 3439 1db2 b339 5814 aa38
000001f0: 7e47 9d38 8323 a037 f1c0 6b38 11a0 4438
00000200: 83e7 4537 a2b1 1138 d15c fb37 7b44 be37
00000210: 0d08 343a a477 4e38 d6de ab38

exp_avg f4 [3]
-0.0039805467 0.00089045294 -0.0021076505
00000000: 3f6f 82bb 496d 693a 8220 0abb

exp_avg_sq f4 [3]
0.00036297186 0.00024353716 0.00037270813
00000000: 424d be39 025e 7f39 0a68 c339

exp_avg f4 [28]
4.4346107e-05 -0.0002618626 -1.3733399e-05 -0.00014575393 -7.637452e-05 4.4461303e-05 5.7175857e-05 -0.00040998316
-0.00019491422 9.493454e-05 0.00015667055 -0.0002267501 0.00021185298 0.00013293067 -0.00011316388 0.00018268535
-4.2719446e-05 -0.00015651663 -0.0001514004 0.00016848418 8.497687e-05 4.188052e-05 -0.0001841268 -0.00016177844
9.410812e-05 -2.7590828e-05 0.00016474952 0.00015452778
00000000: 4500 3a38 9a4a 89b9 8068 66b7 86d5 18b9
00000010: 422b a0b8 f67b 3a38 1cd0 6f38 02f3 d6b9
00000020: e361 4cb9 9817 c738 ee47 2439 c4c3 6db9
00000030: da24 5e39 4e63 0b39 6552 edb8 3a8f 3f39
00000040: a82d 33b8 9d1e 24b9 3cc1 1eb9 21ab 3039
00000050: 9c35 b238 dea8 2f38 2912 41b9 12a3 29b9
00000060: ea5b c538 da72 e7b7 9dc0 2c39 bc08 2239

exp_avg_sq f4 [28]
2.02922e-06 6.2538247e-06 6.6430744e-06 6.0802577e-06 2.9526636e-06 6.0395555e-06 8.722855e-06 4.2789634e-06
4.30201e-06 6.356534e-06 6.267522e-06 4.5715215e-06 7.2229836e-06 4.1576554e-06 6.30384e-06 9.121006e-06
9.126052e-06 3.4572324e-06 4.687294e-06 7.1373893e-06 8.865457e-06 4.6543482e-06 3.86993e-06 7.0267647e-06
3.5730839e-06 8.523448e-06 6.2856893e-06 1.0469935e-05
00000000: bc2d 0836 f2d7 d136 93e7 de36 0405 cc36
00000010: 6026 4636 63a7 ca36 6058 1237 0494 8f36
00000020: fc59 9036 364a d536 9b4d d236 1265 9936
00000030: f55c f236 fd81 8b36 9385 d336 6c06 1937
00000040: 181c 1937 cd02 6836 8d47 9d36 b57d ef36
00000050: d9bc 1437 8c2c 9c36 72da 8136 73c7 eb36
00000060: 1dc9 6f36 eeff 0e37 a9e9 d236 07a8 2f37
