logs/my_logs/version_13/checkpoints/epoch=1093-step=1094.ckpt (torch, 41380 bytes, 33 tensors)

encoder.dense1.weight f4 [45, 28]
000000 99 d8 9d 3d 72 7b 97 bc c9 92 f2 3d 0f 3c 85 3e
       0.07707328 -0.01849148 0.11844403 0.26022384
000010 bd 13 5f 3e 50 a9 db 3d d4 2d e3 3d 54 85 34 bd
       0.21784873 0.10725653 0.110927254 -0.044072464
000020 55 65 c1 3d 5a c0 13 3e 50 64 3e bd 66 2e 88 3c
       0.09443156 0.14428845 -0.046482384 0.016623687
000030 a5 ab ca 3d ae 7d 85 3d 35 88 a1 3d 9d 9c c9 3d
       0.0989602 0.06518112 0.078873076 0.09844325
000040 2a 68 27 3e cc 74 3a 3e e2 6f 02 3e c7 e0 2a 3e
       0.16348329 0.18208617 0.12737992 0.16687308
000050 db 11 2b 3e 47 a1 ea 3c 13 72 dd bc b7 55 3b bc
       0.1670603 0.028641356 -0.027031934 -0.01143401
000060 18 31 b4 3d 13 9b 5e 3e 4e b8 07 3e a2 2d 63 3e
       0.087984264 0.21738844 0.132539 0.22185376
000070 e5 ff 8d 3e ad 5e 8e 3e da 09 51 3d fa ae fe 3d
       0.27734295 0.27806607 0.051034786 0.12435718
000080 a4 40 13 3e 33 f6 a2 3e 04 70 47 3d 74 bf cf 3d
       0.14380127 0.3182846 0.04869081 0.10143939
000090 14 2c a9 3d f7 2c d7 bd 96 a0 b4 bd 20 42 bd 3d
       0.0826036 -0.10506623 -0.08819692 0.09241128
0000a0 7f d2 9c 3d 0b 0d 23 bd 20 5f 4a 3e 25 fd 34 bd
       0.076573364 -0.03980736 0.1976285 -0.04418673
0000b0 50 07 66 3e bf e7 b6 3c 46 8d f1 3d e6 a2 ba bc
       0.22463727 0.022327302 0.11794524 -0.022782754
0000c0 15 2b ab 3d 4f e0 82 bb 41 d8 83 3d 05 70 4d 3e
       0.083578266 -0.003994025 0.064377315 0.20062263
0000d0 7e 71 a9 3c 4d fa 69 3e 73 f8 5d 3d 3d b4 ad bd
       0.020684 0.22849388 0.054192018 -0.08481643
0000e0 71 e7 27 3e 5d e9 45 bd ab c1 d9 3c a2 26 51 bd
       0.16396882 -0.048318256 0.026581606 -0.051062234
0000f0 dd c8 cb bd 77 43 2f 3d a1 d0 26 3e 5b 4c 0b be
       -0.09950421 0.04278895 0.16290523 -0.13603346
000100 c8 d2 2e be c4 39 8a 3e 07 f0 31 3e 32 ba 72 be
       -0.17072594 0.26997197 0.1737672 -0.2370384
000110 8e b1 4c 3e 4e 61 03 3e 17 51 42 bd 4a 4f 82 3d
       0.19989607 0.12830088 -0.047440615 0.063627794
000120 be f4 68 bc ee 4b 9c bd 95 ed 28 be 16 4b aa 3d
       -0.014218507 -0.0763167 -0.1649688 0.08315103
000130 01 c2 35 3e 39 de 43 3d 08 6c 12 bd 87 35 12 3d
       0.17749788 0.04781935 -0.035747558 0.03569558
000140 19 c4 5d 3d aa 18 05 3d 1a b5 12 3d 51 3e 86 3d
       0.05414209 0.032494225 0.035817243 0.06554855
000150 b1 8c 7a bd 1c b6 da 3c ff 20 92 bd 7c 18 15 be
       -0.06116933 0.026698165 -0.071352 -0.14560121
000160 06 4f 9e 3c 2e 5c 5d be a2 a5 53 bd df bd f6 bd
       0.01932479 -0.21617195 -0.05167163 -0.12047934
000170 05 fe 1f be 39 ec 94 3c ad 7b c1 3d 3d 23 67 bd
       -0.15624245 0.018179046 0.094474174 -0.05643009
000180 f4 2e 4b bc 4e e8 ba 3d 79 4f 5a be 35 ab 00 be
       -0.012401331 0.0912634 -0.21319379 -0.1256531
000190 9c a9 49 be bf 23 56 bd c8 a1 bd bb 01 83 3e bd
       -0.19693607 -0.052280184 -0.005787108 -0.046511654
0001a0 dc a0 d1 bd 9a ec 45 be 57 4b c2 bd c5 51 27 3e
       -0.102357596 -0.19328538 -0.09487026 0.16339786
0001b0 d5 29 d0 3d 86 26 52 be 79 95 28 bd 37 68 25 be
       0.10164229 -0.20522508 -0.041158173 -0.16153036
0001c0 e4 7b cb bd 85 eb f9 bc d9 2f 02 be af 73 8d bd
       -0.0993574 -0.030507812 -0.12713565 -0.069068305
0001d0 86 52 39 be ee 44 87 bd 50 12 05 3e bf cd b2 3d
       -0.18097886 -0.06604944 0.12995267 0.08730649
0001e0 f7 6b c2 3d 80 7c d6 bc 5c 4a b5 bd ab a9 0a 3e
       0.09493249 -0.026182413 -0.088520736 0.13541286
0001f0 bd d9 7c bd a7 8e 01 3d 36 72 53 3d c9 2f 40 3b
       -0.06173109 0.031630185 0.051622592 0.0029325357
000200 d8 ad af 3d 72 0f 03 3d 26 da 8f bd cf 9d ab bd
       0.0857808 0.03199715 -0.070240304 -0.08379709
000210 79 bd 20 bd b9 a9 d9 3d b5 c9 01 3e 42 a9 03 be
       -0.039243195 0.10628075 0.12674601 -0.12857535
000220 5d 89 37 3d 97 a4 38 be a1 6a 7b 3d 21 be 98 bd
       0.044808734 -0.18031536 0.061380986 -0.07458139
000230 e1 68 23 3d 9e 4f 19 3e 15 33 e5 bc 9e c8 61 bd
       0.039894942 0.14971778 -0.02797846 -0.055122964
000240 ee dc 9d 3d aa ff a2 bd 89 22 ea bd 02 f3 64 bd
       0.077081546 -0.0795892 -0.11432368 -0.055895813
000250 18 c2 94 bd ca 33 8d bd 4f 89 2d bb 83 3c fe 3d
       -0.07263583 -0.068946436 -0.0026479547 0.124138854
000260 f9 9f c2 bc 8d 91 0f be a7 9a eb 3d a7 9c da 3c
       -0.023757922 -0.14020367 0.11504107 0.026686026
000270 b0 ab 41 3e 6d da 3c 3e 06 5f 98 3d 8e e5 bf 3c
       0.1891315 0.18442698 0.07439999 0.02342489
000280 6a f0 ab 3d fe 7d 0a 3e 2e da 15 3e 66 17 20 be
       0.08395465 0.13524625 0.1463401 -0.15633926
000290 15 23 cf bd de ac d8 b9 cf fa d1 3d fa 66 8a bd
       -0.10114113 -0.00041327527 0.10252916 -0.067579225
0002a0 13 c3 4f be 09 c3 0f 3d 64 d3 da 3a 96 18 0f bd
       -0.20289259 0.03509811 0.0016695079 -0.034935556
0002b0 8d 86 43 3d db 28 2f 3e 05 72 91 bd 79 22 fd bc
       0.04773574 0.17105429 -0.071018256 -0.030900227
0002c0 60 56 90 3c b3 04 e2 bd 28 16 89 be fa 62 1f be
       0.017619312 -0.110360526 -0.26774716 -0.155651
0002d0 2c 0e 22 be d4 dd 30 be 47 09 e2 3d 0e d5 44 be
       -0.15825719 -0.1727212 0.11036926 -0.19221899
0002e0 8c 16 87 3d 71 f5 f6 bc 94 37 ec 3d ee da 17 be
       0.06596097 -0.030146332 0.11534038 -0.14829609
0002f0 70 0e 84 bc 33 ba 0a 3e 74 36 4d bd b9 79 a0 bb
       -0.016120166 0.13547592 -0.05010076 -0.004897323
000300 2e 8e e2 bd c1 60 e0 3d cb b0 25 be d3 a0 a2 3d
       -0.11062275 0.10955954 -0.16180722 0.07940831
000310 61 3a 7e bd 1d 9e 93 bd fd 67 af bc 5b de 5e bd
       -0.062067393 -0.07207892 -0.02141189 -0.054411273
000320 14 07 7d bd ea 24 09 be ea cf 6f 3c 7c 14 db bd
       -0.06177433 -0.13392988 0.014636973 -0.106972665
000330 da d6 10 3c 73 55 1a be 42 ab 1d be 70 c2 9c 3d
       0.008840287 -0.15071659 -0.15397361 0.076542735
000340 00 01 93 bd 8e f5 0a be 2f 50 85 be 9d 65 46 bd
       -0.07177925 -0.13570234 -0.26037738 -0.04843675
000350 8a d9 66 3b cf c2 8f bd 23 e7 43 3d 6d 5f fd bd
       0.0035224878 -0.07019579 0.04782785 -0.12371717
000360 aa 3e 59 bd 7e e5 19 be d3 cb 1b be 1d 65 e1 bd
       -0.053038277 -0.1502895 -0.15214472 -0.11005614
000370 c9 54 09 be 63 f0 62 be af e5 f7 bd 2c 0a 88 bd
       -0.13411249 -0.22162013 -0.121043555 -0.06642565
000380 70 3a e8 3d f0 d7 fa 3d c1 24 b8 3d 51 6b 4b bd
       0.11339271 0.12248218 0.08991385 -0.04966289
000390 84 69 01 3d d2 93 37 3e e0 8a 60 38 28 dc 36 be
       0.03159477 0.17927483 5.35351e-05 -0.1785742
0003a0 61 fb 52 be 0c 3e 06 3e 11 b3 c4 3c c8 f6 3d bd
       -0.20603706 0.13109607 0.024011167 -0.046377927
0003b0 74 d6 d9 3d 71 78 c8 bd a6 33 ea bd a3 fc d7 3c
       0.10636607 -0.097885974 -0.114356324 0.026365584
0003c0 d7 54 65 be 08 c1 8f be 89 7c 55 be ef 8d 13 3d
       -0.22395645 -0.2807696 -0.20848288 0.03602403
0003d0 0a 2b f8 3c e6 d6 10 3d 0a 13 49 3d 80 6c 02 3c
       0.03029396 0.035361193 0.049090423 0.007960439
0003e0 c7 4e f6 3d 05 57 89 bc 75 06 f7 bc 65 da 8c 3c
       0.12026744 -0.016765127 -0.030154446 0.017193982
0003f0 62 a0 0d bc c0 4a 59 3d 8e 0a 44 be ca f2 ba 3c
       -0.008644195 0.053049803 -0.19144651 0.022820849

encoder.dense1.bias f4 [45]
000000 bf bc c3 be d0 6d cd be 7e 77 ab be b6 f4 0c 3d
       -0.3822994 -0.40122843 -0.33489603 0.034413062
000010 eb ea 2d 3e db cb c2 bd ed 31 c6 3d 5f c4 73 be
       0.16984145 -0.095115386 0.09677491 -0.23805378
000020 83 f3 ac 3e dc c5 ba 3e c9 7d e0 3d 15 59 ae be
       0.33779535 0.3647908 0.109614916 -0.3405234
000030 fa 20 e9 3e d6 fe 12 be b2 2a b6 3e df 4d eb 3d
       0.45532972 -0.14355025 0.3557945 0.11489462
000040 91 cc 34 bd 18 ba 64 3c a6 a0 ed 3e 62 f7 f8 bd
       -0.044140402 0.013960384 0.46411628 -0.121565595
000050 66 5e e7 3e 35 78 33 3e 51 45 2b 3f 87 7c bf 3e
       0.45189208 0.17526324 0.66902643 0.37399694
000060 d9 ff 71 3c d1 6b 1c 3e 45 2e be 3e 1d eb d2 be
       0.0147704715 0.15275504 0.37144676 -0.41195002
000070 af cd 0d be ed bb c2 be 42 e8 b0 3e d3 6c 0d 3d
       -0.13847993 -0.38034 0.345522 0.03452761
000080 b9 48 3b 3e a7 48 3f be 92 7c ca 3e 53 ac eb be
       0.1828946 -0.18680058 0.39548165 -0.4602991
000090 c3 63 d0 be 81 c7 02 3f c5 02 0a 3e ba f3 15 3e
       -0.40701112 0.5108567 0.13477619 0.14643756
0000a0 68 b0 0c be 6f cf b7 3c a1 00 9c 3d 48 b4 98 be
       -0.13739169 0.02243778 0.076173075 -0.29825044
0000b0 87 3c 77 3d
       0.060360458

encoder.dense3m.weight f4 [3, 45]
000000 60 36 83 be 46 5d 59 3d 42 bd ca be f1 0d 8b bd
       -0.25627422 0.053067468 -0.39597517 -0.067897685
000010 d8 88 a4 3d dc 13 d4 bb 08 ba bc 3d a9 9d 54 bd
       0.080339134 -0.006472094 0.0921517 -0.05190817
000020 e8 8f d3 bc 8d 8e 80 be d4 9f 91 ba c4 85 31 3d
       -0.025825456 -0.25108758 -0.0011110255 0.04334046
000030 d3 b0 5a 3e fd aa 0b be b7 15 76 3e a1 14 89 3d
       0.21356516 -0.13639446 0.24031721 0.06693388
000040 66 52 30 be 99 a7 87 be eb 72 94 3e 59 ff 20 be
       -0.17218933 -0.26495054 0.28993925 -0.15722407
000050 7a 2f 28 3e a4 61 da bd 68 94 da 3e 1f c6 9d 3d
       0.16424361 -0.10663155 0.4269135 0.07703804
000060 09 84 ea bd d5 39 c7 3d f1 da a1 bd db 00 9f bb
       -0.11450965 0.097278275 -0.07903088 -0.004852397
000070 9d 04 f7 bd 60 4a 0f be 41 19 60 3e 01 bc 37 be
       -0.12061427 -0.13993216 0.21884634 -0.17942812
000080 77 f1 85 3c d4 7b 59 3e 6e 33 93 3e 3d 28 81 be
       0.016350491 0.21238643 0.28750175 -0.25226012
000090 5c 33 1a be 33 c5 2f 3d e6 67 c1 3c 13 9e e7 3d
       -0.15058655 0.042912673 0.023609113 0.11309447
0000a0 cd fe 4b bc f1 6e f2 bd 38 e2 05 3d 9b a2 94 bd
       -0.012450886 -0.11837567 0.032686442 -0.07257577
0000b0 2d f3 0c 3c fd 23 05 be a6 c7 c6 3e da a9 a3 bd
       0.0086028995 -0.1300201 0.38824195 -0.07991381
0000c0 4d 28 92 bd 7d 97 a3 bc 9d ee a4 3d 74 4c b7 3c
       -0.07136593 -0.019969696 0.08053324 0.022375323
0000d0 ce 04 b2 3d b4 9f 1b bd 4f 0f 4d bd ab 49 4d bd
       0.08692323 -0.0379941 -0.050063428 -0.050119083
0000e0 83 55 32 bd b7 ba 8a be da b7 70 3d f6 82 12 be
       -0.04353858 -0.27095577 0.058769085 -0.1430777
0000f0 10 d7 86 bd 24 12 47 be 96 43 2a be 5d c2 3f 3d
       -0.06583989 -0.19440514 -0.16627344 0.04681622
000100 8f 77 f9 bd c9 66 c1 bd 82 3c 96 be 54 9e 87 be
       -0.12181007 -0.09443433 -0.2934304 -0.26487982
000110 39 72 82 bc 8d 27 5c 3c 38 fc 3f 3d 53 22 fa bd
       -0.015923606 0.013437164 0.046871394 -0.12213578
000120 af d3 9b bd 6d 68 f3 3d 74 48 1a 3e 2b 4d 47 be
       -0.07608735 0.11885152 0.15066701 -0.19463031
000130 f9 e2 cc 3e 03 23 88 3c 4b 12 16 3e 96 0c 60 3d
       0.40016916 0.016618257 0.14655416 0.054699503
000140 d7 35 84 3e ab d3 2b 3e 88 c5 8c bb 1f c8 1a 3e
       0.25822327 0.16779964 -0.0042960085 0.15115403
000150 ac 05 9d bc 42 a8 7c 3e 39 88 2f be f7 d5 de bc
       -0.019167744 0.2467356 -0.17141809 -0.027201636
000160 bd 41 9d 3e a7 f1 11 be 13 af b1 3e c3 9b af 3e
       0.30714217 -0.1425234 0.34703884 0.34298524
000170 f8 e9 c8 bc 36 05 52 3d 38 8f cb bc 81 fe 94 3d
       -0.024525627 0.0512745 -0.024848565 0.07275105
000180 37 da a1 bc 10 47 b8 3d 53 90 5e be 07 b1 23 3d
       -0.019757373 0.08997929 -0.21734743 0.03996375
000190 53 8d d5 bc 35 56 81 3e c8 0e 9a bd 60 0d f2 bc
       -0.026068365 0.25261083 -0.075223505 -0.029547393
0001a0 ae 4b 70 be b4 1c 73 3b bf f2 66 3d 63 28 1c be
       -0.2346637 0.0037095966 0.056383844 -0.15249781
0001b0 8e fc db bb 6b 23 5d bb 73 b8 90 be 2d e6 d8 bc
       -0.0067134565 -0.0033743035 -0.28265724 -0.026476944
0001c0 8a 54 98 be 77 33 a2 be 42 c7 36 bd 68 29 14 3d
       -0.29751998 -0.3167989 -0.04462362 0.0361723
0001d0 92 38 7e be f9 f8 94 3e 1d c0 cc bd 19 fa 1d 3c
       -0.24826267 0.290962 -0.0999758 0.009642147
0001e0 41 41 b4 3c 96 d6 4e be 0c 26 b0 bd c4 3d 0a 3e
       0.022003772 -0.20199046 -0.08601007 0.13500124
0001f0 fb f5 96 bd 5f 1c 9d 3e 35 b0 32 3e a2 2a b5 be
       -0.07371136 0.30685708 0.1745003 -0.3538409
000200 77 b7 4f be bb 61 95 3d fa 83 26 be d9 82 15 bd
       -0.2028483 0.07294031 -0.16261283 -0.03650174
000210 7f 98 c8 3b 5a 87 ac bc c3 cc 22 3d
       0.0061216946 -0.021060634 0.039746057

encoder.dense3m.bias f4 [3]
000000 84 73 0b 3e ef 67 7b be 2f 82 eb bd
       0.13618284 -0.24551366 -0.1149944

encoder.dense3s.weight f4 [3, 45]
000000 97 e7 1a 3e 2a 32 11 bc cc 2d 2a 3e 99 97 96 bd
       0.15127407 -0.008862058 0.16619033 -0.07353134
000010 e2 80 45 3d 0e 81 86 bd ac 17 95 3e a9 97 31 3d
       0.048218615 -0.06567584 0.29119623 0.043357525
000020 10 83 b8 3b 3d c5 86 3e 47 2b 0c bc 74 b2 3f bd
       0.0056308582 0.26322356 -0.00855524 -0.046801046
000030 dc be ef bd cd 89 5e 3d ad 17 15 be 0c ca 03 3c
       -0.117063254 0.054330636 -0.14559813 0.008043777
000040 e8 91 d5 3c ca 7b 2f bd 50 ce 28 3e 6c 12 76 3c
       0.02607055 -0.042842664 0.16484952 0.015019041
000050 ef af 25 bd 99 bd 31 3d 85 bc 44 be c6 7e 93 bd
       -0.040450986 0.043393705 -0.1921254 -0.072019145
000060 f8 a1 c6 3d da ea a0 bd da 96 a2 bd a9 f9 ad 3c
       0.09698862 -0.078572944 -0.07938929 0.021237211
000070 3e 25 5a bd ac 39 8a 3d 61 08 0b be 62 48 5f 3d
       -0.053258173 0.06749281 -0.13577415 0.05451239
000080 1e 8c 1a 3c ac 3b b8 bc 3b 43 f2 bd f5 ea 08 3d
       0.009432821 -0.022489391 -0.118292294 0.033427197
000090 71 b1 4e 3c a7 48 a8 3c 0b a6 f2 bd e1 37 53 bc
       0.0126155475 0.020542456 -0.118480764 -0.012891741
0000a0 fe ed 19 bd 33 44 5c bd 9e 09 43 3b ec 49 d5 3d
       -0.037580483 -0.053775977 0.002976037 0.1041449
0000b0 a1 bb 9e 3b 36 d6 96 bd 7a 39 a6 3d 79 e6 18 bb
       0.0048441445 -0.07365076 0.081164315 -0.0023330732
0000c0 cd 55 81 bc ce a0 88 3d 68 3c 96 bb 3d af 77 bc
       -0.015787983 0.06671296 -0.0045848377 -0.015117464
0000d0 31 a9 0c 3e b4 1d 8c bd 1a ee 54 bd a1 c6 9b 3d
       0.13736416 -0.06841603 -0.051984884 0.07606245
0000e0 f9 bc 10 3c 17 dd 19 3d 5f 29 7b bd 0a 72 12 be
       0.008834117 0.037564363 -0.06131875 -0.14301315
0000f0 f3 84 8d 3d a2 b3 8d bd 07 1f 3f 3d 2c 4a cd 3b
       0.06910124 -0.06919028 0.04666045 0.0062649455
000100 54 b1 54 3d 16 ef af bd e3 18 8d 3d 39 d7 0d be
       0.051926926 -0.08590524 0.068895124 -0.13851632
000110 34 79 f8 bd 48 a8 2e 3e 49 e1 8e bd f6 46 bc 3c
       -0.12132493 0.17056382 -0.069765635 0.022983056
000120 05 a1 ab bc 86 cf b8 3d a6 6d 17 3d d7 87 66 3d
       -0.020950804 0.09023957 0.036969803 0.05628189
000130 78 11 eb bd 85 70 c7 bd 66 ae 8e 3d 9a 45 45 3d
       -0.11477941 -0.09738258 0.069668576 0.04816208
000140 f6 64 c8 3c c0 27 8c 3d 3a a1 2f bc 36 0b 3d bc
       0.024462204 0.06843519 -0.010719592 -0.011538317
000150 0b b0 d3 bb d3 4b 16 3e 1c 3d 9b bc f2 26 37 3d
       -0.006460195 0.14677362 -0.018950038 0.044714876
000160 b8 2f 33 3e ed 8a 72 3d cb 3c e0 3b 80 25 f3 3d
       0.17498672 0.05921452 0.0068431846 0.11872387
000170 dd b8 23 bd 25 2b 50 3e f4 ac d9 bc c3 6d 08 bd
       -0.03997122 0.20328958 -0.026571728 -0.033307802
000180 f5 f8 74 bd 63 62 08 bb a9 bc 42 3d c0 d5 31 3e
       -0.059807736 -0.0020810596 0.0475432 0.17366695
000190 98 20 a9 bc 38 e3 49 3e 71 3c 37 bd 1e 1d 8f 3c
       -0.020645425 0.19715583 -0.044735376 0.017469939
0001a0 79 92 e5 bd 01 7d 30 bd a3 75 9c 3c 04 f0 a1 bc
       -0.11209578 -0.043087963 0.019099062 -0.019767769
0001b0 73 00 b1 3c 5a 5b ad bd 72 e9 61 bd 89 0e 8e 3b
       0.02160666 -0.084646896 -0.05515427 0.004335229
0001c0 8d b9 39 be 04 80 f0 bd f7 86 b3 3e 5a a8 8a bd
       -0.18137188 -0.11743167 0.35063908 -0.06770392
0001d0 e4 30 23 bd a3 1b 43 3e 2f 65 88 3b cb 8a 07 3c
       -0.039841548 0.19053511 0.0041624526 0.008272837
0001e0 1a c7 59 3c 06 0d b0 3b 54 79 1a bc 12 45 30 bb
       0.013292098 0.0053726463 -0.009428341 -0.0026896638
0001f0 a4 a7 b4 bc 01 39 2b 3d 72 bc f9 3c 3f 48 33 3e
       -0.022052594 0.04180241 0.030485366 0.17508028
000200 f2 8f c3 bd 5e 4c 34 bd 5c c2 ff 3b 72 0c eb 3a
       -0.0954894 -0.044018142 0.007805152 0.0017932786
000210 03 9c 37 bd 53 aa 3c 3d 30 ec 58 bd
       -0.04482652 0.04606087 -0.05295962

encoder.dense3s.bias f4 [3]
000000 b7 7d dd bd 21 48 dd bd cd eb ea bd
       -0.10814994 -0.10804773 -0.11470757

decoder.linear.bias f4 [28]
000000 f2 7a 45 3f fe d5 0f 3e bd d3 0a bf 34 04 75 3f
       0.77140725 0.14046475 -0.54229337 0.9570954
000010 a9 78 7e 3f 55 b1 9b bf 6a 62 2c bf ad ad 9d 3f
       0.9940286 -1.2163492 -0.6733767 1.2318627
000020 ae 1f 0b 3f 37 c1 b8 bf 36 bc 32 be 6e c0 b7 3f
       0.54345214 -1.4433964 -0.1745461 1.43556
000030 af 6a 0b bf 8b 2e 34 3e 74 01 b2 be 18 7b 6a 3e
       -0.5445966 0.1759588 -0.34766734 0.22898519
000040 e2 b2 62 be d8 88 11 3f 1e 68 bb 3e 63 ca 2d bd
       -0.22138551 0.5684943 0.36602873 -0.04242934
000050 ad b6 0e bf 5e 02 6f bf 30 c4 84 3e d3 9c 47 bf
       -0.5574749 -0.9336299 0.2593093 -0.7797367
000060 50 9e ed bd c1 b1 84 bf 0a 3b 81 3f 37 d9 c3 bf
       -0.11602461 -1.0366746 1.0096142 -1.5300664

decoder.linear.weight_orig f4 [28, 3]
000000 24 66 74 bf 52 c9 95 3f 50 9f 2c bd 40 be 0a 3c
       -0.95468354 1.1702063 -0.04214412 0.008468211
000010 09 bc ac 3f d4 f1 ee be c3 b3 04 bf 3e e4 3a be
       1.3494884 -0.46668875 -0.51836795 -0.1825113
000020 7d 40 ba 3f 38 7a 89 3d aa 94 5b be f8 78 67 3f
       1.455093 0.067127645 -0.2144343 0.9041896
000030 64 7b b0 3e c0 44 6a 3c d8 79 01 3f 3c f6 55 3e
       0.3446914 0.014298618 0.50576544 0.20894712
000040 ac 6a 3d be 11 ec b0 3f f1 fd 87 bf f6 a2 b7 3e
       -0.18497723 1.3822042 -1.0624372 0.35866517
000050 15 f0 c7 3f cc ad 25 3e 70 01 ad 3f 1c d8 97 be
       1.5620142 0.1617958 1.3516064 -0.29657066
000060 c8 f2 01 3f 80 7c e7 be 21 d7 a6 3f 01 30 d5 bf
       0.5076108 -0.45212173 1.3034402 -1.6655275
000070 06 ba b9 be 34 51 dc 3e 8f f8 b4 bf a7 11 bc be
       -0.36274737 0.43030703 -1.4138354 -0.36732218
000080 82 e5 c5 3e cd 9e 26 bf b4 72 0d 3e 58 76 a1 3f
       0.38651663 -0.6508606 0.13813287 1.2614241
000090 1d b1 f3 bf 46 3c 04 bf 7e 5e 6c be 93 af 96 bf
       -1.9038426 -0.5165447 -0.23082921 -1.1772331
0000a0 00 c7 e2 3c bb a9 c9 be cd 88 12 bf 60 e5 e2 bd
       0.027682781 -0.39387307 -0.5723999 -0.11078906
0000b0 85 d4 eb 3f a9 d6 dc bf 9a e1 07 bf c8 23 b4 3f
       1.8424231 -1.7253009 -0.53078616 1.407342
0000c0 f0 b6 b3 3e 8b 6f a9 3f af 87 df 3f 80 d8 1e 3e
       0.35100508 1.3237165 1.7463282 0.15512276
0000d0 d2 b0 9d 3e e2 59 99 3f 26 63 52 be 52 8d 44 be
       0.30798966 1.1980555 -0.20545635 -0.19194534
0000e0 45 b1 af 3f 14 ea c0 bf 88 fb dc 3e 09 df 1b 3f
       1.3725973 -1.5071435 0.43160653 0.608872
0000f0 f1 3d a5 bf 02 29 5f be 7f 3c b9 3f 40 e1 56 be
       -1.2909528 -0.21792987 1.4471587 -0.20984364
000100 cc 87 72 3e 10 77 9f 3f 46 28 bd 3e 27 5c 82 3f
       0.23684615 1.245821 0.3694479 1.0184373
000110 5e 91 d0 be d2 a9 88 be f9 03 cd 3f 2c 69 08 3f
       -0.40735906 -0.26692063 1.6016837 0.5328548
000120 3f 7c 83 bf b0 ef 4f 3e 0d ac b3 be 28 95 c5 bd
       -1.0272292 0.20306277 -0.35092202 -0.0964759
000130 6c a9 fd 3e 84 59 ed 3f 3a 6c d5 bf fc 82 2b 3e
       0.4954332 1.8542943 -1.6673653 0.16749185
000140 a0 00 15 3e 3c 1d 97 3e a0 e2 d6 3e 88 8e 5f 3f
       0.1455102 0.29514492 0.41969776 0.8732686

decoder.linear.weight_mask f4 [28, 3]
000000 00 00 80 3f 00 00 80 3f 00 00 00 00 00 00 00 00
       1.0 1.0 0.0 0.0
000010 00 00 80 3f 00 00 00 00 00 00 80 3f 00 00 00 00
       1.0 0.0 1.0 0.0
000020 00 00 80 3f 00 00 00 00 00 00 00 00 00 00 80 3f
       1.0 0.0 0.0 1.0
000030 00 00 00 00 00 00 00 00 00 00 80 3f 00 00 00 00
       0.0 0.0 1.0 0.0
000040 00 00 00 00 00 00 80 3f 00 00 80 3f 00 00 00 00
       0.0 1.0 1.0 0.0
000050 00 00 80 3f 00 00 00 00 00 00 80 3f 00 00 00 00
       1.0 0.0 1.0 0.0
000060 00 00 00 00 00 00 00 00 00 00 80 3f 00 00 80 3f
       0.0 0.0 1.0 1.0
000070 00 00 00 00 00 00 00 00 00 00 80 3f 00 00 00 00
       0.0 0.0 1.0 0.0
000080 00 00 80 3f 00 00 80 3f 00 00 00 00 00 00 80 3f
       1.0 1.0 0.0 1.0
000090 00 00 80 3f 00 00 00 00 00 00 00 00 00 00 80 3f
       1.0 0.0 0.0 1.0
0000a0 00 00 00 00 00 00 00 00 00 00 00 00 00 00 00 00
       0.0 0.0 0.0 0.0
0000b0 00 00 80 3f 00 00 80 3f 00 00 00 00 00 00 80 3f
       1.0 1.0 0.0 1.0
0000c0 00 00 00 00 00 00 80 3f 00 00 80 3f 00 00 00 00
       0.0 1.0 1.0 0.0
0000d0 00 00 00 00 00 00 80 3f 00 00 00 00 00 00 00 00
       0.0 1.0 0.0 0.0
0000e0 00 00 80 3f 00 00 80 3f 00 00 00 00 00 00 80 3f
       1.0 1.0 0.0 1.0
0000f0 00 00 80 3f 00 00 00 00 00 00 80 3f 00 00 00 00
       1.0 0.0 1.0 0.0
000100 00 00 00 00 00 00 80 3f 00 00 00 00 00 00 80 3f
       0.0 1.0 0.0 1.0
000110 00 00 00 00 00 00 00 00 00 00 80 3f 00 00 00 00
       0.0 0.0 1.0 0.0
000120 00 00 80 3f 00 00 00 00 00 00 00 00 00 00 00 00
       1.0 0.0 0.0 0.0
000130 00 00 00 00 00 00 80 3f 00 00 80 3f 00 00 00 00
       0.0 1.0 1.0 0.0
000140 00 00 00 00 00 00 00 00 00 00 00 00 00 00 80 3f
       0.0 0.0 0.0 1.0

exp_avg f4 [45, 28]
000000 d1 3d 97 b9 54 6d 9e 3a e4 6a 8c ba b7 f9 6e 3a
       -0.0002884702 0.0012087026 -0.0010713008 0.000911619
000010 58 22 79 3a a4 db 19 3b 94 f7 15 ba f7 55 ea ba
       0.0009503714 0.0023476863 -0.0005720791 -0.0017878403
000020 b2 90 b7 3a 77 9e 16 bb dc 03 b7 ba cc 6d 68 b9
       0.0014004915 -0.0022982636 -0.0013962942 -0.00022166147
000030 2d 65 b5 ba 8a ca 69 bb e0 b4 f2 b9 94 68 32 ba
       -0.0013839357 -0.0035673701 -0.000462926 -0.00068057445
000040 ce 86 fa 3a ca ce 68 ba ae 64 9b 39 6b 05 62 39
       0.0019113661 -0.00088809116 0.00029638916 0.00021555058
000050 fc 6e 14 3a 14 cd 68 3a 66 35 5a 3b 0a d2 aa ba
       0.000566229 0.00088806567 0.0033295988 -0.0013032567
000060 22 6a f5 ba 2a 76 b2 3a cd 11 3d bb 98 3f a7 b9
       -0.0018723647 0.0013615538 -0.0028849721 -0.00031900103
000070 7f 2c 07 bb e8 63 71 b9 aa ce c9 ba a4 f4 fd b9
       -0.0020625887 -0.00023020769 -0.0015396674 -0.00048438192
000080 04 ca 85 ba 85 d7 d3 3a 19 2e 46 ba fa d7 4f bb
       -0.00102073 0.0016162252 -0.00075599697 -0.0031714425
000090 d8 9b 65 b9 23 37 ef ba d9 02 09 bb 63 8e fc ba
       -0.00021897198 -0.0018250685 -0.0020906238 -0.0019268509
0000a0 64 eb 00 bb 7b d2 23 bb d8 a4 4c b9 40 88 e5 b9
       -0.0019671554 -0.0024997282 -0.00019516365 -0.00043779798
0000b0 90 44 be 38 ca 0c 16 bb 3c 03 40 3a 64 1a a8 39
       9.072677e-05 -0.0022895806 0.0007324701 0.0003206312
0000c0 00 1a a1 39 aa 28 2c ba b4 75 f2 39 a1 a1 29 bb
       0.00030727684 -0.0006567339 0.00046245533 -0.0025883692
0000d0 74 93 00 bb 54 c3 20 3a e6 f8 8c bb c4 19 1e b9
       -0.001961914 0.0006132622 -0.004302132 -0.00015077653
0000e0 b0 73 1a 3a 93 03 38 39 4e af 83 ba 3c 95 99 b8
       0.00058918726 0.00017548939 -0.0010046752 -7.3234056e-05
0000f0 4d 14 92 b9 b6 eb 1e 3a 5b 19 27 ba 04 cc 45 ba
       -0.00027862415 0.00060623453 -0.00063743227 -0.00075453543
000100 5c 56 76 38 45 34 7d ba e6 a3 e5 b8 59 61 72 ba
       5.87314e-05 -0.0009658973 -0.000109500994 -0.00092460733
000110 c0 7a e5 b9 10 e2 ca ba a8 3f 51 ba 84 5e 39 ba
       -0.0004376974 -0.0015478749 -0.0007982203 -0.0007071274
000120 da bb e6 39 66 b5 1f ba 75 ed 5a ba cf 65 47 ba
       0.0004400898 -0.0006092399 -0.0008351424 -0.0007606418
000130 1a bf 25 ba 58 52 0a 39 34 fa 64 3a 00 00 9c 38
       -0.0006322727 0.00013191381 0.0008734793 7.43866e-05
000140 5f 86 64 ba 04 21 ff b8 14 f9 85 ba e6 71 fc b9
       -0.00087175326 -0.00012165497 -0.0010221326 -0.00048150046
000150 e9 d1 97 b9 90 87 20 b9 0a fa 86 b9 8e 50 d0 b9
       -0.0002895736 -0.0001530929 -0.00025744765 -0.0003973287
000160 16 7c af b9 56 68 97 39 06 ec e7 b8 1e 14 06 ba
       -0.00033471052 0.000288787 -0.00011058901 -0.0005114692
000170 e1 a1 1d b9 e9 66 23 ba d3 0f 86 b9 bf 3e 1c ba
       -0.00015032991 -0.00062332914 -0.00025570262 -0.00059602776
000180 c4 77 60 b9 94 d4 56 ba 6b db a3 b8 fe ea c1 b9
       -0.00021406921 -0.0008195129 -7.8133155e-05 -0.0003698691
000190 8a 32 49 b9 a5 ed 9a b9 85 8b 51 39 12 94 d5 b8
       -0.00019187681 -0.00029550228 0.00019983768 -0.00010184212
0001a0 82 b6 fa 37 54 6e 8e 37 b0 fa 0c b9 6a 42 fb b9
       2.988731e-05 1.6979095e-05 -0.00013444829 -0.00047923933
0001b0 76 3a 83 b8 89 a8 38 b7 0e d7 81 ba 1b c6 59 b8
       -6.257456e-05 -1.1006495e-05 -0.000990601 -5.192133e-05
0001c0 2b dd b1 39 f2 91 dc 38 70 6b e1 39 c4 3d fd 39
       0.00033924854 0.00010517602 0.0004299539 0.0004830194
0001d0 a8 fd c6 39 ed d4 b0 b9 e2 f1 74 39 b0 6a 20 3a
       0.00037954492 -0.00033727978 0.00023359762 0.00061194133
0001e0 4d 93 78 39 1f 15 31 3a 71 ca 4a 3a ca 82 44 3a
       0.00023705997 0.00067551614 0.00077358546 0.0007496296
0001f0 04 ea 23 3a 38 fd 5f 3a f8 af 8c 39 60 f3 0a 3a
       0.00062528276 0.00085445074 0.00026833988 0.0005300548
000200 de b4 3a 39 2a 8a 06 3a 28 7a 21 39 af f7 a1 39
       0.0001780572 0.00051322824 0.00015399663 0.00030892852
000210 6b ac 85 39 8a 41 1c 39 d6 0a f4 b8 e5 e2 e4 39
       0.00025496198 0.00014901735 -0.00011636845 0.00043656598
000220 75 26 d9 39 c8 d0 c7 38 cd 3b 7c 3a 18 96 98 39
       0.00041418118 9.527948e-05 0.0009621948 0.00029103528
000230 7b 7f a5 b9 64 67 86 38 fd 51 54 b9 30 af 63 b8
       -0.00031566233 6.408876e-05 -0.00020248439 -5.4284174e-05
000240 80 84 bd b5 8f d7 d7 39 00 5d e4 37 ac 5f d2 b9
       -1.412016e-06 0.000411686 2.7223025e-05 -0.00040125602
000250 fc 3f b0 b7 52 91 c5 b9 78 0a 07 ba a4 1d c7 b9
       -2.101063e-05 -0.0003768304 -0.0005151401 -0.00037978322
000260 7e bd 31 ba 46 95 c4 b9 43 c4 b7 b8 cc 9d 84 b8
       -0.00067802507 -0.0003749525 -8.7626766e-05 -6.3236424e-05
000270 a1 1d 03 39 57 ad 03 ba 7c a3 79 39 88 1f 26 38
       0.00012504171 -0.0005023083 0.00023807393 3.960685e-05
000280 60 fd 7c 38 20 0c 97 37 d6 4a bb 39 03 3e 09 ba
       6.0317456e-05 1.8006249e-05 0.00035723177 -0.0005235376
000290 00 ef 92 b9 88 3f 84 39 7a 52 31 ba c0 f2 33 b8
       -0.0002802536 0.00025224336 -0.0006764304 -4.2903004e-05
0002a0 4a d6 b2 b9 05 ba 98 b8 d3 53 49 38 2b ae b5 38
       -0.00034110463 -7.282574e-05 4.80002e-05 8.663194e-05
0002b0 2d 01 08 3a ca 6f c5 b9 bf 4c 2e b9 76 5e 22 b9
       0.00051881635 -0.00037658057 -0.00016622523 -0.00015484713
0002c0 0a 43 c5 b8 84 d3 0f 3a af 78 e2 39 08 af 04 3a
       -9.406179e-05 0.00054865354 0.00043195995 0.0005061482
0002d0 57 6d 15 3a 76 4e 88 39 12 92 04 b9 41 34 2b 39
       0.0005700192 0.000259984 -0.00012642916 0.00016327297
0002e0 e8 dd 10 b9 19 3e bc 39 8c 84 d2 b9 d0 b1 e0 38
       -0.00013815577 0.0003590442 -0.00040153076 0.000107142725
0002f0 f6 7d ad 39 0e b5 e2 b9 d0 32 eb b9 34 8f 6a 39
       0.0003309098 -0.00043240975 -0.0004486055 0.00022369326
000300 7a 5c 7d b9 18 b7 e7 38 58 fc 1c 3a 25 02 7a 39
       -0.0002416241 0.00011049042 0.000598853 0.00023842657
000310 41 39 8f 38 ba 88 81 39 46 2d 8b b8 5e 62 18 39
       6.829436e-05 0.00024706667 -6.636469e-05 0.00014532494
000320 cb 93 9b b8 b0 6b 78 39 02 05 f6 37 44 d6 35 b9
       -7.4185045e-05 0.0002369124 2.9327817e-05 -0.00017341325
000330 c6 88 1a 39 b8 59 39 b8 c8 c4 ee b7 9c 4c db b8
       0.00014737537 -4.4190994e-05 -2.8463444e-05 -0.000104570034
000340 f2 76 f9 37 d8 ff 28 b9 2b f2 e9 37 a6 a6 b4 38
       2.9738501e-05 -0.00016117038 2.7888533e-05 8.6141095e-05
000350 18 ea ac 39 7a 4e 8e b9 e4 78 02 39 64 67 2e 39
       0.0003298081 -0.0002714282 0.00012442801 0.00016632449
000360 a4 ab 3c 39 3d 82 b7 38 fc cb 9f 39 78 0c 8d 38
       0.00017993018 8.750379e-05 0.00030478823 6.7257264e-05
000370 0a ae 2f b9 12 e5 2d 39 c5 76 54 b9 a9 a1 17 39
       -0.00016754135 0.00016583901 -0.0002026214 0.00014460705
000380 44 50 c2 39 90 21 c9 b9 93 f0 37 39 24 a6 1d ba
       0.00037062366 -0.00038362714 0.00017541861 -0.00060138316
000390 5c 35 01 ba 86 53 8f ba 1a 33 12 b9 e6 27 05 3a
       -0.00049289106 -0.0010934926 -0.00013942682 0.00050794927
0003a0 4e 4f 46 ba 38 b6 2c 3a f8 05 08 3a ae 5d ce b8
       -0.0007564918 0.0006588432 0.00051888777 -9.840295e-05
0003b0 b9 f8 01 3a 28 eb 76 3a 62 ce 85 b9 b0 e9 05 b9
       0.0004958022 0.0009419196 -0.00025521504 -0.00012770924
0003c0 08 01 45 ba 1e 4e d8 39 b6 3a 51 ba b1 27 01 ba
       -0.0007515107 0.00041256932 -0.0007981466 -0.0004926874
0003d0 08 ca 12 ba d4 45 d3 b9 6e 5c 92 ba dd a7 12 3a
       -0.0005599563 -0.00040297082 -0.0011166462 0.00055944716
0003e0 34 50 09 3a 06 80 6d ba e2 9d 86 3a a9 b8 b9 b9
       0.00052380865 -0.00090599095 0.0010270441 -0.00035423532
0003f0 f0 1e 9e 38 cf cf 9c 39 6d 4a a7 b9 80 f5 4a 36
       7.53979e-05 0.00029909468 -0.00031908174 3.0243245e-06

exp_avg_sq f4 [45, 28]
000000 ba 27 7a 3a 21 cb 2c 3a 03 81 f8 39 6e 5c 92 3a
       0.0009542663 0.0006591548 0.00047398367 0.0011166462
000010 00 bb 94 3a 62 57 7c 39 85 50 f8 39 fd 1d 93 3a
       0.0011347234 0.00024065145 0.00047362238 0.0011224147
000020 20 16 6a 3a f3 24 4d 39 e4 08 1a 3a cb 9b ae 3a
       0.00089296885 0.00019564088 0.00058759586 0.0013321576
000030 9b 0c ed 39 f9 c9 32 3a f6 c0 0d 3a 89 cf 4f 3a
       0.00045213554 0.00068202574 0.00054074766 0.00079273485
000040 ed 16 25 3a 8f bb 6e 3a 00 9c 55 3a f5 15 2d 3a
       0.00062976667 0.0009106928 0.0008148551 0.0006602698
000050 a4 9a 05 3a 57 da 9b 39 49 2e 38 3a 5b a8 b4 39
       0.00050965906 0.0002972658 0.000702594 0.0003445771
000060 a1 9e 10 3a 55 5c ae 39 0f c9 8a 3a c6 2b f7 38
       0.00055168016 0.0003325666 0.0010588485 0.00011786031
000070 e3 95 32 3a e1 d9 f0 39 4b 21 b4 39 9a 23 4e 3a
       0.0006812496 0.000459387 0.0003435708 0.00078635814
000080 46 31 55 3a d9 a7 2f 39 05 53 b1 39 68 36 50 3a
       0.00081326475 0.00016751829 0.00033821925 0.00079426775
000090 74 b3 24 3a 28 b8 1b 39 ad dd de 39 d3 7e 78 3a
       0.0006282844 0.00014850555 0.000425083 0.00094793475
0000a0 d1 a0 ad 39 c5 e6 00 3a b5 db c6 39 74 5f 13 3a
       0.0003311695 0.00049172 0.00037929197 0.00056218286
0000b0 07 6e e4 39 b6 43 28 3a 02 a0 17 3a 48 99 f8 39
       0.00043569526 0.0006418781 0.0005784036 0.0004741645
0000c0 f0 04 c0 39 23 3e 56 39 c3 28 02 3a 2b f8 7b 39
       0.00036624772 0.00020431778 0.00049651804 0.00024029675
0000d0 1e 22 d0 39 d8 bb 74 39 4b e9 43 3a f8 29 a6 38
       0.0003969827 0.0002333963 0.0007473423 7.923314e-05
0000e0 c2 c7 46 39 97 c3 e9 38 4d f6 ba 38 c5 bb 4d 39
       0.00018957167 0.00011146737 8.915048e-05 0.00019620273
0000f0 26 27 4f 39 2c ec 37 38 3a 9b d2 38 81 11 49 39
       0.00019755642 4.3850552e-05 0.000100424935 0.00019175374
000100 34 fb 18 39 35 93 3f 38 de 8f 09 39 b1 f4 73 39
       0.0001458943 4.5675046e-05 0.00013118933 0.0002326544
000110 71 c0 d6 38 02 94 19 39 a9 3e c3 38 0b d3 2b 39
       0.0001024016 0.00014646354 9.309996e-05 0.0001638645
000120 36 36 e1 38 12 50 22 39 4e 86 0b 39 cc 8c 10 39
       0.000107389336 0.00015479352 0.00013306105 0.00013785361
000130 dd 3e e0 38 96 5e 66 38 ba e8 fc 38 1e 80 80 38
       0.000106928615 5.4924363e-05 0.00012059645 6.127379e-05
000140 e6 60 ec 38 7e 9e 7d 38 70 aa 62 39 86 07 c0 37
       0.00011271406 6.0467508e-05 0.00021616532 2.2891687e-05
000150 fb 89 52 37 b5 08 0c 37 b8 73 ad 36 dd ad 4f 37
       1.25491015e-05 8.3466775e-06 5.169273e-06 1.2378642e-05
000160 d6 21 73 37 4d 68 0d 36 4c b4 a9 36 92 df 64 37
       1.4491807e-05 2.1071348e-06 5.057582e-06 1.3641913e-05
000170 80 d9 15 37 5e 29 49 36 17 a8 0d 37 ae 4f 80 37
       8.931733e-06 2.9975413e-06 8.443391e-06 1.5295893e-05
000180 44 cc cd 36 79 16 2c 37 6e 8d 98 36 78 b6 0d 37
       6.1332557e-06 1.0257231e-05 4.5464176e-06 8.446739e-06
000190 36 95 b7 36 6c 73 27 37 cf d4 18 37 97 7a 0c 37
       5.4711954e-06 9.980849e-06 9.109454e-06 8.373193e-06
0001a0 47 ba af 36 64 3f 31 36 60 aa 07 37 06 a4 a0 36
       5.237092e-06 2.6411954e-06 8.086296e-06 4.7874664e-06
0001b0 4b ce 10 37 ef e7 3d 36 82 bb 6c 37 e1 15 8f 35
       8.6311e-06 2.8298198e-06 1.4110354e-05 1.0660698e-06
0001c0 24 c3 87 38 ac 3e 39 38 18 84 03 38 5b 06 9b 38
       6.4736494e-05 4.4165805e-05 3.1355856e-05 7.39216e-05
0001d0 c7 2a 9e 38 de 8b 84 37 22 81 07 38 54 35 a1 38
       7.541995e-05 1.5800757e-05 3.2306772e-05 7.6870114e-05
0001e0 80 2a 7b 38 85 82 63 37 78 63 29 38 f4 c3 bd 38
       5.9882645e-05 1.3560643e-05 4.0385377e-05 9.0487214e-05
0001f0 56 50 ff 37 99 ff 43 38 95 ed 13 38 59 c6 5d 38
       3.0435778e-05 4.6729667e-05 3.5268797e-05 5.287523e-05
000200 cf 1f 2c 38 f9 88 7c 38 e9 0f 5e 38 16 52 3d 38
       4.103762e-05 6.0209048e-05 5.2943742e-05 4.513756e-05
000210 82 e9 0c 38 ef 72 a5 37 75 22 48 38 53 b0 bf 37
       3.3596072e-05 1.9723053e-05 4.7715806e-05 2.2851082e-05
000220 59 c8 1d 38 5a 2f b1 37 e8 ca 97 38 58 b7 f2 36
       3.7618305e-05 2.1122094e-05 7.238035e-05 7.233506e-06
000230 8c 11 50 38 ec 95 09 38 e9 de d8 37 33 cc 6c 38
       4.9607406e-05 3.280297e-05 2.5853007e-05 5.645696e-05
000240 b7 8a 74 38 8f cb 54 37 60 6d dd 37 3d 5c 6d 38
       5.830332e-05 1.2683579e-05 2.6396185e-05 5.6591107e-05
000250 6d f0 3f 38 67 bb 3b 37 1d 9a 05 38 71 c1 91 38
       4.5761863e-05 1.1189702e-05 3.18532e-05 6.95017e-05
000260 96 3e ce 37 15 8b 17 38 2b 6d eb 37 fb 71 32 38
       2.4586257e-05 3.6130736e-05 2.8065018e-05 4.254466e-05
000270 cf 64 08 38 33 9a 45 38 7a 9f 32 38 4c 24 16 38
       3.2518812e-05 4.711207e-05 4.258703e-05 3.579659e-05
000280 9c a4 ec 37 97 3f 83 37 6a e3 14 38 3b 84 90 37
       2.8210045e-05 1.5646028e-05 3.5497746e-05 1.7227712e-05
000290 65 b4 f4 37 18 4f 94 37 71 af 66 38 d2 19 c9 36
       2.917107e-05 1.7679806e-05 5.4999666e-05 5.9932727e-06
0002a0 6e a2 ae 37 0a 37 90 37 b7 f5 2d 37 7c c0 dd 37
       2.0818054e-05 1.7191767e-05 1.03688135e-05 2.6434886e-05
0002b0 37 6b e9 37 1f 07 d5 36 e4 21 20 37 e3 25 eb 37
       2.782569e-05 6.3487237e-06 9.544634e-06 2.8031825e-05
0002c0 ba 96 a8 37 0d bb 73 36 97 fd 37 37 db 3c f1 37
       2.0097348e-05 3.63187e-06 1.09666935e-05 2.8757777e-05
0002d0 05 e8 10 37 5c b2 6b 37 11 1e 5f 37 e1 87 80 37
       8.63709e-06 1.4048619e-05 1.3298836e-05 1.5322063e-05
0002e0 cc 3b 72 37 77 45 af 37 a5 c0 a3 37 d6 56 5b 37
       1.4438247e-05 2.0893973e-05 1.9520821e-05 1.3073635e-05
0002f0 30 95 2c 37 2c de 01 37 d1 83 8f 37 bf 5c 1d 37
       1.0286734e-05 7.740728e-06 1.710831e-05 9.379523e-06
000300 07 b7 4f 37 99 bb 05 37 e1 11 bc 37 e3 44 3d 36
       1.2380776e-05 7.971096e-06 2.2419672e-05 2.8203292e-06
000310 06 9d fe 36 11 53 b1 36 6b c3 8d 36 30 63 1c 37
       7.58807e-06 5.2846813e-06 4.224877e-06 9.3214185e-06
000320 7d 29 20 37 ab 00 0e 36 c8 15 8e 36 56 f4 17 37
       9.546403e-06 2.1160038e-06 4.2344655e-06 9.05719e-06
000330 4d 1c 08 37 4a a7 c5 35 07 ce 8d 36 31 ce 42 37
       8.112821e-06 1.4726331e-06 4.226112e-06 1.1611309e-05
000340 b2 7a 7e 36 f4 31 ac 36 e2 8d 91 36 36 b4 d8 36
       3.7920368e-06 5.1318148e-06 4.337854e-06 6.458281e-06
000350 4a 5b b6 36 9c bd fb 36 0f d2 fc 36 50 9c a8 36
       5.43465e-06 7.5024564e-06 7.5346393e-06 5.0249873e-06
000360 c8 9a 90 36 c2 79 21 36 5a b0 b3 36 33 d8 3a 36
       4.3095533e-06 2.4061742e-06 5.3551457e-06 2.7842004e-06
000370 23 4c 87 36 08 19 31 36 6e 1f 0a 37 6f 8b 8f 35
       4.032177e-06 2.6389625e-06 8.232759e-06 1.0694911e-06
000380 00 9f 2c 39 cd 1f e7 38 b5 ce a6 38 ac ff 36 39
       0.0001646243 0.00011020862 7.953999e-05 0.00017452118
000390 3a 34 40 39 00 d8 21 38 ce a9 a5 38 23 ed 37 39
       0.00018330003 3.8586557e-05 7.899442e-05 0.0001754058
0003a0 39 05 0c 39 2c d6 27 38 1b d4 d8 38 bc 8d 60 39
       0.00013353386 4.0015366e-05 0.0001033919 0.00021415105
0003b0 47 20 b5 38 3a 10 f4 38 94 94 a3 38 39 ae 0d 39
       8.636765e-05 0.00011637849 7.8001205e-05 0.00013511711
0003c0 25 c7 be 38 0f a2 0c 39 4d 0a fe 38 92 0e f1 38
       9.0969996e-05 0.00013411812 0.000121135825 0.000114944894
0003d0 75 b1 b5 38 32 ca 3e 38 b4 9f f2 38 03 bc 67 38
       8.6638065e-05 4.548784e-05 0.00011569206 5.524979e-05
0003e0 7a 17 d3 38 7d 0d 4b 38 52 73 3b 39 05 7d 8f 37
       0.00010065637 4.8411533e-05 0.0001787667 1.7105145e-05
0003f0 56 b0 cd 37 e3 4c b4 37 6b 58 cd 36 df 2c ee 37
       2.4520017e-05 2.1493475e-05 6.1197693e-06 2.8392706e-05

max_exp_avg_sq f4 [45, 28]
000000 5a de 7b 3a 73 45 2e 3a 62 69 f9 39 3d f7 93 3a
       0.0009608023 0.0006647922 0.00047571497 0.0011288893
000010 b4 7e 96 3a 30 63 7c 39 9f db f9 39 ab 4b 94 3a
       0.0011481852 0.00024069543 0.0004765661 0.0011314055
000020 9c fd 6b 3a 39 cf 4d 39 ce 7a 1a 3a bd c4 b0 3a
       0.00090023293 0.0001962752 0.0005892933 0.0013486367
000030 22 d0 ed 39 ce 3d 33 3a 2c 3c 0e 3a 55 a3 51 3a
       0.00045359234 0.0006837518 0.00054258364 0.00079970557
000040 36 25 26 3a 59 f8 70 3a b8 a1 57 3a 96 bc 2e 3a
       0.00063379423 0.000919228 0.0008225697 0.0006665675
000050 ea 5c 06 3a 1c d7 9c 39 7c b2 39 3a 1c 43 b5 39
       0.00051255396 0.00029914908 0.0007083786 0.0003457301
000060 a6 5c 11 3a fb f2 ae 39 ec b4 8b 3a be bb f7 38
       0.0005545117 0.000333689 0.0010658777 0.000118128475
000070 f9 8d 34 3a f2 a3 f2 39 d2 ee b5 39 79 7d 50 3a
       0.00068876107 0.00046279986 0.00034700945 0.0007953267
000080 a1 02 58 3a 37 4b 30 39 c5 ed b3 39 0d 79 52 3a
       0.0008240138 0.00016812688 0.00034318693 0.0008028902
000090 66 09 26 3a 89 0c 1d 39 51 ee df 39 54 66 7b 3a
       0.0006333798 0.00014977356 0.00042711434 0.0009590138
0000a0 35 01 af 39 a6 50 02 3a 24 67 c8 39 c7 4a 15 3a
       0.000333795 0.0004971124 0.00038223818 0.00056950416
0000b0 97 b0 e5 39 57 d5 29 3a 80 48 19 3a 89 78 fb 39
       0.00043809853 0.00064786285 0.000584729 0.00047964256
0000c0 3d 54 c2 39 af 8f 58 39 cf 26 03 3a da 19 7c 39
       0.00037065326 0.00020652892 0.00050030363 0.00024042223
0000d0 80 d4 d1 39 76 1c 76 39 6b a0 45 3a 16 67 a6 38
       0.0004002191 0.0002347099 0.0007538858 7.934698e-05
0000e0 e9 57 47 39 31 7a ea 38 76 65 bb 38 ad 51 4e 39
       0.00019010868 0.000111807494 8.9357534e-05 0.00019676118
0000f0 39 b9 4f 39 ba 3b 38 38 2f 16 d3 38 fc b0 49 39
       0.00019810059 4.3924643e-05 0.00010065396 0.00019234786
000100 e6 58 19 39 29 c4 3f 38 96 ed 09 39 b6 84 74 39
       0.00014624334 4.5720637e-05 0.00013153846 0.00023319092
000110 89 48 d7 38 eb d4 19 39 1c ac c3 38 91 47 2c 39
       0.000102655096 0.00014670535 9.3303825e-05 0.00016429859
000120 f9 e4 e1 38 1f a2 22 39 9b da 0b 39 6e e5 10 39
       0.000107714855 0.00015509919 0.0001333751 0.0001381838
000130 d9 d2 e0 38 38 fc 66 38 6f 6b fd 38 b6 d7 80 38
       0.00010720426 5.507117e-05 0.00012083991 6.143695e-05
000140 c7 9f ec 38 d7 32 7e 38 0f 2d 63 39 9f 4d c0 37
       0.00011283118 6.0605667e-05 0.00021665193 2.2924329e-05
000150 33 0c 54 37 02 6e 0c 37 c2 bf c7 36 92 aa 60 37
       1.2639025e-05 8.3702635e-06 5.9529857e-06 1.3391154e-05
000160 26 94 82 37 b6 7d 2a 36 07 57 b6 36 35 d7 6f 37
       1.5566195e-05 2.5405147e-06 5.434154e-06 1.4295617e-05
000170 eb df 26 37 a8 5b 49 36 f7 f1 0f 37 85 0b 84 37
       9.946506e-06 3.0004685e-06 8.579801e-06 1.574099e-05
000180 fc 00 ce 36 fe 4e 2c 37 23 06 b0 36 e2 0a 13 37
       6.139393e-06 1.0270391e-05 5.245923e-06 8.764417e-06
000190 04 2a c3 36 ef ea 37 37 1f c8 2c 37 80 c4 0f 37
       5.816344e-06 1.096235e-05 1.0298593e-05 8.569215e-06
0001a0 cd cc b7 36 21 a4 50 36 10 13 08 37 77 e2 a0 36
       5.477667e-06 3.108995e-06 8.11067e-06 4.7947356e-06
0001b0 d6 f2 11 37 8c 47 5a 36 d2 4f 6d 37 47 95 93 35
       8.699213e-06 3.2526177e-06 1.4144885e-05 1.0995799e-06
0001c0 bd 75 94 38 4a 7a 4a 38 30 f6 10 38 1a fb aa 38
       7.0791204e-05 4.8274444e-05 3.4561555e-05 8.153003e-05
0001d0 7e e3 ad 38 11 18 92 37 09 9c 13 38 5b 30 b1 38
       8.2916566e-05 1.7415763e-05 3.519285e-05 8.4490246e-05
0001e0 b1 9c 8a 38 1b c5 76 37 39 79 39 38 4e 91 d0 38
       6.609539e-05 1.4708635e-05 4.4220335e-05 9.945278e-05
0001f0 1d 3e 0b 38 c6 37 55 38 7f ff 21 38 0a eb 72 38
       3.319803e-05 5.08351e-05 3.862334e-05 5.7916193e-05
000200 44 e5 3b 38 cc c6 8a 38 29 7c 73 38 90 49 4f 38
       4.4797795e-05 6.6173816e-05 5.8051348e-05 4.9421156e-05
000210 97 5a 1a 38 5f 0b b6 37 cc 32 5b 38 db 28 d1 37
       3.680083e-05 2.1701386e-05 5.2260977e-05 2.4933766e-05
000220 db 91 2a 38 33 9e c2 37 93 99 a5 38 c8 ad 04 37
       4.0666997e-05 2.320027e-05 7.8964185e-05 7.908275e-06
000230 d4 0c 58 38 b0 da 0d 38 e9 c7 df 37 b1 2c 75 38
       5.151036e-05 3.382069e-05 2.6676762e-05 5.8454174e-05
000240 4f 5c 7d 38 36 47 5a 37 5d 37 e5 37 0c 12 76 38
       6.040587e-05 1.3010393e-05 2.7324708e-05 5.8667778e-05
000250 f7 31 46 38 c8 a7 41 37 cc f4 09 38 79 c8 96 38
       4.7253412e-05 1.1542761e-05 3.289133e-05 7.189898e-05
000260 cb 1c d4 37 13 c2 1c 38 20 57 f2 37 6d 2b 39 38
       2.5285777e-05 3.7374044e-05 2.8889219e-05 4.414788e-05
000270 4e eb 0b 38 d6 65 4c 38 f0 62 38 38 a7 c6 1b 38
       3.3359327e-05 4.8732232e-05 4.396116e-05 3.713989e-05
000280 08 8f f4 37 99 80 87 37 0c 85 19 38 91 ec 94 37
       2.915367e-05 1.6153137e-05 3.6601952e-05 1.7753135e-05
000290 db 27 fd 37 71 93 98 37 65 88 6e 38 9a db cf 36
       3.017851e-05 1.818847e-05 5.687065e-05 6.1946457e-06
0002a0 7c 38 b7 37 80 50 97 37 8f b3 35 37 4f 75 e7 37
       2.1841603e-05 1.8038088e-05 1.0830247e-05 2.7591972e-05
0002b0 2c 26 f4 37 8f a7 da 36 ef 83 27 37 de ae f5 37
       2.9104842e-05 6.5164127e-06 9.984694e-06 2.9287705e-05
0002c0 29 0e af 37 99 f3 7c 36 85 30 40 37 76 6a fc 37
       2.086822e-05 3.7692719e-06 1.1455389e-05 3.0090316e-05
0002d0 34 9f 16 37 1f c0 75 37 b1 94 67 37 91 08 87 37
       8.977764e-06 1.464787e-05 1.3803293e-05 1.6097243e-05
0002e0 f2 11 7b 37 eb ce b5 37 de 07 ab 37 b6 22 66 37
       1.4964944e-05 2.1673235e-05 2.0388452e-05 1.371715e-05
0002f0 28 b8 33 37 15 c4 06 37 90 b2 95 37 7a a6 23 37
       1.0712109e-05 8.032676e-06 1.7845334e-05 9.754318e-06
000300 df ed 5a 37 5f e5 09 37 2d eb c4 37 04 db 41 36
       1.3049196e-05 8.219241e-06 2.3474533e-05 2.8886725e-06
000310 6b e4 03 37 01 8f b6 36 87 99 97 36 fa 6e 21 37
       7.861391e-06 5.4406705e-06 4.5180236e-06 9.622187e-06
000320 d2 37 25 37 77 d8 16 36 08 93 98 36 0b b5 1c 37
       9.847763e-06 2.247774e-06 4.5470697e-06 9.340477e-06
000330 c8 2a 0f 37 9c a2 d1 35 f6 68 94 36 05 0d 4a 37
       8.533425e-06 1.5619039e-06 4.422963e-06 1.204317e-05
000340 85 e2 85 36 2d 7e b1 36 a5 b2 9b 36 ff 28 e8 36
       3.990079e-06 5.2897e-06 4.640157e-06 6.9189114e-06
000350 7f 30 bf 36 6d 02 03 37 19 60 03 37 91 8d b1 36
       5.6978893e-06 7.808773e-06 7.830583e-06 5.2914916e-06
000360 b9 05 9c 36 7f d0 2a 36 e4 a4 b8 36 2d bf 42 36
       4.6498285e-06 2.5453335e-06 5.502823e-06 2.9019532e-06
000370 d9 82 8b 36 f9 4f 3d 36 07 ee 0d 37 61 e2 98 35
       4.1577555e-06 2.8209745e-06 8.459675e-06 1.1390767e-06
000380 0e e9 2e 39 b7 59 e9 38 40 09 a8 38 8a 4c 39 39
       0.00016680753 0.000111270165 8.012587e-05 0.00017671488
000390 58 bf 42 39 4a 48 22 38 5c 2e a8 38 bc d4 3a 39
       0.00018572563 3.8691134e-05 8.0194994e-05 0.00017817592
0003a0 61 b2 0d 39 23 b1 29 38 00 b0 da 38 0c 76 63 39
       0.00013513259 4.045771e-05 0.000104278326 0.00021692383
0003b0 24 60 b6 38 99 0b f7 38 26 f6 a4 38 5b 4c 0f 39
       8.696344e-05 0.00011780038 7.865978e-05 0.00013665987
0003c0 b4 a4 c0 38 5e a2 0e 39 cb b6 00 39 75 60 f4 38
       9.185952e-05 0.00013602662 0.00012275127 0.00011652793
0003d0 84 61 b7 38 29 28 41 38 e5 4c f5 38 81 d0 69 38
       8.744284e-05 4.6052188e-05 0.00011696833 5.5745713e-05
0003e0 c2 4f d5 38 2d 48 4c 38 f0 71 3d 39 b1 eb 8f 37
       0.000101714875 4.870461e-05 0.0001806689 1.715668e-05
0003f0 21 f0 cd 37 64 98 b4 37 f0 e1 cd 36 ec 8b ee 37
       2.4549723e-05 2.1528635e-05 6.1357787e-06 2.8436967e-05

exp_avg f4 [45]
000000 40 34 0f 38 12 b3 1d bb 35 94 18 3a 5c 25 5a ba
       3.414252e-05 -0.0024063033 0.00058204244 -0.0008321607
000010 06 57 32 3a 4f 28 91 b9 00 dd d7 37 37 94 21 b9
       0.00068031286 -0.00027686587 2.5732908e-05 -0.00015409371
000020 73 48 a6 b9 d1 20 b9 ba 16 f4 fb 39 7e cd 13 3a
       -0.00031715966 -0.001412416 0.0004805631 0.00056382257
000030 6b 7c e8 3a 62 d6 3c ba 82 1c 7a 3a 00 6e 48 3a
       0.0017737275 -0.00072035764 0.0009540991 0.0007645786
000040 a0 f7 89 39 e6 9c 8c 39 76 a9 05 ba b2 a2 22 3a
       0.0002631517 0.0002681978 -0.0005098799 0.0006204053
000050 f2 a0 2a 3a 03 69 a4 3a 6c 76 15 3b 85 d9 9c 39
       0.0006508968 0.0012543503 0.002280618 0.00029916703
000060 d6 c3 3a ba 70 c9 88 b7 94 97 04 3a 3b 74 9a 3a
       -0.0007124519 -1.6306265e-05 0.00050579873 0.0011783907
000070 db 0c 21 ba 74 8d 37 ba b0 c5 9d 3a b9 e7 3c bb
       -0.0006143578 -0.0007001974 0.0012037065 -0.002882464
000080 ec dd 58 b9 0c 03 01 39 42 40 a1 39 d4 16 07 bb
       -0.00020682038 0.00012303534 0.0003075619 -0.0020612972
000090 80 d6 a8 38 78 cb a3 b9 76 51 e0 b9 43 67 1e 3a
       8.050818e-05 -0.0003124138 -0.00042785303 0.0006042609
0000a0 78 4a de b9 20 35 d2 39 e0 11 f6 39 7c 65 0d ba
       -0.00042398623 0.00040093902 0.00046934094 -0.00053938455
0000b0 2a 14 8c 3a
       0.0010687162

exp_avg_sq f4 [45]
000000 cf fc 03 3b 9a e6 ba 3a 50 03 be 39 5e 3b d9 37
       0.00201397 0.0014259398 0.00036242092 2.589606e-05
000010 8c 96 0e 39 12 7f d5 38 1a b1 49 38 b0 ce 93 37
       0.00013598258 0.000101803 4.8087073e-05 1.7620012e-05
000020 ff e2 a9 39 d0 85 77 38 d5 67 f0 37 00 8d 79 39
       0.00032403317 5.901401e-05 2.865858e-05 0.00023799017
000030 bf f2 67 3a 46 8c 07 39 bd 2f f0 3a f4 3b 80 38
       0.00088481227 0.00012926859 0.0018324774 6.114683e-05
000040 fd 48 81 39 f7 ae 07 39 23 35 9f 36 55 a7 06 39
       0.00024659178 0.00012939783 4.744755e-06 0.00012841572
000050 70 3c a6 3a e3 45 af 38 7b ec 76 3b 9f ce a1 3a
       0.0012682807 8.357668e-05 0.0037677574 0.0012344903
000060 9c d1 02 37 81 12 3c 38 88 77 ee 39 06 6b 9b 39
       7.797407e-06 4.4839926e-05 0.00045483955 0.00029643642
000070 b6 2f 73 38 ea 00 ab 39 2d d9 dd 39 0f bf 7a 39
       5.798015e-05 0.00032616343 0.00042314213 0.00023913033
000080 5c 0e 0c 39 ae a6 de 38 5e e6 2b 3a 26 27 1f 3b
       0.0001335679 0.000106168314 0.000655746 0.002428481
000090 ae 85 05 3a f8 77 76 37 52 54 d4 39 07 ee 38 38
       0.0005093467 1.4690675e-05 0.00040498615 4.40907e-05
0000a0 64 4d d6 38 a7 1f 45 38 fa c4 2e 38 56 17 13 39
       0.0001021873 4.699794e-05 4.166828e-05 0.00014027706
0000b0 3b e8 08 38
       3.264121e-05

max_exp_avg_sq f4 [45]
000000 27 17 05 3b 31 be bc 3a b0 77 be 39 45 cf dc 37
       0.002030799 0.0014399943 0.00036328798 2.6322561e-05
000010 60 aa 1c 39 14 2a dd 38 38 f7 52 38 74 e4 97 37
       0.00014940789 0.00010545939 5.0298142e-05 1.8106984e-05
000020 e5 fa ab 39 52 b6 77 38 73 84 07 38 e1 5c 7a 39
       0.00032802593 5.9059188e-05 3.230986e-05 0.00023876458
000030 2a a1 6a 3a 3e f2 08 39 35 d4 f3 3a a1 6c 8f 38
       0.0008950407 0.00013060213 0.0018602671 6.839005e-05
000040 fa ec 83 39 77 4e 08 39 d3 a1 9f 36 c1 52 0d 39
       0.00025162828 0.00012999201 4.757408e-06 0.00013477636
000050 72 f3 a7 3a e3 45 af 38 a7 79 79 3b 59 cb a3 3a
       0.0012813641 8.357668e-05 0.0038066895 0.0012496515
000060 9c d1 02 37 9b 55 3d 38 db dd ef 39 b9 eb 9b 39
       7.797407e-06 4.5140838e-05 0.00045750928 0.0002973953
000070 b6 2f 73 38 98 2f b3 39 93 dd dd 39 0f bf 7a 39
       5.798015e-05 0.00034177 0.0004231749 0.00023913033
000080 ea 43 14 39 11 80 e0 38 74 f5 2c 3a b4 2c 21 3b
       0.0001413968 0.000107050066 0.00065978547 0.0024593296
000090 6f 58 06 3a 3d 4c 80 37 84 0d d7 39 0f 9a 3a 38
       0.0005124872 1.529429e-05 0.00041018066 4.4489334e-05
0000a0 64 4d d6 38 a7 1f 45 38 48 4c b5 38 56 17 13 39
       0.0001021873 4.699794e-05 8.644961e-05 0.00014027706
0000b0 27 7d 20 38
       3.826353e-05
