logs/my_logs/version_11/checkpoints/epoch=4999-step=5000.ckpt (torch, 40935 bytes, 33 tensors)

encoder.dense1.weight f4 [45, 28]
-0.06230547 -0.11584856 0.10275586 0.07000767 0.16182685 -0.10715821 -0.0175459 -0.061797004
-0.14574632 -0.10222955 0.16005865 0.14930683 -0.09024239 0.08888408 -0.0026192055 -0.09263262
-0.15700117 0.1488335 -0.021722293 -0.027768197 -0.15672217 -0.251725 0.028516615 -0.05424134
0.07893478 -0.04236519 0.15433079 0.15372103 0.07644835 0.1560173 0.08557505 -0.07049747
0.01163246 0.032782156 -0.18042798 0.2188884 -0.026737874 0.24140483 0.21226193 -0.07166433
0.1608063 0.1843697 -0.014724998 -0.07632899 0.05826858 -0.117584385 -0.048881907 0.09295137
0.15512972 -0.0492293 0.1596993 0.053898163 -0.004632758 0.014753547 0.28325024 0.04896091
-0.105853975 -0.12147605 -0.09061705 -0.09996848 0.009315295 -0.09966321 -0.17985828 -0.08904031
0.05325708 0.026810197 0.10166698 -0.123889156 -0.03682395 -0.0018306278 -0.0041598575 -0.021214021
-0.15915857 0.13600029 0.042183038 0.095294245 0.21831638 -0.009918489 0.0030094262 0.052887816
-0.18145138 -0.06393795 0.00056023075 -0.016045984 0.05234902 0.21228477 0.008770013 0.019350449
-0.050796237 0.032805886 0.04860574 -0.0044150273 -0.12366915 0.12673648 -0.07558158 -0.22051418
0.02176997 -0.05909562 0.014800809 -0.12500337 0.28109515 -0.08515686 -0.14125045 -0.12647097
-0.0100273555 -0.037664983 0.19645712 0.2940428 -0.09149394 0.059862386 -0.12639003 -0.051046982
0.036141183 -0.029789817 -0.12968871 -0.036064167 0.081867665 -0.081989445 0.0032838972 -0.05566639
-0.061305653 0.24135467 0.1637447 -0.036430005 0.18128717 0.13273774 0.051983107 -0.2651767
-0.035858627 0.05617228 0.07979285 0.102719896 -0.2598054 0.0687144 0.07940355 0.07598247
0.18472478 0.00975218 0.17938398 0.03373473 -0.037776086 -0.08642802 -0.26861274 -0.015996
-0.05593336 -0.12408716 -0.31311864 -0.06001141 0.061771948 -0.27382162 -0.13341133 -0.01584692
-0.20257798 -0.107771866 -0.088630855 -0.16083337 -0.084510095 0.07634832 -0.0019154269 -0.12759869
-0.31704918 -0.049746126 -0.0022524644 -0.036962472 -0.054389406 -0.13685568 -0.03563767 -0.10840018
-0.021686886 -0.03475416 0.0428816 -0.21606728 -0.06910031 -0.0038575192 0.14139149 -0.027785981
-0.16725606 0.2303098 0.17657372 -0.19904938 0.2612035 0.15679914 -0.28138068 0.07309126
-0.0023561486 -0.13140473 -0.14700696 0.17115033 0.17301309 0.017659795 0.019317502 -0.017938707
0.09793106 0.013989949 0.10126799 -0.03163747 0.1735411 -0.017792938 0.028484741 0.09922429
0.15987583 -0.09848377 0.032170285 0.19464885 -0.04745866 0.059820715 0.13376017 -0.098908015
0.026756076 -0.13029732 -0.24887498 0.0645557 0.104761414 -0.16177028 -0.0048798695 -0.03952365
0.10023239 0.017743414 0.0067136446 -0.069786295 -0.021192022 -0.24932157 0.0040089064 -0.12392539
0.012274912 -0.4225427 -0.014201517 -0.0031827781 -0.00028385094 0.0066840695 -1.8876482e-05 -0.42847326
0.0005146702 0.00088026456 0.015049204 -0.055688187 -0.0002268073 0.016742434 -0.011958653 0.030366104
-0.3963365 0.011756516 -0.0023679999 0.0049571255 -0.0075252494 0.016178729 -0.3495602 -0.4082539
0.011299666 -0.0018248906 0.017026052 0.005091365 0.074777804 -0.13369688 -0.1780755 -0.04924425
00000000: 0534 7fbd 0342 edbd aa71 d23d 2e60 8f3d
00000010: f0b5 253e c375 dbbd 6bbc 8fbc db1e 7dbd
00000020: 863e 15be ba5d d1bd 6ae6 233e e4e3 183e
00000030: 01d1 b8bd db08 b63d faa6 2bbb 2cb6 bdbd
00000040: eac4 20be cf67 183e f3f2 b1bc 217a e3bc
00000050: c77b 20be 19e2 80be ad9b e93c 2b2c 5ebd
00000060: 8fa8 a13d 1f87 2dbd e408 1e3e 0c69 1d3e
00000070: f490 9c3d 00c3 1f3e f941 af3d fa60 90bd
00000080: 1396 3e3c 9546 063d 1dc2 38be 4824 603e
00000090: 6309 dbbc d432 773e 315b 593e c0c4 92bd
000000a0: 68aa 243e 69cb 3c3e 1e41 71bc 6052 9cbd
000000b0: 09ab 6e3d 15d0 f0bd 6538 48bd 4a5d be3d
000000c0: 53da 1e3e aaa4 49bd 3788 233e 52c4 5c3d
000000d0: 64ce 97bb dcb8 713c 2d06 913e 3c8b 483d
000000e0: f8c9 d8bd 6fc8 f8bd 6f95 b9bd 46bc ccbd
000000f0: 2e9f 183c 3a1c ccbd c52c 38be c45a b6bd
00000100: 1924 5a3d 0fa1 db3c c736 d03d 99b9 fdbd
00000110: b6d4 16bd adf1 efba 6a4f 88bb 07c9 adbc
00000120: 77fa 22be a943 0b3e 1fc8 2c3d a129 c33d
00000130: 548e 5f3e 2881 22bc cb39 453b e5a0 583d
00000140: 64ce 39be e6f1 82bd 73dc 123a de72 83bc
00000150: ed6b 563d 2e61 593e 1ab0 0f3c d584 9e3c
00000160: b70f 50bd 775f 063d d016 473d efab 90bb
00000170: 4046 fdbd 35c7 013e 84ca 9abd 78ce 61be
00000180: f056 b23c 400e 72bd 187f 723c e200 00be
00000190: b4eb 8f3e b866 aebd f5a3 10be 9b81 01be
000001a0: c749 24bc 9946 1abd 0e2c 493e c78c 963e
000001b0: 2d61 bbbd 4332 753d 636c 01be a416 51bd
000001c0: c708 143d c609 f4bc 1ecd 04be 05b8 13bd
000001d0: 3caa a73d 15ea a7bd a736 573b 7102 64bd
000001e0: a31b 7bbd ae25 773e b1ac 273e a137 15bd
000001f0: 58a3 393e 67ec 073e 3dec 543d 3ec5 87be
00000200: 7fe0 12bd e814 663d 6f6a a33d cf5e d23d
00000210: 3705 85be 23ba 8c3d 549e a23d b29c 9b3d
00000220: 7e28 3d3e 9cc7 1f3c 6fb0 373e 6e2d 0a3d
00000230: 19bb 1abd 2c01 b1bd 9c87 89be 0b0a 83bc
00000240: 611a 65bd 6921 febd 1651 a0be 86ce 75bd
00000250: 9504 7d3d 5932 8cbe fb9c 08be 66d1 81bc
00000260: 9a70 4fbe 7fb7 dcbd 1884 b5bd 81b1 24be
00000270: a113 adbd 825c 9c3d 100f fbba 3ba9 02be
00000280: 4554 a2be 98c2 4bbd 159e 13bb f665 17bd
00000290: 6dc7 5ebd e523 0cbe cef8 11bd ea00 debd
000002a0: b2a8 b1bc 615a 0ebd 9ea4 2f3d be40 5dbe
000002b0: 7784 8dbd 6fce 7cbb eec8 103e 6d9f e3bc
000002c0: 2c45 2bbe 55d6 6b3e becf 343e 9ad3 4bbe
000002d0: 77bc 853e f48f 203e 2111 90be dfb0 953d
000002e0: 9d69 1abb f68e 06be fe88 16be 0842 2f3e
000002f0: 582a 313e 46ab 903c bd3f 9e3c 32f4 92bc
00000300: 1490 c83d 1936 653c 9865 cf3d 4b96 01bd
00000310: c2b4 313e 7fc2 91bc d558 e93c 1b36 cb3d
00000320: 7db6 233e dcb1 c9bd fdc4 033d 0752 473e
00000330: 0364 42bd 9106 753d 6df8 083e 4990 cabd
00000340: 8f2f db3c a96c 05be 15d9 7ebe c735 843d
00000350: 278d d63d 1ca7 25be 50e7 9fbb 8de3 21bd
00000360: a446 cd3d a35a 913c 22fe db3b 1eec 8ebd
00000370: e49a adbc 274e 7fbe 255d 833b 98cc fdbd
00000380: b61c 493c 8457 d8be 7bad 68bc 2896 50bb
00000390: d4d1 94b9 0a06 db3b f058 9eb7 d960 dbbe
000003a0: efea 063a 8ec1 663a f090 763c 4c19 64bd
000003b0: 1fd3 6db9 6e27 893c 3aee 43bc 56c2 f83c
000003c0: 9eec cabe 679e 403c 7230 1bbb 626f a23b
000003d0: 5e96 f6bb 4189 843c 8ef9 b2be a806 d1be
000003e0: 3c22 393c 2b31 efba 387a 8b3c 77d5 a63b
000003f0: 1b25 993d d6e7 08be 6d59 36be 57b4 49bd

encoder.dense1.bias f4 [45]
0.33925697 0.04335226 0.56521565 0.10087253 -0.17591341 -0.08355273 -0.22371423 0.12219461
0.15160899 0.20407736 0.04663429 -0.5190153 -0.11053168 -0.11576852 -0.3518196 0.36221978
0.44286233 -0.2149266 -0.0043800375 -0.5474606 -0.14583288 -0.0724173 -0.31716964 -0.3298968
0.054843087 0.09297829 -0.3338641 -0.24014705 -0.25518498 0.21557756 0.0031815292 0.64859873
0.30084017 -0.3220985 0.033875216 -0.070187174 0.1557996 -0.03477767 -0.22355895 -0.01745663
0.25025982 -0.02457738 0.093616575 0.48821446 -0.08532032
00000000: 17b3 ad3e 2492 313d f9b1 103f 4296 ce3d
00000010: a522 34be b21d abbd 5815 65be 2b41 fa3d
00000020: 633f 1b3e a8f9 503e 9903 3f3d 30de 04bf
00000030: 6f5e e2bd 0c18 edbd b321 b4be df74 b93e
00000040: dabe e23e b815 5cbe 6b86 8fbb 6126 0cbf
00000050: 3755 15be 854f 94bd 0f64 a2be 3ce8 a8be
00000060: 25a3 603d 676b be3d 3cf0 aabe 1ce9 75be
00000070: 9ba7 82be 5dc0 5c3e 3481 503b 910a 263f
00000080: b907 9a3e 18ea a4be bdc0 0a3d 4bbe 8fbd
00000090: ee89 1f3e 0873 0ebd a3ec 64be 3501 8fbc
000000a0: 0e22 803e 8056 c9bc 0cba bf3d 3ff7 f93e
000000b0: 6cbc aebd

encoder.dense3m.weight f4 [3, 45]
-0.08359673 0.14302981 -0.2026275 -0.045813236 0.25402543 0.18650052 0.029492626 -0.0034928697
-0.0064367903 0.0007914431 0.12463018 0.3928353 0.12915936 -0.025001585 0.10293671 -0.14392148
-0.2100401 0.26248747 0.28496385 -0.089135185 0.11474379 0.14660658 0.33643565 0.29221517
0.12196272 -0.010651247 -0.005962678 0.21651882 0.10080433 -0.3564262 -0.18061854 -0.3003191
-0.01845774 0.24671859 0.06649938 0.23196562 0.027645934 -0.05150131 0.14255749 0.045592252
-0.1583067 0.16414753 -0.29903588 -0.18320139 0.095460035 0.37593982 -0.10655559 0.20695095
-0.27324712 -0.08054448 -0.007674389 0.044734735 -0.10536775 0.15090157 0.05125597 0.18545564
0.05844533 0.07262607 -0.3940647 -0.060902365 0.21443872 -0.015218529 -0.33398283 0.08953405
0.014519407 0.16152893 0.18490763 -0.18037103 -0.10148073 -0.014057736 -0.06408923 -0.19106317
-0.015393343 -0.24918228 0.022745777 -0.32580894 0.06255817 0.13416345 -0.48004413 0.03137421
-0.009769521 0.012221744 -0.3012757 0.1351611 0.056508 0.14540938 -0.118428275 -0.047402807
0.29583985 0.041566193 -0.25683552 -0.19127494 -0.28991565 -0.080850974 -0.06844118 0.28452814
-0.11362567 -0.1775611 -0.027733592 -0.14944303 -0.041272514 0.31962264 0.25203413 0.10286527
0.2933568 -0.16489433 -0.22495036 -0.10541004 -0.10488644 0.3143814 0.0999624 0.1654911
0.08564843 0.35481587 -0.18787329 -0.18230478 0.25245318 0.20611618 0.12711112 0.08455716
-0.016258264 -0.42244214 -0.15678893 0.0017080014 -0.029757107 -0.13101135 -0.23840636 0.039422218
0.15549354 0.1985963 0.049487777 0.0503763 -0.03052331 -0.07180172 0.17301106
00000000: c334 abbd 6876 123e 957d 4fbe a9a6 3bbd
00000010: 9f0f 823e fef9 3e3e 859a f13c a1e8 64bb
00000020: b6eb d2bb d978 4f3a 1c3e ff3d b521 c93e
00000030: 5a42 043e 20d0 ccbc 7bd0 d23d 2760 13be
00000040: c114 57be c264 863e c8e6 913e 828c b6bd
00000050: cbfe ea3d 0920 163e 4b41 ac3e 3a9d 953e
00000060: 97c7 f93d 9182 2ebc 9262 c3bb 1cb7 5d3e
00000070: 8072 ce3d 7f7d b6be 11f4 38be 6dc3 99be
00000080: b034 97bc cca3 7c3e d430 883d 6588 6d3e
00000090: ba79 e23c 0af3 52bd 97fa 113e f1be 3a3d
000000a0: 271b 22be 4a16 283e 3b1b 99be 2599 3bbe
000000b0: 8d80 c33d 2f7b c03e d139 dabd f3ea 533e
000000c0: 0ce7 8bbe 81f4 a4bd 7179 fbbb c53b 373d
000000d0: 0ccb d7bd f185 1a3e c8f1 513d 15e8 3d3e
000000e0: 5f64 6f3d fabc 943d d9c2 c9be c274 79bd
000000f0: d395 5b3e 2357 79bc ccff aabe a15d b73d
00000100: cfe2 6d3c d767 253e 6d58 3d3e 2fb3 38be
00000110: 21d5 cfbd 6b52 66bc 3741 83bd 10a6 43be
00000120: 5c34 7cbc a429 7fbe 5a55 ba3c 6ed0 a6be
00000130: 7f1e 803d 2562 093e 58c8 f5be 3e82 003d
00000140: 5710 20bc b63d 483c cf40 9abe ac67 0a3e
00000150: ef74 673d 32e6 143e 868a f2bd 7229 42bd
00000160: 5278 973e 5041 2a3d f27f 83be 94dd 43be
00000170: d36f 94be 3295 a5bd e42a 8cbd acad 913e
00000180: 93b4 e8bd 94d2 35be 8f31 e3bc 9807 19be
00000190: 5e0d 29bd 94a5 a33e 9e0a 813e 07ab d23d
000001a0: dd32 963e 0fda 28be 6359 66be 38e1 d7bd
000001b0: b4ce d6bd 99f6 a03e 16b9 cc3d 8076 293e
000001c0: 7268 af3d 6daa b53e db61 40be 1bae 3abe
000001d0: 8b41 813e 1f10 533e 6b29 023e 4e2c ad3d
000001e0: 0d30 85bc 564a d8be 478d 20be 04df df3a
000001f0: 2dc5 f3bc d727 06be cc20 74be 3179 213d
00000200: b339 1f3e d45c 4b3e b2b3 4a3d 6157 4e3d
00000210: 050c fabc c80c 93bd d029 313e

encoder.dense3m.bias f4 [3]
-0.074892744 0.25309545 -0.19628955
00000000: 5e61 99bd ba95 813e 2100 49be

encoder.dense3s.weight f4 [3, 45]
0.054248016 -0.0009789671 -0.24729995 -0.04890641 -0.04557485 0.4683096 0.24576436 0.08705628
-0.03343058 -0.032806132 0.14363194 0.34398457 -0.0040503587 0.064008564 0.07567535 -0.08502957
-0.03912474 -0.010256209 -0.04438249 -0.03565341 0.059536785 -0.034083102 0.05535051 0.038376883
-0.023875859 -0.09516197 0.029433928 -0.014408419 0.03185153 0.01077825 -0.015577719 0.11407847
-0.147429 0.11758966 -0.04822414 -0.09443543 0.044523682 0.0452662 -0.0035191367 -0.07710096
0.0054267365 -0.13763563 0.39906734 0.044406664 0.016532049 -0.118107006 0.025825648 -0.1637751
0.07038042 0.10841541 0.023015773 -0.01357435 0.056799076 0.44060814 -0.08615296 -0.087784275
-0.043249305 0.08009957 0.07327443 0.0007776686 -0.082524 -0.022841442 -0.052669376 -0.0154979685
-0.016875505 -0.07101604 -0.055358134 0.044387043 0.09493107 -0.06837286 -0.07784544 -0.02439795
0.11042601 0.078171164 -0.046328295 0.015802544 -0.026616953 -0.03236664 0.050698135 -0.14026952
0.07158832 -0.016534453 0.16891749 0.063242264 0.1072788 -0.08197557 0.04698276 0.004335753
-0.12742585 0.049672596 -0.053120166 -0.0970489 -0.024514057 -0.014092644 -0.0058084372 0.24277276
-0.03266127 0.08382466 0.009267282 -0.09790505 -0.0442307 0.109815806 0.06699444 0.023107897
0.04825131 -0.0979245 -0.12399562 0.13240226 0.009801758 0.306314 0.048121646 0.006716924
0.23632248 -0.0032173025 -0.04558277 0.016142929 0.0042044707 0.060207292 -0.034819447 0.0019172882
-0.01846925 0.15480319 -0.048465434 0.0699457 -0.03030592 0.31753713 -0.05114797 0.048793353
0.01438 -0.09644943 -0.098962985 -0.09202977 -0.012746312 -0.04664814 0.0248527
00000000: 2b33 5e3d af50 80ba 333c 7dbe 1652 48bd
00000010: b2ac 3abd 47c6 ef3e a7a9 7b3e 904a b23d
00000020: 81ee 08bd b95f 06bd 4014 133e bf1e b03e
00000030: dfb8 84bb ec16 833d aefb 9a3d fc23 aebd
00000040: 4341 20bd a909 28bc 6aca 35bd 4f09 12bd
00000050: d8dc 733d b99a 0bbd 37b7 623d 1431 1d3d
00000060: 4e97 c3bc 47e4 c2bd 6c1f f13c 4a11 6cbc
00000070: c076 023d 4297 303c b039 7fbc f9a1 e93d
00000080: a1f7 16be d9d2 f03d ad86 45bd 5d67 c1bd
00000090: 775e 363d 0d69 393d 51a1 66bb 1ce7 9dbd
000000a0: c4d2 b13b 5bf0 0cbe 8e52 cc3e c3e3 353d
000000b0: 386e 873c 16e2 f1bd 4f90 d33c a9b4 27be
000000c0: 9c23 903d e608 de3d 938b bc3c f366 5ebc
000000d0: 26a6 683d 6497 e13e f770 b0bd 3ec8 b3bd
000000e0: 2f26 31bd 3e0b a43d e810 963d 75dc 4b3a
000000f0: 5802 a9bd fa1d bbbc d8bb 57bd 31eb 7dbc
00000100: 803e 8abc dc70 91bd 36bf 62bd 30cf 353d
00000110: 396b c23d 1207 8cbd 6e6d 9fbd 36de c7bc
00000120: 0827 e23d 3418 a03d bdc2 3dbd 5674 813c
00000130: cc0b dabc e292 04bd d9a8 4f3d d0a2 0fbe
00000140: e69c 923d 4373 87bc b5f8 2c3e 2985 813d
00000150: fdb4 db3d cfe2 a7bd ff70 403d ef12 8e3b
00000160: ec7b 02be 7e75 4b3d 8894 59bd 93c1 c6bd
00000170: b4d1 c8bc d5e4 66bc b454 bebb 6c99 783e
00000180: d3c7 05bd 43ac ab3d ccd5 173c 7182 c8bd
00000190: 402b 35bd 1ce7 e03d 6234 893d c64c bd3c
000001a0: 2aa3 453d a48c c8bd 6af1 fdbd 7594 073e
000001b0: 8e97 203c 30d5 9c3e 341b 453d a419 dc3b
000001c0: 85fe 713e 61d9 52bb 00b5 3abd 2d3e 843c
000001d0: a8c5 893b ec9b 763d d69e 0ebd 844d fb3a
000001e0: d34c 97bc ba84 1e3e b183 46bd b13f 8f3d
000001f0: 1f44 f8bc 3a94 a23e 8980 51bd 8adb 473d
00000200: 179a 6b3c 4787 c5bd 1bad cabd 1b7a bcbd
00000210: e8d5 50bc 1f12 3fbd e497 cb3c

encoder.dense3s.bias f4 [3]
-0.038638853 0.00996296 0.019907033
00000000: c643 1ebd af3b 233c 1314 a33c

decoder.linear.bias f4 [28]
0.62144 0.14280048 -0.50498307 0.9769178 1.0045965 -1.1040579 -0.6390112 1.2269397
0.56967056 -1.3485465 -0.15032914 1.462559 -0.51621974 0.18982595 -0.30419725 0.27414113
-0.17357236 0.59927166 0.3950561 -0.013329264 -0.49658236 -0.8879598 0.25916126 -0.77003205
-0.104578786 -0.96216995 1.0273349 -1.5802746
00000000: b116 1f3f 4a3a 123e 9246 01bf 4917 7a3f
00000010: 9e96 803f c551 8dbf 3d96 23bf 5c0c 9d3f
00000020: eed5 113f 2c9d acbf e2ef 19be 2235 bb3f
00000030: fa26 04bf bc61 423e bebf 9bbe 3a5c 8c3e
00000040: f4bc 31be de69 193f cb44 ca3e fc62 5abc
00000050: 0b40 febe 5551 63bf c9b0 843e d220 45bf
00000060: 672d d6bd c550 76bf b67f 833f 7046 cabf

decoder.linear.weight_orig f4 [28, 3]
0.7722278 0.23692566 -0.4484479 0.5185106 -1.4192326 -0.060282588 0.50214857 -0.41203642
1.4715517 -0.46613532 -0.3390199 0.8981473 -0.15734455 0.24289525 0.50380385 -0.36403108
0.5195199 1.2866598 1.0583218 -0.015928686 1.6262923 -0.30434236 -1.346152 -0.18656242
0.26533145 -0.49220774 1.2864792 1.5744548 0.15180755 0.14284742 1.384394 -0.53070617
0.3877824 0.6353227 0.105113566 1.2603017 1.8372592 0.33954042 -0.5081521 1.164718
0.07025844 -0.14105052 0.28740746 -0.4893006 1.7790799 1.6456991 -0.55145913 1.3838903
0.5445094 -1.2296602 1.5441875 -0.13971367 0.5234586 1.1911647 0.47375894 -0.0823884
1.3593131 1.4758533 0.31358665 0.60886705 1.2553059 0.04462886 1.436055 -0.33649594
0.21920604 1.1854763 0.45515037 -1.0177171 -0.16194966 -0.41109803 -1.5799628 -0.20317739
1.017642 0.20184869 -0.5445908 0.3711908 -0.04300791 1.8017739 1.6716981 -0.002397716
0.017540157 0.32049733 -0.30453038 0.9097115
00000000: b9b0 453f a49c 723e f79a e5be 1cbd 043f
00000010: 6aa9 b5bf e0ea 76bd cf8c 003f 70f6 d2be
00000020: ce5b bc3f 4aa9 eebe 0494 adbe fbec 653f
00000030: ee1e 21be 88b9 783e 4af9 003f 4862 babe
00000040: 42ff 043f 45b1 a43f 1777 873f e07c 82bc
00000050: 592a d03f c3d2 9bbe b54e acbf 380a 3fbe
00000060: 86d9 873e a702 fcbe 5aab a43f bc87 c93f
00000070: 7073 1b3e 9846 123e d333 b13f 5cdc 07bf
00000080: 6a8b c63e 82a4 223f c845 d73d 9151 a13f
00000090: 4f2b eb3f 3ed8 ad3e 4216 02bf 7b15 953f
000000a0: a8e3 8f3d 8c6f 10be 1227 933e 9c85 fabe
000000b0: e4b8 e33f 45a6 d23f 6d2c 0dbf 5123 b13f
000000c0: f864 0b3f 8165 9dbf f0a7 c53f 1a11 0fbe
000000d0: 6201 063f 1678 983f 8890 f23e 40bb a8bd
000000e0: f9fd ad3f c3e8 bc3f 6e8e a03e b6de 1b3f
000000f0: ddad a03f c0cc 363d a6d0 b73f 3249 acbe
00000100: 8c77 603e b0bd 973f 7809 e93e 8e44 82bf
00000110: 22d6 25be 717b d2be 393c cabf bc0d 50be
00000120: 1842 823f 6cb1 4e3e 4d6a 0bbf b80c be3e
00000130: 1029 30bd 87a0 e63f 34fa d53f 0023 1dbb
00000140: 60b0 8f3c 3a18 a43e 68eb 9bbe dae2 683f

decoder.linear.weight_mask f4 [28, 3]
1.0 0.0 0.0 0.0 1.0 0.0 1.0 0.0
1.0 0.0 0.0 1.0 0.0 0.0 1.0 0.0
0.0 1.0 1.0 0.0 1.0 0.0 1.0 0.0
0.0 0.0 1.0 1.0 0.0 0.0 1.0 0.0
1.0 1.0 0.0 1.0 1.0 0.0 0.0 1.0
0.0 0.0 0.0 0.0 1.0 1.0 0.0 1.0
0.0 1.0 1.0 0.0 0.0 1.0 0.0 0.0
1.0 1.0 0.0 1.0 1.0 0.0 1.0 0.0
0.0 1.0 0.0 1.0 0.0 0.0 1.0 0.0
1.0 0.0 0.0 0.0 0.0 1.0 1.0 0.0
0.0 0.0 0.0 1.0
00000000: 0000 803f 0000 0000 0000 0000 0000 0000
00000010: 0000 803f 0000 0000 0000 803f 0000 0000
00000020: 0000 803f 0000 0000 0000 0000 0000 803f
00000030: 0000 0000 0000 0000 0000 803f 0000 0000
00000040: 0000 0000 0000 803f 0000 803f 0000 0000
00000050: 0000 803f 0000 0000 0000 803f 0000 0000
00000060: 0000 0000 0000 0000 0000 803f 0000 803f
00000070: 0000 0000 0000 0000 0000 803f 0000 0000
00000080: 0000 803f 0000 803f 0000 0000 0000 803f
00000090: 0000 803f 0000 0000 0000 0000 0000 803f
000000a0: 0000 0000 0000 0000 0000 0000 0000 0000
000000b0: 0000 803f 0000 803f 0000 0000 0000 803f
000000c0: 0000 0000 0000 803f 0000 803f 0000 0000
000000d0: 0000 0000 0000 803f 0000 0000 0000 0000
000000e0: 0000 803f 0000 803f 0000 0000 0000 803f
000000f0: 0000 803f 0000 0000 0000 803f 0000 0000
00000100: 0000 0000 0000 803f 0000 0000 0000 803f
00000110: 0000 0000 0000 0000 0000 803f 0000 0000
00000120: 0000 803f 0000 0000 0000 0000 0000 0000
00000130: 0000 0000 0000 803f 0000 803f 0000 0000
00000140: 0000 0000 0000 0000 0000 0000 0000 803f

exp_avg f4 [45, 28]
0.0024509646 0.00067590445 0.002007536 0.0027789178 0.0032593533 0.0013908558 0.00191743 0.004439266
0.0027214775 0.0018323689 0.0018974404 0.00272207 0.0019887083 0.0032247454 0.0025118482 0.0037580747
0.0016745172 0.002218169 0.0021415576 0.0027479967 0.001344999 0.0019119517 0.0034890412 0.0013112099
0.002763198 0.0024744757 0.0010428699 0.0005636593 0.00091830234 0.0007331129 0.000366851 0.00069756084
0.0005778298 0.00019450637 8.9443434e-05 0.0009151749 0.00057832664 0.0006248668 0.0006041358 4.6575267e-05
0.0005968134 0.0006157575 0.0004994838 0.0007679388 0.00040129456 0.0006871518 0.00019049173 0.0007380813
0.00028873284 0.00015971175 0.0017009357 0.00094375137 0.00067118113 1.365901e-05 0.00021853592 0.00011070208
0.0032297217 0.0017468876 0.0022744997 0.0031936443 0.00465364 0.0011540563 0.0022523776 0.0056064185
0.003646956 0.0017802134 0.0029957434 0.0032763924 0.002989198 0.0035249256 0.0036415532 0.004314203
0.0022455393 0.0028853468 0.0034355717 0.0026471755 0.0014131237 0.002566143 0.0054657576 0.002157212
0.0029017297 0.0033952524 0.0020817898 0.0009917853 0.00045535224 0.0005080115 -6.0117298e-05 0.0005001328
0.0004440474 -0.00034095615 -7.3142626e-05 0.00038792237 0.00024208205 -0.00018091894 0.00043660862 4.3212378e-05
0.000659486 0.00012684509 0.00031191873 0.00023595165 -4.0381572e-05 0.0006159579 0.0005373173 0.0002502136
5.4838994e-05 -0.00012310325 0.0010929569 0.00027689122 -8.654068e-06 7.975397e-05 0.0006409474 4.4900942e-05
-0.00032108312 0.00032712665 -0.00026978285 -0.0004774016 -0.00079236133 -0.00010032664 -0.0007156597 -0.00090643414
-0.0005072287 0.00020538991 -0.00036263437 -0.00092538254 -0.0005733756 -0.00087748363 -0.00061223 -0.00065975345
0.00015625532 -0.00060465874 -0.00076277484 -0.0005387622 -0.000121468154 -0.00044577537 0.00014406141 0.0006479233
-0.00068480056 -0.00094759226 -0.00044925307 -0.00020589725 -0.0005064398 -0.00063000806 -7.0472786e-05 -0.0010701882
-0.001843275 6.814604e-05 -0.0006168333 -0.0013924111 -0.00060832815 -0.00015543781 -0.0013339433 -5.8075035e-05
-0.00065796875 -0.00050037453 -0.0011123385 -0.00068776315 -0.00036573608 -0.0005521215 -0.0017414632 -0.00046183896
-4.8618767e-05 -0.00075412844 -0.0019836302 -0.0007596438 -0.00057878625 -0.0008822181 -0.00018625008 -0.00037434517
0.0005443783 -0.00010944622 0.0006111024 0.0007871929 0.0005490752 0.00042582126 0.00031665445 0.0005659582
0.00047934445 0.0002591101 0.00022420913 0.0005834147 0.0002782038 0.0010440421 0.00013865606 0.0010506276
0.00029978759 0.00067191466 0.00024416953 0.0010847249 0.00040336806 -2.7069465e-05 0.000347896 -3.67955e-05
0.0008832918 0.00026969376 0.00037150853 -9.974343e-05 0.0012168676 0.00065572944 0.0006020112 0.0010993248
0.00124484 0.0004005802 0.00058346766 0.0015839697 0.0011267222 0.00052308425 0.000836935 0.0008019797
0.0011160336 0.0013282353 0.0007497334 0.0014225508 0.00067048793 0.0011261988 0.0011284902 0.0013185588
0.0002771754 7.1988616e-06 0.0022027 0.00072134734 0.0010308473 0.00068225514 0.0011978159 7.1978575e-06
-0.00053829275 -3.5039444e-05 -0.0005922138 -0.0002675731 -6.923797e-05 -0.0005244402 -0.00034448935 -0.00019755504
-0.0005283784 5.5978016e-06 -0.00027262687 -0.000644607 -0.00045056804 -0.0006034225 0.00019914757 -0.00047917978
7.981088e-05 -0.00022052231 0.00046977177 -0.0005480363 -0.00043938335 2.1066393e-05 0.0002483797 0.00025931708
-0.0007411045 4.5692108e-05 -4.8133923e-05 -0.00013176317 0.0009986648 0.00029993843 0.00067722186 0.0010129663
00000000: 5da0 203b 2e2f 313a dd90 033b 811e 363b
00000010: e09a 553b 604d b63a 4652 fb3a 4377 913b
00000020: d15a 323b 192c f03a 89b3 f83a c264 323b
00000030: fd54 023b 4056 533b d29d 243b 084a 763b
00000040: 797b db3a b35e 113b 6059 0c3b bc17 343b
00000050: ad4a b03a 749a fa3a 66a8 643b e7dc ab3a
00000060: c516 353b d02a 223b e8b0 883a 89c2 133a
00000070: 3aba 703a 602e 403a e855 c039 84dc 363a
00000080: 8079 173a 68f4 4b39 9493 bb38 59e8 6f3a
00000090: d89a 173a 1ace 233a de5e 1e3a d059 4338
000000a0: 7873 1c3a c96a 213a caef 023a 804f 493a
000000b0: d864 d239 fa21 343a bcbe 4739 cc7b 413a
000000c0: 1161 9739 4c78 2739 eef1 de3a 1566 773a
000000d0: 34f2 2f3a 0029 6537 ca26 6539 ba28 e838
000000e0: bda9 533b d2f7 e43a c60f 153b 764c 513b
000000f0: 907d 983b b443 973a a09c 133b 0cb6 b73b
00000100: c501 6f3b 0d56 e93a 3c54 443b beb8 563b
00000110: 6ce6 433b 7002 673b 20a7 6e3b 285e 8d3b
00000120: e629 133b 1618 3d3b 5427 613b 3c7c 2d3b
00000130: 9038 b93a bc2c 283b 191a b33b 0360 0d3b
00000140: f22a 3e3b e282 5e3b a36e 083b cbfe 813a
00000150: 58bc ee39 132c 053a 7526 7cb8 581b 033a
00000160: 08cf e839 5cc2 b2b9 2664 99b8 0f62 cb39
00000170: 68d7 7d39 0fb5 3db9 9ee8 e439 f03e 3538
00000180: 5be1 2c3a b801 0539 0689 a339 ca69 7739
00000190: 625f 29b8 3c78 213a c1da 0c3a 1a2f 8339
000001a0: ec02 6638 4715 01b9 8c41 8f3a b62b 9139
000001b0: f030 11b7 9641 a738 4005 283a 0554 3c38
000001c0: 0c57 a8b9 3282 ab39 a471 8db9 c24b fab9
000001d0: 78b6 4fba 7466 d2b8 1c9b 3bba c49d 6dba
000001e0: 8bf7 04ba ef5d 5739 f61f beb9 5f95 72ba
000001f0: 964e 16ba ee06 66ba 0f7e 20ba 4ef3 2cba
00000200: 78d8 2339 f681 1eba f4f4 47ba b83b 0dba
00000210: b8bc feb8 f5b6 e9b9 310f 1739 66d9 293a
00000220: 3084 33ba d767 78ba ba89 ebb9 1fe6 57b9
00000230: 9ac2 04ba 2027 25ba caca 93b8 8f45 8cba
00000240: 0c9a f1ba a0e9 8e38 fbb2 21ba 9081 b6ba
00000250: 3678 1fba 05fd 22b9 b6d7 aeba 9895 73b8
00000260: 897b 2cba 912b 03ba e3cb 91ba 014b 34ba
00000270: 44c0 bfb9 3fbc 10ba cf41 e4ba fa22 f2b9
00000280: 01ec 4bb8 b4b0 45ba cbff 01bb d522 47ba
00000290: b0b9 17ba a844 67ba 204c 43b9 c243 c4b9
000002a0: 9cb4 0e3a 7e86 e5b8 6332 203a 9f5b 4e3a
000002b0: d0ef 0f3a c340 df39 a404 a639 d05c 143a
000002c0: 8650 fb39 2bd9 8739 ae19 6b39 4cf0 183a
000002d0: e2db 9139 3dd8 883a 3464 1139 36b5 893a
000002e0: cf2c 9d39 6e23 303a e103 8039 542d 8e3a
000002f0: 257b d339 3c13 e3b7 d065 b639 de54 1ab8
00000300: b68c 673a af65 8d39 08c7 c239 592d d1b8
00000310: 4d7f 9f3a 42e5 2b3a 4ad0 1d3a 3817 903a
00000320: e629 a33a f704 d239 daf3 183a 349d cf3a
00000330: 86ae 933a 971f 093a c265 5b3a f23b 523a
00000340: e047 923a 2e18 ae3a c289 443a e274 ba3a
00000350: afc3 2f3a f69c 933a d9e9 933a 7ed3 ac3a
00000360: da51 9139 c08d f136 2c5b 103b cd18 3d3a
00000370: 7f1d 873a 5ed9 323a 0800 9d3a 2085 f136
00000380: 371c 0dba 51f7 12b8 cc3e 1bba 0e49 8cb9
00000390: da33 91b8 967a 09ba 949c b4b9 c726 4fb9
000003a0: e082 0aba c0d4 bb36 5cef 8eb9 d8fa 28ba
000003b0: 383a ecb9 002f 1eba 45d2 5039 6c3a fbb9
000003c0: 2460 a738 023c 67b9 b34b f639 18aa 0fba
000003d0: 095d e6b9 bcb7 b037 f638 8239 f3f4 8739
000003e0: ae46 42ba 87a5 3f38 68e3 49b8 e829 0ab9
000003f0: a1e5 823a 0e41 9d39 9787 313a 82c5 843a

exp_avg_sq f4 [45, 28]
0.00020341272 0.00014446312 0.00010727493 0.00024058882 0.00024771778 5.4528842e-05 0.00011015939 0.00023715843
0.00019410657 5.229512e-05 0.00013732743 0.0002847312 0.00010948279 0.00015877328 0.00011741451 0.0001764525
0.00013054501 0.00019739069 0.00017904404 0.00015509126 0.00011676837 6.70103e-05 0.00015683348 7.8654775e-05
0.0001323954 7.649392e-05 0.00022805367 3.0218232e-05 2.4210847e-05 1.7255932e-05 1.2276856e-05 2.662999e-05
2.7984512e-05 6.2151803e-06 1.1917679e-05 2.719254e-05 2.1101145e-05 6.9022376e-06 1.6079312e-05 3.1436113e-05
1.3699706e-05 1.8647032e-05 1.2936673e-05 1.9757386e-05 1.4715424e-05 2.1788006e-05 1.9662135e-05 1.7371358e-05
1.2967072e-05 7.9660085e-06 1.9100436e-05 1.0457913e-05 1.6209995e-05 8.523325e-06 2.6416921e-05 3.7140185e-06
0.00028003924 0.00020619745 0.00014623418 0.0003434226 0.0003531758 7.886128e-05 0.00014391885 0.00033793197
0.00028085467 6.737153e-05 0.00018345167 0.00039943357 0.00014424068 0.00021741747 0.00016697632 0.00023864394
0.00018355559 0.00028625343 0.00025590177 0.00020766383 0.00016182213 9.671145e-05 0.00022819512 0.00011550539
0.00017588797 0.00010767734 0.00031399744 4.3152115e-05 1.7002583e-05 1.3672948e-05 8.604379e-06 1.9244899e-05
1.9318337e-05 5.0124095e-06 8.39542e-06 2.0060203e-05 1.49242005e-05 4.4676117e-06 9.829656e-06 2.0730431e-05
8.678944e-06 1.1745085e-05 9.759793e-06 1.2479258e-05 1.2058895e-05 1.49399675e-05 1.3248978e-05 1.0453236e-05
8.952449e-06 5.930926e-06 1.42470935e-05 8.05022e-06 9.526325e-06 6.3864586e-06 1.6972424e-05 2.62803e-06
3.6685517e-05 2.567607e-05 1.9026558e-05 3.9942242e-05 4.213829e-05 1.0102418e-05 1.9116102e-05 4.0271512e-05
3.3052977e-05 1.009908e-05 2.4857838e-05 4.841758e-05 2.0856745e-05 2.9397186e-05 2.0777374e-05 3.1954798e-05
2.2934046e-05 3.3507567e-05 3.0238445e-05 2.7840035e-05 2.0530628e-05 1.2531225e-05 2.75548e-05 1.4400291e-05
2.5115356e-05 1.3637381e-05 4.293294e-05 5.737487e-06 2.3925712e-05 2.2865064e-05 6.3087928e-06 3.4009143e-05
3.544842e-05 5.5199926e-06 4.3803398e-06 3.6274938e-05 2.5758221e-05 2.4359892e-06 9.233853e-06 3.1759675e-05
7.1763375e-06 1.51197355e-05 1.1679942e-05 9.757179e-06 1.30655735e-05 2.7647793e-05 2.2081565e-05 9.583692e-06
4.6195196e-06 7.830691e-06 2.7525459e-05 1.3670489e-05 1.3638691e-05 6.6888597e-06 2.373584e-05 3.641957e-06
1.8083789e-05 1.2110222e-05 9.721755e-06 1.7588447e-05 1.8362076e-05 4.491055e-06 1.1103408e-05 1.8255792e-05
1.42596355e-05 7.6216866e-06 1.5107588e-05 2.1644355e-05 1.3557985e-05 1.6590668e-05 8.407479e-06 1.729293e-05
1.0617146e-05 1.4025987e-05 1.2996112e-05 1.5985495e-05 1.2561142e-05 5.8413093e-06 1.2591884e-05 6.8125587e-06
1.359938e-05 6.2516156e-06 2.153424e-05 2.6282255e-06 3.6226076e-05 2.557486e-05 2.061571e-05 4.2136264e-05
4.2672167e-05 1.0673294e-05 2.125691e-05 4.07839e-05 3.4638506e-05 1.0414599e-05 2.5912073e-05 4.9001792e-05
2.0157151e-05 2.7583203e-05 2.1468753e-05 3.2339733e-05 2.5527697e-05 3.3736043e-05 3.2279262e-05 2.7743117e-05
2.3593377e-05 1.3397945e-05 2.7238024e-05 1.45915565e-05 2.3169818e-05 1.4217744e-05 3.9272123e-05 5.8367445e-06
5.0008834e-06 2.7089388e-06 3.399251e-06 7.1762634e-06 7.0038996e-06 1.9812924e-06 3.3893396e-06 4.7047197e-06
5.5509827e-06 1.9561219e-06 4.3463237e-06 7.573472e-06 3.6781553e-06 5.178859e-06 3.653494e-06 5.046158e-06
2.4486299e-06 5.901186e-06 5.3649355e-06 4.624088e-06 3.5206995e-06 2.52278e-06 3.1713184e-06 1.6570702e-06
4.042402e-06 2.5122847e-06 6.8019426e-06 1.2662593e-06 3.269686e-05 2.198361e-05 1.3764624e-05 3.5937224e-05
00000000: 304b 5539 067b 1739 caf8 e038 9246 7c39
00000010: 1ee0 8139 e6b5 6438 5f05 e738 bbad 7839
00000020: 1689 4b39 7557 5b38 8dff 0f39 fa47 9539
00000030: 209a e538 617c 2639 6f3c f638 1b06 3939
00000040: e9e2 0839 a9fa 4e39 c5bd 3b39 fe9f 2239
00000050: 8be1 f438 e287 8c38 ab73 2439 76f3 a438
00000060: 9fd3 0a39 5c6b a038 b121 6f39 297d fd37
00000070: 6618 cb37 d5c0 9037 b2f8 4d37 7863 df37
00000080: 48c0 ea37 fe8b d036 0bf2 4737 891b e437
00000090: 5d02 b137 c599 e736 0fe2 8637 45da 0338
000000a0: cad7 6537 326c 9c37 960a 5937 aabc a537
000000b0: 44e2 7637 63c5 b637 1df0 a437 b5b8 9137
000000c0: 268d 5937 bfa5 0537 e039 a037 6574 2f37
000000d0: b3fa 8737 67ff 0e37 e899 dd37 5a3e 7936
000000e0: 3bd2 9239 b536 5839 7056 1939 670d b439
000000f0: 742a b939 5462 a538 ece8 1639 762c b139
00000100: ad3f 9339 d149 8d38 ef5c 4039 116b d139
00000110: 503f 1739 8ffa 6339 5d16 2f39 7f3c 7a39
00000120: d478 4039 4914 9639 8e2a 8639 56c0 5939
00000130: ccae 2939 90d1 ca38 a947 6f39 7c3b f238
00000140: 916e 3839 d5d0 e138 06a0 a439 3bfe 3438
00000150: c5a0 8e37 dd64 6537 875b 1037 1b70 a137
00000160: d00d a237 4530 a836 0eda 0c37 f546 a837
00000170: f462 7a37 7ee8 9536 0dea 2437 43e6 ad37
00000180: c89b 1137 c20c 4537 febd 2337 015e 5137
00000190: 8f50 4a37 aca6 7a37 ed47 5e37 4f60 2f37
000001a0: 7a32 1637 4402 c736 cd06 6f37 6e0f 0737
000001b0: 41d3 1f37 434b d636 0160 8e37 365d 3036
000001c0: c6de 1938 f162 d737 399b 9f37 a887 2738
000001d0: a5bd 3038 8e7d 2937 845b a037 35e9 2838
000001e0: 5da2 0a38 386f 2937 cd85 d037 fb13 4b38
000001f0: 85f5 ae37 fa99 f637 124b ae37 3407 0638
00000200: 7d62 c037 7a8a 0c38 91a8 fd37 058a e937
00000210: 3039 ac37 343d 5237 7c25 e737 c798 7137
00000220: d1ae d237 1bcc 6437 e512 3438 a384 c036
00000230: 13b4 c837 5ace bf37 1eb0 d336 0aa5 0e38
00000240: 73ae 1438 6038 b936 d5fa 9236 eb25 1838
00000250: 5c13 d837 fa79 2336 19eb 1a37 b135 0538
00000260: 45cc f036 c5aa 7d37 f8f4 4337 c4b2 2337
00000270: 3634 5b37 2fed e737 cd3b b937 a5c9 2037
00000280: 5f01 9b36 9060 0337 79e6 e637 4e5a 6537
00000290: bbd1 6437 de70 e036 541c c737 5868 7436
000002a0: a4b2 9737 022d 4b37 9f1a 2337 e78a 9337
000002b0: 4208 9a37 deb1 9636 c648 3a37 0424 9937
000002c0: ab3c 6f37 cabd ff36 9976 7d37 e690 b537
000002d0: 1a77 6337 302c 8b37 d90d 0d37 4910 9137
000002e0: 4b20 3237 2851 6b37 e009 5a37 9718 8637
000002f0: b2bd 5237 7700 c436 bb41 5337 6f97 e436
00000300: e428 6437 f8c4 d136 6ea4 b437 9260 3036
00000310: 74f1 1738 9889 d637 e6ef ac37 78bb 3038
00000320: e4fa 3238 7311 3337 de50 b237 610f 2b38
00000330: d048 1138 5dba 2e37 c15d d937 4687 4d38
00000340: 2717 a937 7a62 e737 cc17 b437 86a4 0738
00000350: 5024 d637 cd7f 0d38 9863 0738 e4b9 e837
00000360: 64ea c537 bcc7 6037 367d e437 42ce 7437
00000370: ce5c c237 bf88 6e37 1fb8 2438 41d9 c336
00000380: 43cd a736 37cb 3536 b01e 6436 a2cb f036
00000390: 0a03 eb36 58f6 0436 6974 6336 3cdd 9d36
000003a0: 9442 ba36 eb45 0336 a3d6 9136 a11f fe36
000003b0: 3ad6 7636 0fc6 ad36 8d2e 7536 2b52 a936
000003c0: 2453 2436 cd02 c636 7204 b436 9d28 9b36
000003d0: 2845 6c36 084d 2936 d6d2 5436 8068 de35
000003e0: f8a3 8736 b998 2836 3e3c e436 57f4 a935
000003f0: fc23 0938 7169 b837 9cee 6637 4dbb 1638

max_exp_avg_sq f4 [45, 28]
0.00023405324 0.00016328227 0.00012624914 0.00027609724 0.0002877395 6.422975e-05 0.00012801305 0.0002735101
0.00022516094 5.918547e-05 0.00015787425 0.00033479286 0.00012654287 0.00018011041 0.00013825594 0.00020412676
0.00015427171 0.00023003982 0.00020745836 0.00017905785 0.00013584152 7.877105e-05 0.00018004426 8.8666995e-05
0.00015191193 8.95696e-05 0.0002656685 3.377871e-05 2.5709087e-05 1.8299765e-05 1.2976102e-05 2.7951248e-05
2.9890187e-05 6.5377567e-06 1.2513206e-05 2.9491343e-05 2.2489361e-05 7.227065e-06 1.7013319e-05 3.367435e-05
1.4522188e-05 1.9400568e-05 1.3734334e-05 2.1178083e-05 1.6062197e-05 2.3056315e-05 2.1109918e-05 1.8353221e-05
1.39116355e-05 8.305017e-06 2.0299754e-05 1.07079495e-05 1.7501829e-05 8.964508e-06 2.8151891e-05 3.860216e-06
0.00032368352 0.00023102888 0.00017488415 0.0003934911 0.00041274374 9.3053284e-05 0.00017013897 0.00039076974
0.00032566165 7.8096105e-05 0.00021375301 0.00047030443 0.00016987423 0.00024739307 0.00019918945 0.0002806495
0.00021730766 0.00033271924 0.0002996718 0.00024619818 0.000190935 0.00011410426 0.0002587151 0.00013087675
0.00020288551 0.00012689305 0.00036969705 4.921201e-05 1.7948476e-05 1.4137372e-05 9.380455e-06 2.056403e-05
2.046522e-05 5.0641806e-06 8.836994e-06 2.1025096e-05 1.5941478e-05 4.6715136e-06 1.0744602e-05 2.2300228e-05
9.289328e-06 1.2384799e-05 1.0377213e-05 1.3579301e-05 1.2884527e-05 1.6129103e-05 1.39501535e-05 1.1319081e-05
9.490659e-06 6.1741684e-06 1.4638427e-05 8.555534e-06 1.061262e-05 6.8138243e-06 1.773177e-05 2.7044514e-06
4.0915595e-05 2.7633072e-05 2.1321286e-05 4.4630393e-05 4.7836184e-05 1.1225011e-05 2.1984677e-05 4.479285e-05
3.7495807e-05 1.0910542e-05 2.795431e-05 5.535125e-05 2.3337388e-05 3.2137035e-05 2.3545515e-05 3.5022353e-05
2.5740223e-05 3.753834e-05 3.4339195e-05 3.1445452e-05 2.3827733e-05 1.39013e-05 2.9946126e-05 1.569394e-05
2.7657085e-05 1.519266e-05 4.815759e-05 6.2138806e-06 2.4007793e-05 2.2887185e-05 6.31254e-06 3.4103996e-05
3.668525e-05 5.542464e-06 4.382644e-06 3.636482e-05 2.5782603e-05 2.4359892e-06 9.233853e-06 3.178441e-05
7.2669645e-06 1.5131993e-05 1.1815748e-05 9.766451e-06 1.3099979e-05 2.7675222e-05 2.234307e-05 9.672438e-06
4.6238256e-06 7.849954e-06 2.8323588e-05 1.3746731e-05 1.3660277e-05 6.807619e-06 2.3740793e-05 3.656248e-06
2.009594e-05 1.3003714e-05 1.0634947e-05 1.9391986e-05 2.029193e-05 5.0831654e-06 1.2478516e-05 1.994824e-05
1.6089009e-05 8.075341e-06 1.6356253e-05 2.4236964e-05 1.4755377e-05 1.8212359e-05 9.210329e-06 1.9235704e-05
1.1648883e-05 1.5519632e-05 1.424773e-05 1.767911e-05 1.3973148e-05 6.401137e-06 1.3788687e-05 7.1603804e-06
1.4939316e-05 6.8580666e-06 2.3757584e-05 2.8889863e-06 4.3226057e-05 2.9255463e-05 2.573687e-05 5.0229988e-05
5.0646566e-05 1.2878025e-05 2.6058242e-05 4.888692e-05 4.1971092e-05 1.2045121e-05 3.1312647e-05 6.0000242e-05
2.4456353e-05 3.2302614e-05 2.652875e-05 3.972115e-05 3.1008916e-05 4.2497966e-05 3.8173657e-05 3.3522327e-05
2.8774577e-05 1.5776317e-05 3.1973268e-05 1.6775932e-05 2.8248485e-05 1.760036e-05 4.6726425e-05 6.6471025e-06
8.377951e-06 6.2418126e-06 4.9609075e-06 9.264055e-06 9.062972e-06 2.218077e-06 7.248853e-06 9.210895e-06
7.327071e-06 2.208253e-06 5.6719405e-06 1.0492275e-05 4.491566e-06 6.364959e-06 4.4312096e-06 7.745462e-06
4.8834618e-06 7.9789625e-06 7.3257133e-06 6.2589147e-06 4.967922e-06 3.0457766e-06 8.439797e-06 6.6834896e-06
5.2219457e-06 2.979555e-06 9.228653e-06 1.4830067e-06 3.965403e-05 2.6822474e-05 1.7417764e-05 4.3610933e-05
00000000: 306c 7539 c036 2b39 bf61 0439 25c1 9039
00000010: bedb 9639 16b3 8638 3e3b 0639 e765 8f39
00000020: 2e19 6c39 ea3d 7838 0c8b 2539 2387 af39
00000030: 98b0 0439 05dc 3c39 ccf8 1039 dc0a 5639
00000040: ffc3 2139 d836 7139 2e89 5939 7ac1 3b39
00000050: ae70 0e39 e331 a538 43ca 3c39 bbf2 b938
00000060: 8c4a 1f39 50d7 bb38 6c49 8b39 9dad 0d38
00000070: d8a9 d737 7282 9937 efb3 5937 d978 ea37
00000080: b0bc fa37 e75e db36 cfef 5137 2d64 f737
00000090: 89a7 bc37 0480 f236 d3b7 8e37 8f3d 0d38
000000a0: 53a4 7337 67be a237 846c 6637 96a7 b137
000000b0: 4ebd 8637 0f69 c137 3415 b137 3ef5 9937
000000c0: 0566 6937 c755 0b37 6449 aa37 4ba6 3337
000000d0: e4d0 9237 4566 1637 ba27 ec37 0187 8136
000000e0: 11b4 a939 5840 7239 1b61 3739 7b4d ce39
000000f0: 8765 d839 9a25 c338 5567 3239 3ae0 cc39
00000100: 91bd aa39 87c7 a338 e322 6039 3193 f639
00000110: 4420 3239 89b4 8139 83dd 5039 2324 9339
00000120: 15dd 6339 d270 ae39 451d 9d39 2914 8139
00000130: b935 4839 424b ef38 27a4 8739 f63b 0939
00000140: aabd 5439 980e 0539 e6d3 c139 fe68 4e38
00000150: 0f90 9637 8d2f 6d37 bf60 1d37 eb80 ac37
00000160: baac ab37 fbec a936 9a42 1437 0d5f b037
00000170: 10ba 8537 ffbf 9c36 b743 3437 6011 bb37
00000180: 5cd9 1b37 4fc8 4f37 ca19 2e37 a7d2 6337
00000190: 9f2a 5837 fc4c 8737 740b 6a37 15e7 3d37
000001a0: 123a 1f37 b42b cf36 9197 7537 bd89 0f37
000001b0: db0c 3237 4ea2 e436 b0be 9437 1f7e 3536
000001c0: c99c 2b38 92cd e737 1ddb b237 8531 3b38
000001d0: b6a3 4838 0e53 3c37 bc6b b837 f5df 3b38
000001e0: d144 1d38 6c0c 3737 6c7f ea37 f428 6838
000001f0: a9c4 c337 e1ca 0638 9c83 c537 f7e4 1238
00000200: b5ec d737 7c72 1d38 6e07 1038 4ce4 0338
00000210: abe1 c737 a139 6937 d134 fb37 7ba6 8337
00000220: 2301 e837 fae3 7e37 d2fc 4938 d480 d036
00000230: 5864 c937 dbfd bf37 4ed0 d336 e30a 0f38
00000240: 7dde 1938 67f9 b936 a00e 9336 6e86 1838
00000250: b847 d837 fa79 2336 19eb 1a37 4050 0538
00000260: c0d6 f336 6adf 7d37 403c 4637 96da 2337
00000270: fbc7 5b37 1628 e837 616d bb37 ce46 2237
00000280: 5c26 9b36 4cb3 0337 7198 ed37 c3a1 6637
00000290: 712e 6537 006d e436 f726 c737 dd5d 7536
000002a0: b493 a837 872a 5a37 c06c 3237 f9ab a237
000002b0: 9638 aa37 0f90 aa36 d15a 5137 8556 a737
000002c0: e2f6 8637 537b 0737 c934 8937 7c50 cb37
000002d0: dd8d 7737 bec6 9837 1086 1a37 5c5c a137
000002e0: 926f 4337 2830 8237 8909 6f37 9a4d 9437
000002f0: 376e 6a37 59c9 d636 f655 6737 3343 f036
00000300: e0a3 7a37 581e e636 064b c737 68e0 4136
00000310: a04d 3538 a169 f537 82e5 d737 0aae 5238
00000320: 566d 5438 b20e 5837 a697 da37 ee0b 4d38
00000330: 1e0a 3038 6715 4a37 b355 0338 c5a8 7b38
00000340: 9e27 cd37 ab7c 0738 0f8a de37 439a 2638
00000350: 920f 0238 d83f 3238 a71c 2038 539a 0c38
00000360: ef60 f137 6257 8437 091b 0638 0aba 8c37
00000370: 29f7 ec37 7ca4 9337 1efc 4338 2d0a df36
00000380: 078f 0c37 c370 d136 df75 a636 d06c 1b37
00000390: 2b0d 1837 46da 1436 2c3b f336 7e88 1a37
000003a0: 10db f536 7f31 1436 9951 be36 fa07 3037
000003b0: 42b6 9636 9592 d536 cdaf 9436 82f2 0137
000003c0: 9edc a336 62dd 0537 66cf f536 ab03 d236
000003d0: 20b2 a636 0b66 4c36 a798 0d37 bd42 e036
000003e0: 2c38 af36 5df4 4736 c3d4 1a37 b90b c735
000003f0: 3152 2638 d300 e137 5d1c 9237 e2ea 3638

exp_avg f4 [45]
0.0037929758 0.0009596956 0.005292443 0.0010341364 -0.0008967892 -0.0023940464 0.0008851589 0.001665307
-0.00034148197 0.0015323801 -0.00019157695 -0.003232472 -0.0036886549 -0.0016483924 -0.0039822133 0.0030846274
0.003798125 -0.0006828806 -0.00044685736 -0.0004284261 -0.0015992959 -0.0022662017 -0.00089286733 -0.001995948
0.0012411533 0.002109033 -0.0030024978 -0.0038284282 -0.002097655 0.0014083297 0.0010500127 0.00051326107
0.0021631364 -0.002450528 0.00039042954 -5.7746976e-05 0.0022440113 -0.00084664644 -0.0022823259 -0.0024536955
0.00073484174 -0.0015475797 4.3119828e-05 0.00238745 -0.0022923225
00000000: 9393 783b 1594 7b3a 3b6c ad3b dc8b 873a
00000010: 8116 6bba 6fe5 1cbb 020a 683a 6e46 da3a
00000020: ef08 b3b9 25da c83a 0ce2 48b9 e2d7 53bb
00000030: 5cbd 71bb df0e d8ba 3a7d 82bb 7627 4a3b
00000040: f7e9 783b 5703 33ba 2e48 eab9 619e e0b9
00000050: 779f d1ba 8e84 14bb 500f 6aba 73ce 02bb
00000060: 32ae a23a b437 0a3b 8ec5 44bb 5ee6 7abb
00000070: d078 09bb b497 b83a 94a0 893a 5e8c 063a
00000080: 68c3 0d3b 0a99 20bb 91b2 cc39 5835 72b8
00000090: 4310 133b 7bf1 5dba 1393 15bb 2ece 20bb
000000a0: 65a2 403a 28d8 caba 90db 3438 c476 1c3b
000000b0: ca3a 16bb

exp_avg_sq f4 [45]
0.00041994554 4.6754154e-05 0.0006024225 3.2567936e-05 7.087376e-05 6.414978e-05 3.1373726e-05 6.826207e-05
1.1594215e-05 6.527717e-05 3.3237644e-05 0.00047866546 0.00027834772 0.0001316399 0.00035536414 0.00024701652
0.00035072412 0.00013186278 7.2010116e-05 0.00010161638 7.301062e-05 0.00014513933 2.5618916e-05 6.2057195e-05
5.0716582e-05 6.644503e-05 0.0002144873 0.0003251078 0.00014981753 0.00013813487 7.356923e-05 1.3967105e-05
0.00012051606 0.00028486692 1.0346725e-05 7.0944484e-06 0.000110174224 6.505644e-05 0.00013615214 0.00012759151
4.8030968e-05 9.5823205e-05 3.95366e-05 0.00020434649 0.00011803633
00000000: 232c dc39 e419 4438 e4eb 1d3a 8e99 0838
00000010: 0fa2 9438 2788 8638 4897 0338 eb27 8f38
00000020: c684 4237 6ae5 8838 a668 0b38 64f5 fa39
00000030: 33ef 9139 d108 0a39 2b50 ba39 ff81 8139
00000040: 65e1 b739 a544 0a39 2304 9738 e11a d538
00000050: 471d 9938 8b30 1839 34e8 d637 b424 8238
00000060: 84b8 5438 6758 8b38 ffe7 6039 3b73 aa39
00000070: 5618 1d39 4cd8 1039 2e49 9a38 4254 6a37
00000080: 91bd fc38 315a 9539 d896 2d37 d90c ee36
00000090: 560d e738 e96e 8838 10c4 0e39 16ca 0539
000000a0: dc74 4938 b1f4 c838 1ad4 2538 d845 5639
000000b0: 468a f738

max_exp_avg_sq f4 [45]
0.0004907689 5.0078892e-05 0.0007054474 3.418478e-05 8.0134545e-05 6.4738575e-05 3.4737364e-05 8.3029045e-05
1.7238568e-05 8.092972e-05 3.4075514e-05 0.00052359287 0.00033224066 0.00013857751 0.00042051985 0.0002823303
0.00041634732 0.00014590174 7.458112e-05 0.00012909058 8.2137114e-05 0.00017376045 2.7893293e-05 8.409469e-05
5.7137462e-05 7.6355725e-05 0.00024545653 0.00041206594 0.00019341208 0.00015123532 7.438488e-05 1.5515723e-05
0.00014528981 0.0003192838 3.6638445e-05 1.0211527e-05 0.00013342418 6.974067e-05 0.00016059393 0.00015397722
5.377258e-05 0.00011383154 0.00011011815 0.00023888353 0.00014116101
00000000: f2a6 003a cd0b 5238 c6ed 383a a161 0f38
00000010: e80d a838 42c4 8738 f6b2 1138 e11f ae38
00000020: 8b9b 9037 d0b8 a938 4eec 0e38 b941 093a
00000030: 9630 ae39 1e4f 1139 3879 dc39 bb05 9439
00000040: 3149 da39 33fd 1839 6f68 9c38 7d5c 0739
00000050: 0741 ac38 7733 3639 64fc e937 fe5b b038
00000060: e2a6 6f38 2b21 a038 9eb0 8039 8e0a d839
00000070: a9ce 4a39 ec94 1e39 14ff 9b38 c327 8237
00000080: f058 1839 8c65 a739 3bac 1938 2d52 2b37
00000090: c8e7 0b39 bd41 9238 1b65 2839 f274 2139
000000a0: de89 6138 d8b8 ee38 3bef e638 cf7c 7a39
000000b0: 9f04 1439

exp_avg f4 [3, 45]
-0.0035757343 -0.0029250241 -0.0021322388 0.0024432982 -0.0013714866 0.004031144 0.0013618838 -0.00027418468
0.0015411837 0.002068321 0.000280798 0.0013868862 -0.0038090977 -0.0010157429 -0.0021643662 -0.0019334599
-0.002260914 -0.0026974317 -0.006577874 0.0027638166 -0.003894754 -0.00040263112 0.004935965 0.0040788874
-0.0018513345 0.0009785158 -0.0073191756 -0.0018048186 0.0020919733 -0.005119955 -0.0009181902 0.006434216
0.000118156226 -0.0027045377 -0.00074849726 0.005349378 0.00013616744 -0.0011157957 -0.0008612335 -0.005979879
-0.005589013 0.00031500903 0.0049272627 -0.006123431 -0.0015149384 -0.000503152 0.0008696468 -0.0006231727
-9.3980925e-05 -0.00026095705 -0.0014142062 8.709164e-05 0.00031473918 -0.00048028352 -0.00033284526 -8.651681e-05
0.00012884923 0.0014042142 0.00057081616 0.0016162973 -0.0006469602 0.00040184124 0.00018533383 0.0022158641
0.000724798 0.0013088697 0.00097246806 -0.0014173506 -0.0011442648 -0.00020380781 0.00018262128 0.003046401
0.0010186164 0.0001969572 0.0022463342 0.00032901537 -0.0013205421 -0.0003677282 0.00044523488 0.0010668723
-0.0015997225 0.0003380398 0.00064331107 0.0007548934 0.0011149233 0.0010747312 0.00088486855 -0.0011316405
0.0012354401 0.0006969562 -0.0035163297 -0.011047311 -0.0023475843 -0.0013391636 -0.0034007297 0.0061700325
0.0010327887 -0.0027602206 0.0071624857 0.0018589577 -4.7524867e-05 0.0021675995 -0.006863135 -0.0061696884
-0.0053428533 -0.0010959161 -0.0045186756 -0.0084829135 -0.013817274 0.0040202937 -0.008317924 -0.0023308585
0.0072608776 0.0071189455 -0.0013799497 0.00064593344 -0.015144278 -0.0040751607 -0.0004978399 -0.008787899
-0.0049410765 0.0095550325 -0.0021713355 -0.0085086785 -0.0021041967 0.009770269 -0.00069626304 -0.0046316725
-0.0014771092 -0.007377175 -0.007676014 -0.0023867416 0.0056515927 -0.007342315 -0.00029091735
00000000: de56 6abb c3b1 3fbb 08bd 0bbb be1f 203b
00000010: 74c3 b3ba b017 843b 3d81 b23a 72c0 8fb9
00000020: 8b01 ca3a ab8c 073b 1238 9339 2ec8 b53a
00000030: 0ea2 79bb ad22 85ba 0ad8 0dbb 266c fdba
00000040: d82b 14bb 65c7 30bb 358b d7bb 2621 353b
00000050: 213f 7fbb 3c18 d3b9 e0bd a13b 30a8 853b
00000060: 7aa8 f2ba 8b41 803a b2d5 efbb aa8f ecba
00000070: 7d19 093b 4cc5 a7bb b4b2 70ba 1ed6 d23b
00000080: a4ca f738 9d3e 31bb cd36 44ba d649 af3b
00000090: 2bc8 0e39 e43f 92ba 67c4 61ba dcf2 c3bb
000000a0: 0a24 b7bb cc27 a539 e074 a13b 10a7 c8bb
000000b0: e690 c6ba f6e5 03ba 02f9 633a 695c 23ba
000000c0: a017 c5b8 10d1 88b9 e35c b9ba f8a4 b638
000000d0: 9403 a539 90ce fbb9 bc81 aeb9 5c70 b5b8
000000e0: b41b 0739 9c0d b83a d3a2 153a f0d9 d33a
000000f0: c498 29ba 38ae d239 2c56 4239 0838 113b
00000100: 5f00 3e3a 618e ab3a 3aed 7e3a 65c6 b9ba
00000110: 28fb 95ba 3eb5 55b9 077e 3f39 21a6 473b
00000120: 1883 853a 4c86 4e39 3c37 133b b27f ac39
00000130: 0a16 adba a5cb c0b9 6a6e e939 4bd6 8b3a
00000140: c8ad d1ba ef3a b139 e0a3 283a 0ae4 453a
00000150: 9e22 923a ffdd 8c3a 86f6 673a 8e53 94ba
00000160: 7eee a13a f0b3 363a 3972 66bb c8ff 34bc
00000170: eed9 19bb e086 afba c7de 5ebb fc2d ca3b
00000180: a35e 873a d1e4 34bb 49b3 ea3b 45a8 f33a
00000190: 7055 47b8 490e 0e3b 26e4 e0bb 192b cabb
000001a0: 1a13 afbb d8a4 8fba 6611 94bb ebfb 0abc
000001b0: d961 62bc abbc 833b e747 08bc 51c1 18bb
000001c0: a8ec ed3b 0b46 e93b 6edf b4ba dc53 293a
000001d0: b51f 78bc ed88 85bb 7881 02ba 1ffb 0fbc
000001e0: c1e8 a1bb b68c 1c3c f74c 0ebb fc67 0bbc
000001f0: 90e6 09bb 7a13 203c 6c85 36ba 49c5 97bb
00000200: 8f9b c1ba 3bbc f1bb 1387 fbbb e16a 1cbb
00000210: ff30 b93b cd97 f0bb 4486 98b9

exp_avg_sq f4 [3, 45]
0.00028899612 0.0012875937 8.373385e-05 4.597268e-05 0.00012977466 0.0008000119 7.7226054e-05 0.00012937345
0.0004323153 2.3691053e-05 9.5112795e-05 8.350677e-05 0.00075521634 0.0003701838 0.0007338695 8.689494e-05
0.00018178293 0.00087852473 0.0019882594 0.00014698657 0.00090625806 0.00013780316 0.0008976289 0.00082282705
5.4894834e-05 3.5516237e-05 0.0026899376 9.338538e-05 2.0661068e-05 0.0007326582 0.00018658662 0.0012587256
7.944484e-05 0.0006803951 4.4153123e-05 0.0009627055 2.1550071e-05 0.0002755901 0.0001582714 0.0008725266
0.0012069879 0.00022313344 0.0005388695 0.00058565236 4.311027e-05 7.953255e-05 0.00038417958 2.36815e-05
1.2967966e-05 3.930116e-05 0.0002317751 2.2953873e-05 3.9086033e-05 0.00012686959 7.138271e-06 3.0737752e-05
2.372562e-05 0.0002224504 0.000108445645 0.00022381693 2.4093912e-05 5.5441444e-05 0.0002611775 0.0006061209
4.229457e-05 0.0002772345 4.5492623e-05 0.0002618718 0.0002404562 1.6681024e-05 1.0074709e-05 0.0007884676
3.053991e-05 6.0460443e-06 0.00021800303 4.9287988e-05 0.00035615978 2.3749395e-05 0.00019274498 1.3445455e-05
0.00027955842 6.5338418e-06 7.8611265e-05 4.6486344e-05 0.00025514426 0.00034367107 6.649153e-05 0.00015648299
0.00017297949 1.3932817e-05 0.00045284026 0.0020723615 0.0001299997 6.622641e-05 0.00021487659 0.0012735971
0.000120426994 0.00020656026 0.0006805665 3.490455e-05 0.00016197767 0.00012616754 0.001225145 0.0005955796
0.0011842335 0.00013096182 0.00028638242 0.0014255355 0.0032597722 0.00023051043 0.0014771753 0.00022881277
0.001446498 0.0013163516 8.7034045e-05 5.5252465e-05 0.0042517795 0.00015247651 3.0325908e-05 0.00115815
0.00028891073 0.0020343799 0.00012286729 0.0010885107 7.381219e-05 0.0015752644 3.400448e-05 0.0004398588
0.00023246545 0.0014030662 0.0018814165 0.00035352397 0.0008321108 0.0009250833 6.2286905e-05
00000000: 6784 9739 7ac4 a83a 459a af38 cad2 4038
00000010: 1f14 0839 e4b7 513a 6cf4 a138 6ca8 0739
00000020: 61a8 e239 26bc c637 4b77 c738 5b20 af38
00000030: b6f9 453a 3b15 c239 2661 403a 5e3b b638
00000040: fc9c 3e39 cc4c 663a 754d 023b 6820 1a39
00000050: f391 6d3a 417f 1039 db4e 6b3a fdb2 573a
00000060: e13e 6638 45f7 1438 aa49 303b e5d7 c338
00000070: 4e51 ad37 dc0f 403a 77a6 4339 d3fb a43a
00000080: a09b a638 8b5c 323a 0e31 3938 135e 7c3a
00000090: 6dc6 b437 147d 9039 a8f5 2539 45ba 643a
000000a0: cb33 9e3a edf8 6939 ec42 0d3a 7786 193a
000000b0: 4dd1 3438 b6ca a638 b66b c939 a2a7 c637
000000c0: fd90 5937 4dd7 2438 a808 7339 118d c037
000000d0: 4ff0 2338 4c08 0539 4885 ef36 69ec 0038
000000e0: 6206 c737 9341 6939 506d e338 66b0 6a39
000000f0: 481d ca37 cc89 6838 a7ee 8839 16e4 1e3a
00000100: 7365 3138 c959 9139 55cf 3e38 d74b 8939
00000110: f822 7c39 3aee 8b37 8c06 2937 2ab1 4e3a
00000120: fb17 0038 20df ca36 be97 6439 93ba 4e38
00000130: f5ba ba39 7039 c737 961b 4a39 ca93 6137
00000140: b291 9239 463d db36 1adc a438 55fa 4238
00000150: e2c4 8539 c02e b439 5e71 8b38 9515 2439
00000160: d461 3539 fec0 6937 316b ed39 75d0 073b
00000170: 8750 0839 08e3 8a38 7f50 6139 d4ee a63a
00000180: c08d fc38 1998 5839 0b68 323a 7a66 1238
00000190: 8dd8 2939 d74b 0439 0b95 a03a ac20 1c3a
000001a0: 4838 9b3a cc52 0939 9925 9639 09d9 ba3a
000001b0: e7a1 553b 2cb5 7139 c79d c13a 76ed 6f39
000001c0: 6b98 bd3a 6e89 ac3a 0c86 b638 e2be 6738
000001d0: 8352 8b3b 1ae2 1f39 6464 fe37 11cd 973a
000001e0: f178 9739 3b53 053b f0d5 0039 5cac 8e3a
000001f0: 9ecb 9a38 1a79 ce3a 08a0 0e38 d99c e639
00000200: f8c1 7339 17e7 b73a dd99 f63a 2f59 b939
00000210: 0322 5a3a 4a81 723a 07a0 8238
