logs/my_logs/version_10/checkpoints/epoch=99-step=100.ckpt (torch, 40871 bytes, 33 tensors)

encoder.dense1.weight f4 [45, 28]
0	0x3e297877	0.1654986
1	0x3c91a38e	0.017778184
2	0x3dcc7b51	0.09984458
3	0x3d3766ac	0.04477565
4	0x3cf02274	0.029313304
5	0xbbf37a23	-0.0074303313
6	0x3d0be642	0.034155138
7	0xbd714962	-0.058907874
8	0xbe2f6370	-0.17127776
9	0x3ce632a3	0.028100317
10	0xbdac483a	-0.084122136
11	0xbd8cf6e5	-0.06883029
12	0x3c2f1d3d	0.010688123
13	0xbb24d4af	-0.0025151183
14	0x3d037830	0.03209704
15	0xbe1ca2c1	-0.1529646
16	0xbe17bd84	-0.14818388
17	0x3e0d92d9	0.13825549
18	0x3e38f06a	0.1806046
19	0xbc9ff4d4	-0.019525923
20	0xbdcb3e0f	-0.09923946
21	0xbe7cb226	-0.24677333
22	0xbd98c468	-0.074593365
23	0xbd178630	-0.036993206
24	0xbdc2c979	-0.09511084
25	0x3dc64a26	0.096821114
26	0xbc874a38	-0.016514882
27	0x3d889f58	0.066710174
28	0xbd284050	-0.04107696
29	0x3e30447a	0.17213622
30	0xbd60334d	-0.054736424
31	0x3e40fec7	0.1884719
32	0xbe0db902	-0.13840106
33	0xbe0b5117	-0.13605152
34	0xbe0cf3f9	-0.13764943
35	0x3d2f8192	0.042848177
36	0x3da45f91	0.0802604
37	0xbe17048d	-0.1474783
38	0xbe0ca858	-0.13736093
39	0x3e28ab04	0.16471487
40	0xbdf91eb5	-0.1216406
41	0xbe073e43	-0.13207345
42	0x3dc44ced	0.09584985
43	0xbd1ac4ab	-0.037785213
44	0x3df1fffb	0.118164025
45	0xbd8e0667	-0.06934815
46	0xbe0729a0	-0.13199472
47	0x3d0422e9	0.032259855
48	0xbe76421f	-0.2404866
49	0x3e058050	0.13037229
50	0x3dc5bb40	0.09654856
51	0x3c95602f	0.01823434
52	0x3c5ff4fd	0.01366925
53	0x3d3840a3	0.044983517
54	0x3e0c1f83	0.13683896
55	0x3e1679a2	0.14694837
56	0xbb62d60a	-0.003461244
57	0xbdad21ae	-0.084536895
58	0xbd88cd91	-0.06679834
59	0x3e6e05e1	0.2324443
60	0x3e5dd877	0.21664606
61	0xbe2224a1	-0.15834285
62	0xbc00c3cf	-0.007859184
63	0x3df1c3a7	0.11804896
64	0x3bd79847	0.006579432
65	0x3d92a0f3	0.07159605
66	0xbd288269	-0.041139994
67	0xbcd92b95	-0.02651004
68	0x3d6462e9	0.05575839
69	0x3d42d85c	0.047569618
70	0xbd266490	-0.040623248
71	0x3e2474ba	0.16060153
72	0xbe03c40f	-0.12867759
73	0x3dfed881	0.124436386
74	0x3e2fff72	0.17187288
75	0x3df549cf	0.119769685
76	0xbdf5ecd0	-0.12008059
77	0x3d04a952	0.03238804
78	0xbd903a13	-0.07042327
79	0x3e2048db	0.15652792
80	0x3c7a62d7	0.015282354
81	0xbd9c6e14	-0.07638183
82	0x3d0f9129	0.035050545
83	0xbe38b456	-0.18037543
84	0x3e32d10f	0.17462562
85	0x3e438bdf	0.19096325
86	0xbe0c15fc	-0.13680261
87	0xbdb2d8b6	-0.087327406
88	0x3dc4b934	0.09605637
89	0xbd844f8e	-0.06460486
90	0x3d863ac9	0.06554181
91	0x3dba5c16	0.09099595
92	0xbd427af0	-0.047480524
93	0xbe40b976	-0.18820748
94	0xbdceb5c2	-0.10093261
95	0xbda131fc	-0.07870862
96	0xbde5be6c	-0.11217961
97	0xbce9b2e3	-0.028527683
98	0x3dec591b	0.11540433
99	0x3e4ccd44	0.20000178
100	0x3ce35147	0.027748717
101	0xbe0b1d12	-0.13585308
102	0xbca13650	-0.019679219
103	0x3c9e3c55	0.019315878
104	0x3d108e1f	0.035291787
105	0xbd6e17e7	-0.058128264
106	0x3c946128	0.018112734
107	0xbde5fc63	-0.112297796
108	0xbccd7842	-0.025081757
109	0xbe4665f1	-0.19374825
110	0x3e2b79da	0.16745701
111	0xbbd772b8	-0.006574955
112	0xbe179d35	-0.14806063
113	0x3e281d22	0.16417363
114	0xbdc1fa70	-0.09471595
115	0x3d834b8f	0.06410896
116	0x3d8cc640	0.06873751
117	0xbdd7d32a	-0.10538323
118	0x3da0644e	0.078316316
119	0x3d255ae2	0.040369876
120	0x3e032a17	0.12809025
121	0xbe3a2b66	-0.18180618
122	0xbe2f0239	-0.17090692
123	0x3df94478	0.121712625
124	0xbe45ee10	-0.19329095
125	0xbd4a9a1d	-0.04946338
126	0x3e179ac6	0.14805135
127	0x3dbb6dba	0.09151788
128	0xbe01a652	-0.12661102
129	0x3e2f2c45	0.17106731
130	0xbcd9f355	-0.026605288
131	0x3de7efa3	0.11325004
132	0x3defac7a	0.11702819
133	0x3ca68a89	0.02032973
134	0xbdb51b80	-0.08843136
135	0x3ad6db88	0.001639233
136	0x3de3bbfb	0.11119839
137	0xbdac238f	-0.0840522
138	0x3e1bed15	0.15227158
139	0x3b721003	0.0036935813
140	0xbd4ad3fd	-0.049518574
141	0xbdeb57c8	-0.11491352
142	0xbcd41fc4	-0.025894053
143	0xbe4f15a0	-0.20223093
144	0x3cc6e653	0.024279749
145	0xbcaaa326	-0.020829748
146	0xbdc67f90	-0.09692299
147	0x3e19190c	0.14950961
148	0xbe537bcf	-0.20652698
149	0x3d9db55e	0.07700609
150	0xbe17f679	-0.14840116
151	0x3dd7c0aa	0.10534795
152	0xbc1ef16d	-0.009701115
153	0x3e05499b	0.1301636
154	0x3d7ff0af	0.062485393
155	0x3dfb9d6f	0.122858874
156	0xbce39333	-0.027780151
157	0xbe2a1fb3	-0.16613655
158	0xbe1eed0d	-0.15520115
159	0x3e4310af	0.19049333
160	0xbd9d0b47	-0.076681666
161	0xbda5fa38	-0.08104366
162	0xbd692881	-0.056923393
163	0xbce7fbd9	-0.028318333
164	0x3e3566db	0.17715017
165	0xbe01f618	-0.12691534
166	0x3cb0ca69	0.021580892
167	0xbdf800ea	-0.12109549
168	0x3b7d9a64	0.003869676
169	0xbd9d4666	-0.07679443
170	0x3e1dc84f	0.15408443
171	0xbdad2a64	-0.08455351
172	0x3e1c8a30	0.1528709
173	0xbe129584	-0.14314848
174	0xbcddf0df	-0.027092395
175	0xbe30b3f6	-0.1725615
176	0x3ca9ffa4	0.020751782
177	0x3d51f825	0.05126204
178	0xbdfea105	-0.12433056
179	0x3daabe9c	0.08337137
180	0xbe10126e	-0.1406953
181	0x3d61ca6e	0.055124693
182	0x3c72fefa	0.014831299
183	0x3d2e5046	0.042557023
184	0x3e0454ff	0.12923048
185	0xbb235660	-0.002492331
186	0x3d5e9ea0	0.054350495
187	0xbe165503	-0.14680867
188	0x3e219a6a	0.1578156
189	0xbe20d86e	-0.15707561
190	0x3e0c2fa5	0.1369005
191	0x3e1bcf55	0.1521581
192	0x3e03a2ba	0.12855044
193	0x3bec1103	0.0072041764
194	0xbbf78928	-0.007554192
195	0x3e240f7a	0.16021529
196	0x3d8018f9	0.06254763
197	0xbbd77d02	-0.0065761814
198	0x3e7884bc	0.24269384
199	0x3dc400ef	0.095704906
200	0x3d86dde9	0.06585295
201	0xbe0b9228	-0.13629973
202	0xbd06ee2a	-0.032941975
203	0xbd605a0f	-0.054773387
204	0x3c8270be	0.0159229
205	0xbdd31e28	-0.10308486
206	0xbe31effd	-0.17376705
207	0xbd94367c	-0.072369546
208	0x3e85bf76	0.26122636
209	0xbd864da1	-0.06557775
210	0x3d560821	0.052253846
211	0xbdd48c34	-0.10378304
212	0x3e4a9b25	0.19785745
213	0x3cbfcbee	0.023412671
214	0x3c78f366	0.015194749
215	0xbb93c33a	-0.004509357
216	0x3e19e8b0	0.1503017
217	0xbd212943	-0.03934599
218	0xbe08a3a3	-0.13343672
219	0x3cb26b21	0.021779599
220	0x3cac2a8e	0.021016385
221	0x3dd58f13	0.1042768
222	0x3e469288	0.19391835
223	0xbe3772a7	-0.1791483
224	0x3d3f0455	0.04663499
225	0x3d24c873	0.040230226
226	0xbcb4eaea	-0.022084672
227	0x3c9ecdc1	0.01938522
228	0xbdde0dce	-0.10842477
229	0x3e15ef03	0.14641957
230	0x3d981f7a	0.07427879
231	0xbdffbd5f	-0.124872915
232	0xbdc9524d	-0.09830151
233	0xbdba9443	-0.0911031
234	0x3cc88f93	0.024482524
235	0xbe345bcc	-0.17613143
236	0x3e2fb8ec	0.17160386
237	0xbd8181f4	-0.06323615
238	0x3da833bd	0.08212993
239	0xbdcac452	-0.099007264
240	0xbd23abfd	-0.039958943
241	0xbe431067	-0.19049226
242	0x3dabc21b	0.08386632
243	0x3c60efc6	0.013729041
244	0x3e493149	0.19647707
245	0xbd82c265	-0.06384734
246	0x3d84634d	0.064642526
247	0x3d6930e8	0.056931406
248	0xbd9c72fb	-0.07639118
249	0xbdc2df21	-0.09515215
250	0x3e1db338	0.15400398
251	0xbce1987d	-0.027538532
252	0x3badfd3e	0.00530973
253	0x3d9e7840	0.077377796
254	0x3d85b74b	0.06529101
255	0xbe5e385d	-0.21701188

encoder.dense1.bias f4 [45]
0	0x3c882834	0.016620733
1	0xbd9de687	-0.07709985
2	0xbad0d3c1	-0.0015932248
3	0xbe009953	-0.12558489
4	0xb9413a5e	-0.00018427658
5	0xbe2a90e5	-0.16656835
6	0xbe09b234	-0.13446885
7	0xbdfb3659	-0.12266225
8	0xbda76f9f	-0.08175587
9	0xbdff819f	-0.12475895
10	0x3da047fd	0.07826231
11	0x3e2ecf88	0.17071354
12	0xbdfd50b1	-0.12368906
13	0xbdf5f6ca	-0.12009962
14	0x3d135fe4	0.03598012
15	0xbe4fae3e	-0.20281312
16	0x3dea4b08	0.11440092
17	0xbddf27c6	-0.10896258
18	0xbb45e5e8	-0.003019685
19	0xbda3ac24	-0.079918176
20	0x3d31161c	0.043233976
21	0xbd38bea9	-0.045103703
22	0xbbf7358b	-0.0075442246
23	0x3d338ddd	0.043836463
24	0x3d599877	0.053123917
25	0xbe50a01f	-0.20373581
26	0x3c9c89cc	0.019108675
27	0x3c9304c4	0.017946608
28	0x3daa692e	0.08320843
29	0xbd52797e	-0.051385395
30	0x3c32a811	0.010904328
31	0xbd400471	-0.046879236
32	0xbe2e4221	-0.17017414
33	0x3e51391b	0.2043194
34	0x3dc3561f	0.09537911
35	0xbdbef246	-0.09323554
36	0x3dd51b5b	0.10405608
37	0x3d968831	0.07350195
38	0x3dfa410a	0.122194365
39	0xbdf82c33	-0.12117805
40	0xbe061d0c	-0.13097018
41	0x3db36123	0.08758762
42	0xbd63a649	-0.055578504
43	0xbd241164	-0.040055647
44	0xbe11f13c	-0.1425218

encoder.dense3m.weight f4 [3, 45]
0	0xbd620e2c	-0.055189297
1	0x3cee1abf	0.029065488
2	0x3e28da24	0.16489464
3	0xbd6cc3fb	-0.05780409
4	0x3d53d3b2	0.05171556
5	0xbd4e6906	-0.050393127
6	0xbd918236	-0.07104914
7	0xbe56fe57	-0.2099546
8	0xbdd01bf8	-0.101615846
9	0xbdbb3dac	-0.09142622
10	0xbd73ef9d	-0.059554685
11	0x3d7976bf	0.06090426
12	0xbe339da7	-0.17540608
13	0x3e35d060	0.1775527
14	0x3dfd39d0	0.123645425
15	0xbd86384c	-0.065537065
16	0xbc451ed8	-0.0120312795
17	0x3d86f783	0.06590178
18	0x3df5b6e8	0.11997777
19	0x3e084817	0.1330875
20	0x3d854b38	0.065084875
21	0x3d89ef76	0.06735127
22	0x3d0a9d66	0.033841513
23	0xbd2052f6	-0.039141618
24	0xbce3a5f1	-0.027789088
25	0xbd8b01b8	-0.06787437
26	0xbe040961	-0.12894203
27	0x3e08cfff	0.13360594
28	0x3e4dc02e	0.20092842
29	0xbde97756	-0.11399715
30	0x3df8cd33	0.12148514
31	0xbdfb6e53	-0.12276902
32	0xbe2132f0	-0.15742087
33	0x3e0f1f45	0.13976772
34	0xbd2d826b	-0.042360704
35	0x3dadc9e0	0.0848577
36	0x3db5081e	0.08839439
37	0x3d9216b0	0.071332335
38	0xbdfc1849	-0.123093195
39	0x3d9fd700	0.0780468
40	0xbd143231	-0.03618068
41	0xbe4f5ec4	-0.20250994
42	0x3d8bcac9	0.068257876
43	0x3e3c7496	0.18403849
44	0xbd6fad81	-0.058515076
45	0x3d8c021f	0.06836342
46	0x3953b05c	0.00020188227
47	0xbbc8239f	-0.006107762
48	0x3d175ede	0.036955707
49	0x3a7b1a76	0.0009578833
50	0x3cb069ef	0.021534888
51	0xbe053220	-0.13007402
52	0x3dac1bcd	0.0840374
53	0xbcbd4105	-0.023102293
54	0xbd818fb1	-0.06326235
55	0xbdaf74d1	-0.08567203
56	0x3c8fe4cd	0.017565155
57	0xbc3fa789	-0.011697658
58	0xbd4461d0	-0.047944844
59	0xbc1f172d	-0.009710115
60	0x3e08d214	0.13361388
61	0xbdf3bb4b	-0.11900958
62	0xbd4903e4	-0.049075976
63	0xbcc4ab1a	-0.024007369
64	0xbe33c23b	-0.17554562
65	0x3e2802db	0.1640734
66	0xbcd0b66b	-0.025477609
67	0xbcf68d71	-0.030096741
68	0x3e440919	0.19144095
69	0xbd0c3fb9	-0.03424046
70	0xbe1fcf2e	-0.15606377
71	0x3d179ffb	0.037017804
72	0x3dd2d06d	0.1029366
73	0xbe283018	-0.16424596
74	0x3dfa0d99	0.12209625
75	0x3d82afb2	0.063811675
76	0xbda94210	-0.082645535
77	0x3db7c003	0.0897217
78	0x3dce6d3c	0.100794286
79	0xbda6e113	-0.08148398
80	0xbda51eee	-0.0806254
81	0xbdc083d9	-0.09400148
82	0xbd829083	-0.0637522
83	0x3e0469e8	0.12931025
84	0x3d3bf71b	0.045889955
85	0xbe4b1f93	-0.19836263
86	0x3d970731	0.073744185
87	0xbe1d8754	-0.15383655
88	0x3def9df5	0.1170005
89	0xbe35b3e3	-0.17744403
90	0xbdb9f2b2	-0.090794936
91	0x3e435f54	0.19079334
92	0x3e359579	0.177328
93	0x3d626293	0.05526979
94	0xbdc43b8b	-0.095816694
95	0xbda91e5a	-0.08257742
96	0xbdbda849	-0.092606135
97	0x3cc3ce04	0.023901947
98	0xbca5fe45	-0.020262847
99	0xbd9cc5df	-0.076549284
100	0x3db8c919	0.09022731
101	0xbd3eeba1	-0.046611432
102	0x3df98d23	0.12185123
103	0x3d52b68a	0.051443614
104	0x3e28936a	0.16462484
105	0xbe2b6a85	-0.16739853
106	0xbd2cf221	-0.0422231
107	0xbd8739bf	-0.06602811
108	0xbd8efae5	-0.06981448
109	0xbdfae65a	-0.12250967
110	0x3d926a7d	0.07149217
111	0x3cb76529	0.022387104
112	0x3c809180	0.01569438
113	0x3e1bc687	0.15212451
114	0xbc8c71e4	-0.017144151
115	0xbe4318ab	-0.19052379
116	0xbdc4e0eb	-0.09613212
117	0xbdac28f1	-0.084062465
118	0x3d95be0b	0.073116384
119	0xbd827f18	-0.063718975
120	0x3e0368ac	0.12832898
121	0x3df6cb0f	0.12050449
122	0x3ce4fd9c	0.027952962
123	0x3df36687	0.1188479
124	0x3c3e80e0	0.011627406
125	0xbddd74f9	-0.108133264
126	0xbdac080f	-0.083999746
127	0x3c0d96a4	0.008641873
128	0xbe174941	-0.14774038
129	0xbd77ee14	-0.060529783
130	0xbde345c9	-0.11097295
131	0x3d2191a0	0.03944552
132	0x3d689826	0.056785725
133	0x3daa87cf	0.08326685
134	0x3da8ae8c	0.08236417

encoder.dense3m.bias f4 [3]
0	0xbd4bbee3	-0.04974259
1	0x3c9d3808	0.019191757
2	0xb988c463	-0.0002608626

encoder.dense3s.weight f4 [3, 45]
0	0xbd2e8f34	-0.042617038
1	0x3d6102c4	0.054934278
2	0x3d34d3b6	0.044147216
3	0xbc3e57c8	-0.011617608
4	0xbcf97973	-0.03045342
5	0xbcf30f0c	-0.02967026
6	0x3c42614f	0.0118640205
7	0x3d91be0c	0.07116327
8	0x3d923d7f	0.07140636
9	0xbc96e2aa	-0.018418629
10	0x3d955453	0.07291474
11	0xb9763a4a	-0.00023482103
12	0xbcb0bc2b	-0.0215741
13	0xbb611af8	-0.003434835
14	0xbd4afc71	-0.049557153
15	0x3d85e3bc	0.065375775
16	0xbd83e99d	-0.064410426
17	0xbcafaf4c	-0.021445893
18	0xbd7df39b	-0.0619999
19	0x3e0618c4	0.13095385
20	0xbd54badf	-0.051936027
21	0xbdaeb9e6	-0.08531551
22	0x3daa36e6	0.08311252
23	0x3c689aa6	0.014197027
24	0x3dbc3da7	0.09191447
25	0x3c917e64	0.017760463
26	0xbd81b3fe	-0.06333159
27	0x3bdc1830	0.0067167506
28	0x3d4c7b39	0.0499222
29	0xbcf253c3	-0.029580956
30	0xbc5b1d8e	-0.013373746
31	0x3d9ef3ae	0.07761322
32	0x3d86e177	0.06585973
33	0xbd62e0e6	-0.05539026
34	0x3b80cf82	0.003930987
35	0x3d8b5108	0.06802565
36	0x3d6600ed	0.056153227
37	0x3daaec4b	0.083458506
38	0xbd8d347e	-0.06894778
39	0x3dced1c9	0.10098607
40	0xbd814e8c	-0.0631381
41	0x3c4a1a4b	0.01233537
42	0x3dbe201b	0.092834674
43	0xbcf19cd7	-0.029493732
44	0xbdc0068c	-0.09376249
45	0xbdebab02	-0.115072265
46	0xbdcba79f	-0.099440806
47	0xbd9c803b	-0.076416455
48	0x3e26523e	0.1624231
49	0xbde284cd	-0.11060486
50	0xbc05c978	-0.00816571
51	0x3dc7c779	0.09754843
52	0xbd7ec240	-0.06219697
53	0xbe0c84af	-0.1372249
54	0xbd64faf0	-0.055903375
55	0x3de38562	0.11109425
56	0x3df19607	0.117961936
57	0x3dc33056	0.09530704
58	0x3d1eb996	0.038751207
59	0x3d6f361c	0.058401212
60	0xbd535c4d	-0.051601697
61	0xbde60cb8	-0.11232895
62	0x3de72a4a	0.11287363
63	0x3d2dbe2d	0.042417694
64	0xbc75fd7f	-0.015014051
65	0xbc8e5123	-0.017372673
66	0x3d7fba6f	0.062433656
67	0xbd053044	-0.032516733
68	0x3b1186f2	0.0022205678
69	0x3d85a81f	0.06526207
70	0xbc41d19b	-0.011829759
71	0xbdfdc01b	-0.12390157
72	0xbd709550	-0.058736145
73	0x3dbe24fe	0.092843994
74	0xbd096263	-0.033541095
75	0xbd33cc06	-0.043895744
76	0x3d2d13b3	0.042255115
77	0xbc9ced29	-0.019156056
78	0xbdda21eb	-0.106510006
79	0xbde64618	-0.11243838
80	0xbd9d916b	-0.07693752
81	0xbceb5a58	-0.028729603
82	0x3dce0b92	0.100608006
83	0x3d8d10f3	0.068879984
84	0xbd0f8b18	-0.03504476
85	0x3d521023	0.05128492
86	0x3e1417f8	0.14462268
87	0xbdd63ca9	-0.10460789
88	0x3d904082	0.07043554
89	0x3d867c38	0.065666616
90	0xbdd47e47	-0.10375648
91	0xbd3f0376	-0.04663416
92	0xbb9619c7	-0.0045807096
93	0xbd6d67f8	-0.05796048
94	0x3dfbfd8e	0.12304221
95	0xbd926b54	-0.071493775
96	0xbd2b8f89	-0.041884933
97	0x3d31e3a0	0.04342997
98	0xbca77ddd	-0.020445758
99	0x3cde1f15	0.02711443
100	0xbd85bb20	-0.06529832
101	0xbc058c4a	-0.008151123
102	0xbdb030fe	-0.086030945
103	0xbd6cf7f9	-0.057853673
104	0x3cb10cd7	0.021612568
105	0xbd079d85	-0.033109207
106	0x3d223982	0.039605625
107	0x3c871e9f	0.016494093
108	0xbd130e90	-0.03590256
109	0x3d36dd7d	0.04464482
110	0xbd9373f3	-0.0719985
111	0x3bdcf87c	0.006743489
112	0x3c987b59	0.018613504
113	0xbdaf858b	-0.08570393
114	0xbbf3527f	-0.007425606
115	0xbc41e97c	-0.011835452
116	0x3d93ac1e	0.07210563
117	0xbda159e0	-0.078784704
118	0xbc9f7676	-0.019465666
119	0x3dd96462	0.106148496
120	0x3c866185	0.016403923
121	0x3e130acd	0.14359589
122	0xbdf22554	-0.11823526
123	0xbdba78a1	-0.091050394
124	0x3d0e4e71	0.034742776
125	0x3dae716a	0.08517726
126	0xbdeb52aa	-0.11490376
127	0xbda59a9d	-0.08086131
128	0xbd16e0c7	-0.036835458
129	0xbc3a9b1f	-0.011389523
130	0x3d2e830b	0.04260544
131	0xbe0bf988	-0.13669407
132	0xbd320e3d	-0.04347061
133	0xbc38899a	-0.0112632755
134	0x3d7fb9bb	0.062432986

encoder.dense3s.bias f4 [3]
0	0xbc3cdc3a	-0.0115271155
1	0x3d1fd33f	0.03901982
2	0x3d780b55	0.060557682

decoder.linear.bias f4 [28]
0	0xbdff4660	-0.12464595
1	0xbeeebf9f	-0.4663057
2	0x3d92b3a4	0.0716317
3	0xbdacc0a9	-0.084351845
4	0xbe13362e	-0.14376137
5	0x3e84ae9e	0.25914472
6	0x3e44f136	0.1923264
7	0xbe37f56b	-0.17964713
8	0xbd76fd0d	-0.06029992
9	0xbf1d8e81	-0.6154557
10	0x3eaf5e02	0.3425141
11	0x3ec23f68	0.37939
12	0xbe14e902	-0.1454201
13	0xbd83e344	-0.06439832
14	0xbec5b544	-0.38614857
15	0xbed61101	-0.41809848
16	0xbc5dd45d	-0.013539401
17	0xbeba070b	-0.36333498
18	0xbee56101	-0.4480057
19	0x3c8894b4	0.01667247
20	0x3dfb291f	0.122637026
21	0x3e8a7201	0.27040103
22	0x3e36bb6a	0.1784493
23	0xbee9472b	-0.4556211
24	0x3e4585a1	0.19289257
25	0x3e00c2bd	0.12574287
26	0xbe9f28a9	-0.3108571
27	0x3ee6d9fd	0.45088187

decoder.linear.weight_orig f4 [28, 3]
0	0xbd9fa580	-0.077952385
1	0x3e043760	0.12911749
2	0x3eb6bc46	0.35690516
3	0x3edce3d4	0.4314257
4	0x3da69bd9	0.08135194
5	0xbf0cf46a	-0.55060446
6	0xbeffe3f7	-0.4997861
7	0xbe9f0298	-0.31056666
8	0xbdbc04be	-0.09180592
9	0x3edac090	0.4272504
10	0xbe0ede6a	-0.13952032
11	0x3ed2d9d8	0.41181827
12	0xbec3a362	-0.3821059
13	0x3e78d340	0.24299335
14	0xbe77d926	-0.2420393
15	0x3dd4d9c0	0.10393095
16	0x3eb0f93a	0.34565145
17	0xbe16b28f	-0.14716552
18	0x3d53bf4d	0.05169611
19	0x3e2c7b64	0.16843945
20	0xbedec289	-0.43507794
21	0xbdabc988	-0.083880484
22	0x3e6e54a2	0.23274472
23	0xbebf742c	-0.3739332
24	0x3e84088a	0.25787765
25	0xbe2eddc2	-0.17076781
26	0x3e22c55f	0.15895604
27	0x3e8d2f47	0.27575132
28	0xbf037291	-0.5134669
29	0xbf028c70	-0.5099554
30	0xbd88c760	-0.06678653
31	0x3e7ebc9c	0.24876636
32	0xbe8c0c92	-0.2735334
33	0x3dc47993	0.09593501
34	0xbb4a2a00	-0.0030847788
35	0x3dc75c46	0.09734397
36	0xbead60eb	-0.33863005
37	0x3ede9ea0	0.43480396
38	0x3e918a96	0.28426045
39	0x3e5c05bd	0.21486564
40	0x3eca84ca	0.39554435
41	0xbed954a1	-0.4244738
42	0xbe3966b8	-0.1810559
43	0xbf0097de	-0.5023173
44	0xbec3f813	-0.38275203
45	0x3dda465e	0.10657953
46	0x3d54cd80	0.051953793
47	0x3e851d19	0.25998762
48	0xbe0f22da	-0.13978139
49	0x3d1d4650	0.038397133
50	0x3e90b134	0.28260195
51	0xbedfe035	-0.43725744
52	0x3e8aa980	0.27082443
53	0xbc8a793c	-0.016903512
54	0xbe9c8d18	-0.30576396
55	0x3eb4dda0	0.35325336
56	0x3ca920bd	0.020645494
57	0xbea17bc6	-0.31539744
58	0x3e8f53bc	0.27993572
59	0xbe56bbf7	-0.2097014
60	0xbea5d0af	-0.32385775
61	0x3e2dcd90	0.16972947
62	0xbed0b98f	-0.4076657
63	0xbe85e1d9	-0.2614887
64	0xbe5e7f60	-0.21728277
65	0x3ea4ceb7	0.3218896
66	0xbdfa1d84	-0.12212661
67	0xbe21d38e	-0.15803358
68	0xbed32112	-0.41236168
69	0xbef9bba3	-0.48775968
70	0xbeec8724	-0.46196854
71	0xbe77991e	-0.24179503
72	0xbe867dae	-0.2626776
73	0x3d869468	0.06571275
74	0x3eda50f4	0.42639887
75	0xbebaf040	-0.3651142
76	0x3e35f864	0.17770535
77	0xbe15c9e8	-0.14627802
78	0xbd7d4700	-0.06183529
79	0xbd946788	-0.072463095
80	0xbd3ed0b0	-0.04658574
81	0xbe4b2c50	-0.19841123
82	0x3e368cdc	0.17827171
83	0xbe108330	-0.14112544

decoder.linear.weight_mask f4 [28, 3]
0	0x3f800000	1.0
1	0x00000000	0.0
2	0x00000000	0.0
3	0x00000000	0.0
4	0x3f800000	1.0
5	0x00000000	0.0
6	0x3f800000	1.0
7	0x00000000	0.0
8	0x3f800000	1.0
9	0x00000000	0.0
10	0x00000000	0.0
11	0x3f800000	1.0
12	0x00000000	0.0
13	0x00000000	0.0
14	0x3f800000	1.0
15	0x00000000	0.0
16	0x00000000	0.0
17	0x3f800000	1.0
18	0x3f800000	1.0
19	0x00000000	0.0
20	0x3f800000	1.0
21	0x00000000	0.0
22	0x3f800000	1.0
23	0x00000000	0.0
24	0x00000000	0.0
25	0x00000000	0.0
26	0x3f800000	1.0
27	0x3f800000	1.0
28	0x00000000	0.0
29	0x00000000	0.0
30	0x3f800000	1.0
31	0x00000000	0.0
32	0x3f800000	1.0
33	0x3f800000	1.0
34	0x00000000	0.0
35	0x3f800000	1.0
36	0x3f800000	1.0
37	0x00000000	0.0
38	0x00000000	0.0
39	0x3f800000	1.0
40	0x00000000	0.0
41	0x00000000	0.0
42	0x00000000	0.0
43	0x00000000	0.0
44	0x3f800000	1.0
45	0x3f800000	1.0
46	0x00000000	0.0
47	0x3f800000	1.0
48	0x00000000	0.0
49	0x3f800000	1.0
50	0x3f800000	1.0
51	0x00000000	0.0
52	0x00000000	0.0
53	0x3f800000	1.0
54	0x00000000	0.0
55	0x00000000	0.0
56	0x3f800000	1.0
57	0x3f800000	1.0
58	0x00000000	0.0
59	0x3f800000	1.0
60	0x3f800000	1.0
61	0x00000000	0.0
62	0x3f800000	1.0
63	0x00000000	0.0
64	0x00000000	0.0
65	0x3f800000	1.0
66	0x00000000	0.0
67	0x3f800000	1.0
68	0x00000000	0.0
69	0x00000000	0.0
70	0x3f800000	1.0
71	0x00000000	0.0
72	0x3f800000	1.0
73	0x00000000	0.0
74	0x00000000	0.0
75	0x00000000	0.0
76	0x00000000	0.0
77	0x3f800000	1.0
78	0x3f800000	1.0
79	0x00000000	0.0
80	0x00000000	0.0
81	0x00000000	0.0
82	0x00000000	0.0
83	0x3f800000	1.0

exp_avg f4 [45, 28]
0	0xb8577d12	-5.1376475e-05
1	0xba2aa28a	-0.00065092056
2	0xbb81c68a	-0.0039604353
3	0x3a77a777	0.00094472565
4	0xbabf9fae	-0.0014619732
5	0xba95dcd0	-0.0011433605
6	0xbb20502b	-0.0024461846
7	0xba0802f9	-0.0005188431
8	0x3a82818b	0.000995682
9	0x3a21f498	0.000617811
10	0xbac3874b	-0.001491764
11	0xbac90196	-0.0015335556
12	0x39f89938	0.00047416403
13	0x3ae428ca	0.0017407176
14	0xbb420a0a	-0.0029608035
15	0x3a0816b7	0.0005191373
16	0x3adb1e22	0.0016717354
17	0x3a9c6800	0.001193285
18	0x3a1a4c1a	0.0005885974
19	0xb83c5ca0	-4.4908957e-05
20	0xbb6c1f10	-0.0036029257
21	0x3ad42ebc	0.0016188244
22	0x3a0b582a	0.00053155667
23	0x38aa06e1	8.107513e-05
24	0x39a7d34b	0.00032010148
25	0xba8bf321	-0.0010677316
26	0xbabdfd62	-0.001449507
27	0xba40b1c4	-0.0007350708
28	0x3a62ef6f	0.0008656894
29	0x3a32d5c4	0.00068220147
30	0x3a9e64fd	0.001208454
31	0xbbf0b238	-0.007345464
32	0x3a3fb144	0.00073124864
33	0x3b1d0528	0.0023959372
34	0x3bb458ee	0.0055037653
35	0x3a6a2521	0.0008931924
36	0xb8f90b06	-0.000118752985
37	0xbb09c38b	-0.0021021094
38	0x3af32183	0.0018549416
39	0xbae8f6bc	-0.0017773728
40	0xba1a6bc1	-0.00058906904
41	0xbb59062e	-0.0033115256
42	0x3c03f845	0.008054798
43	0xbba5281e	-0.0050401827
44	0xbb2899c2	-0.0025726412
45	0x3a7d5db4	0.0009665147
46	0xbbbf3dfb	-0.005836246
47	0x3a9544af	0.0011388267
48	0x3bcaddfc	0.0061910134
49	0xbb90ccb1	-0.0044189324
50	0xbb3d55cb	-0.0028890248
51	0xb9962165	-0.0002863511
52	0xbb16b20e	-0.0022994312
53	0x3af00f86	0.0018315173
54	0xbb82cba7	-0.0039915624
55	0x3ab88e18	0.0014080433
56	0x3a37c64d	0.0007010445
57	0x3b2a93fb	0.0026028145
58	0x3bf6f7d7	0.007536869
59	0xbbea1ecf	-0.007144786
60	0xbaa3cdcd	-0.0012497246
61	0x3ae0b038	0.0017142361
62	0x3c0c47da	0.008562053
63	0x3b37fbf0	0.002807375
64	0x3a8556be	0.0010172946
65	0xbb35b364	-0.0027725333
66	0x3b2a36c4	0.0025972584
67	0xb9b1d1dc	-0.00033916428
68	0x3b69a7d6	0.0035653017
69	0xbbb6313f	-0.00556007
70	0x3c04505c	0.0080758
71	0xbb8663b5	-0.0041012415
72	0xbae9b60f	-0.0017830747
73	0x3b2ffe79	0.0026854558
74	0xbbd9a1bf	-0.006641596
75	0x3b5780c0	0.0032883137
76	0x3c3fd0d3	0.011707502
77	0xbb9a50da	-0.0047093453
78	0xbb34d72e	-0.0027594077
79	0x3acbe4a1	0.0015555808
80	0x3a1515fe	0.0005687176
81	0x3a85b4f7	0.0010201026
82	0xbb0284ef	-0.001991566
83	0x3ab7dbad	0.001402726
84	0x3a9e2773	0.00120662
85	0xba02bb5c	-0.0004987025
86	0xbb100d05	-0.0021980416
87	0xbabfc251	-0.0014630054
88	0x3ae5a6c9	0.0017521019
89	0x3ac0c5b9	0.0014707363
90	0xb9ee71dd	-0.00045479732
91	0xbb01b581	-0.0019792023
92	0xba40515e	-0.00073363434
93	0x3a50573d	0.000794757
94	0xbab2be77	-0.0013637085
95	0xb7d34385	-2.5184601e-05
96	0xbb06236a	-0.0020467886
97	0x3b0996a3	0.0020994327
98	0x3ad8b388	0.0016532997
99	0xbb29f3d2	-0.0025932682
100	0xba69a4e3	-0.00089128147
101	0xbb058c07	-0.0020377652
102	0xba834743	-0.0010015744
103	0xb9c2923a	-0.0003711151
104	0xba1af985	-0.0005911815
105	0x38c18cb9	9.229169e-05
106	0xb974e81d	-0.00023356122
107	0xb9fe3207	-0.0004848393
108	0xbabec1fb	-0.001455366
109	0x3b0ad301	0.0021182897
110	0xba7001f7	-0.0009155566
111	0x390c50a6	0.00013381484
112	0xbaffa70b	-0.0019504739
113	0xb9596982	-0.00020734037
114	0x3af6004b	0.0018768398
115	0x3b41595e	0.002950273
116	0xbb27201a	-0.0025501312
117	0xbb587ef8	-0.0033034664
118	0xba8422fc	-0.0010081227
119	0x3a922bdf	0.0011151991
120	0xb8ee9792	-0.000113769565
121	0xba90ab79	-0.0011037431
122	0x3a9a54ce	0.0011774541
123	0x39f08232	0.0004587337
124	0x3b12d296	0.002240335
125	0xbb2f9584	-0.0026792
126	0xbb9045b4	-0.0044028405
127	0x3b8b3062	0.004247711
128	0x39b8975f	0.00035207995
129	0x3a8240ce	0.0009937526
130	0x3b10987c	0.0022063544
131	0x384eb1d6	4.927985e-05
132	0xba610773	-0.0008584179
133	0x39f21c7e	0.00046179065
134	0x3a9b59a4	0.0011852277
135	0x3b01b266	0.0019790172
136	0x3afffa28	0.0019529508
137	0xbb6c901b	-0.0036096636
138	0x3b2ba069	0.0026188141
139	0xb95aeb2a	-0.00020877706
140	0x39e6157c	0.00043885026
141	0xb8f51631	-0.00011686644
142	0xbaf411be	-0.001862101
143	0x3b03cce0	0.0020111129
144	0x383ab60a	4.4515393e-05
145	0xb9cbbcff	-0.0003885999
146	0xbaf7f27d	-0.0018916872
147	0x38168519	3.5886744e-05
148	0x3a38612d	0.0007033523
149	0x3aa2737a	0.0012394034
150	0xba5d0bd2	-0.00084322423
151	0x39462195	0.00018895262
152	0x39c6e51a	0.00037936197
153	0x3b20c5a0	0.0024531856
154	0xbb0f08b4	-0.0021825256
155	0x3aa5af00	0.0012640655
156	0x3ad2f0b7	0.0016093467
157	0x39924d52	0.00027904898
158	0x3abdaf5c	0.0014471817
159	0x3978a9fe	0.0002371445
160	0xbb23c324	-0.002498814
161	0x3ae44cad	0.0017417871
162	0x3a6c92a2	0.00090245355
163	0xb99a2c86	-0.00029406341
164	0x3a644f87	0.000870936
165	0xb92670d4	-0.00015873025
166	0x39f1814a	0.0004606343
167	0xb9e87ae9	-0.00044342063
168	0xba8117f3	-0.0009849056
169	0xba9a982d	-0.001179462
170	0xbb023589	-0.0019868335
171	0x3b488862	0.0030598869
172	0x3abdb194	0.0014472478
173	0x39ff7289	0.00048722725
174	0xbb8c7b1e	-0.0042871376
175	0xba7859e0	-0.00094738416
176	0xba82de9e	-0.0009984558
177	0x3b0fef65	0.0021962759
178	0xbb15f616	-0.0022882274
179	0xb90d69e1	-0.00013486251
180	0xbb571f65	-0.003282511
181	0x3b733e1f	0.0037115884
182	0xbb5f8c92	-0.0034110886
183	0x3a0e5510	0.00054295454
184	0x3ad8c65c	0.0016538608
185	0xbb1d96cd	-0.0024046183
186	0x3b4a411e	0.0030861567
187	0xbb3f670a	-0.0029205703
188	0xbbbb680f	-0.005719192
189	0x3af5c280	0.0018749982
190	0xb9e1d05c	-0.00043070584
191	0xbbaa5e66	-0.0051992415
192	0xba63a1ab	-0.0008683453
193	0x39d7101b	0.00041019995
194	0xb8e5e276	-0.000109617526
195	0xbaa8a94c	-0.0012867837
196	0x39f38983	0.00046451026
197	0xbb32c83b	-0.0027279991
198	0xbc052c1c	-0.008128192
199	0xba4f1a33	-0.00079003273
200	0x3b2fdcad	0.0026834414
201	0x3a4c761d	0.00077995827
202	0xbb398d35	-0.0028312926
203	0xbb55cfe4	-0.0032625133
204	0xbaf6c4f7	-0.0018827011
205	0xba37ab17	-0.00070063904
206	0x39c142bc	0.0003686155
207	0xbadbc29a	-0.001676637
208	0xbba83644	-0.005133422
209	0x39938080	0.00028133765
210	0x3ae6f69c	0.0017621103
211	0xb9cf5aa6	-0.00039549655
212	0xbb457828	-0.0030131433
213	0xbacd6640	-0.0015670732
214	0x3a9ef6df	0.0012128017
215	0xbb2bc5b8	-0.002621038
216	0xbbc21a62	-0.005923555
217	0xba98217c	-0.0011606659
218	0x3a4a5b74	0.0007719316
219	0x3abd6cec	0.0014452017
220	0xbb8abded	-0.0042340667
221	0x3a97d077	0.0011582513
222	0xbab58823	-0.0013849776
223	0x39de95e7	0.00042454826
224	0x38f985d1	0.000118981705
225	0xba0eef9b	-0.0005452574
226	0xbb5884cc	-0.0033038137
227	0xb8abc7bc	-8.191119e-05
228	0x3a5fecef	0.0008542081
229	0x3a11db71	0.00055640104
230	0xbaa0362e	-0.0012223178
231	0x398cfd3c	0.00026891555
232	0xb9a2975d	-0.00031011822
233	0xb55bf590	-8.19412e-07
234	0x3a17808c	0.0005779348
235	0xbab6dfce	-0.0013952197
236	0xbb03ca3f	-0.0020109562
237	0x39dd56d1	0.00042217088
238	0x39e2a631	0.000432299
239	0x3922f621	0.00015541214
240	0xb9de7a8b	-0.0004243444
241	0x3974f4ce	0.0002336085
242	0x3a59c69b	0.00083074876
243	0xbaad214c	-0.0013208776
244	0xbb433211	-0.002978448
245	0xba25b828	-0.0006321692
246	0x38faeab6	0.00011964647
247	0xba632641	-0.0008665063
248	0xbacb2d40	-0.0015501156
249	0xb915261d	-0.00014223946
250	0xba8ae944	-0.0010598083
251	0xb8e0bf7a	-0.000107168176
252	0x3a4697a4	0.0007575697
253	0x39d9894f	0.00041491768
254	0xbaa1af16	-0.0012335505
255	0x3b3b31a6	0.0028563528

exp_avg_sq f4 [45, 28]
0	0x35d1d988	1.5635023e-06
1	0x35bb8093	1.3970006e-06
2	0x370892f0	8.140443e-06
3	0x360ecaab	2.1277617e-06
4	0x3617bf2d	2.2612032e-06
5	0x34d4961c	3.9597296e-07
6	0x3697cda0	4.5240886e-06
7	0x36488c57	2.988401e-06
8	0x35e2d629	1.6900641e-06
9	0x351d83d3	5.867889e-07
10	0x362e9316	2.6013636e-06
11	0x3611e921	2.1742383e-06
12	0x36842355	3.9380197e-06
13	0x35d0d5ef	1.555947e-06
14	0x35b423c3	1.3421453e-06
15	0x36322115	2.6543323e-06
16	0x3600713c	1.9139397e-06
17	0x35f6ebe6	1.8397084e-06
18	0x35b67b49	1.3595937e-06
19	0x3683cdc6	3.9280594e-06
20	0x37058b10	7.959796e-06
21	0x358c4f15	1.0453829e-06
22	0x360732a9	2.0146056e-06
23	0x350f7121	5.3436275e-07
24	0x36579cbd	3.212873e-06
25	0x35156e66	5.5667476e-07
26	0x369f8b1a	4.754763e-06
27	0x3501053c	4.806386e-07
28	0x36c3f731	5.8402297e-06
29	0x36b4c214	5.3870117e-06
30	0x362e1c51	2.5944503e-06
31	0x37cf5ebe	2.472044e-05
32	0x36f15d81	7.193245e-06
33	0x35f0badc	1.7935777e-06
34	0x36db5034	6.5360455e-06
35	0x37272cd9	9.964418e-06
36	0x37005239	7.6485385e-06
37	0x359ecfe2	1.1832419e-06
38	0x36908fb2	4.3082628e-06
39	0x3754fb92	1.2694758e-05
40	0x3631695c	2.6436383e-06
41	0x36c27e3d	5.7963466e-06
42	0x3734cfa0	1.07771775e-05
43	0x3723b032	9.756581e-06
44	0x36ea21ec	6.9776925e-06
45	0x36ae71e6	5.1988636e-06
46	0x371abbf8	9.22288e-06
47	0x369c6ca5	4.66181e-06
48	0x37048f8d	7.901236e-06
49	0x37000fbf	7.633061e-06
50	0x36d03434	6.2049603e-06
51	0x360b29b0	2.073688e-06
52	0x36ad815d	5.1708616e-06
53	0x3604681b	1.973013e-06
54	0x373b7c1c	1.1174965e-05
55	0x3575b5c1	9.15341e-07
56	0x36e6a131	6.8732993e-06
57	0x3720223f	9.544717e-06
58	0x37a31726	1.9441894e-05
59	0x380db394	3.3784265e-05
60	0x371f9e37	9.513976e-06
61	0x36233307	2.4318595e-06
62	0x37d51110	2.5399524e-05
63	0x3796cf67	1.7977973e-05
64	0x36ec5c0a	7.044063e-06
65	0x3595a00c	1.1147945e-06
66	0x369be518	4.64603e-06
67	0x3736073e	1.0849732e-05
68	0x3751433e	1.2473027e-05
69	0x374cdf3e	1.2211325e-05
70	0x378a0f90	1.6458129e-05
71	0x36711fed	3.5930382e-06
72	0x36e75fec	6.8955032e-06
73	0x36bfcaa2	5.715833e-06
74	0x3732c911	1.0656441e-05
75	0x374e6791	1.230267e-05
76	0x3841f2a8	4.6240777e-05
77	0x3700c300	7.6747965e-06
78	0x376b3fe0	1.4021964e-05
79	0x363e430a	2.8351228e-06
80	0x36846f6f	3.946879e-06
81	0x361880d3	2.272475e-06
82	0x368f97c0	4.279398e-06
83	0x359c83aa	1.1661225e-06
84	0x37640f6e	1.35934515e-05
85	0x374c1603	1.21644725e-05
86	0x3714b730	8.864139e-06
87	0x3799be83	1.8327735e-05
88	0x3782ba40	1.5583937e-05
89	0x364f6ba7	3.0908066e-06
90	0x36c25dd0	5.7925718e-06
91	0x3797d01e	1.8097515e-05
92	0x37546c70	1.2661432e-05
93	0x3652e014	3.142287e-06
94	0x36de919a	6.633066e-06
95	0x3790a428	1.7242579e-05
96	0x36dfd1ba	6.6703333e-06
97	0x373af4c9	1.1143457e-05
98	0x36f2275f	7.2167454e-06
99	0x375478eb	1.2664338e-05
100	0x37436503	1.1646424e-05
101	0x3756b76f	1.2798103e-05
102	0x376afebb	1.4006796e-05
103	0x3702edff	7.804017e-06
104	0x36e1a08f	6.724214e-06
105	0x36a3cdef	4.8817524e-06
106	0x37803a03	1.5285803e-05
107	0x36f16de7	7.195154e-06
108	0x370e0b09	8.466429e-06
109	0x368e6954	4.2441916e-06
110	0x3775d5ae	1.4652889e-05
111	0x35c1ba77	1.4433889e-06
112	0x3896cb05	7.190373e-05
113	0x384f6a0a	4.9451402e-05
114	0x3829a3c0	4.0445244e-05
115	0x38ce5c7f	9.840074e-05
116	0x38b91386	8.825124e-05
117	0x378e5e89	1.697174e-05
118	0x3827f4d5	4.004392e-05
119	0x38c1e110	9.244878e-05
120	0x388ea103	6.8010784e-05
121	0x3784e582	1.58425e-05
122	0x3880cd61	6.1417704e-05
123	0x38e25845	0.00010792961
124	0x38405367	4.585404e-05
125	0x38618aed	5.3773565e-05
126	0x381c7ba6	3.7308455e-05
127	0x38bd3e8c	9.0238726e-05
128	0x383a6c04	4.4446453e-05
129	0x38881e05	6.490577e-05
130	0x388bcbdf	6.6660104e-05
131	0x387a49f4	5.967352e-05
132	0x38389e3b	4.4016382e-05
133	0x37cda76d	2.4515868e-05
134	0x38603394	5.3453798e-05
135	0x37ae5a4f	2.078447e-05
136	0x3877b013	5.905337e-05
137	0x37c7d023	2.381957e-05
138	0x38d56bf4	0.00010176739
139	0x3700d14e	7.678127e-06
140	0x35d45302	1.5819389e-06
141	0x358b0d7b	1.036023e-06
142	0x3601a477	1.931823e-06
143	0x3647ce26	2.9773305e-06
144	0x35e42ecf	1.7000947e-06
145	0x34dfcef8	4.1687576e-07
146	0x35fce201	1.8841239e-06
147	0x360d4a32	2.1053825e-06
148	0x35b37280	1.3369863e-06
149	0x34ef22f4	4.454265e-07
150	0x35c25b7c	1.4480752e-06
151	0x360c001c	2.086169e-06
152	0x35b12fa8	1.3201397e-06
153	0x35fc4662	1.8795947e-06
154	0x35d4445a	1.5815124e-06
155	0x35db2e45	1.6330238e-06
156	0x35d90c96	1.6171423e-06
157	0x3591be17	1.0858665e-06
158	0x35c104ad	1.4380981e-06
159	0x35b26470	1.3291265e-06
160	0x3651045a	3.114596e-06
161	0x35c14c6f	1.4401866e-06
162	0x35c157e9	1.4405206e-06
163	0x352a553b	6.345396e-07
164	0x35aca03a	1.2861631e-06
165	0x34a49474	3.0655394e-07
166	0x3615dac1	2.2330062e-06
167	0x34976d34	2.8205397e-07
168	0x3771fead	1.4424016e-05
169	0x37010c58	7.691873e-06
170	0x36fdb43c	7.5609696e-06
171	0x378a25b6	1.6468442e-05
172	0x3796dc37	1.7983939e-05
173	0x364260de	2.8964637e-06
174	0x3746411b	1.1816878e-05
175	0x37694423	1.3903747e-05
176	0x373db873	1.1308223e-05
177	0x3685fbef	3.993038e-06
178	0x378f3232	1.7070302e-05
179	0x37a1d150	1.9290164e-05
180	0x375203ef	1.2517891e-05
181	0x37484f27	1.1939358e-05
182	0x37172f07	9.011251e-06
183	0x3789015c	1.6332306e-05
184	0x3703a179	7.845804e-06
185	0x37548b9e	1.2668692e-05
186	0x37487b9b	1.1949708e-05
187	0x37829db7	1.557065e-05
188	0x37844254	1.5766513e-05
189	0x36951cd4	4.443902e-06
190	0x371b86a4	9.270068e-06
191	0x36f3815e	7.2570247e-06
192	0x374ccbcb	1.2206797e-05
193	0x36991aee	4.5628904e-06
194	0x37a45e8a	1.9594347e-05
195	0x35e57a92	1.7097502e-06
196	0x368cca84	4.195901e-06
197	0x3591b0c6	1.085479e-06
198	0x377cf659	1.5077728e-05
199	0x362f4c0b	2.6121295e-06
200	0x3688efd3	4.081035e-06
201	0x3484799d	2.46754e-07
202	0x35f82f6b	1.849124e-06
203	0x35e2b1c3	1.6890048e-06
204	0x35ea22e4	1.7444513e-06
205	0x34b61c52	3.3920747e-07
206	0x355a2194	8.126019e-07
207	0x35d98253	1.6205689e-06
208	0x364f8da0	3.092784e-06
209	0x361f818c	2.3768253e-06
210	0x357aacc4	9.3383665e-07
211	0x365215fc	3.1305235e-06
212	0x36a4ee9e	4.9153596e-06
213	0x3594e36c	1.1093048e-06
214	0x360e996b	2.124895e-06
215	0x35e5a4ba	1.7109771e-06
216	0x36a217fb	4.830768e-06
217	0x368980ec	4.0979266e-06
218	0x36a9ce40	5.060603e-06
219	0x37219008	9.629883e-06
220	0x367aa845	3.7350849e-06
221	0x34e024d9	4.1750062e-07
222	0x35adb3b0	1.29418e-06
223	0x33f915dd	1.1598943e-07
224	0x36862c25	3.9986503e-06
225	0x3676143b	3.6668632e-06
226	0x36255dcd	2.4641515e-06
227	0x36194b49	2.2842598e-06
228	0x366ecb7d	3.558321e-06
229	0x35988af5	1.1365324e-06
230	0x3589e642	1.0274309e-06
231	0x36b05eb3	5.256233e-06
232	0x35fb251b	1.8711756e-06
233	0x3501dd8c	4.837864e-07
234	0x35922f36	1.0891588e-06
235	0x3637701b	2.733438e-06
236	0x358ec4ed	1.0637137e-06
237	0x35c0c1d8	1.4361531e-06
238	0x3617a97c	2.2599406e-06
239	0x359ef028	1.1841812e-06
240	0x35ca18f2	1.5057433e-06
241	0x36944d91	4.4197736e-06
242	0x361c603f	2.3301834e-06
243	0x35b622fa	1.3570236e-06
244	0x35df04e7	1.6616222e-06
245	0x355504b0	7.9355505e-07
246	0x36db59c4	6.5371587e-06
247	0x36a8f648	5.035461e-06
248	0x35a23fd7	1.208852e-06
249	0x358a72ef	1.0315251e-06
250	0x360e6bfc	2.1222504e-06
251	0x34b0b280	3.291243e-07
252	0x36f846f1	7.3992346e-06
253	0x371cff7f	9.357812e-06
254	0x366d7acf	3.5387236e-06
255	0x376cf266	1.4123134e-05

max_exp_avg_sq f4 [45, 28]
0	0x35d8489e	1.6114388e-06
1	0x35c060fd	1.4333342e-06
2	0x370892f0	8.140443e-06
3	0x36106236	2.1514838e-06
4	0x36190e37	2.280705e-06
5	0x34d4961c	3.9597296e-07
6	0x3697cda0	4.5240886e-06
7	0x364ff248	3.098643e-06
8	0x35e48f7a	1.7029081e-06
9	0x351f1fc5	5.9278346e-07
10	0x3632590e	2.6575904e-06
11	0x361293b7	2.1841677e-06
12	0x3689c633	4.1059916e-06
13	0x35d0d696	1.555966e-06
14	0x35b423c3	1.3421453e-06
15	0x36365890	2.7171664e-06
16	0x36009a1f	1.9163197e-06
17	0x35f7f95b	1.8475506e-06
18	0x35b9e286	1.3849501e-06
19	0x36898878	4.098805e-06
20	0x37058b10	7.959796e-06
21	0x358c4f15	1.0453829e-06
22	0x360a8530	2.0641128e-06
23	0x35134e13	5.487538e-07
24	0x3660a169	3.3472554e-06
25	0x35156e66	5.5667476e-07
26	0x36a1cde5	4.822143e-06
27	0x35010ba0	4.807316e-07
28	0x36cc5547	6.0896014e-06
29	0x36bc99e2	5.620751e-06
30	0x36316b60	2.6437556e-06
31	0x37cf5ebe	2.472044e-05
32	0x36fb9c95	7.4986115e-06
33	0x35f0badc	1.7935777e-06
34	0x36db5034	6.5360455e-06
35	0x372e3ef8	1.0385869e-05
36	0x3705ddc2	7.97905e-06
37	0x359ecfe2	1.1832419e-06
38	0x3691096a	4.3224327e-06
39	0x375a1f9c	1.3001172e-05
40	0x3638c857	2.753475e-06
41	0x36c27e3d	5.7963466e-06
42	0x3734cfa0	1.07771775e-05
43	0x3723b032	9.756581e-06
44	0x36eb002c	7.0035658e-06
45	0x36b17213	5.288291e-06
46	0x371abbf8	9.22288e-06
47	0x369edf88	4.7347894e-06
48	0x37048f8d	7.901236e-06
49	0x37000fbf	7.633061e-06
50	0x36d03434	6.2049603e-06
51	0x360ee34a	2.1291949e-06
52	0x36af9913	5.2332266e-06
53	0x360474c1	1.9737492e-06
54	0x373b7c1c	1.1174965e-05
55	0x3575c2b8	9.1552965e-07
56	0x36efcf66	7.1468994e-06
57	0x37231fe3	9.722981e-06
58	0x37a31726	1.9441894e-05
59	0x380db6e3	3.3787346e-05
60	0x37256709	9.858756e-06
61	0x362384c9	2.4366184e-06
62	0x37d51110	2.5399524e-05
63	0x379c8692	1.8659313e-05
64	0x36f6fee7	7.361046e-06
65	0x3595a00c	1.1147945e-06
66	0x369be518	4.64603e-06
67	0x373c9381	1.1240017e-05
68	0x3751d6c3	1.2507374e-05
69	0x374cdf3e	1.2211325e-05
70	0x378a0f90	1.6458129e-05
71	0x36711fed	3.5930382e-06
72	0x36ec1766	7.036072e-06
73	0x36c02d83	5.727344e-06
74	0x3732c911	1.0656441e-05
75	0x374f220e	1.234609e-05
76	0x3841f2a8	4.6240777e-05
77	0x3700c300	7.6747965e-06
78	0x376e6995	1.4210488e-05
79	0x363f3ed4	2.8497789e-06
80	0x3686d439	4.018217e-06
81	0x3619a111	2.289253e-06
82	0x369146d2	4.3295813e-06
83	0x359c8a30	1.1663124e-06
84	0x3772c944	1.4471185e-05
85	0x3756e604	1.2808949e-05
86	0x3716c2af	8.986025e-06
87	0x37a0683e	1.9122028e-05
88	0x378803a7	1.6214164e-05
89	0x3650d14b	3.111624e-06
90	0x36cebabd	6.1610176e-06
91	0x379e5c25	1.8877976e-05
92	0x37606308	1.3374498e-05
93	0x3657d2d4	3.2160215e-06
94	0x36e8050a	6.9147254e-06
95	0x379ab91b	1.8444427e-05
96	0x36e1b981	6.727118e-06
97	0x373dc7a2	1.13117585e-05
98	0x36f5971b	7.31916e-06
99	0x37570578	1.2816272e-05
100	0x374bd399	1.2149009e-05
101	0x375dfc02	1.3231302e-05
102	0x3775d2e9	1.4652244e-05
103	0x370bc3f7	8.330672e-06
104	0x36f011b6	7.154619e-06
105	0x36ab9303	5.1133115e-06
106	0x3786da0d	1.6075583e-05
107	0x36fcbbc4	7.532044e-06
108	0x371175c6	8.670095e-06
109	0x368eaa16	4.2517304e-06
110	0x378314c4	1.5626087e-05
111	0x35cc1237	1.5204486e-06
112	0x38a18c49	7.7032084e-05
113	0x385d732c	5.2797768e-05
114	0x38340a75	4.2925083e-05
115	0x38d9cb7e	0.0001038527
116	0x38c5e8b9	9.43704e-05
117	0x378f802e	1.7106617e-05
118	0x3833f04a	4.2900712e-05
119	0x38cd8ca4	9.801358e-05
120	0x3898da23	7.288556e-05
121	0x378c3dca	1.6718073e-05
122	0x3888bb8e	6.51992e-05
123	0x38f2d4d0	0.00011579099
124	0x384a1a80	4.8185233e-05
125	0x386ea600	5.689822e-05
126	0x381fb717	3.807907e-05
127	0x38c4ce1f	9.384401e-05
128	0x3846f2cb	4.7432997e-05
129	0x3891c6c2	6.95116e-05
130	0x3894bcf9	7.092389e-05
131	0x38863366	6.3991916e-05
132	0x3846329f	4.7254023e-05
133	0x37db1039	2.6114389e-05
134	0x386e4190	5.680468e-05
135	0x37b88820	2.1997897e-05
136	0x3881d8d6	6.191588e-05
137	0x37ca0586	2.4082849e-05
138	0x38e2590e	0.000107931075
139	0x3709b055	8.206892e-06
140	0x35dc1622	1.6397719e-06
141	0x35910efa	1.0807701e-06
142	0x3601a477	1.931823e-06
143	0x3647e337	2.9785567e-06
144	0x35edb355	1.7710069e-06
145	0x34e5665c	4.272905e-07
146	0x35fce201	1.8841239e-06
147	0x36141e11	2.207122e-06
148	0x35b6346d	1.3575315e-06
149	0x34ef22f4	4.454265e-07
150	0x35c6f41d	1.4823196e-06
151	0x3611a14a	2.1700566e-06
152	0x35b827f8	1.3720701e-06
153	0x35fc4662	1.8795947e-06
154	0x35d4445a	1.5815124e-06
155	0x35dbb9b1	1.6370815e-06
156	0x35d90c96	1.6171423e-06
157	0x3597367a	1.1266231e-06
158	0x35c104ad	1.4380981e-06
159	0x35b96773	1.3813682e-06
160	0x3651045a	3.114596e-06
161	0x35c14c6f	1.4401866e-06
162	0x35c4f5bc	1.4674656e-06
163	0x35301118	6.5589984e-07
164	0x35b065e5	1.3142677e-06
165	0x34aae145	3.1828873e-07
166	0x361bc7fe	2.321321e-06
167	0x34985a95	2.8378113e-07
168	0x37805b18	1.5301208e-05
169	0x370988d6	8.197696e-06
170	0x37031968	7.814124e-06
171	0x378be16f	1.6675067e-05
172	0x37a15cf2	1.9235977e-05
173	0x364ca2f5	3.0493222e-06
174	0x3746411b	1.1816878e-05
175	0x3779dbb8	1.4892714e-05
176	0x374ac311	1.2085556e-05
177	0x3685fd4b	3.993196e-06
178	0x3792cba6	1.7499387e-05
179	0x37ad4dfc	2.0659521e-05
180	0x3752936e	1.2551302e-05
181	0x37484f27	1.1939358e-05
182	0x37172f07	9.011251e-06
183	0x37918fdc	1.7352337e-05
184	0x37089a1d	8.142114e-06
185	0x37584450	1.28905085e-05
186	0x374b7683	1.2127336e-05
187	0x37842c66	1.57563e-05
188	0x37844254	1.5766513e-05
189	0x3695f960	4.469577e-06
190	0x3724cabb	9.822364e-06
191	0x36f3815e	7.2570247e-06
192	0x3754ac14	1.267625e-05
193	0x36a16514	4.809941e-06
194	0x37afc632	2.0953918e-05
195	0x35e5d860	1.7124803e-06
196	0x36923283	4.3570194e-06
197	0x3591b0c6	1.085479e-06
198	0x377cf659	1.5077728e-05
199	0x3632d0bb	2.6645564e-06
200	0x3688efd3	4.081035e-06
201	0x3484799d	2.46754e-07
202	0x35f82f6b	1.849124e-06
203	0x35e2b1c3	1.6890048e-06
204	0x35ea22e4	1.7444513e-06
205	0x34b61c52	3.3920747e-07
206	0x355fa443	8.3313006e-07
207	0x35d98253	1.6205689e-06
208	0x364f8da0	3.092784e-06
209	0x3623ca3c	2.4406609e-06
210	0x357aacc4	9.3383665e-07
211	0x36578a8a	3.2118137e-06
212	0x36a4ee9e	4.9153596e-06
213	0x3594e36c	1.1093048e-06
214	0x3611fcb2	2.1753772e-06
215	0x35e5a4ba	1.7109771e-06
216	0x36a217fb	4.830768e-06
217	0x368bffbe	4.172295e-06
218	0x36aecc9a	5.209423e-06
219	0x372505d4	9.836123e-06
220	0x367aa845	3.7350849e-06
221	0x34e024d9	4.1750062e-07
222	0x35adb3b0	1.29418e-06
223	0x33f94760	1.1607949e-07
224	0x368d2d83	4.2074257e-06
225	0x3681c6b0	3.86763e-06
226	0x36255dcd	2.4641515e-06
227	0x362061d4	2.3898801e-06
228	0x3674e8b7	3.6494291e-06
229	0x359f1482	1.1852392e-06
230	0x3589e642	1.0274309e-06
231	0x36b8b594	5.504766e-06
232	0x3603748d	1.9588363e-06
233	0x35077fd4	5.0477433e-07
234	0x3594272e	1.1038262e-06
235	0x363b1a9c	2.788066e-06
236	0x358ec4ed	1.0637137e-06
237	0x35c825a9	1.4912122e-06
238	0x361dda26	2.3521802e-06
239	0x35a56dcf	1.2325416e-06
240	0x35d1128a	1.5577109e-06
241	0x3698f1e6	4.5581137e-06
242	0x362174a2	2.4058759e-06
243	0x35b622fa	1.3570236e-06
244	0x35df04e7	1.6616222e-06
245	0x3559c0bb	8.111926e-07
246	0x36e60e01	6.8561644e-06
247	0x36b14d02	5.283976e-06
248	0x35a23fd7	1.208852e-06
249	0x359128b1	1.0815185e-06
250	0x3610d14c	2.15795e-06
251	0x34b8cd06	3.4421845e-07
252	0x3702d00d	7.797044e-06
253	0x3724a0f4	9.812637e-06
254	0x36704340	3.5801932e-06
255	0x376f4ac7	1.4262921e-05

exp_avg f4 [45]
0	0x39f32a0c	0.000463799
1	0xbc205fa0	-0.009788424
2	0xbc62822d	-0.013824982
3	0x3a2675d4	0.0006349955
4	0x3b10a095	0.002206837
5	0x3b2816d0	0.0025648363
6	0x3bade063	0.00530629
7	0x3bd17485	0.006392064
8	0x3b0a30f7	0.0021086314
9	0x3bc516c3	0.0060146763
10	0x3783c1e7	1.570671e-05
11	0xb8bf3808	-9.118026e-05
12	0x3aa07dd2	0.0012244529
13	0xbc24e093	-0.010063308
14	0xbc27a724	-0.0102327205
15	0x3b30fdb2	0.0027006683
16	0x3aa4d8e5	0.0012576847
17	0x3a9d1cfc	0.0011986787
18	0xbb8684b0	-0.004105173
19	0xba29ccc1	-0.0006477349
20	0xbbf20993	-0.0073863952
21	0xbb4597e3	-0.0030150346
22	0xba8b3e24	-0.0010623378
23	0xbbb26156	-0.0054437323
24	0x3b24a203	0.002512098
25	0x3bcfdb71	0.006343298
26	0x3c095862	0.0083828885
27	0xbbc05b02	-0.005870224
28	0xbc18315b	-0.009289111
29	0x3bf2471f	0.007393732
30	0xbc1b512d	-0.009479803
31	0x3bcc94d9	0.00624333
32	0x3b3abda7	0.002849439
33	0xbc68aa29	-0.014200726
34	0x3ac4f526	0.0015026673
35	0x3ad10266	0.0015946149
36	0xbb67b559	-0.0035355894
37	0xbb56ec88	-0.0032794792
38	0x3c188fd1	0.009311632
39	0xbaebbc5a	-0.001798521
40	0x3bc32790	0.005955644
41	0x3b9cd4b4	0.0047860984
42	0xbbc4e0f2	-0.006008261
43	0xbc2bd443	-0.010487619
44	0x39d6eb59	0.00040992608

exp_avg_sq f4 [45]
0	0x367547f2	3.6549723e-06
1	0x37ebcf83	2.8110813e-05
2	0x386b269b	5.606432e-05
3	0x37f57a3a	2.9263192e-05
4	0x392fd97d	0.00016770321
5	0x368b1ac5	4.145639e-06
6	0x37fc63e1	3.008725e-05
7	0x36cf6d33	6.181793e-06
8	0x36d070b7	6.212005e-06
9	0x37e77a58	2.7594317e-05
10	0x378df09c	1.6920552e-05
11	0x36ac8daa	5.1424913e-06
12	0x38628119	5.400283e-05
13	0x388360be	6.2645864e-05
14	0x38072f38	3.2230484e-05
15	0x36d1539b	6.2384183e-06
16	0x3859aae5	5.189599e-05
17	0x37949050	1.7710176e-05
18	0x372b9d3d	1.0229004e-05
19	0x35c0a57e	1.4353279e-06
20	0x3846221f	4.7238656e-05
21	0x385060da	4.9681264e-05
22	0x37cd7691	2.4493116e-05
23	0x37fab7af	2.9887857e-05
24	0x36a6d3cf	4.9718433e-06
25	0x36b86503	5.4953866e-06
26	0x398ab795	0.0002645819
27	0x386fb00f	5.7146008e-05
28	0x38e09b5c	0.0001071009
29	0x390570db	0.0001272591
30	0x378d4f68	1.6845486e-05
31	0x3870897d	5.7348505e-05
32	0x37bde7d2	2.2638505e-05
33	0x391c6c44	0.00014917651
34	0x38ae2dd8	8.3055056e-05
35	0x381ae232	3.6927122e-05
36	0x38338445	4.280011e-05
37	0x3934675b	0.0001720464
38	0x37fedecb	3.0382906e-05
39	0x37041116	7.871791e-06
40	0x3800d0db	3.071209e-05
41	0x38f7dd65	0.00011819116
42	0x373441bd	1.0744142e-05
43	0x37605425	1.3371032e-05
44	0x3593d1a8	1.1013371e-06

max_exp_avg_sq f4 [45]
0	0x367d0f4c	3.7708842e-06
1	0x37ebcf83	2.8110813e-05
2	0x386b269b	5.606432e-05
3	0x38039271	3.1369218e-05
4	0x393beb1c	0.00017921295
5	0x368b1ac5	4.145639e-06
6	0x38016ab2	3.0855364e-05
7	0x36cf6d33	6.181793e-06
8	0x36d4f8fe	6.347079e-06
9	0x37e77a58	2.7594317e-05
10	0x37963046	1.7903873e-05
11	0x36b4de9f	5.3903345e-06
12	0x38733426	5.798428e-05
13	0x388360be	6.2645864e-05
14	0x38072f38	3.2230484e-05
15	0x36d1539b	6.2384183e-06
16	0x3868a73e	5.5468867e-05
17	0x379e6716	1.888307e-05
18	0x372b9d3d	1.0229004e-05
19	0x35c2c452	1.4511263e-06
20	0x3846221f	4.7238656e-05
21	0x385a3cb9	5.2031803e-05
22	0x37dd576a	2.6385958e-05
23	0x37ff8ffc	3.0465417e-05
24	0x36a6d3cf	4.9718433e-06
25	0x36b86503	5.4953866e-06
26	0x398fb8a8	0.00027412665
27	0x3871e3a4	5.7670884e-05
28	0x38e2bfd8	0.000108122535
29	0x3908f560	0.0001306138
30	0x378d4f68	1.6845486e-05
31	0x3873207d	5.796597e-05
32	0x37c5e001	2.358854e-05
33	0x391c6c44	0.00014917651
34	0x38b81644	8.777951e-05
35	0x38240378	3.9103877e-05
36	0x3838aa79	4.4027784e-05
37	0x393e6c55	0.00018160169
38	0x37fedecb	3.0382906e-05
39	0x3707040d	8.04757e-06
40	0x3800d0db	3.071209e-05
41	0x3903d3bb	0.0001257201
42	0x373441bd	1.0744142e-05
43	0x37605425	1.3371032e-05
44	0x3598f708	1.1396778e-06

exp_avg f4 [3, 45]
0	0xbbcf0c29	-0.0063185883
1	0xbb0c190c	-0.0021377234
2	0xbbe4961a	-0.0069759013
3	0xba5d30aa	-0.00084377325
4	0x3bccd24f	0.0062506567
5	0x3b7e8b5f	0.0038840396
6	0x3c01ec76	0.007929912
7	0x3cd8e951	0.026478441
8	0x3c2ec4b6	0.010667017
9	0x3b781b70	0.003785815
10	0xbc20c09c	-0.009811547
11	0xbc35e502	-0.011101963
12	0x3c4160f4	0.011802901
13	0xbc3f4f38	-0.011676602
14	0xbc772d20	-0.015086442
15	0x3c49175a	0.012273634
16	0x3b543045	0.0032377404
17	0x3bb38dd6	0.0054795546
18	0xbba5930b	-0.0050529293
19	0xbb333897	-0.0027346963
20	0xbbb6014f	-0.005554355
21	0xbaa16e04	-0.0012316112
22	0x38472caa	4.7486894e-05
23	0xbbe8b19c	-0.007101251
24	0x3b90607a	0.004406032
25	0x3bd9bdb3	0.0066449284
26	0x3c13a9cf	0.0090126535
27	0x3a11ec86	0.0005566556
28	0xbbe1fd1e	-0.006896629
29	0x3c030614	0.007997055
30	0xbb7e5a8f	-0.0038811301
31	0x3b00d2af	0.0019656827
32	0x3c8030f1	0.015648337
33	0xbc3ade3a	-0.011405522
34	0xbc1e0373	-0.009644377
35	0xbb15f692	-0.0022882563
36	0x3bd802cd	0.0065921308
37	0xbac70ef5	-0.0015186953
38	0x3b1d9d06	0.0024049892
39	0xbb0cdd77	-0.0021494308
40	0x3bc3fa19	0.0059807417
41	0x3be554d8	0.0069986396
42	0xbbd100b3	-0.006378257
43	0xbba7d75b	-0.005122108
44	0x3c81969b	0.015818885
45	0xbb5b264a	-0.003343957
46	0x3b6e07b3	0.0036320507
47	0x3b987968	0.0046531446
48	0xbb80eec6	-0.003934714
49	0x3ab6a80c	0.001393558
50	0xbae6bb82	-0.0017603489
51	0x3b92885c	0.0044718217
52	0x3b124dc6	0.0022324189
53	0x3baf2c3e	0.0053458503
54	0xbb120a6a	-0.002228404
55	0x3b3bf586	0.002868028
56	0x3a7da774	0.00096761365
57	0x3bb0ab80	0.005391538
58	0xbaf9ab69	-0.0019048277
59	0xba9c7d60	-0.001193922
60	0xbb77acee	-0.0037792283
61	0x3b5a109f	0.0033274067
62	0xbbb807ee	-0.0056161797
63	0xbbae29a5	-0.005315023
64	0x3ad0b4b8	0.0015922999
65	0xbb2dc1c5	-0.00265132
66	0x3b27aee0	0.0025586411
67	0xbb95f335	-0.0045761117
68	0xbb8f1491	-0.0043664654
69	0xba900675	-0.0010988252
70	0x3c379bb6	0.011206558
71	0xbbb6d0cc	-0.0055790897
72	0xb9f48097	-0.00046635114
73	0x3a8fcfc1	0.001097195
74	0xbb3c60a7	-0.0028744133
75	0xbb7779c4	-0.0037761787
76	0xb88dbd0c	-6.758617e-05
77	0xbb19fa46	-0.0023495122
78	0xbbf54c70	-0.0074859187
79	0xbb653e7c	-0.003497987
80	0xbb1fd5fd	-0.0024389022
81	0x395f3c30	0.00021289359
82	0xbbe9efa5	-0.0071391636
83	0xbbd2f986	-0.006438437
84	0xbaa76503	-0.0012771193
85	0x3ba36ef0	0.00498759
86	0x3a895827	0.0010478542
87	0x3b3f8598	0.0029223915
88	0xbb2a28d0	-0.0025964268
89	0x3b9e1d7d	0.0048252926
90	0x3bceff0c	0.006317025
91	0xbc459a16	-0.012060663
92	0xbcbd49ca	-0.023106474
93	0x3c26a5a1	0.010171325
94	0x3beed5a2	0.0072886506
95	0x3b6dfd6a	0.0036314377
96	0x3ba17b3e	0.0049280217
97	0x3b7252f4	0.0036975713
98	0x3c37fd35	0.011229803
99	0x3b9e46cc	0.004830217
100	0xbcc40968	-0.023930266
101	0x39f2cec9	0.00046311904
102	0xbae90ddd	-0.0017780621
103	0xbba080bb	-0.0048981584
104	0xbc8b42e0	-0.016999662
105	0x3c9d4e58	0.019202396
106	0x3bfd0de2	0.007722602
107	0x3b5fb811	0.0034136812
108	0x3c751889	0.014959463
109	0x3c51f77b	0.012815352
110	0xbc0cd821	-0.008596451
111	0xb9abc43a	-0.00032761862
112	0xbb2cd2c4	-0.0026370743
113	0xbc463e04	-0.012099747
114	0x3be631e2	0.0070249895
115	0x3ce814a8	0.028330162
116	0xbb2b3db3	-0.0026129305
117	0x3c46817d	0.012115833
118	0xbb018b52	-0.001976688
119	0x3b0ee677	0.0021804848
120	0xbc478544	-0.012177769
121	0x3b8a9ce1	0.004230127
122	0x3bb14cf5	0.0054107853
123	0x3b99618c	0.004680818
124	0x39b5be98	0.00034665014
125	0x3b256f07	0.002524318
126	0xbbf62bdf	-0.007512554
127	0x3be65fb1	0.0070304503
128	0x3c5af1e4	0.013363335
129	0x3bacec9e	0.0052772304
130	0x3b8756b5	0.0041302093
131	0x3a33cd5d	0.00068589096
132	0xbc629595	-0.013829608
133	0xbca7cee2	-0.020484392
134	0xbc5c3321	-0.013439924
