logs/my_logs/version_2/checkpoints/epoch=1666-step=1667.ckpt (torch, 32636 bytes, 25 tensors)

encoder.dense1.weight f4 [45, 28]
00000000: c696 4e3d 26a2 c13b f1c7 303d f4f8 1f3e
00000010: 9789 9b3d 454a 4c3e 462a 9b3e 8784 f33d
00000020: 638e 6ebd 9a55 a8bc 80c4 5a3e 3e3a 5b3e
00000030: 04fe 383d f795 5e3d 87d2 f4bb 5c29 513d
00000040: 0cf2 073e 2f80 983d a6c9 003e 7a22 063e
00000050: 4636 fb3d e818 263d d2df 3c3e d005 e7bd
00000060: 9d18 193e e09f 063d 4199 0a3e ea72 523e
00000070: 8b68 07bd a20e d93d 4363 76bd 83d5 1e3e
00000080: 4e05 cc3d 81c8 d0bc 0589 0ebe a038 243d
00000090: 7b5f 74bc 29d5 6f3e df84 b53d 12cb 493d
000000a0: ac2a 283e e8d0 463e ee0a 4bbe 8efd c13d
000000b0: 8961 0abe e982 b53d cced 74be fa2c c3bd
000000c0: 60d6 75bd 3322 923d 3525 23be 4ad6 eabd
000000d0: b803 193d 2111 863d 3562 493e 25b8 0bbe
000000e0: f0f1 e8bd da76 c7bc db5e 2a3d a244 1e3e
000000f0: 5334 1c3e e6ce 803c 2aaa 7abc c086 663e
00000100: bd5a e3bc 0f15 203e 6ce3 99bc 7fcf 36bb
00000110: 4567 263e c3a1 933d 2b96 e8bc afcc 41be
00000120: 0cb5 853e ac80 20be 5486 1c3e b97a 54bd
00000130: 4e53 f53d d577 f5bd 8b2f c73d b7d9 3b3e
00000140: 9adb 193e 0bc4 7a3e 19d8 1abd a4c1 22bd
00000150: e4d2 2a3d 822d 5a3d fe4c eb3d 4d3d 62bd
00000160: 039b a2bd fd64 fa3d 6986 a83d ba6d 5dbe
00000170: 889c 0c3e 2f6f 073c 9ad0 093e 8897 323c
00000180: 9e3b febc 74fb 98bd c601 a2bd 7e7a 173e
00000190: 7c3c c33c 05dc d1bd ae0a 0d3d 3e11 ff3d
000001a0: 1e2f 563d 1907 c23c eb1c e8bd 7f54 68be
000001b0: 88db 07bd 0ff6 c4bd 8467 5dbd 8438 d03d
000001c0: 6ef9 e33b ebbf 3b3e 995b 763e 9ddb 9d3d
000001d0: 9b62 02bd 6027 7a3d 5387 033e fd54 4dbd
000001e0: ceec b53b df10 413e 1e2a 04bd 1bdb f3bc
000001f0: d5c1 4a3e d31b 04bd 7bb7 eabd 4602 d73c
00000200: 2aab 083d 0abe 0a3e 9aa5 3a3e 2902 ac3d
00000210: 1a7c ad3c a9a9 673c 424e 79bc 9277 53be
00000220: 09b8 983d 955f c93c 3d1a 3ebe 6a45 edbd
00000230: b3f8 cdbd 54ba b43d 16f9 c2bd a609 3dbc
00000240: be12 3dbd 27db ce3c 6ab2 bd3c 9772 523e
00000250: 164f 26be cdcc 073e 40d4 9a3d 1b5e 37be
00000260: bee9 3c3d 7831 a7bd 0a18 903d 44dd 0ebe
00000270: f2aa 0ab9 863b f23c 13f7 21bc 8914 aabd
00000280: 71d4 0e3e 6c76 35bd 1be1 223e 6c50 593e
00000290: f5aa 2e3d 5a2c 0ebe 5c70 f6bd 0cbd 9a3a
000002a0: 49a7 8cbd c575 043c 58f3 10be 023e 8fbd
000002b0: 9664 933d 99af e13d 38c9 223e 2b0f 1fbe
000002c0: f2b6 323d bef2 86bd 1642 3d3c 8d1e 5e3e
000002d0: d3f4 39be 98b3 b43d b622 cc3c 253c 863d
000002e0: 06cb 3cbd 60c6 b5bd f693 da3c 4741 99bd
000002f0: f4d8 edbd 6123 d3bc 8d7d e5bd 0abb a6bc
00000300: 4799 9fbd 9c27 a73d 213e f83d f1bd e13d
00000310: 7132 993d 98ed 053e f5f0 b3bc c33b 1cbe
00000320: 99cf 1abe 8255 6bbe b455 a2bd c5b3 c5bd
00000330: e7e9 833d 4904 b23d f6e1 103e 4e79 d1bd
00000340: c0e6 133e feb7 1a3e d987 81bd e84b 80bd
00000350: 91ae c23c 66bb 12bd 67e3 ea3c aea3 52bd
00000360: cdcb b7bd b591 7abd 5a70 ca3d 3274 363e
00000370: 18d3 1c3e a9bb 62bc 1e49 c13a cfe4 483d
00000380: 4550 4dbe 23e7 a6bd cfd7 44be d4bb eebc
00000390: 82a6 23bd 2b1a b33c 7007 5d3d 6018 78bd
000003a0: 754b 103d 6529 ab3c dfe6 28be 3712 05be
000003b0: 06f7 17bd d47a 1abd 5191 4b3e 5669 04be
000003c0: 652e a9bd d4e2 f83c 1cb6 373d 46e2 3cbe
000003d0: f52f 76bd c236 143e 2962 ac3c dfe2 543e
000003e0: 340e 0fbe 7919 7cbd a2bc 43be e62f 993d
000003f0: c9ff 09be 35e9 15be 7e50 ef3d 584e dabd
0.050436758 0.005909222 0.04315943 0.15622312 0.075946026 0.19950207 0.3030569 0.11890512
-0.05824126 -0.02054863 0.21364021 0.21408936 0.045164123 0.054342236 -0.007471386 0.051064834
0.13275927 0.07446324 0.12576923 0.1309909 0.12266211 0.040551096 0.18444756 -0.112804055
0.14950795 0.032867312 0.13535024 0.20551649 -0.033058684 0.10598494 -0.060153257 0.15511136
0.09961949 -0.025486233 -0.13919456 0.040093064 -0.014915342 0.23421158 0.08863234 0.04926593
0.16422528 0.19415629 -0.19828388 0.0947219 -0.13513769 0.0886286 -0.23918837 -0.09530063
-0.060018897 0.07135429 -0.15932162 -0.11466654 0.037357062 0.06546236 0.1966637 -0.13644464
-0.11374271 -0.024348665 0.041594367 0.15455869 0.15254335 0.015723657 -0.015299359 0.2251234
-0.027753228 0.15633033 -0.018785201 -0.0027894673 0.16250332 0.07208588 -0.028391918 -0.18925737
0.2611469 -0.15674084 0.15285617 -0.05187485 0.1197878 -0.11985747 0.09725865 0.1834477
0.15025178 0.24488847 -0.037803743 -0.03973545 0.041705027 0.053266056 0.114892945 -0.055234242
-0.079397224 0.12226293 0.08228762 -0.21623889 0.13731587 0.008266254 0.13458481 0.010900386
-0.031034287 -0.07469836 -0.079104945 0.14792821 0.023832552 -0.102470435 0.034434013 0.124544606
0.05229103 0.023685025 -0.11333641 -0.22688483 -0.033168346 -0.096172445 -0.0540538 0.101670295
0.0069572246 0.1833493 0.24058379 0.077079035 -0.03183232 0.061072707 0.12844591 -0.05012988
0.005551911 0.18854092 -0.03226673 -0.029767564 0.19800504 -0.032253098 -0.11460777 0.026246201
0.03336636 0.13549057 0.18227234 0.083988495 0.02117734 0.014139571 -0.015216412 -0.20651081
0.07456977 0.02458171 -0.18564697 -0.11585505 -0.10057201 0.08824602 -0.095201656 -0.011537945
-0.046160452 0.025250984 0.023156364 0.20551525 -0.16241106 0.13261719 0.07560015 -0.17906992
0.04612135 -0.08163732 0.07035835 -0.13951594 -0.00013224388 0.029569399 -0.009885567 -0.08304698
0.13948227 -0.04430239 0.15906183 0.21222085 0.042643506 -0.13884106 -0.120331496 0.0011805608
-0.068678446 0.008084719 -0.14155328 -0.06994249 0.071969196 0.11019821 0.15897071 -0.1553313
0.0436315 -0.06589268 0.011551401 0.21691342 -0.181598 0.08823317 0.024918895 0.065544404
-0.046092056 -0.08875728 0.026681881 -0.07483154 -0.11613646 -0.025773706 -0.112055875 -0.020352859
-0.07792907 0.08161852 0.12121225 0.110225566 0.07480324 0.13078916 -0.021965483 -0.15257172
-0.15118255 -0.22981837 -0.07926503 -0.09653429 0.06441098 0.086922236 0.14148697 -0.10228215
0.14443493 0.1510925 -0.06324739 -0.06264478 0.02376488 -0.03582325 0.028672887 -0.05142563
-0.08974419 -0.061174113 0.098847106 0.17817762 0.15314901 -0.013838687 0.0014746522 0.049046334
-0.20050152 -0.081495546 -0.1922295 -0.029142298 -0.039953716 0.021863064 0.05396217 -0.06057012
0.03522821 0.020893762 -0.1649432 -0.1299523 -0.037100814 -0.037714794 0.19879653 -0.12930807
-0.08260802 0.030381598 0.044851407 -0.18445691 -0.06010433 0.14474013 0.0210429 0.2078967
-0.13970262 -0.06154773 -0.19114926 0.07479839 -0.1347648 -0.14639743 0.116852745 -0.10659474

encoder.dense1.bias f4 [45]
00000000: 9732 7d3d 5a72 803e 4f46 9bbe 4001 e13d
00000010: 0a03 0b3d 5c2e b23e 9e7b c03d 608c 023f
00000020: 8516 1ebd f0bd ae3e 663b f63d 52fe 1fbe
00000030: c670 a43b d932 0b3e 8a70 033d c063 ab3e
00000040: 8fb7 373e 011f 32be 480e 30bd a0ae 79bd
00000050: cf50 92be 19f6 013e cf31 1d3f ce4d 9ebd
00000060: 9081 ce3d 6b19 063f 51ac 0abd f653 00be
00000070: b015 333d dcd9 513d e62f 783e 7438 713e
00000080: 5503 a5be aee8 a63e f316 4b3e 956c efbd
00000090: 74d0 b83e ca1e babe 3658 0d3f 75f2 c03e
000000a0: 8748 8d3d 68ef acbe 95e2 17be 68c1 a7bd
000000b0: b507 893d
0.061815824 0.25087243 -0.3032708 0.109865665 0.033938445 0.34800994 0.09398578 0.50995445
-0.038595695 0.34129286 0.12023048 -0.15624359 0.0050183265 0.13593616 0.032089747 0.3347454
0.17941116 -0.1739464 -0.04298237 -0.06095755 -0.28577277 0.12691535 0.61404127 -0.07729684
0.10083306 0.52382535 -0.03385574 -0.12532029 0.043721855 0.051233158 0.24237022 0.23556691
-0.32229105 0.32599396 0.19832973 -0.11690632 0.36096537 -0.36351615 0.55212724 0.3768498
0.06898599 -0.33776402 -0.14832528 -0.08191186 0.06690923

encoder.dense3m.weight f4 [3, 45]
00000000: 1536 013e 4b6d eb3d e558 103e a263 08bd
00000010: 0510 2c3d 849d 2abe 528f 0ebe 2a71 a4bb
00000020: 9618 eebd 305d 423d 3101 f13c 1e59 a4bb
00000030: b61a 7a3c 707a 8bbe 84c6 edbd 54a7 b6be
00000040: 908b 80be e727 793e 3d14 233e 4230 893e
00000050: 89db 3fbc 1752 41be cf10 86be 7410 4a3d
00000060: ec06 343d bd8f 4bbe 6c9e 873d 142f 51bd
00000070: 505f b03d b85b f5bd e332 2abe dd17 29be
00000080: 79c5 ab3d 21a7 acbe d721 8abd 9e56 193e
00000090: e876 8cbe d232 003e 1591 27be 3530 23be
000000a0: 8f60 643d d772 b63e 202c 4f3e 791a 21be
000000b0: a881 b53d 35e8 91bd de88 e1bd a834 593e
000000c0: ff64 5cbe c7ad 0fbc 3da0 763e c502 44be
000000d0: a93f 57bd 7c2e 673c 3e99 7ebe 4111 e6bc
000000e0: 1020 16bd f299 193e 754c 03be e576 263c
000000f0: 8a72 5ebc 3997 dd3a e010 d5bd 5809 e3bd
00000100: 01e3 103d 3560 a43e 1281 1a3d 8d8b 77bd
00000110: 1d49 01be 1d16 0abc 832e 1dbf aa91 de3e
00000120: 9cc7 1a3e 0886 10bd 97df 74ba 38b4 e23d
00000130: c417 1bbd b397 403d 43f1 a1be debe de3d
00000140: d59c 2e3e a184 03be 2e9e 193e 8a6a 25be
00000150: 737f ffbc cbb7 adbc e232 9f3e c646 3ebe
00000160: 1ad4 873d 49fd 0c3e 898b 01be 895e 513e
00000170: 8da3 f1bd deb5 dcbc c9fa 83bd ecfa f23e
00000180: e50f 0fbe e8c2 963e bb4b 65bd dd2f 273e
00000190: e5c1 c33d f671 39bd c090 94bb b3ad 7dbe
000001a0: 3f25 093d d881 81bd 83eb 2d3c 5ebb 9b3c
000001b0: 89ba 293d 2895 e73d 1fea b4be 41fe 233d
000001c0: 8f9b e43e 3f8a 9ebc 788b 6d3d 3048 89bc
000001d0: a4dd 07bb 494d bdbd 131e 593d 3f63 8d3d
000001e0: 7e25 833e b9e4 bf3d e275 9abd 926d f63b
000001f0: 0e79 193e 0ae9 0cbe 37a6 483e 4724 f2bd
00000200: a56f 7b3e ee55 683e 7c68 4a3e ee0b fbbd
00000210: a602 64be cf76 3dbe 6bcb 10bd
0.12618287 0.11495455 0.1409641 -0.033298142 0.042007465 -0.1666165 -0.1392186 -0.005018373
-0.11625783 0.04745215 0.029419513 -0.0050155064 0.015265157 -0.2724185 -0.116101295 -0.35674536
-0.25106478 0.24331628 0.15925689 0.2679463 -0.011710056 -0.18878971 -0.261847 0.049332097
0.043951914 -0.1987905 0.066220134 -0.051070288 0.086119294 -0.119803846 -0.16620974 -0.1651301
0.08387274 -0.3372126 -0.06744736 0.14974448 -0.27434468 0.12519386 -0.16363938 -0.15936358
0.055756148 0.3563449 0.20231676 -0.15732755 0.088626206 -0.07124368 -0.110124335 0.21211493
-0.21522902 -0.008769459 0.24084564 -0.19141681 -0.052550945 0.014110204 -0.24863145 -0.0280844
-0.03665167 0.15000132 -0.12822135 0.010160183 -0.013577113 0.001690603 -0.10403609 -0.110857666
0.035372738 0.3210465 0.037720747 -0.06043582 -0.12625547 -0.008428124 -0.61399096 0.43470508
0.15115207 -0.035284072 -0.0009341179 0.1106953 -0.03786446 0.04701967 -0.3162938 0.10876249
0.17052014 -0.12843563 0.15001747 -0.16153923 -0.031188702 -0.021205803 0.31093508 -0.18581685
0.06632252 0.13768496 -0.12650885 0.20446219 -0.11798773 -0.02694219 -0.06444318 0.47457063
-0.13970907 0.29445577 -0.055980425 0.16326852 0.09558467 -0.045274697 -0.004533857 -0.24773292
0.033482786 -0.06323594 0.010615232 0.019010242 0.04143766 0.11307746 -0.3533487 0.040037397
0.44649932 -0.01935303 0.057994336 -0.016758054 -0.0020731473 -0.092432566 0.053007197 0.06903695
0.25614542 0.09369797 -0.075420156 0.007520386 0.14987585 -0.13760772 0.19594656 -0.118233256
0.24554308 0.2268903 0.1976642 -0.12258135 -0.22266635 -0.18502353 -0.035350244

encoder.dense3m.bias f4 [3]
00000000: 93ed 57be 84be 42be 570a c43e
-0.21086721 -0.19017988 0.3828914

encoder.dense3s.weight f4 [3, 45]
00000000: 09a6 b6bd addc cd3c 9d30 703d cd24 7f3c
00000010: a4f7 753d e4e7 223b 9198 2fbd 9287 11be
00000020: c1c5 023e be23 c2bd 85af 5a3e fa11 063d
00000030: 2397 363c f881 8f3b 2289 cbbc 35f2 e23b
00000040: 8de2 07bd 6957 943d 213b 243e 773b 123d
00000050: af01 693d 944a 143d 3b66 82bd 9277 77bd
00000060: 9c8d c63d 2115 e2bd 3f8f 383d 648b 173e
00000070: 1dfa 173e 37f8 e73d e4e6 d63d 5e51 1cbe
00000080: 5806 003e f4c8 403d 6bf1 3dbd 9bed 80bd
00000090: 3096 e73d 123b 413e 54ba 553d 7ddd cdbd
000000a0: 573b 703d 49a8 7c3d b348 b93d 3fed babc
000000b0: 5d0f 3bbd 0a07 b6bd dfaa 2abd e24b e83d
000000c0: 0921 953d 49a5 d5bc 2be3 23bc 02fb 9fbc
000000d0: d1bd 54bd 2630 95bd 341e d3bd 5dad 30bd
000000e0: 493d df3d e24c 883d d6b3 5c3c b811 8b3d
000000f0: 4472 d3bd 823b 973c a32d 8d3d 1f13 3a3c
00000100: c491 ab3d 1189 78bc fa24 953d d635 98bd
00000110: 5866 703d 785c e93d 5596 38be 91c1 a5bd
00000120: 9e34 1ebc bfce 5d3d 7fb9 df3c 94e3 d33d
00000130: a9b2 793c 3e29 383d c5c2 28bd 3f2f 14bd
00000140: 2b57 82bd ca7d 9e3d 5c09 eb3d 7079 cc3c
00000150: 9286 08be 0036 483d 4f72 a2bc 8ce9 6b3d
00000160: b955 f43d e91b 0ebe d71d 92bd 4b86 c0bc
00000170: 4f2f c53d 9327 ba3d 71c7 0abd 470c aabd
00000180: 01a2 03bd 4fb7 0ebe bd13 a7bd 47ae 18bd
00000190: af5b 8b3e d199 933d 4168 c83d a3fa cdbc
000001a0: 40d0 973d ee20 df3c 62ac e7bd 853a dc39
000001b0: 22d6 b23d 1581 23bc ade0 e23d 0ef9 a13c
000001c0: 718a 2fbd ff30 80ba 3e62 c43d 9f40 1abe
000001d0: b9b4 e7bd e5e6 ccbd 4eba bebd 0079 e4bd
000001e0: e65c 6d3c d9ec 46bd d510 943e 47ca 1abe
000001f0: 09e9 bfbd 8d99 8ebd 830a 32bb 513d ee3d
00000200: faad 78bd 3219 be3d 3538 aabc 9913 f63d
00000210: 840c efbc fc1d 9c3b 7689 e5bd
-0.089183874 0.02512964 0.05864011 0.015572739 0.06005062 0.0024857456 -0.042870108 -0.14211872
0.1277075 -0.094794735 0.21356018 0.032731988 0.011144432 0.004379507 -0.024845663 0.006925846
-0.03317504 0.07243235 0.16038181 0.03570124 0.05688637 0.036203936 -0.06367155 -0.060416766
0.096949786 -0.11039186 0.045058485 0.14799267 0.14841504 0.1132664 0.10493258 -0.15265414
0.1250242 0.047066644 -0.046372812 -0.0629532 0.11307943 0.1887019 0.05217965 -0.10052011
0.05865034 0.061683927 0.090470694 -0.022818206 -0.04566895 -0.08888061 -0.04166686 0.113425985
0.072816916 -0.02607979 -0.0100028915 -0.01952887 -0.051938836 -0.07284574 -0.10308495 -0.043134082
0.10900361 0.06655289 0.013470611 0.06790489 -0.10324529 0.018460993 0.0689347 0.011357098
0.08377412 -0.015169398 0.07282443 -0.074321434 0.058691353 0.1139459 -0.18026097 -0.080935605
-0.0096561 0.054152247 0.027310131 0.103461415 0.01524035 0.044961207 -0.04120137 -0.03617787
-0.06364282 0.07738836 0.114763945 0.02496025 -0.13332585 0.048879623 -0.019829897 0.057595775
0.11930413 -0.13877834 -0.07134598 -0.023501536 0.09628164 0.090895794 -0.03388161 -0.08303123
-0.03213692 -0.13937114 -0.08158062 -0.03727558 0.27218387 0.072070725 0.0978551 -0.025143927
0.074127674 0.027237382 -0.11312176 0.0004200527 0.08732249 -0.009979506 0.1107801 0.019772079
-0.042856637 -0.0009780227 0.09589051 -0.15063713 -0.11313767 -0.10004977 -0.093128785 -0.111558914
0.014487481 -0.04856572 0.28919092 -0.15116225 -0.0937062 -0.06962881 -0.002716691 0.11632789
-0.060712792 0.092821494 -0.020778755 0.12015457 -0.029180773 0.0047643166 -0.11207859

encoder.dense3s.bias f4 [3]
00000000: 8f97 96bd 46a0 6b3c 4aba 10bc
-0.07353126 0.014381474 -0.008833477

decoder.linear.bias f4 [28]
00000000: 50ed 193f 20da de3d 9a58 abbe b75a 743f
00000010: 255d 333f e8e3 46bf 8038 c6be 48cb 6d3f
00000020: c83b 183f 25a9 a8bf 7700 07be 1812 ac3f
00000030: 9681 cabe fa77 373e 8d7d 1bbe f837 a93e
00000040: dff7 13bd 8fe5 1f3f 9c5f fb3e baef c03c
00000050: 4917 c2be 4b42 1cbf bf23 833e 7944 24bf
00000060: 7bc8 ddbd 25f3 29bf 2b6c 483f b431 9cbf
0.60127735 0.10881448 -0.33466035 0.9545092 0.70064 -0.7769151 -0.3871498 0.9288831
0.5946622 -1.3176619 -0.13183771 1.3443022 -0.3955199 0.17916861 -0.15184613 0.33050513
-0.03612506 0.62459654 0.49096382 0.02355181 -0.3790839 -0.61038655 0.2561321 -0.6416698
-0.10829254 -0.66386634 0.7829005 -1.2202668

decoder.linear.weight_orig f4 [28, 3]
00000000: b25c 393f bc3a 713e 4b11 12bf c33e b3be
00000010: 734b 673f 1843 4b3e b2ee e13e 4cf5 e13e
00000020: 029b 91bf 84e3 d4bd 28a1 bb3d 2f29 46bf
00000030: 2867 d83e 60fc 8c3c 7540 b3be f0be 32be
00000040: d0d0 fb3d 8270 8cbf 0323 4c3f ca26 d8be
00000050: 7656 a7bf 0251 c03e d905 873f b808 bc3e
00000060: 6ad8 d53e 08ae 2abe b972 6bbf 9f32 a13f
00000070: 3ef0 09be 7ee4 68be 0632 a83f 3bd0 ecbe
00000080: 9105 99be eed4 063f 706d 4c3e 22eb 78bf
00000090: a3dd a03f f3dc aabe fcc3 fbbe 7e68 813f
000000a0: 2331 fabe 1510 05bf ec84 8d3e df50 adbe
000000b0: f770 a3bf a2ba b03f f414 a2be 10ba 7cbf
000000c0: 9b1b 8fbe ca47 953f fba5 aebf d949 81be
000000d0: 3008 3e3e d085 64bf 6f97 9ebe f847 013f
000000e0: bfa6 95bf 97b3 a93f 4890 b93d 25b0 fdbe
000000f0: 1e6e 8d3f d0c9 34bd 639e 9abf 288f bdbd
00000100: bc15 bfbe 99e1 5ebf d021 cebd a4ee 8f3f
00000110: d9f4 12bf 4a28 8ebe 0fab a53f bed6 a0be
00000120: ca05 723f c8c7 fbbd 765f 2fbe b2a2 e2be
00000130: 42e7 a03e 9a2e b7bf 5494 7f3f c3d5 a0be
00000140: 4330 05bf 806a 003c dee0 3ebe 4afc 36bf
0.72407067 0.23557562 -0.57057637 -0.3500882 0.903495 0.19849813 0.44127423 0.4413246
-1.137543 -0.10394958 0.091615975 -0.7740659 0.42266202 0.017210186 -0.35010114 -0.1745565
0.12295687 -1.0971835 0.79740924 -0.42217094 -1.3073261 0.37561804 1.054866 0.36725402
0.41766673 -0.1666795 -0.9197193 1.2593573 -0.13470551 -0.22743413 1.3140266 -0.46252617
-0.2988706 0.52668655 0.19963622 -0.97233784 1.2567638 -0.33371696 -0.49172962 1.0110013
-0.48865613 -0.51977664 0.27640474 -0.33850762 -1.2768849 1.3806956 -0.3165661 -0.9872141
-0.2795075 1.1662533 -1.3644403 -0.25251654 0.18557811 -0.8926668 -0.3097491 0.5050044
-1.1691512 1.3257931 0.090607226 -0.4954845 1.104923 -0.044137776 -1.2079586 -0.092558205
-0.3732127 -0.87062985 -0.10065043 1.1244702 -0.5740486 -0.27765113 1.2942828 -0.31413835
0.94540083 -0.122939646 -0.17126259 -0.44264752 0.31426436 -1.4311097 0.99835706 -0.31413087
-0.52026767 0.007837892 -0.18640468 -0.7147871

decoder.linear.weight_mask f4 [28, 3]
00000000: 0000 803f 0000 0000 0000 0000 0000 0000
00000010: 0000 803f 0000 0000 0000 803f 0000 0000
00000020: 0000 803f 0000 0000 0000 0000 0000 803f
00000030: 0000 0000 0000 0000 0000 803f 0000 0000
00000040: 0000 0000 0000 803f 0000 803f 0000 0000
00000050: 0000 803f 0000 0000 0000 803f 0000 0000
00000060: 0000 0000 0000 0000 0000 803f 0000 803f
00000070: 0000 0000 0000 0000 0000 803f 0000 0000
00000080: 0000 803f 0000 803f 0000 0000 0000 803f
00000090: 0000 803f 0000 0000 0000 0000 0000 803f
000000a0: 0000 0000 0000 0000 0000 0000 0000 0000
000000b0: 0000 803f 0000 803f 0000 0000 0000 803f
000000c0: 0000 0000 0000 803f 0000 803f 0000 0000
000000d0: 0000 0000 0000 803f 0000 0000 0000 0000
000000e0: 0000 803f 0000 803f 0000 0000 0000 803f
000000f0: 0000 803f 0000 0000 0000 803f 0000 0000
00000100: 0000 0000 0000 803f 0000 0000 0000 803f
00000110: 0000 0000 0000 0000 0000 803f 0000 0000
00000120: 0000 803f 0000 0000 0000 0000 0000 0000
00000130: 0000 0000 0000 803f 0000 803f 0000 0000
00000140: 0000 0000 0000 0000 0000 0000 0000 803f
1.0 0.0 0.0 0.0 1.0 0.0 1.0 0.0
1.0 0.0 0.0 1.0 0.0 0.0 1.0 0.0
0.0 1.0 1.0 0.0 1.0 0.0 1.0 0.0
0.0 0.0 1.0 1.0 0.0 0.0 1.0 0.0
1.0 1.0 0.0 1.0 1.0 0.0 0.0 1.0
0.0 0.0 0.0 0.0 1.0 1.0 0.0 1.0
0.0 1.0 1.0 0.0 0.0 1.0 0.0 0.0
1.0 1.0 0.0 1.0 1.0 0.0 1.0 0.0
0.0 1.0 0.0 1.0 0.0 0.0 1.0 0.0
1.0 0.0 0.0 0.0 0.0 1.0 1.0 0.0
0.0 0.0 0.0 1.0

exp_avg f4 [45, 28]
00000000: 80a7 0739 4cf0 23b9 6c03 43b9 98f1 6639
00000010: 5da7 10ba 547d 9bb9 76b5 5139 d8b0 2d39
00000020: 1a81 d1b9 9c34 a339 d874 cbb9 b0db 9138
00000030: ecf7 b0b9 90ef 1639 0c48 3039 769c e7b9
00000040: f078 11b9 183b 47b9 70c8 7db9 e960 27ba
00000050: 6e12 b739 ecb3 c538 a4bc 08b9 acd7 e938
00000060: d517 b339 cb26 36ba 5bc2 2cba 3498 9b39
00000070: b420 9039 b518 ed39 cfb2 e938 086b 433a
00000080: 06e3 8039 6081 e337 d5fb 6eb9 f7b8 023a
00000090: 012f 5b39 803e 8bb8 4ac2 bc39 346c 7b3a
000000a0: 4897 e839 0670 673a 7a25 b939 201f b339
000000b0: eca8 043a 7e7f d939 3460 cf38 0417 a5b8
000000c0: 88dd 2cb9 5c2b dc38 4cd6 f039 866e 7439
000000d0: f73a 003a 8732 483a 1573 ecb8 4aa3 d338
000000e0: 9caa e839 90d1 cab8 8dc5 feb9 00da bfb9
000000f0: 5850 8b39 0e29 bfb9 00d5 b737 e845 363a
00000100: d015 9438 3007 d6b7 2872 82b8 10c6 6439
00000110: 5415 dfb9 04c0 4db9 8c8a 0cba a0f6 a9b7
00000120: bc1a a5b9 248c 1339 f0ad cf38 2882 7339
00000130: bc42 3839 2c5c 45b9 7879 9638 2c5f 5db9
00000140: 603d d937 7896 88ba 86ce 8e39 8056 9136
00000150: 8742 213a 7d4b 0f3a a606 d339 a2d6 103a
00000160: 7c4b 443a 38d0 ec39 a74f c339 0c32 8d39
00000170: b4f7 ce39 b024 bd39 42ed 153a 5045 fd39
00000180: 4015 4139 2255 143a 693f 1339 89eb 413a
00000190: 9547 0f3a 77d3 ca39 0096 373a dc13 b539
000001a0: 9269 0c3a e76a e739 4873 a6b8 ef66 3439
000001b0: a658 8839 5b8a ac39 432a 1b3a 8061 2b39
000001c0: c079 8439 a031 4bb7 a87f 7ab8 c224 5e39
000001d0: 92dd 6839 d8de 5f38 8089 4637 b8c2 8339
000001e0: 74d8 0a39 b0a1 88b7 b8da 3438 286a fc38
000001f0: 58b8 40b8 043f b238 b598 3d39 c853 84b8
00000200: b872 c838 20c5 2038 1454 b638 a0d9 3bb8
00000210: c5eb 1c39 5898 2c39 a0ee 03b8 415d 8239
00000220: 4e37 f038 ce03 59b9 a889 c238 7140 1f39
00000230: 7e97 bdba 8062 9138 6036 43b8 f09f 1dba
00000240: f024 4bba 60bf 8ab9 66bc 4dba 5475 3dba
00000250: d0a9 6c39 9027 7cba c0fa eb38 b089 66b9
00000260: 4018 273a 0889 12ba 00c6 41b6 00c7 85b8
00000270: f058 29b9 0072 3237 d08e 40ba c056 5c39
00000280: 105e c1ba 107d 6bba 4a08 613a 8071 53b9
00000290: a059 37ba 4d3c cf3a 7428 16ba c47b 20ba
000002a0: 9090 51b8 3e7e c7b8 8090 be39 e43f 8139
000002b0: 3644 ab38 2e7d bf39 fc5a db39 acb9 01ba
000002c0: 5826 ccb7 832c 8b39 a047 b438 826e e7b9
000002d0: aada 95b8 1e7c 1db9 94f9 9b39 e610 8538
000002e0: a53e 3f38 869a d4b8 65e1 8e39 d6ce 42b8
000002f0: 7933 d239 85ed a239 f430 0dba ce2f ca38
00000300: 1949 d9b8 2867 5838 78d8 8939 04be 2e39
00000310: 47d5 19ba 3086 1139 374e a739 a498 b639
00000320: 59fb 5fba 587b 22b9 d0f1 36b9 d407 8eb9
00000330: c0df 9db8 c8df d4b8 c091 9f38 08d9 e639
00000340: 0bfe 0d3a a053 e639 c604 123a c036 e338
00000350: 088f 2539 a04d 3239 34ba e7b9 4c00 81b9
00000360: b225 edb9 b085 71b9 882f 123a b054 fe38
00000370: dc96 5b39 da9a 8f3a e5b9 60ba d0da 5b38
00000380: a194 4039 4ecc 48b9 e24e 8839 ddb5 ecb8
00000390: fe13 2e39 c847 bf38 7867 b339 99c3 46b9
000003a0: d603 4139 cc8f ef38 53df b939 e6a1 da38
000003b0: fe1a 0c3a 4473 c439 0cdf fc38 10a5 cc39
000003c0: eed1 bcb7 8fab 4bb9 25a7 2fb9 7894 e139
000003d0: 2436 a739 0a94 1739 d9ec bf38 feda 9c39
000003e0: fb4b cd38 c1d5 5f38 0909 2f3a 4ca2 d0b7
000003f0: 7905 f6b8 7e0c fa38 054c 4039 1c99 453a
0.00012937002 -0.00015634409 -0.00018597924 0.0002202451 -0.0005518103 -0.0002965728 0.00019999393 0.00016564445
-0.00039959775 0.0003112898 -0.00038806233 6.955059e-05 -0.00033754052 0.00014394359 0.00016811508 -0.00044176326
-0.0001387333 -0.00019000133 -0.00024202629 -0.0006384985 0.0003491821 9.427205e-05 -0.00013040245 0.00011150478
0.00034159297 -0.00069485296 -0.00065902405 0.00029677304 0.00027490186 0.0004522257 0.000111436115 0.00074546086
0.00024583208 2.7120754e-05 -0.00022791263 0.00049866684 0.00020902978 -6.639678e-05 0.0003600291 0.00095910137
0.00044363202 0.00088286435 0.00035313872 0.0003416473 0.0005060572 0.00041484454 9.8884484e-05 -7.8721e-05
-0.00016485725 0.00010498494 0.0004593603 0.00023310827 0.0004891599 0.00076369237 -0.000112747926 0.00010091679
0.00044377602 -9.671145e-05 -0.00048593842 -0.00036592782 0.00026572007 -0.00036460947 2.1914486e-05 0.0006953166
7.061253e-05 -2.5514135e-05 -6.220146e-05 0.00021817558 -0.00042549765 -0.00019621855 -0.0005361221 -2.0261214e-05
-0.0003149117 0.00014071219 9.9029276e-05 0.00023222773 0.00017572468 -0.00018821721 7.175183e-05 -0.00021111657
2.5896996e-05 -0.001042082 0.00027238223 4.3314067e-06 0.0006151576 0.0005466266 0.0004025001 0.0005525147
0.00074880547 0.00045168563 0.00037252644 0.00026930904 0.00039475935 0.00036076223 0.0005719253 0.00048307562
0.0001841383 0.0005658438 0.00014042635 0.0007397463 0.00054656836 0.00038685996 0.0007003248 0.00034537807
0.00053563074 0.00044139402 -7.9369696e-05 0.00017204483 0.0002600599 0.0003290948 0.0005919078 0.00016344152
0.00025267713 -1.2111297e-05 -5.9723534e-05 0.00021185263 0.00022207786 5.3374883e-05 1.1833734e-05 0.00025131344
0.0001324134 -1.6287755e-05 4.3119042e-05 0.000120360695 -4.594805e-05 8.499439e-05 0.00018081332 -6.309856e-05
9.558111e-05 3.833056e-05 8.694097e-05 -4.4786953e-05 0.0001496515 0.0001645995 -3.145507e-05 0.00024865012
0.00011454393 -0.0002069615 9.276281e-05 0.00015187428 -0.0014464704 6.932486e-05 -4.6542264e-05 -0.0006012907
-0.00077493396 -0.00026463997 -0.0007848203 -0.0007227261 0.00022569974 -0.00096189324 0.00011252379 -0.00021985802
0.0006374158 -0.0005589877 -2.8874492e-06 -6.379001e-05 -0.00016150228 1.06361695e-05 -0.00073454995 0.00021013152
-0.0014752764 -0.00089831743 0.0008584304 -0.0002016481 -0.0006994251 0.0015810818 -0.0005728074 -0.0006121958
-4.9964117e-05 -9.512574e-05 0.00036347285 0.000246524 8.166621e-05 0.00036523625 0.00041838724 -0.0004948627
-2.433655e-05 0.0002654531 8.59641e-05 -0.00044142088 -7.145603e-05 -0.00015018924 0.00029749854 6.345082e-05
4.559629e-05 -0.0001013773 0.00027252283 -4.6445835e-05 0.0004009267 0.00031076014 -0.0005386018 9.641015e-05
-0.00010360982 5.1594485e-05 0.00026291958 0.0001666472 -0.00058682676 0.00013878266 0.00031910997 0.0003482747
-0.00085442286 -0.00015495473 -0.00017446955 -0.00027090183 -7.52802e-05 -0.0001015063 7.608859e-05 0.0004403072
0.00054165785 0.00043931324 0.00055701693 0.000108344015 0.0001578891 0.0001700432 -0.00044198486 -0.0002460502
-0.00045232248 -0.00023033354 0.0005576541 0.00012127438 0.00020941667 0.0010956184 -0.00085726223 5.2417454e-05
0.00018365915 -0.00019149596 0.00025998714 -0.000112872316 0.00016601381 9.12096e-05 0.0003421863 -0.00018955617
0.00018407343 0.00011423192 0.0003545234 0.00010425206 0.00053445983 0.00037469913 0.00012057842 0.00039032893
-2.2509103e-05 -0.00019423499 -0.00016751567 0.00043025962 0.0003189306 0.00014455631 9.151706e-05 0.000299178
9.789314e-05 5.3366417e-05 0.00066770666 -2.4871108e-05 -0.000117312135 0.00011923256 0.00018338866 0.00075377687

exp_avg_sq f4 [45, 28]
00000000: d759 ac37 e8c8 8437 14a3 4637 6066 c637
00000010: 5684 cd37 2990 e636 e41e 4637 0dd9 ca37
00000020: f962 ac37 14b1 c336 f273 8937 46b4 e637
00000030: 1438 3f37 4257 8937 91d0 5437 5ff0 9a37
00000040: 0638 7b37 a58b a737 3aef 9a37 eaea 8037
00000050: 4bc4 7237 3c11 0037 be56 8237 4bc7 1337
00000060: e4da 5b37 34f3 0f37 9179 c437 37c9 8336
00000070: 595c 6d37 17a1 2d37 f3ac f836 fb18 9337
00000080: 226f 9037 936c 9036 9c3d fd36 6eef 9037
00000090: daab 7737 14e1 8536 4fd5 4337 d3e2 a537
000000a0: 4514 0137 c39e 4037 5cda 1337 7645 4737
000000b0: 1c12 1d37 b169 7937 6c99 4b37 bcee 2f37
000000c0: be4c 1337 72aa cb36 ab47 3f37 a342 c636
000000d0: a3a9 1c37 6e54 b436 3f5c 8537 1059 3036
000000e0: 5861 1638 430d de37 eefa 9b37 7300 3a38
000000f0: 8157 3b38 e168 2f37 66a4 9537 3194 3e38
00000100: 7842 0f38 1171 1a37 0ca4 ca37 ae80 5538
00000110: aac9 9d37 67fe ee37 2804 b537 5823 f437
00000120: 0495 cc37 b1dc 1338 7172 0738 c5a8 d837
00000130: 70ee a537 eb6c 4e37 ad9b f937 d053 8337
00000140: f43b bc37 4874 6437 ead6 2838 efa3 b136
00000150: 3ae6 9a37 c5ca 6637 8120 3d37 40fb b237
00000160: a80f ad37 b5de b136 9a1a 3a37 824c af37
00000170: c2bb 8f37 1925 a136 822f 8237 483e da37
00000180: 8790 2b37 685d 5937 3256 3537 6b77 9537
00000190: cc9e 5437 7f78 9b37 f461 8e37 504a 7137
000001a0: f72e 5637 6e55 de36 2689 6137 d6bf e636
000001b0: c7c4 4337 45c9 ea36 a033 a037 4374 3436
000001c0: 0fe6 9b36 0900 6636 90e7 1f36 5e77 b436
000001d0: 5194 ad36 7103 cf35 97b4 1636 6d85 b236
000001e0: 2613 9436 f676 9035 a1f0 7236 614f ca36
000001f0: bc1a 0e36 d152 5436 2ce1 3e36 11c8 8636
00000200: ff83 5d36 7967 9b36 45d2 8836 9f9e 5536
00000210: a5ba 3036 953a e135 57ef 7036 72c7 0036
00000220: 54de 2d36 585d fc35 e654 a036 8ed4 4935
00000230: 8184 0239 262b c938 580a 8138 5eba 1939
00000240: b086 1939 d88d 1438 5e6e 8138 98ee 2639
00000250: 9f36 ec38 4fd9 0c38 cda4 b038 a93e 3139
00000260: da8d 8938 6bc2 c738 20d3 9438 0ed5 ce38
00000270: 286f b038 0d14 f938 db5f e038 e9a7 b638
00000280: abef 9238 4409 2e38 291f e138 f52f 7138
00000290: 3b3a a738 e35d 3238 83bc 0e39 8dc5 9a37
000002a0: bd41 0337 d633 f736 b18c 8736 9bb1 1137
000002b0: cd45 1737 121f 5f36 703e 9336 d7b4 0937
000002c0: 44f8 1537 5c2f fd35 9be5 ae36 f852 4037
000002d0: a49f 7436 5947 b636 cf1d a236 22fa 0737
000002e0: fd63 a636 6b69 fc36 896f 1937 5044 bd36
000002f0: cba8 a436 1548 5436 f44f ac36 9cfc 5f36
00000300: a479 9136 4019 6936 684f 0737 3bf5 2a36
00000310: 72fa 4938 2c81 1638 c4e1 be37 73c1 6c38
00000320: efb2 7138 549d 5237 5fd5 b737 3189 7b38
00000330: 6082 3a38 7af6 5337 3ed3 0538 dbc0 8938
00000340: c1d3 cf37 9165 2238 6c34 e037 32c5 1838
00000350: 1519 ff37 e6a1 4638 6ea6 2938 72ab 0938
00000360: aead ca37 1763 8e37 ffaa 2b38 51b7 b437
00000370: cdb7 0138 d6ff 8637 a382 5f38 c42a f036
00000380: 7f9c 9536 6601 6736 8766 2a36 0115 d536
00000390: 497c d836 58fe b835 630d 4e36 3d86 c736
000003a0: a341 a436 7101 d435 020e 5336 da28 0037
000003b0: 578c 5936 17cb 9636 3762 6536 2117 8836
000003c0: af69 4b36 e53c b836 1cd4 b036 40ee 6536
000003d0: b36e 4836 4589 0a36 22cc 8336 6e72 0f36
000003e0: 4ddb 6236 ac3b f335 4125 c536 d3ed 4935
000003f0: 74dc a637 4f02 6037 e317 2c37 5abc be37
2.0545833e-05 1.582918e-05 1.1839689e-05 2.3651111e-05 2.4499528e-05 6.8713166e-06 1.1808912e-05 2.4181349e-05
2.0550086e-05 5.8320675e-06 1.6385664e-05 2.7502083e-05 1.1397544e-05 1.6372305e-05 1.2684745e-05 1.8470162e-05
1.497381e-05 1.9972978e-05 1.846963e-05 1.536818e-05 1.4470027e-05 7.633407e-06 1.55376e-05 8.808284e-06
1.3104382e-05 8.580089e-06 2.342163e-05 3.9275287e-06 1.4147802e-05 1.034911e-05 7.41111e-06 1.7535398e-05
1.7217888e-05 4.304174e-06 7.54716e-06 1.727763e-05 1.476236e-05 3.9899114e-06 1.16725705e-05 1.9775156e-05
7.6937185e-06 1.1481056e-05 8.8127235e-06 1.1877497e-05 9.362146e-06 1.4866165e-05 1.2135464e-05 1.04863975e-05
8.779751e-06 6.069714e-06 1.1401174e-05 5.9086174e-06 9.337821e-06 5.374247e-06 1.5897791e-05 2.6277885e-06
3.5853445e-05 2.6470638e-05 1.8594288e-05 4.4346274e-05 4.466577e-05 1.0455232e-05 1.7838738e-05 4.5437544e-05
3.415576e-05 9.205441e-06 2.4156667e-05 5.0903e-05 1.8809766e-05 2.8490276e-05 2.1578817e-05 2.9103525e-05
2.4388086e-05 3.5253066e-05 3.229309e-05 2.5827796e-05 1.9780564e-05 1.2303916e-05 2.9755605e-05 1.5655445e-05
2.2439264e-05 1.3616933e-05 4.0254476e-05 5.2940954e-06 1.8465438e-05 1.3756279e-05 1.1272846e-05 2.1336251e-05
2.0630498e-05 5.3009376e-06 1.1092658e-05 2.0897252e-05 1.713436e-05 4.8024926e-06 1.551933e-05 2.6016627e-05
1.0226045e-05 1.2955956e-05 1.080851e-05 1.7817792e-05 1.26731575e-05 1.853355e-05 1.6973332e-05 1.4382022e-05
1.2766329e-05 6.626061e-06 1.3442977e-05 6.876867e-06 1.16687215e-05 6.9971743e-06 1.9097526e-05 2.6889763e-06
4.6461423e-06 3.4272691e-06 2.3827633e-06 5.378314e-06 5.173068e-06 1.5423703e-06 2.245686e-06 5.320346e-06
4.412973e-06 1.0763458e-06 3.6200875e-06 6.02931e-06 2.117521e-06 3.1638667e-06 2.8443274e-06 4.016802e-06
3.3008398e-06 4.631406e-06 4.0775944e-06 3.1831803e-06 2.6334685e-06 1.6780856e-06 3.59021e-06 1.9189579e-06
2.590842e-06 1.880263e-06 4.778255e-06 7.518764e-07 0.00012447128 9.592464e-05 6.153126e-05 0.00014660644
0.00014641392 3.5418052e-05 6.171757e-05 0.00015919877 0.00011263531 3.3580985e-05 8.4230305e-05 0.00016903378
6.559091e-05 9.5252726e-05 7.096515e-05 9.86253e-05 8.4130384e-05 0.0001187698 0.00010699007 8.709712e-05
7.006464e-05 4.1493462e-05 0.0001073464 5.750354e-05 7.974027e-05 4.2525946e-05 0.00013612401 1.8450222e-05
7.823514e-06 7.367208e-06 4.039692e-06 8.6840255e-06 9.016553e-06 3.3247675e-06 4.38821e-06 8.207941e-06
8.938896e-06 1.8863752e-06 5.2123337e-06 1.14634095e-05 3.6451756e-06 5.4323286e-06 4.8314464e-06 8.104866e-06
4.9588257e-06 7.5224575e-06 9.145479e-06 5.6405916e-06 4.907231e-06 3.163242e-06 5.135307e-06 3.3376627e-06
4.3354976e-06 3.4734403e-06 8.065115e-06 2.5474717e-06 4.815538e-05 3.5883088e-05 2.2754895e-05 5.644695e-05
5.7625522e-05 1.2553606e-05 2.1914659e-05 5.9970833e-05 4.4467277e-05 1.2633967e-05 3.1906406e-05 6.568591e-05
2.4774929e-05 3.87184e-05 2.6727292e-05 3.6423276e-05 3.0410049e-05 4.735766e-05 4.044774e-05 3.2823016e-05
2.4161152e-05 1.6973861e-05 4.092883e-05 2.1543035e-05 3.0927175e-05 1.6093178e-05 5.3289008e-05 7.157536e-06
4.4587646e-06 3.4422496e-06 2.5391653e-06 6.35034e-06 6.4517703e-06 1.3783092e-06 3.0704184e-06 5.9462895e-06
4.895222e-06 1.579565e-06 3.1449604e-06 7.638906e-06 3.2417208e-06 4.493991e-06 3.4180828e-06 4.0558084e-06
3.0310873e-06 5.4907164e-06 5.2699015e-06 3.426234e-06 2.9866758e-06 2.0643504e-06 3.9278684e-06 2.1375267e-06
3.3804274e-06 1.8122278e-06 5.8753944e-06 7.5224415e-07 1.9891399e-05 1.3351978e-05 1.02575605e-05 2.2737473e-05

exp_avg f4 [45]
00000000: 9c33 04ba 8ebc 523a 90e8 66b9 a81c 143a
00000010: 68d3 8738 a06e a339 e78c 25b9 ac6e c439
00000020: d8ef 9f38 3cb3 ad39 b6cb ebb9 a07e c9b6
00000030: ae09 9cb9 1b1b d6b9 2c41 04b9 fce3 ffb9
00000040: 20d4 cc38 de20 283a 7e42 573a 5d47 1a3a
00000050: a8d8 04bb d00a 5e39 24fa 3a3a aa26 5c39
00000060: e677 2c3a 0d04 073a 8e71 82ba 7598 f938
00000070: 526b 873a d4eb 193a e422 5d3a e01e 35b9
00000080: 4405 f4b8 70b8 403a 0026 b5b7 4079 55ba
00000090: 4abc f039 5e4e 31b9 fc80 b23a c06d 71b9
000000a0: 94ec 373a ce49 8cba d0ea 4839 f087 beb9
000000b0: 3086 44ba
-0.0005043091 0.0008038961 -0.00022021146 0.0005650022 6.476679e-05 0.00031172205 -0.00015788116 0.0003746649
7.626385e-05 0.0003313067 -0.0004497447 -6.005008e-06 -0.0002976185 -0.00040837456 -0.0001261278 -0.00048807252
9.7669894e-05 0.0006413589 0.0008211507 0.0005885268 -0.0020270739 0.00021175598 0.0007132611 0.00020995238
0.00065791456 0.0005150445 -0.0009952055 0.000119016426 0.0010331667 0.0005871628 0.000843568 -0.00017273007
-0.000116358075 0.0007351702 -2.1594577e-05 -0.0008143373 0.00045916653 -0.0001690923 0.0013618763 -0.00023024436
0.0007016149 -0.0010703148 0.00019160961 -0.00036340905 -0.0007496802

exp_avg_sq f4 [45]
00000000: 0f97 2738 3c75 ff37 488a a338 72b3 2138
00000010: a2b5 1937 c0a1 8739 32f8 8537 bd98 d538
00000020: 70ae 6737 ce31 2e38 eba4 9a36 ed52 4236
00000030: 4d60 8737 2aad 0038 a519 8537 c403 8438
00000040: 9fe0 6c38 8e0b 2838 808f ba37 bc33 0938
00000050: b0de 3739 9a70 0a38 75d3 c139 1791 0d37
00000060: e274 0a38 8cf4 0d39 1832 8b38 0d8e 8a37
00000070: 9a67 2737 af9d d137 6ae7 ea38 431a 7238
00000080: 8d4e 2a37 cb16 0539 c59e 2f38 5aa3 aa38
00000090: 17f8 1538 15d3 1c37 0baf 0f39 2da7 e538
000000a0: 3ed3 a137 c546 6439 abd5 d938 6d27 9d37
000000b0: 26ae 6438
3.9956587e-05 3.045296e-05 7.7982026e-05 3.8552513e-05 9.1618e-06 0.0002586972 1.597041e-05 0.00010185081
1.3809287e-05 4.1531217e-05 4.6087566e-06 2.8956522e-06 1.6138098e-05 3.067885e-05 1.5866777e-05 6.294952e-05
5.647598e-05 4.0065082e-05 2.223975e-05 3.2711527e-05 0.00017535198 3.3006632e-05 0.00036969376 8.438036e-06
3.301062e-05 0.00013537909 6.637367e-05 1.651703e-05 9.978097e-06 2.4988169e-05 0.00011201094 5.7721754e-05
1.0151079e-05 0.0001269236 4.1871117e-05 8.136658e-05 3.575542e-05 9.347471e-06 0.00013702751 0.0001095071
1.9291063e-05 0.00021770138 0.00010387165 1.8734218e-05 5.4521624e-05

exp_avg f4 [3, 45]
00000000: 88d7 f93a ccda 203a dabc 713a 07b1 b8ba
00000010: c039 55b9 d296 893a 8a01 04ba f088 483a
00000020: 609a 8e39 9592 6aba c8d6 823a b6a6 daba
00000030: c881 853a 20c5 21ba 545e 66b9 d0e9 4d39
00000040: 65b0 a6ba 90d3 a939 e1cb 45ba 303c 2fb9
00000050: 681d ae3a da02 86ba c2e8 903a 5c66 06b9
00000060: f89a 32ba 587c 9ab9 e58f 973a 9895 c5b9
00000070: bfd8 d13a 4aa3 76ba 8529 c23a 9590 f639
00000080: b838 2eba c427 b0b9 a20f 253a 5c04 8e3a
00000090: 80f2 9938 808a 2aba 5030 dcb9 91c2 84ba
000000a0: 9e54 b739 f47b a43a 00a1 2839 0057 8fb7
000000b0: e8d3 65ba fd3c 8bbb 87c2 01bb b735 d3ba
000000c0: db7e e3b9 ac5f beba a804 fdb9 68df 0fba
000000d0: 2be4 aaba 71e9 bd3a c0f6 3d37 1804 903a
000000e0: 2651 dc3a 9ec6 0bbb 4109 7fbb 6c79 663a
000000f0: 9de1 fcba be7d bfb9 e1f9 b2ba a069 53b8
00000100: 4613 83ba 3499 4cbb 6670 bfb9 56fc b2ba
00000110: 7c92 25b8 a477 31ba 087d b6ba 7b57 16ba
00000120: ac56 f33a f07b 68ba b9c6 6d3a 92b6 4dba
00000130: 0047 0536 e1f7 db3a 31e5 0b3a 1e08 68ba
00000140: 706f 3fba 4225 b93a 934b 023b c64e 2cba
00000150: a030 a838 4cd6 9939 f0f6 26bb fbf9 8bbb
00000160: 563f ffb9 8cf8 eaba 2057 8d3a 7858 d73a
00000170: 68a8 fe39 20dd f737 f877 333a c0a1 85b7
00000180: c067 ec39 d4a0 f03a 0484 17ba 92ab ee39
00000190: 3c6f 97bb c062 9bb8 50cb 6d39 0289 3a3b
000001a0: 6e13 08ba a6b3 973a 57e6 b83a e4dd 103a
000001b0: aae7 7db9 98cc 583a 14f4 b83a af67 623a
000001c0: 16f4 f13a e0c0 8eba 7648 b23a 74cc 913a
000001d0: 1cc9 113a 50ad f539 6896 b6b9 6424 b539
000001e0: b463 113a a7c7 fe39 58cf 28ba a0de c439
000001f0: e576 f63a bbb5 90ba 3ad4 04bb 78b6 22ba
00000200: d4bd 8e3a d0c0 b738 f068 74ba 00b8 9ab6
00000210: 70f8 16ba 507d b0b8 2852 843a
0.0019061426 0.0006136119 0.00092215615 -0.0014090844 -0.00020334776 0.0010497218 -0.000503563 0.00076498
0.0002719937 -0.0008948234 0.0009982223 -0.0016681764 0.0010185773 -0.00061710365 -0.00021969649 0.00019637425
-0.0012717365 0.00032391818 -0.0007545334 -0.00016711722 0.001328391 -0.0010224239 0.0011055695 -0.00012817368
-0.0006813253 -0.00029465812 0.001156327 -0.00037686224 0.001601003 -0.0009408487 0.0014813399 0.00047028498
-0.0006646025 -0.00033598964 0.000629658 0.001083504 7.340778e-05 -0.00065056235 -0.00041997666 -0.0010128786
0.00034967525 0.0012549148 0.00016081706 -1.7087441e-05 -0.0008767233 -0.0042492137 -0.0019799785 -0.0016114031
-0.0004339133 -0.0014524362 -0.0004825939 -0.0005488307 -0.001303797 0.0014489127 1.1322729e-05 0.0010987548
0.0016808852 -0.0021328102 -0.0038915428 0.0008791897 -0.0019293312 -0.00036524044 -0.0013654792 -5.040469e-05
-0.0010000251 -0.0031219246 -0.00036514102 -0.0013655524 -3.947549e-05 -0.0006769842 -0.001392276 -0.00057350815
0.0018565259 -0.0008868566 0.00090704445 -0.00078473345 1.9859872e-06 0.0016782248 0.00053365814 -0.0008851307
-0.0007302677 0.0014125484 0.0019881472 -0.00065730175 8.0199214e-05 0.00029342098 -0.0025476776 -0.0042717434
-0.0004868458 -0.0017926856 0.0010783412 0.0016429564 0.00048572128 2.9547664e-05 0.0006846185 -1.5930156e-05
0.00045090728 0.0018358477 -0.0005779865 0.00045522727 -0.0046214145 -7.4093696e-05 0.00022677821 0.002846301
-0.00051908835 0.0011573925 0.0014106733 0.00055262283 -0.00024214262 0.0008270233 0.0014110827 0.0008636666
0.0018459584 -0.0010891221 0.0013601917 0.0011123554 0.00055612787 0.0004685917 -0.00034825807 0.00034550123
0.0005546168 0.00048595408 -0.0006439588 0.00037549902 0.0018803744 -0.0011040488 -0.0020268098 -0.00062069995
0.0010890313 8.762034e-05 -0.0009323498 -4.610978e-06 -0.0005759066 -8.415675e-05 0.0010095285

exp_avg_sq f4 [3, 45]
00000000: bb33 e13a 4f81 0d39 11f1 fe38 0bec ba37
00000010: c41a 4239 ccda 3b38 1769 2d37 1794 2039
00000020: dd5e 0b39 2b78 c437 ac54 e039 f170 5b39
00000030: 6234 0e39 2aca 3e3a 75bf fd37 f77f 6239
00000040: 08ba be38 5025 2539 3e67 1938 b83f 4939
00000050: e10b 2b3a 4718 0138 2fbb 6939 c8e3 6337
00000060: f7d4 8038 26e1 e238 ad7a 3739 f3af 5a38
00000070: 41ee e738 f4a4 c838 3f3c f538 e2d8 6938
00000080: d073 7239 a0ad 2937 dfcd 4c39 2eaa 2e38
00000090: a05f 4f39 4771 b239 df72 2338 d041 3838
000000a0: d16c 4537 27af 1d3a 2d57 843a 1e33 9238
000000b0: a2fc 9b39 b4a8 1c3a 2a73 3a38 8beb 3038
000000c0: 11c6 1c37 e5de 8038 bc74 5a37 afe6 6c36
000000d0: f271 7238 4b05 5838 6d37 5437 67bf 1639
000000e0: 1ffe a138 9bd5 3e38 e2ef 5e39 2f2c 1237
000000f0: e25b 8138 f1f1 2d38 f47a 4938 7bde cc37
00000100: 2ca1 7c38 69a1 4539 b1ce 6b37 62ad 9138
00000110: 4998 a936 bbe3 ca37 433a ee37 4fb1 5b38
00000120: bf53 ae37 b080 2f38 4cca 3a38 8889 1438
00000130: 84bd 1b38 8aec 9838 c6b9 6c36 831a a638
00000140: 9cd3 4b37 f740 8138 826a e138 73c2 d337
00000150: 94de ac37 8337 b936 1440 3539 3df1 9739
00000160: b514 2238 edab ce38 44fd 0d3b 675f 5239
00000170: bb4a 3939 12ab a737 4263 6d39 3a5a 7a38
00000180: 8b06 e137 6a4e 5639 7138 3039 5bf2 ef37
00000190: 6c4b 0e3a b2fe 8c39 fb38 2a39 a964 753a
000001a0: cf06 1638 460b 9839 6a3b 1c39 0baf 4e39
000001b0: fcb6 2838 5973 8739 c08c 603a 84f0 c737
000001c0: 58dd 9339 18fe ae37 bd53 a538 0772 1839
000001d0: 944c 7939 ad84 a138 9e22 0f39 dacf fa38
000001e0: e204 0739 2687 bd38 507d a839 eeb4 3d37
000001f0: bae5 8739 79b5 7338 3815 9c39 ce37 e839
00000200: 9b5b 5538 e358 5e38 9afd 7537 1037 4c3a
00000210: aec6 a73a 4550 b538 37c1 c039
0.0017181555 0.00013494979 0.00012156566 2.2282844e-05 0.00018511253 4.4788045e-05 1.0336072e-05 0.00015313957
0.00013291412 2.3420978e-05 0.00042787695 0.00020927541 0.0001356169 0.00072780496 3.0249104e-05 0.0002160071
9.094557e-05 0.00015749526 3.6574194e-05 0.00019192591 0.00065249024 3.0778607e-05 0.00022290343 1.3583289e-05
6.1431834e-05 0.00010818457 0.0001749794 5.2139116e-05 0.000110593166 9.567468e-05 0.00011693732 5.5753517e-05
0.00023122062 1.011361e-05 0.00019531649 4.1643325e-05 0.00019776681 0.00034035204 3.896921e-05 4.393031e-05
1.1767451e-05 0.00060151744 0.0010096781 6.971344e-05 0.0002975213 0.00059760665 4.445311e-05 4.2181036e-05
9.3444405e-06 6.145033e-05 1.3020992e-05 3.5301016e-06 5.7803416e-05 5.1503343e-05 1.26490895e-05 0.00014376418
7.724412e-05 4.5498466e-05 0.00021260933 8.712565e-06 6.168314e-05 4.147174e-05 4.8036643e-05 2.4422296e-05
6.0231585e-05 0.00018847514 1.4055216e-05 6.946434e-05 5.054321e-06 2.4186322e-05 2.8398941e-05 5.23788e-05
2.0781414e-05 4.18431e-05 4.453426e-05 3.5414036e-05 3.713138e-05 7.291984e-05 3.5274875e-06 7.920435e-05
1.2149012e-05 6.1633e-05 0.00010748675 2.5243708e-05 2.0607644e-05 5.519892e-06 0.00017285376 0.000289807
3.8643095e-05 9.854869e-05 0.002166585 0.00020062701 0.00017670814 1.9987612e-05 0.00022639058 5.9688675e-05
2.6825137e-05 0.00020437842 0.00016805694 2.8603876e-05 0.0005428109 0.00026892644 0.0001623369 0.0009361008
3.5769128e-05 0.000290001 0.00014899453 0.000197109 4.022474e-05 0.00025835147 0.0008565895 2.3834647e-05
0.0002820294 2.0860738e-05 7.8834106e-05 0.00014538328 0.00023775018 7.701791e-05 0.00013650439 0.00011959644
0.00012876422 9.037396e-05 0.00032136822 1.1307404e-05 0.00025920366 5.8104724e-05 0.00029770448 0.00044292066
5.086847e-05 5.3011707e-05 1.4662184e-05 0.00077901874 0.00128003 8.645704e-05 0.0003676505

exp_avg f4 [3]
00000000: 4012 c639 97a6 21bb 5889 193b
0.000377791 -0.0024665946 0.002342781

exp_avg_sq f4 [3]
00000000: 2991 4a3a 615e 9039 db08 693a
0.0007727319 0.00027536138 0.0008889564

exp_avg f4 [3, 45]
00000000: 954f 4f3b e7e6 f23a 61e2 6d3a b8f7 52b9
00000010: 6cef c6b9 e145 ae39 a84b 493a fdb7 a93a
00000020: e698 32bb 17ea b239 fe90 70ba 038a caba
00000030: 0bf0 d53a f78a 4b3b 36ee 15b9 5296 103b
00000040: 0084 0b3b 6660 563a 9c38 8fba c7ed 053b
00000050: 52d9 343b e4e9 933a 374d 3f3b 9c68 7939
00000060: 9e3f 9639 5e32 b73a 6fd1 943a eec2 16bb
00000070: f3c5 4c3a 4cfe 0fbb 0e8d 053b 8c77 123a
00000080: 8738 8eba efb5 56b9 185b 2c3b 6834 3338
00000090: f87e 2fbb 7c7e 30bb 1a04 2e3b c2f4 093b
000000a0: ccb4 1eba 8d54 013b 8019 5a3b 52a8 f03a
000000b0: 0981 713b 744d bf3b a638 8c3a f504 1a3a
000000c0: c57b 823a b70d ce3a f5a6 053a 3651 4639
000000d0: 570d df3a 3101 efba 1be2 e439 e172 11bb
000000e0: 7472 17bb a617 093b 5ed1 243b 9041 3bb8
000000f0: 3145 d43a 714a 3839 e892 e63a ca85 6b3a
00000100: 12cc 193b 9496 573b 4bdd 80b9 d295 663a
00000110: 0839 c0b9 98b0 f83a dcaf 4739 1871 353b
00000120: 4283 f8ba 7966 c93a 35ac b6ba a71d 603a
00000130: 8332 313a d872 f2ba 5ebe 1fb9 eb4a cb3a
00000140: 24aa 4d3a 161e 19bb acbe 1abb 99da c539
00000150: 56d7 b738 8ca6 78b8 6111 513b 4424 c03b
00000160: b285 cf39 dc42 3d3b ba28 0abb 58d5 983a
00000170: 5f5a 91ba 8e04 0f3a 8d25 7439 97df d4ba
00000180: c8a9 5a39 e01a bbba 24dc 38ba 2a22 2f3a
00000190: a288 d6ba fff2 4f3a dd3a bcba 76ea 64bb
000001a0: 558f 5ab9 9ec3 e8ba 2ff0 86b9 e6e1 923a
000001b0: 8ec1 62b9 6c4f be39 1a3a 0cbb 1297 a039
000001c0: f67c f5b9 ee21 093a dc58 c538 80d2 ccb9
000001d0: a972 08ba 730e e639 72d8 4c3a 6545 a039
000001e0: ea75 4aba a7f4 9b38 be11 2b3a 792c 9739
000001f0: c2e4 5a3a a3ca 72b9 8388 04ba 34de 8c3a
00000200: c7b4 263a 6d57 8a3a d450 52b9 8e0d 93ba
00000210: 081e 01bb ffb3 35ba 86c8 a8ba
0.0031633128 0.0018531949 0.00090745656 -0.00020119443 -0.00037943886 0.0003323993 0.0007678815 0.001294851
-0.002725178 0.00034125216 -0.0009176879 -0.0015452508 0.0016322149 0.0031058171 -0.00014298488 0.0022062254
0.0021288395 0.00081778166 -0.0010926905 0.0020435916 0.0027595353 0.0011284915 0.002919031 0.0002378546
0.00028657628 0.0013976803 0.001135392 -0.002300437 0.0007811479 -0.002197164 0.0020378265 0.0005587272
-0.0010850587 -0.00020476406 0.0026299413 4.2725733e-05 -0.002677856 -0.002693086 0.0026552738 0.0021050428
-0.00060541625 0.0019734234 0.003327936 0.001836071 0.0036850593 0.0058380906 0.0010698035 0.00058753724
0.0009955099 0.001572064 0.0005098426 0.00018913005 0.0017017525 -0.0018234608 0.0004365601 -0.0022193717
-0.002310899 0.0020918637 0.0025149207 -4.4645334e-05 0.0016194937 0.00017575339 0.0017591389 0.00089844747
0.0023467583 0.0032896148 -0.0002457894 0.00087961287 -0.00036663585 0.0018973527 0.00019043632 0.0027685817
-0.0018960016 0.0015365622 -0.001393682 0.00085493404 0.0006759541 -0.0018497361 -0.00015234339 0.0015509998
0.00078454823 -0.002336388 -0.0023612184 0.00037737636 8.7662294e-05 -5.9282916e-05 0.0031901228 0.005863698
0.00039581727 0.0028878963 -0.0021081404 0.0011660261 -0.0011089555 0.0005455696 0.00023283642 -0.0016240951
0.00020853349 -0.0014274977 -0.00070518465 0.0006680811 -0.0016367624 0.00079326326 -0.0014360804 -0.0034929789
-0.00020843495 -0.0017758494 -0.00025737422 0.0011206239 -0.00021625144 0.00036298798 -0.0021396936 0.00030630134
-0.00046823145 0.0005231191 9.4102434e-05 -0.00039066747 -0.0005205074 0.00043879784 0.0007814235 0.0003056928
-0.0007723259 7.436546e-05 0.0006525776 0.000288341 0.00083501276 -0.00023154407 -0.0005055742 0.0010747374
0.00063593354 0.0010554619 -0.00020057271 -0.001121925 -0.0019701738 -0.00069314236 -0.0012877143

exp_avg_sq f4 [3, 45]
00000000: 99f0 393a 9c6a 7d38 ece0 5038 6b69 6f37
00000010: e96f 9f38 1250 eb37 fee7 3a37 82d0 9f38
00000020: 6441 7e38 6abd 9937 07cb 3e39 ed29 c438
00000030: 1df2 6f38 53f2 8d39 5ed9 6137 1665 b438
00000040: 4541 5338 9aa1 8338 1c3e ac37 b44a a238
00000050: f16f 7c39 9e56 8137 7487 c238 1c85 2137
00000060: ce4e 0838 6105 2338 6d4d 9038 2020 ee37
00000070: 8bed 5238 acb8 5238 4903 4538 5dba 1d38
00000080: 9f7b ab38 8161 e136 661f db38 082e 9437
00000090: f747 9e38 865b 0839 d0d4 0438 26c8 c137
000000a0: ac2f 2837 20de 6839 0d2f bd39 c540 5938
000000b0: 91f5 0039 1fc7 733a 9f9e 2d38 b997 0238
000000c0: 0a73 d837 0c24 0339 3435 ae37 7fd8 8a37
000000d0: 5452 d938 82a0 e938 d179 4b38 752c 6539
000000e0: ac52 0439 367d c538 6769 3c39 9d18 3837
000000f0: 9f82 6a38 38f6 ac38 79c3 7738 d292 d137
00000100: f1fe 7938 e23f 2939 35ed 3e38 8c62 a238
00000110: 414d 1737 c358 8b38 d0ba e537 914a 4338
00000120: b09f 3a38 86be c238 3e88 f738 2290 9d38
00000130: f558 0439 4829 6e38 84ee ab36 c70d 0f39
00000140: ae28 b137 dffc 7b38 a27b dd38 6e8b 3238
00000150: b661 3638 e584 f736 8c85 1639 c053 8139
00000160: 4c23 e038 a788 0239 50c6 793a 207a 9038
00000170: 68a9 4438 d5f4 e637 455a 0639 c384 e137
00000180: ba89 a837 5a71 e838 b034 de38 a9bf 2038
00000190: 1261 7639 40b5 0d39 5ee9 e638 0885 8739
000001a0: 0d2e 7f37 543d b338 52e5 9c38 d555 9138
000001b0: 651d e837 ac77 9f38 a47a 6a39 6b67 1038
000001c0: f86d d838 5a6f 2a37 feba 8738 aec4 1d38
000001d0: c189 8538 59ac 3b38 b2be b238 c59f ee38
000001e0: d41c a138 3ede cf38 4471 9c38 80dd e336
000001f0: 8cf9 1739 58f0 0538 0c39 9838 188b 0b39
00000200: 816e 4a38 621e 4638 0b22 4237 fdae 5739
00000210: 8b12 b939 db65 e238 be38 1639
0.0007093042 6.041919e-05 4.980054e-05 1.4270055e-05 7.602556e-05 2.8051469e-05 1.1140479e-05 7.6205484e-05
6.061922e-05 1.8327224e-05 0.00018195446 9.3538176e-05 5.7207526e-05 0.0002707416 1.3461655e-05 8.6018976e-05
5.0367107e-05 6.2766674e-05 2.053292e-05 7.7386765e-05 0.00024074294 1.5418333e-05 9.275871e-05 9.62734e-06
3.249832e-05 3.8867238e-05 6.880877e-05 2.838677e-05 5.028913e-05 5.023989e-05 4.697152e-05 3.760528e-05
8.1769416e-05 6.7168735e-06 0.00010448582 1.766441e-05 7.5474316e-05 0.00013004066 3.166945e-05 2.3100594e-05
1.002468e-05 0.00022207992 0.00036083945 5.1797153e-05 0.00012298512 0.0009299386 4.139414e-05 3.1135718e-05
2.5802776e-05 0.00012506562 2.0767191e-05 1.6551696e-05 0.00010362701 0.00011140203 4.8512422e-05 0.00021855703
0.00012619299 9.4170144e-05 0.00017968343 1.0972985e-05 5.5911598e-05 8.247461e-05 5.9071437e-05 2.498311e-05
5.960366e-05 0.00016140894 4.5520446e-05 7.743118e-05 9.018288e-06 6.64457e-05 2.7385919e-05 4.656107e-05
4.4494576e-05 9.2861286e-05 0.00011803255 7.51319e-05 0.0001262164 5.6782068e-05 5.123964e-06 0.00013642675
2.1118987e-05 6.0078568e-05 0.000105611296 4.256836e-05 4.348318e-05 7.3766446e-06 0.00014354865 0.00024667196
0.00010687727 0.00012448673 0.0009528147 6.8892026e-05 4.6887813e-05 2.7532145e-05 0.00012812864 2.6883912e-05
2.0091295e-05 0.000110837354 0.00010595599 3.832547e-05 0.0002349655 0.00013514329 0.00011010723 0.00025848323
1.5209906e-05 8.5468084e-05 7.481374e-05 6.930126e-05 2.7670243e-05 7.6040014e-05 0.00022361666 3.442859e-05
0.00010320166 1.0158716e-05 6.472132e-05 3.761489e-05 6.367593e-05 4.4744786e-05 8.523221e-05 0.00011378484
7.682448e-05 9.911925e-05 7.459757e-05 6.790913e-06 0.00014493446 3.193351e-05 7.2585506e-05 0.0001330789
4.8263468e-05 4.7235175e-05 1.1571227e-05 0.00020569186 0.00035299765 0.00010795492 0.00014326253

exp_avg f4 [3]
00000000: 9005 623b 3d1d 3d3b 94d1 cbba
0.0034488179 0.0028856539 -0.001555013

exp_avg_sq f4 [3]
00000000: 0d7b a939 842b 123a 4089 1a3a
0.00032325872 0.00055759423 0.00058950856

exp_avg f4 [28]
00000000: 0e86 6abb 4b2a e1b9 bace 013c 9e2e 67bc
00000010: 09be 84bd e62e 2f3d 9e24 6d3c 3fd7 06bd
00000020: c9e3 eeb9 1ef8 a63b 5048 5938 68ff b7bc
00000030: 8ae7 173c d89c bbb8 d6e9 883a 3c00 ca39
00000040: 05c7 843b 85b7 92ba dc04 36b9 8083 9438
00000050: 8895 063b 2f61 e53c 5f13 37b9 d27e 793c
00000060: b2cf df38 a26e a53c 69e5 62bc ddde 293d
-0.003578547 -0.00042946855 0.007922823 -0.0141102355 -0.06481559 0.042769335 0.014474062 -0.03292012
-0.0004556461 0.005095496 5.1804178e-05 -0.022460654 0.009271512 -8.946069e-05 0.0010445665 0.00038528617
0.0040520453 -0.0011193609 -0.00017358683 7.081684e-05 0.0020535905 0.028000442 -0.00017459456 0.01522799
0.00010672155 0.020194355 -0.013848641 0.041472305

exp_avg_sq f4 [28]
00000000: 3359 1b3b 431f fc39 6713 0c3b e8e3 8f3b
00000010: 83df a43c 31b0 153c 127a 253b 50f2 fa3b
00000020: fc4c af38 b84e 013a 9fe4 b736 c5db 883b
00000030: 4793 433b 3aa8 1d36 e1c4 fe38 e51f 6139
00000040: c4a3 6c3a 9ab9 023a fbce aa3a 32fc a636
00000050: f75d 5639 0968 fe3b 9ee0 9d37 9054 713b
00000060: 61b4 0b3a 11df 633b c836 4c3b 7e28 143c
0.002370429 0.00048088477 0.002137387 0.004391182 0.02012611 0.009136246 0.0025249762 0.0076582804
8.35899e-05 0.00049326895 5.48044e-06 0.004176589 0.0029842423 2.3492744e-06 0.000121483354 0.00021469554
0.00090270885 0.0004986763 0.0013031656 4.976545e-06 0.00020443635 0.007763867 1.8820454e-05 0.0036824085
0.0005329308 0.003477041 0.0031160582 0.009042857
