logs/my_logs/version_7/checkpoints/epoch=738-step=739.ckpt (torch, 41316 bytes, 33 tensors)

encoder.dense1.weight f4 [45, 28]
00000000: e067 22bc ea9a 8b3e b308 3f3e db58 0dbd
00000010: d907 df3d 8a77 7abd 418c 98bc a68d 183e
00000020: 31cd 26bd 8c06 ae3d 495f 473e 4be7 213e
00000030: 76c0 123e bb2c 073e aa63 023d 9343 0b3d
00000040: 79c0 82bc 6238 ff3d 956a 263e 979b a03d
00000050: f809 763d ef14 883d b6fc be3d 5db1 763e
00000060: 771c 04bd 1dfc 55bd 324e be3d a2b2 2f3c
00000070: e76b ddbc 1f84 56bd f996 da3d f216 ccbb
00000080: a242 863c 482c bbbd 5a13 d73d 2726 1fbe
00000090: 9680 dcbd 6835 613e a44e 573e 5022 9ebd
000000a0: a56b c73d ca6c 443e 62f6 1cbe 407b 17be
000000b0: b172 e63d bad7 b73d c993 e0bd 1b9c 283e
000000c0: 9a50 663a 6741 12bd 5fa3 0dbd 4000 aa3d
000000d0: 25cf bd3d 8c55 ac3d 0e02 0abe ee7d 85bd
000000e0: 4fcc 18be 6c11 4d3d 6ce9 0b3d bf05 313d
000000f0: 387f 8b3d 62c2 8e3c 51e4 63bd cd78 1a3b
00000100: eb90 dbbd 5e59 33be 609f 84bd c496 8739
00000110: 8212 20be c9ff 433d ecf3 90bd d931 133e
00000120: c054 0cbe 2690 71bd 28d9 8bbc cba7 033c
00000130: 7b37 34bd 93fb 853d 6155 50bc fef5 0dbe
00000140: 5fb6 59bd 6940 1a3e 8deb d43d f635 e5bd
00000150: b457 f0bd 6127 8fbe 26d6 5b3e 62ec 0bbe
00000160: ff65 04be 4234 4a3e 5007 333e 1918 8ebe
00000170: e1ed edbc 83cc 573e 89b2 ca3d b08b f1bd
00000180: 8672 093e 5771 0bbd 45c3 4dbc 3800 513d
00000190: 9833 323e b03a a13d 7ec5 d6bb bc14 003e
000001a0: 030b 4a3e 0bfc 7a3e 58ca 4abe d2bf 49bd
000001b0: 4631 13bd c5c1 463e f3ac 9bbd 7894 613e
000001c0: 77ee 2f3e 67e6 093d 682c 633e 7630 913d
000001d0: 2c11 5c3d fc1c 1b3e 723e 0f3e f5db a63d
000001e0: ee12 503e 9fe4 853d 006f 51bd bc02 593e
000001f0: d232 e3bd a802 c53d 6447 4b3e 0e27 9c3d
00000200: 6b34 a93e c8a7 773d b028 23bd 8c70 d33d
00000210: 462b 03be 3e65 9b3d 9e71 a73d 9593 a83d
00000220: fb39 df3c 389d 223e e527 5dbd ad5e e73d
00000230: 5fc1 603e f3a5 3e3e 2557 c73d 1972 a33a
00000240: 8d30 cc3d e023 5dbb e2f6 7abd 721e e53d
00000250: f041 14bd 8998 9f3d 744d 893d da7c be3d
00000260: 5b1e 963d 9db8 233e 70b7 59be b7a7 4d3e
00000270: 70c1 8a3d abb2 673d 864f 0ebd df8a a6bd
00000280: 47e8 093d 4d58 2fbe 8e5c c0bc 6765 aa3d
00000290: edf5 77bd a6e0 2a3d 936e 8c3e 3928 44be
000002a0: 11a8 863c 5cf1 9cbc a9cf e43d d078 77bd
000002b0: 7daf 23be aa57 113c 7688 223e 0ae4 dcbd
000002c0: e885 02bd 6b75 913d 55cc 303e f541 94bd
000002d0: a15e 933e 476a 91bd ac0c 05bc ef44 c13c
000002e0: 2613 95be 4f42 a43b 79e4 19bd d66d 393d
000002f0: db06 9f3d c6b5 a33c 9549 6fbd c0a8 3dbe
00000300: e462 4a3d 0f08 08bd dd40 793e ce25 e83c
00000310: 4d55 963d edbe a3bc 4fca 033e 3d1f 0dbe
00000320: cef3 d6bd e0a7 8e3d 2c70 b6bd 1ef6 c9bd
00000330: cd8d b13c 5611 173e 4426 713e c2e1 29bb
00000340: 1b0a 773e e017 933e d3fc 9c3d ca39 dcbc
00000350: 0756 2ebd 1d58 03be 9d8f 2cbe 9ea3 b83d
00000360: 7697 4ebc e421 76be f838 3f3d 73b5 83bc
00000370: b842 9b3d d41d c23d a3ef 653c c4d8 16be
00000380: 0c5d 61bd ab39 9bbd 32db 35be 735c b33d
00000390: a7d6 473e 7a39 4fbe 1ed1 d0be b7f1 f63d
000003a0: 38dd da3c 881b d8be 3512 5fbe 9b30 433e
000003b0: c921 9dbe 5d1a 41bd 97f8 12be 6b92 f8bd
000003c0: 189c 1abe 89cb 883c 8483 813d 28ab 7fbe
000003d0: 638e 9dbe 77a7 bbbd df2b ddbc be15 0c3c
000003e0: 6bbe 9bbd 2b6b 60be a165 023e 14d1 1fbe
000003f0: ede7 8f3d 89ea 02be 04bb 163e 0a9c 72bd
-0.009912461 0.27266628 0.18655662 -0.034508567 0.10890169 -0.061149158 -0.018621566 0.14897785
-0.04072303 0.084973425 0.19469942 0.15810888 0.1433123 0.13200657 0.03183333 0.03399999
-0.015960919 0.12461926 0.16251595 0.078421764 0.0600681 0.06644618 0.093255445 0.24091096
-0.03225371 -0.052242387 0.09292258 0.010723742 -0.02702899 -0.052372094 0.10673327 -0.006228321
0.016389195 -0.09139305 0.10501738 -0.15541898 -0.10766713 0.21993029 0.21026093 -0.07721388
0.097373284 0.19182125 -0.15328363 -0.1479311 0.112523444 0.089766935 -0.10965688 0.164658
0.0008785814 -0.035706904 -0.03457963 0.08300829 0.09268025 0.08414754 -0.13477346 -0.0651816
-0.14921688 0.050065443 0.034158155 0.04321837 0.068113744 0.017426673 -0.05563766 0.0023570538
-0.10721 -0.1751456 -0.06475711 0.00025861536 -0.1563206 0.047851358 -0.070777744 0.14374484
-0.13704205 -0.05897536 -0.017071322 0.00803561 -0.043998223 0.065421246 -0.012715668 -0.1386337
-0.05315244 0.15063633 0.1039649 -0.11191933 -0.11735478 -0.2795973 0.2146841 -0.13664392
-0.12929533 0.19746497 0.17483258 -0.2775276 -0.029044094 0.21074109 0.09897334 -0.117942214
0.13422593 -0.034043636 -0.012558763 0.0510256 0.17402494 0.07872522 -0.0065543046 0.1250791
0.19730763 0.2451021 -0.1980375 -0.0492552 -0.035935663 0.19409855 -0.07601347 0.22029293
0.17180811 0.033666994 0.22184908 0.07089321 0.053727314 0.15147775 0.13988665 0.08147422
0.20319721 0.06537747 -0.05113125 0.2119245 -0.110936776 0.09619647 0.19851452 0.076246366
0.33047804 0.060462743 -0.039833724 0.10324201 -0.12809476 0.0758767 0.08175968 0.08231274
0.027249327 0.15880287 -0.053993125 0.11297355 0.21948765 0.18617992 0.097334184 0.0012469917
0.09970198 -0.0033743307 -0.061270602 0.111874476 -0.036195695 0.07792766 0.06704226 0.09301157
0.073300086 0.15988393 -0.21261382 0.2008351 0.067751765 0.056566875 -0.03474381 -0.08131956
0.033668783 -0.17123528 -0.023481634 0.08320122 -0.060537267 0.041718148 0.2742811 -0.19155969
0.016437562 -0.019158058 0.111724205 -0.06041795 -0.15984912 0.008870998 0.15872368 -0.107856825
-0.031865984 0.07102474 0.17265446 -0.07239143 0.28783134 -0.07100349 -0.008120697 0.02359244
-0.29116172 0.0050127874 -0.037571404 0.045270763 0.077649795 0.019984137 -0.058419783 -0.18521404
0.049410716 -0.03321081 0.2434115 0.02833834 0.073404886 -0.019988501 0.12870143 -0.13781448
-0.10495721 0.06965613 -0.08908114 -0.09861396 0.021674061 0.14752707 0.23549753 -0.0025921916
0.24124949 0.28729153 0.0766541 -0.026883025 -0.04256251 -0.12826581 -0.16851659 0.090155825
-0.012609353 -0.24036366 0.04668519 -0.016077733 0.07581085 0.094783455 0.014034185 -0.14731127
-0.055020377 -0.07579359 -0.17759398 0.08757868 0.19515477 -0.2023677 -0.40784544 0.12057822
0.026716813 -0.42208505 -0.21784289 0.1906151 -0.3068984 -0.047144283 -0.14352642 -0.12137302
-0.15098608 0.016698616 0.06323913 -0.24967635 -0.30772695 -0.09162801 -0.026998458 0.008550106
-0.07604679 -0.21915881 0.12734081 -0.156071 0.07026658 -0.1278478 0.14719778 -0.05923084

encoder.dense1.bias f4 [45]
00000000: 1516 debe af24 f9bd efc7 e63e 1fe9 8fbe
00000010: d400 ccbe 5716 35be c457 413e aa5d 823e
00000020: f12f 6c3e 5260 b83e 8a1c 1739 f9e6 2c3d
00000030: 076d 94be 330e cc3b 4c6a c33e a111 b13e
00000040: 4f6e 1a3f 3e10 6a3e 7d5e c33e 56b5 6e3e
00000050: 616f 6d3e 0338 93be 8382 4b3e 6d8f 6cbe
00000060: 2e61 393e ff5b 323e 57fe 893c 37e1 e73e
00000070: d10c f93e 3c26 1e3e a3c3 633e dba8 8ebe
00000080: 7946 6a3d c88e d33e 3cc3 4c3d 5bc1 873e
00000090: 80a6 3cbe 3683 933e 36dd a93e 5473 b9be
000000a0: a13b a4be 88dc 1fbe 20a1 cb3e 30a8 84be
000000b0: 71ef 293e
-0.43376222 -0.121652 0.45074412 -0.28107545 -0.39844382 -0.17684303 0.18881136 0.25462085
0.23065163 0.36010987 0.00014411114 0.04221246 -0.2898943 0.0062272786 0.38167036 0.34583762
0.6032457 0.22857758 0.38158026 0.23311362 0.23187019 -0.2875367 0.19874005 -0.23101588
0.18103477 0.17417906 0.016844912 0.45289013 0.4864259 0.15444273 0.22242598 -0.27863201
0.057196114 0.4131987 0.049990878 0.26514706 -0.1842289 0.28811044 0.33176583 -0.362208
-0.32076743 -0.1561147 0.39771366 -0.25909567 0.16595246

encoder.dense3m.weight f4 [3, 45]
00000000: af1a ce3e 79fe 4e3e 5419 4cbe 5906 a63d
00000010: 91f1 7e3d bb61 1a3e bea1 323e 2fed 063e
00000020: 058f 293e a2c4 f7bd de29 b73d 9e40 2dbe
00000030: e663 28bd 26e3 06be e363 703b bbe2 8f3d
00000040: 0a34 97be 3ff4 ef3c 7fd9 28bd d149 f5bd
00000050: 1c01 e9bd 4f16 ea3d 451e b93d 48ff 45bd
00000060: fa35 62bc 7476 64be f326 6e3d c665 0fbe
00000070: 642c 30be 345d a03d 9845 8cbe 163f 88bc
00000080: 6852 353e 9933 6abe 29d9 44bd beb6 aebd
00000090: 947d 0b3d f4bd babe 3bb0 d93c 1d34 4f3e
000000a0: 3d41 86bc 4877 1d3e 7277 39be 90f3 cbbd
000000b0: bc5e 0fbe 23d7 fcbe 68f6 67bc 8fb5 443e
000000c0: 847f 833d 790b 09be 6348 07be d9d1 9b3e
000000d0: 7404 993d 5e7a 14bb 5ead ab3e c798 4a3e
000000e0: fceb 12bc 05c4 49bd be6b 5bbe 9915 993e
000000f0: 0be6 35be 800d c63e 9118 733c 6d22 bf3b
00000100: 5ca7 043e 3930 1f3d 7159 cdbd 62fc 0ebe
00000110: 5b0f 85be acbf 34be 10c3 c9bc 6dc1 f2bd
00000120: 024a 8fbe 44de 573e 3f81 943d cb15 2cbe
00000130: 32ce 1bbe e03a bd3d 38a3 0c3d 8695 2d3d
00000140: e22c 0e3e f8cb 83be 8345 cdbd 0d6b c9bd
00000150: 97d5 023e 527f 47be e6cb 203c 69ae 093e
00000160: f8b3 9bbc 77e6 903a 9c2d a33e a03b 80bd
00000170: cd46 c4bd a9fa 2d3e aa16 c73e 0f49 91bd
00000180: 62ec eabd 799e 1cbe b3e8 d53d aae0 44be
00000190: bfce 983d 242b 003e 7b9f 0e3e 40b3 abbc
000001a0: b2ad 9fbe 4b92 88be 5100 80be 56f0 48be
000001b0: 4dbb 90be 917b 2d3d e07c f2bd b1e6 a43d
000001c0: 7236 44be 5d74 8d3d abf2 09be 3f35 613c
000001d0: f99f f3bd 501f 69be a8d7 9cbd 5db2 cdbd
000001e0: 4ff1 b1bd ab5f 1b3e 0f93 dfbd eeb0 2abe
000001f0: 53ff f5bc cd24 e4bd 0240 033e c48e 8639
00000200: 1d39 43be 01fd 8a3e 030d e3bb b36f 4bbd
00000210: 9542 073c 0064 103e 5ffa 023d
0.40254733 0.20214261 -0.19931537 0.081066795 0.062242094 0.15076344 0.17444512 0.13176416
0.16558464 -0.120980516 0.089435324 -0.16919181 -0.041110896 -0.13172588 0.003668063 0.07025667
-0.2953189 0.02929127 -0.041223045 -0.1197697 -0.11377165 0.11430036 0.090389766 -0.04833916
-0.013806814 -0.22310811 0.058142614 -0.14003667 -0.17204434 0.07830277 -0.27396846 -0.016631644
0.17707217 -0.22871245 -0.048058663 -0.08530949 0.034055308 -0.36473048 0.026573291 0.20234723
-0.01638853 0.15377533 -0.18111971 -0.09958565 -0.14000982 -0.49382886 -0.014157869 0.19209884
0.06420806 -0.13383283 -0.13211207 0.3043354 0.074715525 -0.0022655944 0.33530706 0.19784842
-0.008967396 -0.049259204 -0.21427819 0.2989929 -0.17763536 0.38682175 0.0148374 0.0058329613
0.12954468 0.038864348 -0.10026825 -0.13963464 -0.25988278 -0.17651242 -0.024629146 -0.11853299
-0.2798615 0.21080881 0.07251214 -0.16805188 -0.15215376 0.09239745 0.034335345 0.042378925
0.13884309 -0.25741553 -0.10023024 -0.098348714 0.1277679 -0.19482163 0.009814238 0.13445438
-0.019006714 0.0011055012 0.31870735 -0.062613726 -0.09583817 0.1699015 0.3888448 -0.07094013
-0.11470868 -0.15294828 0.104447745 -0.19226328 0.07461309 0.12516457 0.13928024 -0.020959496
-0.31187207 -0.26674113 -0.2500024 -0.19622931 -0.282679 0.04235417 -0.11840224 0.080518134
-0.19161394 0.0690696 -0.13471477 0.013745605 -0.11895747 -0.22765851 -0.07658321 -0.10043786
-0.08688604 0.15173213 -0.10916721 -0.16669056 -0.030028975 -0.11139832 0.12817386 0.0002566484
-0.19064756 0.27146152 -0.0069290414 -0.04966707 0.0082556205 0.14100647 0.031977054

encoder.dense3m.bias f4 [3]
00000000: cf85 b3be 745d 4c3e e4de ddbd
-0.35063025 0.19957525 -0.10833529

encoder.dense3s.weight f4 [3, 45]
00000000: d1d4 5b3d 95b1 df3d 8caf 12be 42b5 af3c
00000010: 5e45 133b c493 363d 0950 383d 29a8 f13a
00000020: 09cf f53d 41b2 7f3c e674 4dbc 9c20 463d
00000030: 2c09 d1bb a116 093c 0da8 e2bd 3ee7 f33c
00000040: 3169 ffbd d9d0 c2bd 64bc da3c b2eb 63bc
00000050: 9e70 f33d f42e bcbc 36a0 bbbb 7b46 f33d
00000060: 2f7b 50bd aea3 9f3e 3318 77bc 4d82 dbbc
00000070: e300 d63c c321 88bb 8e62 823c f705 743d
00000080: 5f0d 8cbd 46c4 d9bd 41f3 173d 9541 1abd
00000090: 7729 6c3d 418f 19be 7169 2cbd 04ce 723d
000000a0: 9dbd 86bb 8756 64bc 1ff9 46bd 7e98 753d
000000b0: 8d3c 64bd 8280 873c 7e42 bc3c 4953 973c
000000c0: c93f c13b 8dc3 b83d c2eb 0dbc bd8f 27bc
000000d0: fd1c 703d f494 19ba e131 c6bc 9d15 d5bd
000000e0: 5f35 bc3d 56c7 5fbd 5adb 733d f0b2 34bd
000000f0: 7e75 a1bd 6f92 28be 725e 1e3a 59cb 94bb
00000100: f24b 913d cbd9 6abb 64df ad3a eaec 8bbd
00000110: 5ac1 c93d b6d3 283b 99f7 57bb 5a3e c93c
00000120: 3078 20bd 3129 bf3d 5606 7e3d b865 a1bd
00000130: 12b7 d33c d625 1fbd 0f33 75bc 7371 f8bc
00000140: 4404 ffbc 1655 5cbd 9acb 283c 9079 cfbd
00000150: 7474 ff3c 3f0a 5a3e 4b3b e43d 960e 49bd
00000160: 0876 4ebd f75b f4bd da59 c13d e5fc dc3c
00000170: 71b6 9ebd 2352 493d bd67 d63d 0fc3 34bd
00000180: 1cbb 86bc 5d2c 9ebc 89ad 083e b38c c4bd
00000190: c12b 3bbd eaca eb3d eacc 813d 9c66 323c
000001a0: 9658 0cbe 513e bebc 911c 7abe 05ab 7cbd
000001b0: 018a 423e 3b34 82bd 1c54 1e3e 2690 fb3d
000001c0: d486 fcbb 0a24 3f3e 2101 8abd c720 b0bc
000001d0: 3b0e 63bd 41e3 e3bd 1203 da3c b081 033d
000001e0: 4722 adbd 7c14 053c c11d dabd 5292 16bc
000001f0: 3ea2 22bd 0b56 0f3e 10af d6bc be16 45bc
00000200: 4041 9f3d aca4 883d a723 073d bb89 843e
00000210: a3ed 813b b8e8 7a3d 55fb 0d3d
0.053669754 0.10922543 -0.14324778 0.021448735 0.0022471766 0.044574514 0.044998202 0.0018436956
0.120023794 0.015606464 -0.012540078 0.048370942 -0.006379267 0.008367212 -0.110672094 0.02977335
-0.124712355 -0.09512491 0.02670116 -0.013911175 0.118867144 -0.022971608 -0.0057258857 0.118786775
-0.050898727 0.31179565 -0.015081453 -0.02679553 0.02612347 -0.0041544153 0.015916135 0.059576
-0.06838488 -0.10633139 0.03709722 -0.0376602 0.05765673 -0.14996053 -0.042092744 0.059278503
-0.004111959 -0.013936645 -0.048577424 0.05995988 -0.05572181 0.01654077 0.022980925 0.01847233
0.0058974964 0.09021673 -0.008662166 -0.010227141 0.058621395 -0.00058586826 -0.024193706 -0.10404513
0.09189867 -0.05463346 0.05953536 -0.04411596 -0.07883738 -0.1646211 0.0006041295 -0.0045408425
0.070945635 -0.003583538 0.0013265428 -0.06832297 0.09851332 0.0025760955 -0.0032953976 0.024565864
-0.03917712 0.093340285 0.06201776 -0.078807294 0.02584413 -0.038854443 -0.014965787 -0.030327534
-0.031129964 -0.05379208 0.010302449 -0.10130608 0.031183459 0.21292971 0.11144122 -0.049086176
-0.050405532 -0.119316034 0.09440966 0.026976058 -0.07749642 0.049150597 0.10469005 -0.044131335
-0.016446643 -0.019308263 0.13347448 -0.09597149 -0.045696024 0.11513312 0.063379124 0.010888722
-0.13705668 -0.023223074 -0.2442496 -0.061686534 0.18997957 -0.063576184 0.15461773 0.122833535
-0.0077065025 0.18666092 -0.067384966 -0.021500004 -0.055433493 -0.111273296 0.026612792 0.0321061
-0.084538035 0.00812256 -0.10650206 -0.009190159 -0.039705507 0.13997667 -0.026206523 -0.012029348
0.07776117 0.06672034 0.032992985 0.2588633 0.003965096 0.061257094 0.034663517

encoder.dense3s.bias f4 [3]
00000000: 1a86 b7bd ae45 efbd 7ec2 573c
-0.08961125 -0.11683212 0.013168929

decoder.linear.bias f4 [28]
00000000: fe0a 1d3f b247 173e b1ca f7be 1fc6 7a3f
00000010: 7e18 813f 9f75 90bf 0390 18bf 3de3 9d3f
00000020: 2177 173f caed c0bf c2ad 23be 6f38 bc3f
00000030: 76be 07bf 4e90 343e 2877 90be 06f9 8a3e
00000040: f31a 20be 7f45 1c3f d5f4 d13e f415 9dbc
00000050: 5362 febe c8b5 57bf 84b4 863e e8fd 3ebf
00000060: b472 e9bd 8812 77bf 2966 853f df64 b2bf
0.613449 0.14773443 -0.4839683 0.9795856 1.00856 -1.1285895 -0.59594744 1.2334973
0.5916615 -1.5072567 -0.15984252 1.4704722 -0.53024995 0.17633173 -0.2821591 0.27143115
-0.1563528 0.6104354 0.41007105 -0.019175507 -0.4968439 -0.8426175 0.26309597 -0.7460618
-0.11398831 -0.9651265 1.0421802 -1.3937033

decoder.linear.weight_orig f4 [28, 3]
00000000: 9726 433f b1f0 f1be 8913 dcbe 6ccf 3d3e
00000010: eaf5 b2bf bef5 c43e 0fcd fe3e dc63 3d3e
00000020: fbd7 b93f 6ab0 babe 30e2 993d 77dd 623f
00000030: fc1e e23e e084 4e3d 895b 003f 4e10 d33e
00000040: 48cc ad3e df2a aa3f 8fbc 7e3f 046d 823e
00000050: c520 c53f 5826 fd3e b11b acbf 74b4 cebe
00000060: 2476 c03e a4cc 093f 6542 a43f 48e3 dc3f
00000070: 2407 a13e a0b2 4fbd bd38 b13f 20e6 f83c
00000080: 75ca c33e 45ba 223f 5aca fabe 0ee3 9d3f
00000090: a484 e73f 00f2 23bc b4b2 3e3e ddf6 903f
000000a0: 4c7d 3c3e a43c de3e c0df f3be 90ef 2f3e
000000b0: aa9f e33f 1462 d13f 5205 0cbf ca80 ad3f
000000c0: 3049 743e dc00 a2bf 6c13 d23f d7ac 10bf
000000d0: 325f d2be d76f 973f c0bf 6c3c 1476 983e
000000e0: 853b ac3f 65be bb3f 0cd8 acbd 6653 193f
000000f0: 6b53 9e3f 8024 d43d baa0 b13f 9c55 4a3e
00000100: 7b11 08bf 07ea 943f a8cb 8dbd 47cf 81bf
00000110: ac69 453e c8e6 ec3e f1c0 c5bf 92b6 09bf
00000120: 9aee 813f 520f cc3e 242e edbe e098 0e3f
00000130: fe42 b13e b5d1 e83f 7455 d93f 6d37 b2be
00000140: 88be 923d 3022 c63e 5642 5bbe 6047 4a3f
0.7623076 -0.47253945 -0.42983654 0.18536156 -1.3981297 0.38468736 0.49765822 0.18495125
1.4519037 -0.36462718 0.07513845 0.8861918 0.44164264 0.05041969 0.5013967 0.41223377
0.33944917 1.3294333 0.9950647 0.25473797 1.5400625 0.49443316 -1.3445951 -0.4037205
0.37590134 0.5382788 1.2832762 1.7256861 0.3145076 -0.05070746 1.384544 0.03038317
0.382404 0.63565475 -0.48982507 1.2334917 1.8087354 -0.010006428 0.18622857 1.1325337
0.18407172 0.4340564 -0.47631645 0.1718123 1.7783101 1.6358056 -0.5469562 1.3554928
0.23856044 -1.2656512 1.6412177 -0.5651373 -0.41088253 1.1831006 0.014450014 0.29777586
1.3455664 1.4667479 -0.08439645 0.5989288 1.2369207 0.10358524 1.3877175 0.1975922
-0.53151673 1.163392 -0.0692361 -1.0141381 0.19278592 0.46269822 -1.5449506 -0.53794205
1.015094 0.39855438 -0.46324265 0.5570202 0.34621423 1.8188998 1.6979203 -0.34807912
0.07165247 0.38697958 -0.21412024 0.7901516

decoder.linear.weight_mask f4 [28, 3]
00000000: 0000 803f 0000 0000 0000 0000 0000 0000
00000010: 0000 803f 0000 0000 0000 803f 0000 0000
00000020: 0000 803f 0000 0000 0000 0000 0000 803f
00000030: 0000 0000 0000 0000 0000 803f 0000 0000
00000040: 0000 0000 0000 803f 0000 803f 0000 0000
00000050: 0000 803f 0000 0000 0000 803f 0000 0000
00000060: 0000 0000 0000 0000 0000 803f 0000 803f
00000070: 0000 0000 0000 0000 0000 803f 0000 0000
00000080: 0000 803f 0000 803f 0000 0000 0000 803f
00000090: 0000 803f 0000 0000 0000 0000 0000 803f
000000a0: 0000 0000 0000 0000 0000 0000 0000 0000
000000b0: 0000 803f 0000 803f 0000 0000 0000 803f
000000c0: 0000 0000 0000 803f 0000 803f 0000 0000
000000d0: 0000 0000 0000 803f 0000 0000 0000 0000
000000e0: 0000 803f 0000 803f 0000 0000 0000 803f
000000f0: 0000 803f 0000 0000 0000 803f 0000 0000
00000100: 0000 0000 0000 803f 0000 0000 0000 803f
00000110: 0000 0000 0000 0000 0000 803f 0000 0000
00000120: 0000 803f 0000 0000 0000 0000 0000 0000
00000130: 0000 0000 0000 803f 0000 803f 0000 0000
00000140: 0000 0000 0000 0000 0000 0000 0000 803f
1.0 0.0 0.0 0.0 1.0 0.0 1.0 0.0
1.0 0.0 0.0 1.0 0.0 0.0 1.0 0.0
0.0 1.0 1.0 0.0 1.0 0.0 1.0 0.0
0.0 0.0 1.0 1.0 0.0 0.0 1.0 0.0
1.0 1.0 0.0 1.0 1.0 0.0 0.0 1.0
0.0 0.0 0.0 0.0 1.0 1.0 0.0 1.0
0.0 1.0 1.0 0.0 0.0 1.0 0.0 0.0
1.0 1.0 0.0 1.0 1.0 0.0 1.0 0.0
0.0 1.0 0.0 1.0 0.0 0.0 1.0 0.0
1.0 0.0 0.0 0.0 0.0 1.0 1.0 0.0
0.0 0.0 0.0 1.0

exp_avg f4 [45, 28]
00000000: 5046 bcbb 5e02 bdbb 27bc 47bb 478c 8fbb
00000010: d1f5 b2bb 2e7b 00bb e8bf ffba 3532 01bc
00000020: badd cbbb 08b4 84ba 66ca 7cbb 544e abbb
00000030: c017 8fba a29d 74bb 3465 67bb cc0d 8bba
00000040: f2ff 7cbb 447f 4fbb b85e b1ba 9002 f6ba
00000050: 32c3 54bb 5689 75bb 1470 96bb f0bd 7ebb
00000060: 005c 19bb 99ac 48bb be7a 86bb b2fd 0abb
00000070: 4ade 8f39 80da 6836 ee27 ca39 10ae c439
00000080: abbf bb39 add8 7839 becb cf39 0041 bd38
00000090: 5ed8 9539 8896 1337 48a3 96b7 82f7 7c3a
000000a0: 2042 4037 e31c 9b39 26b7 ce38 2744 0e3a
000000b0: 5ebb 8d39 b337 003a d3ca 3a3a 001e 7935
000000c0: 2530 6ab9 d154 92b9 d606 b139 c018 4538
000000d0: c8ed 3d38 ba3f 2a3a 6fa2 0639 28f4 3b39
000000e0: a2b3 0e3b 3c27 323b ef34 993a fafb d53a
000000f0: f51b 033b 0612 4a3a 100b d339 be56 5c3b
00000100: 2bb9 213b 3862 dc39 a635 b53a 347a e93a
00000110: e07c b639 866d ac3a 2e02 c23a 58f0 9139
00000120: e8c3 ac3a 808a 923a 9058 c739 a8a4 4e3a
00000130: 0086 903a f2d0 d63a 77a3 ef3a b27b b03a
00000140: 82f8 493a 1a92 7e3a c864 e23a fe7a 4a3a
00000150: 4280 30ba 4e23 65ba b0ed 95b9 f29f 30ba
00000160: 1011 1eba 920b 9eb9 00c4 d336 267e 96ba
00000170: 99ea 6fba 60e6 91b7 9474 adb9 d62f 53ba
00000180: f88f bf39 6041 f2b9 e09b 33b9 9820 8639
00000190: 3484 39ba 5832 13ba 64f8 d3b9 e018 c1b8
000001a0: 10a9 a2b9 2a4f d6b9 30f1 b2b9 750c 0fba
000001b0: c830 1c39 2002 fab9 e057 06ba ae85 b0b9
000001c0: 50c4 8fbb 7837 90bb db58 0bbb f344 77bb
000001d0: 0483 7abb 8c77 ccba 882e c2ba 327a cebb
000001e0: 22d1 90bb dc7a 56ba 0725 25bb 6a9d 89bb
000001f0: 3006 30ba c46d 4cbb 4474 f9ba b030 20ba
00000200: 8af3 1cbb 1048 39bb 90c0 c3ba 4c99 98ba
00000210: a4e5 d5ba dea1 01bb c4bc 5abb caed 2bbb
00000220: aaee d4ba 5a50 12bb 3c08 40bb 3238 e9ba
00000230: 048c 61b8 e235 e5b8 4960 dfb8 4203 1839
00000240: a493 6db9 dd8d 6eb8 3a1d 94b8 ad16 5c38
00000250: d76b 5cb9 d3e3 db38 ab17 72b9 925d 3339
00000260: b37b 3bb9 c44d db38 4aa2 0eba 9ebf b5b8
00000270: bb4b c0b9 ae41 7939 585a 7e39 7216 2ab9
00000280: e416 11ba 86ab 20ba 8623 31b9 5578 96b9
00000290: 4d53 02b9 999f dab8 6543 42b9 0ed6 0138
000002a0: 2d50 1e3b feb8 0c3b f2e1 e33a 79b4 e83a
000002b0: d060 133b 9f02 393a 9c4d c53a 478f 4e3b
000002c0: bf46 0f3b f115 443a 102f c83a 12d8 553b
000002d0: 0cca a63a e0e5 f83a 2a32 ed3a 6afc e83a
000002e0: b88b a13a abb0 bf3a 66b1 e93a 1c65 593a
000002f0: bc38 7d3a 27d6 4f3a 9f50 223b bd18 673a
00000300: 4f61 d33a 0817 de3a 98f9 103b 76ad 613a
00000310: cf08 f43a ec46 e63a cac3 9e3a e017 b63a
00000320: 317f dc3a 091b 3d3a 3f9d 613a c1ef 263b
00000330: 7cbe df3a ce27 1a3a 3369 733a 5a88 1d3b
00000340: f04d d539 8757 ba3a 5098 813a 2419 793a
00000350: 5fad 6d3a ab1c 9e3a edd0 a83a f606 243a
00000360: 0427 fb39 3e71 023a 557f cf3a ca1a 603a
00000370: a9c9 5d3a 381e 9f3a 658f a43a 4135 343a
00000380: 12f7 93ba 0015 efba 80ff e8b9 b2f3 b7ba
00000390: b6d6 74ba e9e9 27ba 3e8d 7739 41c5 10bb
000003a0: ba4f ceba c0a1 a937 910d 01ba 0a24 50ba
000003b0: b04b 4d38 283c 02ba f497 efb9 5289 b839
000003c0: 8eef 8cb9 db57 adba 0088 6037 7ee5 59b9
000003d0: 7094 9a38 9ae4 80ba de85 9cba 6f78 43ba
000003e0: cabd 50b9 124d 2eb9 3b5d 0aba cb16 eab9
000003f0: ddef 6b3b 9c26 5e3b ca44 e63a bf28 253b
-0.0057456866 -0.0057681045 -0.0030477138 -0.004380736 -0.0054614325 -0.001960467 -0.0019512149 -0.007885505
-0.0062215 -0.0010124454 -0.0038572787 -0.0052278433 -0.0010917112 -0.0037325402 -0.0035308124 -0.001060897
-0.0038604704 -0.003166155 -0.0013532257 -0.0018769074 -0.0032464978 -0.0037465892 -0.0045909975 -0.0038870536
-0.0023400784 -0.0030620454 -0.0041039875 -0.0021208343 0.00027440704 3.4697878e-06 0.00038558192 0.0003751372
0.00035810223 0.00023731841 0.00039633916 9.0243295e-05 0.000285807 8.796931e-06 -1.7957427e-05 0.00096499186
1.1459488e-05 0.00029585426 9.8569595e-05 0.00054270256 0.00027033215 0.00048911123 0.000712556 9.2803384e-07
-0.00022333914 -0.00027910483 0.00033765164 4.699151e-05 4.5282562e-05 0.00064944813 0.00012839747 0.00017924665
0.002177455 0.002718403 0.0011688749 0.0016325705 0.0020005677 0.0007708374 0.00040253298 0.0033621038
0.002467702 0.0004203485 0.0013825193 0.0017812909 0.00034806784 0.0013155199 0.0014801675 0.00027835625
0.0013180943 0.0011180192 0.00038022222 0.0007882812 0.0011026263 0.0016389175 0.0018282969 0.0013464598
0.0007704572 0.0009711102 0.0017272467 0.0007724016 -0.0006732979 -0.00087409175 -0.00028596586 -0.0006737701
-0.0006029764 -0.0003014473 6.3111074e-06 -0.0011481687 -0.0009152084 -1.7392624e-05 -0.0003308399 -0.00080561393
0.00036537624 -0.00046206545 -0.00017128838 0.00025582756 -0.000707689 -0.0005615107 -0.00040430122 -9.2075905e-05
-0.0003102501 -0.00040876243 -0.00034130504 -0.00054568733 0.00014895492 -0.000476853 -0.0005124789 -0.00033668935
-0.004387416 -0.0044011436 -0.0021262679 -0.0037730306 -0.0038225064 -0.0015599593 -0.0014814893 -0.006301188
-0.004419462 -0.00081817596 -0.0025199072 -0.0041996734 -0.0006714789 -0.0031193355 -0.0019031842 -0.00061107706
-0.0023948872 -0.0028271712 -0.0014934707 -0.0011642366 -0.0016319049 -0.0019780318 -0.0033376673 -0.0026234263
-0.0016245444 -0.0022325725 -0.0029301783 -0.0017793237 -5.377458e-05 -0.000109296074 -0.00010651403 0.00014497063
-0.00022657082 -5.6875742e-05 -7.062634e-05 5.2473206e-05 -0.00021021008 0.00010485169 -0.00023087735 0.00017105628
-0.00017879791 0.00010457219 -0.0005441053 -8.666444e-05 -0.00036677517 0.00023770958 0.00024256983 -0.00016220825
-0.0005534722 -0.00061290746 -0.00016893269 -0.00028699884 -0.00012428798 -0.000104247774 -0.00018526388 3.095535e-05
0.0024156675 0.0021472569 0.0017386063 0.001775398 0.0022488125 0.00070575805 0.0015053037 0.0031518505
0.0021862236 0.0007480076 0.0015272815 0.0032630009 0.001272501 0.0018989407 0.0018096615 0.001777542
0.0012324965 0.0014624795 0.0017829358 0.00082929595 0.0009659638 0.00079283345 0.0024767292 0.0008815637
0.0016127023 0.001694412 0.0022121426 0.00086089165 0.0018618348 0.0017568744 0.0012112793 0.0013892613
0.0016822574 0.00072138064 0.00086065003 0.0025472494 0.0017070319 0.0005880565 0.000928539 0.002403757
0.00040684594 0.0014216759 0.0009887312 0.00095023424 0.0009066667 0.0012062987 0.0012879648 0.0006257141
0.0004790352 0.0004975981 0.0015830795 0.0008548914 0.00084605307 0.0012139743 0.0012554942 0.00068743905
-0.0011288843 -0.0018240511 -0.0004444085 -0.0014034419 -0.0009339856 -0.00064054 0.00023608372 -0.0022090229
-0.0015740313 2.022169e-05 -0.0004922981 -0.00079399406 4.89463e-05 -0.00049680704 -0.00045698846 0.00035197526
-0.00026881363 -0.0013225036 1.3383105e-05 -0.00020780225 7.370941e-05 -0.0009833754 -0.0011941751 -0.00074566057
-0.00019907128 -0.00016622644 -0.00052781746 -0.0004464894 0.0036001124 0.0033897525 0.0017568108 0.0025201289

exp_avg_sq f4 [45, 28]
00000000: 5f7f 8c3a 851e 3c3a e671 0b3a 5754 9f3a
00000010: 43c7 a73a c345 8e39 be8e 073a e2cc a43a
00000020: a789 7e3a 770c 7439 3253 2b3a daba be3a
00000030: 52f4 063a b7cd 4b3a 6229 1e3a ff12 673a
00000040: a17d 323a 6876 853a 9ff9 663a f251 3d3a
00000050: d297 143a 67c8 af39 a31c 4b3a f518 ca39
00000060: a65d 1c3a 7625 be39 f4e8 983a 0d82 0b39
00000070: e134 1238 e324 d437 0647 8c37 29e6 2038
00000080: 1cf3 2638 3a19 0637 5484 8537 1744 2538
00000090: e56f fa37 2449 e236 71f9 b037 da1d 3a38
000000a0: 0fc5 8437 2042 db37 a223 9437 d746 d837
000000b0: f6a8 ba37 384d 0838 05d7 de37 0549 be37
000000c0: d60e 8f37 77eb 2c37 e8ca d937 b958 6d37
000000d0: 0bfe 9f37 1039 4b37 2255 1838 483c 8536
000000e0: 1c47 3139 1e8d f638 658b ae38 31db 4d39
000000f0: ef44 5b39 b1e5 3738 a5cd a538 98cd 5639
00000100: b45e 2139 f54d 0938 894e ce38 0f90 7239
00000110: 20a9 9f38 62af fe38 bfa1 c738 1a41 0f39
00000120: df92 e038 d054 2a39 58ef 1239 886a e838
00000130: 88d9 b338 9f5d 6338 a0cd 0239 402d 8038
00000140: e7a5 be38 1b16 7838 a516 4039 d1da ad37
00000150: 7196 1538 9e22 af37 9b0f dc37 e00a 3b38
00000160: af36 3d38 c86f 5737 1c65 d237 fe44 2338
00000170: 612b 2338 b9ec 3837 256f f237 2201 6a38
00000180: d540 b937 1e67 f937 9035 db37 6c01 2538
00000190: 4d10 e337 42ba 2b38 a5a0 1538 41bd 0338
000001a0: ac8d e737 1049 8837 a6ed bf37 5cf9 4937
000001b0: a032 bf37 5f35 9037 41ac 3838 0c54 d936
000001c0: 03a9 f639 70e4 a539 3869 7439 cf80 0b3a
000001d0: 6822 123a 9b17 f338 7a52 6d39 4853 0f3a
000001e0: d225 e139 a0e4 e138 dfb0 9739 56b7 273a
000001f0: ffa3 6f39 f174 b539 dbaa 8839 db7d cd39
00000200: 2758 9b39 8a05 e939 0e01 ca39 939f a739
00000210: 61ec 8339 7b2c 1839 8d39 b139 91d9 3239
00000220: 6b4c 8c39 186b 2339 e18f 053a ec9e 7038
00000230: 509b b937 b9fe 7b37 5433 4d37 4f41 d537
00000240: 59c4 dc37 9ba9 ca36 e599 3a37 c4a7 df37
00000250: ac44 ab37 14bf b036 b4ad 6237 bd82 f937
00000260: 9875 3637 7336 8237 90e8 5c37 9b00 9e37
00000270: 8747 8237 254a b737 a59e 9b37 5239 8e37
00000280: eefc 6037 9ab0 0437 20bf 8a37 4955 0f37
00000290: 6064 4b37 0e36 0e37 13aa c837 69ec 5036
000002a0: ed58 8438 5093 2d38 731e 1538 552d 9938
000002b0: c561 9a38 a6f4 8737 0bb3 1438 b75a 9538
000002c0: 1291 7938 b85d 9037 71be 3c38 078f b538
000002d0: 88d6 1638 ae90 5038 3cbe 1638 b667 7138
000002e0: 55df 1d38 e97c 7d38 423f 5d38 cb2e 4f38
000002f0: 4d3b 2638 95d3 ab37 a03c 3b38 3d63 ac37
00000300: 58b1 2e38 92bf be37 c5df a038 5ed1 0937
00000310: 9b64 1738 c02f cc37 f1ff 9837 d677 2838
00000320: f6b2 2d38 0d47 1037 84e6 9337 2143 2c38
00000330: bc1d 0838 ebcd 1837 d988 c937 9800 4a38
00000340: 97d8 a037 809e eb37 bb5c a137 6a0e fe37
00000350: bd08 bc37 f654 0a38 e601 ef37 68f6 d537
00000360: f965 a937 2ecd 2c37 e687 db37 8ed0 5f37
00000370: 8caf bc37 8e97 4b37 a5e1 2638 8643 8636
00000380: 97d5 6f37 be13 3f37 f929 8c36 f93b 8b37
00000390: d61e aa37 3e2b 4736 ad22 3f36 2730 ad37
000003a0: 8514 4a37 1a73 f735 6e4d d836 7537 9b37
000003b0: f8c2 a436 7808 1237 ad8d cb36 fbc0 fd36
000003c0: 6ba8 0037 e3d1 5c37 b166 4237 f92e de36
000003d0: 3a87 9936 ff7f 7636 8384 4c37 5308 ca36
000003e0: 4104 db36 8f52 4936 c8a6 7837 c946 bc35
000003f0: 7698 8a39 aa39 3239 cca0 0b39 c54e 9d39
0.0010719112 0.00071761786 0.00053194014 0.0012155873 0.0012800473 0.00027136327 0.00051711116 0.0012573267
0.0009709843 0.00023274297 0.00065355294 0.0014551536 0.0005148101 0.00077744893 0.0006033388 0.00088147813
0.00068088813 0.0010182383 0.0008811 0.00072219886 0.0005668375 0.00033527912 0.00077481027 0.00038547037
0.00059648824 0.00036267535 0.0011666105 0.0001330452 3.485836e-05 2.5289546e-05 1.6722373e-05 3.8361326e-05
3.9803897e-05 7.992896e-06 1.5916456e-05 3.940248e-05 2.9854427e-05 6.7438395e-06 2.109699e-05 4.4373657e-05
1.5827389e-05 2.6137626e-05 1.7659568e-05 2.5782194e-05 2.2251606e-05 3.2496842e-05 2.6564589e-05 2.2683767e-05
1.7053837e-05 1.0306822e-05 2.5962901e-05 1.4146958e-05 1.9072575e-05 1.2113029e-05 3.631891e-05 3.9707265e-06
0.00016906526 0.00011756479 8.322931e-05 0.00019631979 0.00020911147 4.3844517e-05 7.9061174e-05 0.0002048522
0.00015389436 3.273595e-05 9.837474e-05 0.00023132584 7.613213e-05 0.000121443314 9.519187e-05 0.00013661795
0.00010708509 0.00016244058 0.00014012808 0.00011082465 8.5759035e-05 5.420821e-05 0.00012474367 6.111944e-05
9.090808e-05 5.9148395e-05 0.00018318983 2.0725101e-05 3.5664478e-05 2.0877746e-05 2.623331e-05 4.4594402e-05
4.511204e-05 1.2841025e-05 2.5081034e-05 3.8926482e-05 3.8902628e-05 1.1022371e-05 2.8900404e-05 5.5791003e-05
2.2083908e-05 2.973113e-05 2.6131776e-05 3.934039e-05 2.70681e-05 4.0943043e-05 3.567398e-05 3.140909e-05
2.7603317e-05 1.6246486e-05 2.2879638e-05 1.2038592e-05 2.2792548e-05 1.719099e-05 4.4029443e-05 6.4768883e-06
0.000470467 0.00031641452 0.0002330885 0.0005321623 0.0005574585 0.0001159154 0.00022632806 0.0005467427
0.00042943523 0.00010771421 0.00028932744 0.00063978636 0.0002285391 0.00034610138 0.0002606724 0.00039194417
0.00029629582 0.0004444535 0.00038529228 0.00031971614 0.00025162383 0.0001451242 0.0003380295 0.00017056453
0.00026759817 0.00015584787 0.0005094987 5.7368467e-05 2.2126042e-05 1.5020073e-05 1.2230903e-05 2.542199e-05
2.6317475e-05 6.039814e-06 1.1122295e-05 2.6661794e-05 2.0416766e-05 5.267453e-06 1.3511093e-05 2.9743993e-05
1.0875425e-05 1.5522563e-05 1.31671695e-05 1.883535e-05 1.5530515e-05 2.1849826e-05 1.8551314e-05 1.6954411e-05
1.341033e-05 7.908931e-06 1.6539881e-05 8.543321e-06 1.2123113e-05 8.476445e-06 2.3921055e-05 3.1132024e-06
6.310814e-05 4.138361e-05 3.5552726e-05 7.304052e-05 7.361503e-05 1.6207177e-05 3.5452696e-05 7.1217706e-05
5.9501333e-05 1.7209779e-05 4.5000055e-05 8.6573935e-05 3.5962585e-05 4.9725808e-05 3.5939956e-05 5.7555466e-05
3.763971e-05 6.0436232e-05 5.274942e-05 4.9396225e-05 3.9632712e-05 2.0483314e-05 4.4640736e-05 2.055021e-05
4.1649997e-05 2.2738972e-05 7.671075e-05 8.214583e-06 3.60949e-05 2.434093e-05 1.8238994e-05 4.0165927e-05
4.1413085e-05 8.599612e-06 1.7631108e-05 4.1070514e-05 3.245262e-05 9.10785e-06 2.4024792e-05 4.8161106e-05
1.9174344e-05 2.808799e-05 1.9235877e-05 3.0285872e-05 2.2415416e-05 3.298089e-05 2.8491904e-05 2.550632e-05
2.0193855e-05 1.0299771e-05 2.6170117e-05 1.3340394e-05 2.2493092e-05 1.21350295e-05 3.9787632e-05 4.001372e-06
1.429524e-05 1.1389084e-05 4.1772114e-06 1.6598018e-05 2.0279938e-05 2.967848e-06 2.8481402e-06 2.064563e-05
1.2044916e-05 1.8436433e-06 6.4463156e-06 1.8503264e-05 4.910278e-06 8.70425e-06 6.0663647e-06 7.5624534e-06
7.668607e-06 1.316189e-05 1.1587211e-05 6.621584e-06 4.5754978e-06 3.673136e-06 1.21902e-05 6.021038e-06
6.527204e-06 2.999939e-06 1.4820784e-05 1.4027693e-06 0.00026435003 0.00016996884 0.00013315975 0.0003000406

max_exp_avg_sq f4 [45, 28]
00000000: 8a2e 8d3a 37e7 3d3a e671 0b3a 1dcc a03a
00000010: 01ef a83a c345 8e39 5d95 083a 6d0f a63a
00000020: 5192 7f3a 770c 7439 2b59 2c3a b1f9 bf3a
00000030: 7b32 073a 1ead 4c3a 8d30 1e3a bbb2 673a
00000040: 3094 333a ee8f 863a 1599 673a 1300 3e3a
00000050: 80c0 143a 9c41 b039 ec66 4c3a 4eed cb39
00000060: 1523 1d3a 9d40 be39 60d9 993a 0d82 0b39
00000070: 8057 1238 5157 d437 a454 8c37 1e2f 2138
00000080: 6f16 2738 8e3b 0637 5484 8537 706e 2538
00000090: e3a4 fa37 ed79 e236 6627 b137 0542 3a38
000000a0: e7e2 8437 6e5f db37 4149 9437 8e4a d837
000000b0: bbfe ba37 ee6a 0838 d40b df37 0f5f be37
000000c0: 5827 8f37 490d 2d37 3302 da37 9cfe 6d37
000000d0: 240a a037 a469 4b37 ef72 1838 1260 8536
000000e0: b9fe 3139 677d f838 658b ae38 2498 4f39
000000f0: d7c3 5c39 b1e5 3738 5621 a738 7934 5839
00000100: 43ef 2139 e76f 0938 66a0 cf38 6538 7439
00000110: c514 a038 a224 0039 bfa1 c738 7af8 0f39
00000120: 2dd9 e138 adda 2b39 f864 1339 1774 e938
00000130: 4e87 b438 c096 6438 9964 0339 1938 8138
00000140: 15d3 bf38 f50a 7938 9b34 4139 c166 ae37
00000150: 7196 1538 9e22 af37 9b0f dc37 e00a 3b38
00000160: af36 3d38 c86f 5737 1c65 d237 fe44 2338
00000170: 612b 2338 b9ec 3837 256f f237 2201 6a38
00000180: d540 b937 1e67 f937 9035 db37 6c01 2538
00000190: 4d10 e337 42ba 2b38 a5a0 1538 41bd 0338
000001a0: ac8d e737 1049 8837 a6ed bf37 5cf9 4937
000001b0: a032 bf37 5f35 9037 41ac 3838 0c54 d936
000001c0: 03a9 f639 360c a639 3869 7439 f1d2 0b3a
000001d0: 6822 123a 9b17 f338 2e66 6d39 7470 0f3a
000001e0: d225 e139 a0e4 e138 dfb0 9739 56b7 273a
000001f0: ffa3 6f39 f174 b539 dbaa 8839 db7d cd39
00000200: 2758 9b39 8a05 e939 0e01 ca39 939f a739
00000210: 61ec 8339 7b2c 1839 7974 b139 623c 3339
00000220: 6b4c 8c39 186b 2339 e18f 053a ec9e 7038
00000230: c20e ba37 85b0 7c37 14df 4d37 6e02 d637
00000240: e22b dd37 d338 cb36 a609 3b37 b20f e037
00000250: 18ad ab37 0fbd b136 2178 6337 1b1a fa37
00000260: 33cb 3637 7190 8237 8b50 5d37 626f 9e37
00000270: 989b 8237 19d1 b737 8428 9c37 a219 8f37
00000280: f7db 6137 9c11 0537 cf09 8b37 06bc 0f37
00000290: 6fb0 4b37 818b 0e37 a239 c937 e230 5236
000002a0: ed58 8438 5093 2d38 731e 1538 552d 9938
000002b0: c561 9a38 a6f4 8737 0bb3 1438 b75a 9538
000002c0: 1291 7938 b85d 9037 71be 3c38 078f b538
000002d0: 88d6 1638 ae90 5038 3cbe 1638 b667 7138
000002e0: 55df 1d38 e97c 7d38 423f 5d38 cb2e 4f38
000002f0: 4d3b 2638 95d3 ab37 a03c 3b38 3d63 ac37
00000300: 58b1 2e38 92bf be37 c5df a038 5ed1 0937
00000310: 9b64 1738 c02f cc37 f1ff 9837 d677 2838
00000320: f6b2 2d38 0d47 1037 84e6 9337 2143 2c38
00000330: bc1d 0838 ebcd 1837 d988 c937 9800 4a38
00000340: 97d8 a037 809e eb37 bb5c a137 6a0e fe37
00000350: bd08 bc37 f654 0a38 e601 ef37 68f6 d537
00000360: f965 a937 2ecd 2c37 e687 db37 8ed0 5f37
00000370: 8caf bc37 8e97 4b37 a5e1 2638 8643 8636
00000380: 97d5 6f37 be13 3f37 f929 8c36 f93b 8b37
00000390: d61e aa37 3e2b 4736 ad22 3f36 2730 ad37
000003a0: 8514 4a37 1a73 f735 6e4d d836 7537 9b37
000003b0: f8c2 a436 7808 1237 ad8d cb36 fbc0 fd36
000003c0: 6ba8 0037 e3d1 5c37 b166 4237 f92e de36
000003d0: 3a87 9936 ff7f 7636 8384 4c37 5308 ca36
000003e0: 4104 db36 8f52 4936 c8a6 7837 c946 bc35
000003f0: 7698 8a39 a3b6 3239 cca0 0b39 f206 9e39
0.0010771316 0.00072442315 0.00053194014 0.0012267862 0.0012888612 0.00027136327 0.0005210245 0.0012669392
0.0009749281 0.00023274297 0.00065745664 0.0014646557 0.00051573635 0.0007807779 0.00060344563 0.00088385836
0.000685039 0.0010266283 0.00088347617 0.0007247936 0.00056744367 0.0003361822 0.0007797319 0.00038895983
0.00059943023 0.00036287765 0.0011737756 0.0001330452 3.4890603e-05 2.531303e-05 1.6728714e-05 3.8429273e-05
3.9836796e-05 8.000889e-06 1.5916456e-05 3.944192e-05 2.9879104e-05 6.749519e-06 2.111839e-05 4.440734e-05
1.5841286e-05 2.6151272e-05 1.7677086e-05 2.5783924e-05 2.2291546e-05 3.2524513e-05 2.658918e-05 2.269403e-05
1.706525e-05 1.0314697e-05 2.598865e-05 1.4185582e-05 1.9078208e-05 1.2124339e-05 3.6346664e-05 3.974893e-06
0.00016974927 0.000118489195 8.322931e-05 0.00019797735 0.00021053791 4.3844517e-05 7.96939e-05 0.00020618913
0.00015443288 3.2767563e-05 9.900406e-05 0.00023290662 7.633263e-05 0.00012220678 9.519187e-05 0.00013730107
0.00010769288 0.00016389294 0.00014056626 0.00011131929 8.608271e-05 5.4499833e-05 0.00012530609 6.161648e-05
9.146907e-05 5.937643e-05 0.00018425511 2.0790265e-05 3.5664478e-05 2.0877746e-05 2.623331e-05 4.4594402e-05
4.511204e-05 1.2841025e-05 2.5081034e-05 3.8926482e-05 3.8902628e-05 1.1022371e-05 2.8900404e-05 5.5791003e-05
2.2083908e-05 2.973113e-05 2.6131776e-05 3.934039e-05 2.70681e-05 4.0943043e-05 3.567398e-05 3.140909e-05
2.7603317e-05 1.6246486e-05 2.2879638e-05 1.2038592e-05 2.2792548e-05 1.719099e-05 4.4029443e-05 6.4768883e-06
0.000470467 0.00031671085 0.0002330885 0.0005333862 0.0005574585 0.0001159154 0.00022640146 0.0005471774
0.00042943523 0.00010771421 0.00028932744 0.00063978636 0.0002285391 0.00034610138 0.0002606724 0.00039194417
0.00029629582 0.0004444535 0.00038529228 0.00031971614 0.00025162383 0.0001451242 0.0003384685 0.00017093265
0.00026759817 0.00015584787 0.0005094987 5.7368467e-05 2.21798e-05 1.506147e-05 1.2270892e-05 2.551192e-05
2.6365688e-05 6.0564867e-06 1.1148315e-05 2.671019e-05 2.0465392e-05 5.2970204e-06 1.3558224e-05 2.9814479e-05
1.0895356e-05 1.5564468e-05 1.3191379e-05 1.8886934e-05 1.5569662e-05 2.1912669e-05 1.8615516e-05 1.7058865e-05
1.346226e-05 7.931518e-06 1.6574659e-05 8.567242e-06 1.2140822e-05 8.49634e-06 2.3987905e-05 3.1320892e-06
6.310814e-05 4.138361e-05 3.5552726e-05 7.304052e-05 7.361503e-05 1.6207177e-05 3.5452696e-05 7.1217706e-05
5.9501333e-05 1.7209779e-05 4.5000055e-05 8.6573935e-05 3.5962585e-05 4.9725808e-05 3.5939956e-05 5.7555466e-05
3.763971e-05 6.0436232e-05 5.274942e-05 4.9396225e-05 3.9632712e-05 2.0483314e-05 4.4640736e-05 2.055021e-05
4.1649997e-05 2.2738972e-05 7.671075e-05 8.214583e-06 3.60949e-05 2.434093e-05 1.8238994e-05 4.0165927e-05
4.1413085e-05 8.599612e-06 1.7631108e-05 4.1070514e-05 3.245262e-05 9.10785e-06 2.4024792e-05 4.8161106e-05
1.9174344e-05 2.808799e-05 1.9235877e-05 3.0285872e-05 2.2415416e-05 3.298089e-05 2.8491904e-05 2.550632e-05
2.0193855e-05 1.0299771e-05 2.6170117e-05 1.3340394e-05 2.2493092e-05 1.21350295e-05 3.9787632e-05 4.001372e-06
1.429524e-05 1.1389084e-05 4.1772114e-06 1.6598018e-05 2.0279938e-05 2.967848e-06 2.8481402e-06 2.064563e-05
1.2044916e-05 1.8436433e-06 6.4463156e-06 1.8503264e-05 4.910278e-06 8.70425e-06 6.0663647e-06 7.5624534e-06
7.668607e-06 1.316189e-05 1.1587211e-05 6.621584e-06 4.5754978e-06 3.673136e-06 1.21902e-05 6.021038e-06
6.527204e-06 2.999939e-06 1.4820784e-05 1.4027693e-06 0.00026435003 0.0001704344 0.00013315975 0.00030141283

exp_avg f4 [45]
00000000: cbd8 0abc b436 193a 983b 4e3b a028 fbb9
00000010: 75fb dbbb 9a43 ff37 d764 503b b438 273b
00000020: 81dc 58bb d8c1 a23b deeb cf39 1662 fbba
00000030: bf02 e6ba be5c 8bba bca0 d33b 456f 073b
00000040: 5146 e43b 6031 3f3b cdb1 9239 b845 2d3a
00000050: f967 1139 769d fcba 80a0 b43a d99e ebba
00000060: 86c0 6f3a 0cf6 b339 8ba7 833a d4f8 cf3a
00000070: ef17 183b 50dc bd3a 482f 5d39 7e81 35bb
00000080: 623a 203b c262 2c3b fed2 123a 50af 943a
00000090: fad5 68bb 409f 15b9 2889 bc3a a429 1fbb
000000a0: d603 31ba 7398 28ba 3cbb 763a d073 c9ba
000000b0: fafb c2b9
-0.008474539 0.0005844638 0.0031468626 -0.0004790472 -0.0067133256 3.0429848e-05 0.0031798386 0.0025515975
-0.0033090415 0.0049669556 0.0003965785 -0.0019179012 -0.0017548426 -0.0010632498 0.00645837 0.0020665687
0.00696639 0.0029173717 0.00027979762 0.0006609815 0.0001386701 -0.0019273001 0.0013780743 -0.0017976417
0.00091458147 0.0003432486 0.0010044439 0.0015867003 0.0023207625 0.0014485214 0.00021093816 -0.0027695592
0.0024448861 0.0026303981 0.00056008983 0.0011343751 -0.003552793 -0.00014269073 0.0014384137 -0.0024286294
-0.0006752586 -0.0006431408 0.00094120554 -0.0015369598 -0.000371903

exp_avg_sq f4 [45]
00000000: b018 133b db85 9838 fda1 bf39 117c ac38
00000010: 9e7a 803a 7cce 3f38 28c1 0b39 cf98 9a38
00000020: 4f89 1138 5668 133a 530b 8b38 30f5 aa38
00000030: 5354 8d38 ed3a 6e38 d376 4f3a 9443 5539
00000040: 4f62 b83a 3e04 4c39 d92b 1137 c104 2138
00000050: 325d 9e36 05de 3b39 cf48 b038 4d42 fd37
00000060: f31f a138 540f a336 6034 5f38 b1ae bc39
00000070: 7e4e 7a39 a1bf 6a38 a57e a939 94d5 3239
00000080: e025 b938 e965 eb39 b82d 7f37 71a3 9c38
00000090: 5ed3 7039 52ed b039 c4b5 f838 2cb1 273a
000000a0: d846 c537 f2e5 8437 b0fa 0339 851e 3a38
000000b0: 5fdd 9538
0.0022445135 7.272857e-05 0.0003655105 8.224708e-05 0.0009802168 4.5730252e-05 0.0001332803 7.371755e-05
3.4698573e-05 0.0005623152 6.630146e-05 8.1519014e-05 6.7391105e-05 5.67985e-05 0.00079141295 0.00020338438
0.0014067384 0.00019456536 8.652883e-06 3.838982e-05 4.7196163e-06 0.00017916418 8.405896e-05 3.0190824e-05
7.683029e-05 4.859563e-06 5.321612e-05 0.0003598831 0.00023871099 5.5968416e-05 0.0003232855 0.00017054967
8.828542e-05 0.00044898622 1.5209829e-05 7.469103e-05 0.00022966924 0.00033746153 0.00011859418 0.0006396945
2.351722e-05 1.5842703e-05 0.00012586522 4.437428e-05 7.146107e-05

max_exp_avg_sq f4 [45]
00000000: fc44 143b e8a7 9838 dd2c c139 117c ac38
00000010: 9e7a 803a 3f54 4038 28c1 0b39 cf98 9a38
00000020: 4f89 1138 98cf 133a b42d 8b38 30f5 aa38
00000030: 5354 8d38 bd3b 6e38 d376 4f3a 9443 5539
00000040: 3ad7 b93a 9b53 4c39 d781 1337 c105 2238
00000050: 8edb a836 76ff 3d39 cf48 b038 4d42 fd37
00000060: 4e43 a138 cb38 a336 588a 6238 b1ae bc39
00000070: bcf2 7c39 a1bf 6a38 a57e a939 94d5 3239
00000080: e025 b938 2386 eb39 21ae 8037 39e9 9e38
00000090: 5ed3 7039 ec10 b139 c4b5 f838 1ed9 273a
000000a0: d846 c537 f36d 8637 83b7 0439 851e 3a38
000000b0: 0602 9638
0.0022624126 7.2792e-05 0.00036845254 8.224708e-05 0.0009802168 4.5854827e-05 0.0001332803 7.371755e-05
3.4698573e-05 0.0005638539 6.6365494e-05 8.1519014e-05 6.7391105e-05 5.6799257e-05 0.00079141295 0.00020338438
0.0014178522 0.00019486102 8.7921135e-06 3.862917e-05 5.0323497e-06 0.00018119611 8.405896e-05 3.0190824e-05
7.689615e-05 4.86439e-06 5.401144e-05 0.0003598831 0.00024123018 5.5968416e-05 0.0003232855 0.00017054967
8.828542e-05 0.00044922633 1.5339874e-05 7.577468e-05 0.00022966924 0.0003377268 0.00011859418 0.00064028974
2.351722e-05 1.6025244e-05 0.00012656864 4.437428e-05 7.152934e-05

exp_avg f4 [3, 45]
00000000: 7ca3 a83a e4ea f7b9 ccb2 4a39 50a3 963a
00000010: 1e0a 893a cb9c ac3a 2e9d 8a3a eb5c 003a
00000020: 7a25 34bb b075 11b9 5c29 fc3a 5086 4e39
00000030: eaf2 6cb9 c5f2 a7ba f4f8 0e3a 00b7 28ba
00000040: 251d 62ba 26a3 9eba 1005 a7ba cacc 3eb9
00000050: 80ff 09b8 4861 843a 3bd9 89ba 20b3 dab9
00000060: 8676 69ba 00cc f036 17f6 dbb9 59f4 deba
00000070: 74ea 47ba a408 f539 0004 26ba 1af3 043a
00000080: 7870 7c3a 7859 acba e94e 63ba 40ad 4bba
00000090: 28f6 54ba bccd f8ba 5e9d 29ba 0b7a 813a
000000a0: 979d d1ba fc49 1c3a b8c6 78b9 6c29 313a
000000b0: 7196 23ba e1e3 c33b 9fa4 7dba a849 d63a
000000c0: 7c21 08bb b37c ea3b 457e 953b 1a89 d53a
000000d0: e017 5e3b a891 35bb af0a 7f3a 1971 f73b
000000e0: 38b0 7e3b 0e32 e4b9 4971 4c3a 4f51 123b
000000f0: e31f be3b acd1 173b d9e6 fb3a 6e75 d5bb
00000100: cc39 c1b9 2de3 cabb 5466 9f3a 728f 123a
00000110: 412a 9dbb d82e 2338 95fd cabb fae9 b93a
00000120: 024a 763b ef7f f3b9 6438 91b9 de6a 133b
00000130: 7a86 393a 862d 863b a53d 403b 49d1 8cba
00000140: 4b9d 30bb 7232 5c3b 5a8a 3e3b 4fde 113b
00000150: 6c39 063b f1fd 20ba e532 b9bb 981d a43a
00000160: 86b8 1fba 0e5a ea38 bc29 d6bb f0e7 123b
00000170: 200c 61bb 1126 9c3b a23c 27bc bbcf bebb
00000180: e895 7a3a 1ea8 5fbb d077 e7b9 9249 48bb
00000190: b0d0 f9bb 6ee1 bbbb 20d3 b839 b34a 5ebb
000001a0: 5a95 22bb 07f9 17bc a11b 08bc ae26 7ebb
000001b0: 18d7 473c fc64 8739 929e 213c f478 6fba
000001c0: d563 41bb 4075 a83b eba0 d3ba 0406 e53b
000001d0: 7e94 4fbb 75f8 febb dbb4 34bb a2d8 0d3b
000001e0: 7832 abbb 8051 77ba 6a45 87bb c2f1 05bc
000001f0: f6c2 603b c0e3 513b 7450 b7bb a4f3 f9bb
00000200: aa5f 6bbb c07a 10b9 604a dcb8 ed95 063c
00000210: ec27 8cbb f4c9 773a 5cbc 1bbb
0.0012866105 -0.00047286518 0.00019330828 0.0011492763 0.0010455286 0.0013169287 0.0010575408 0.00048966584
-0.0027488158 -0.0001387212 0.00192384 0.00019695726 -0.00022597206 -0.001281344 0.0005453967 -0.00064359605
-0.00086255587 -0.0012103065 -0.0012742598 -0.00018196102 -3.29013e-05 0.0010099793 -0.001051701 -0.0004171366
-0.0008905906 7.176306e-06 -0.00041954286 -0.0017010077 -0.0007626184 0.0004673648 -0.00063329935 0.00050716253
0.0009629796 -0.0013149222 -0.00086711213 -0.0007769652 -0.00081238383 -0.0018982212 -0.0006470288 0.0009878291
-0.00159924 0.0005961952 -0.00023725152 0.00067581865 -0.0006240374 0.005978093 -0.00096757145 0.0016348856
-0.0020771911 0.0071559786 0.0045621716 0.001629147 0.0033888742 -0.0027705226 0.000972907 0.007551324
0.0038862359 -0.00043524842 0.0007798863 0.0022326296 0.005802141 0.0023165746 0.0019218578 -0.006514243
-0.0003685489 -0.0061916322 0.0012161233 0.0005590833 -0.004796297 3.8905855e-05 -0.00619478 0.001418411
0.0037580733 -0.0004644389 -0.0002769857 0.0022494118 0.00070772285 0.0040947823 0.0029333618 -0.0010743524
-0.0026949223 0.0033599404 0.0029074163 0.002225775 0.0020481003 -0.0006141356 -0.005651819 0.0012521027
-0.0006092865 0.000111747635 -0.006535737 0.0022416078 -0.0034339502 0.00476528 -0.010207327 -0.0058231032
0.0009559081 -0.0034127305 -0.0004414902 -0.003056143 -0.0076237544 -0.0057336604 0.00035252515 -0.0033919036
-0.0024808259 -0.009275681 -0.0083073685 -0.003878038 0.012197278 0.00025824446 0.009864466 -0.000913515
-0.0029508967 0.0051409304 -0.001614598 0.0069892425 -0.0031674202 -0.007781083 -0.0027573619 0.0021644016
-0.005224522 -0.00094344467 -0.004128148 -0.008175315 0.0034295893 0.0032026619 -0.0055943076 -0.007627921
-0.0035915175 -0.00013778638 -0.00010504271 0.008214456 -0.00427722 0.00094523956 -0.0023763394

exp_avg_sq f4 [3, 45]
00000000: 38b2 c63a c7e8 0838 7dd9 fa38 ffa2 a339
00000010: 1492 ff3a 6e73 a03a 626b 6239 6c3e e839
00000020: be53 ea39 b16e 8c38 53bb 683b e64b 863a
00000030: 5075 dc38 eb7f b738 9d50 8639 8b34 943a
00000040: afeb b139 4efa 5539 b041 cf3a cfaa 7038
00000050: 1418 d53a f008 9c39 193b 8438 6c34 433a
00000060: b0f3 dc37 e0fd b63a 699b 2a39 f3d5 e039
00000070: 2ca8 4e38 bd41 0338 2f36 2c39 832e ef39
00000080: 55eb a33a 2b01 a939 c8d4 8939 8762 e739
00000090: 9c02 1d3a aa87 da39 35f9 9d39 8441 c839
000000a0: 7150 0c39 633a 923a 7704 8539 3ff2 b438
000000b0: b72c 5537 ad4d 003a 62ae 3237 5cb7 2c38
000000c0: ce33 ac38 cb9d 253a c757 cd39 4dae b238
000000d0: 6f42 2639 6c7a 2139 90b0 d037 fc5c 9f3a
000000e0: 49e5 a939 3f5a 0338 05a4 d437 8197 b238
000000f0: e114 c739 301f d738 fde5 8438 7b5a 083a
00000100: 52fb 9c37 39ed 0b3a 2cef c538 c514 ae37
00000110: f8f1 8039 c7f3 c036 811f ed39 f065 5b38
00000120: 3de9 0739 97bb ac37 ec6d 4137 d539 4738
00000130: 7aaa 1939 fc00 d939 a9dd c338 c653 9838
00000140: 5178 1c39 52e1 4539 c506 0639 14ca da38
00000150: dd51 0d39 6911 f437 c049 c039 803a a738
00000160: afab d637 007b af36 79c3 393b 6c0a 8c38
00000170: edd2 6539 f9fe 113a 6b79 663b 9247 173b
00000180: b2dd dc39 9c4c 613a cb95 5d3a d208 0139
00000190: a48b dd3b 084c f83a f379 4939 d93e 1639
000001a0: 79c4 f439 2d2f 0a3b ebd8 103a c719 b339
000001b0: fd55 443b f430 0939 5d2a 453b cb9b 0d3a
000001c0: 0fed d638 c8b6 b23a 6079 1a38 aca3 263b
000001d0: 4fdf a139 183c 423a 7cda a438 1154 8038
000001e0: 22df 9039 0545 5d3a 0efe 1c3b ac2e 0a3a
000001f0: 379c dc39 e193 513a 5fb6 923a 0391 3a3a
00000200: 5390 193a 01b6 403a 8dc7 3d39 ea19 073b
00000210: cc71 e539 e5c4 2b39 1719 cd37
0.0015159314 3.2641718e-05 0.00011961439 0.00031211224 0.0019498491 0.0012241432 0.00021593043 0.00044296996
0.0004469435 6.696338e-05 0.0035512045 0.0010246008 0.00010512269 8.7499466e-05 0.00025618533 0.0011307163
0.0003393567 0.00020406509 0.0015812423 5.7379537e-05 0.0016257786 0.00029761298 6.305258e-05 0.0007446471
2.633952e-05 0.0013961159 0.00016270358 0.00042884014 4.927085e-05 3.1294057e-05 0.00016423383 0.00045620286
0.0012506047 0.00032235062 0.0002628921 0.00044133162 0.00059894635 0.00041681278 0.00030131047 0.00038195786
0.00013381407 0.0011156317 0.00025371063 8.628191e-05 1.27062e-05 0.0004894387 1.0650228e-05 4.1178762e-05
8.2112485e-05 0.00063177635 0.00039166046 8.5201675e-05 0.00015855742 0.00015399762 2.487775e-05 0.0012158449
0.00032405023 3.1316882e-05 2.5348747e-05 8.515921e-05 0.00037971794 0.00010257808 6.337089e-05 0.0005201471
1.871368e-05 0.0005337778 9.438241e-05 2.0752088e-05 0.00024594343 5.7504253e-06 0.00045227635 5.2308606e-05
0.00012961491 2.0591351e-05 1.152929e-05 4.7499158e-05 0.00014654725 0.000413902 9.339612e-05 7.263529e-05
0.0001492214 0.00018871322 0.00012781758 0.0001043269 0.00013477304 2.9095174e-05 0.00036676042 7.974077e-05
2.5590734e-05 5.2297255e-06 0.002834527 6.6776614e-05 0.00021917718 0.0005569305 0.0035167586 0.002308343
0.00042126846 0.00085944845 0.0008452802 0.00012305685 0.006761031 0.0018943558 0.00019214283 0.00014328527
0.0004668569 0.0021085248 0.00055254874 0.00034160746 0.002995848 0.00013083575 0.0030085065 0.0005401938
0.00010248471 0.0013634795 3.68295e-05 0.0025427146 0.0003087469 0.00074094674 7.860825e-05 6.119174e-05
0.00027632067 0.00084407657 0.002395514 0.0005271237 0.0004207806 0.0007994753 0.0011193267 0.00071169453
0.0005857993 0.00073513394 0.00018098783 0.0020614811 0.0004376307 0.0001638118 2.4449588e-05
